saved_models/LSTM/ckpt__epoch100.ckpt (torch, 17513 bytes, 20 tensors)

weight_ih_l0 f4 [64, 8]
00000000: 7441 75bc ccec 0fbe fcf3 753e 0762 18bc
00000010: 2908 93bc 7aea 76bd 6943 14be 52b3 04be
00000020: 6c65 763d 47b4 91be da28 56be 6e79 a9bb
00000030: b2c7 e2bd 3786 b1bd 3394 c93d 408f 7b3c
00000040: 96d6 993b b83a afbd bcc3 583e 9d1b e3be
00000050: c6cc a23d f384 8fbd f6be 05bd 4898 a4bd
00000060: 6c2c b13b 1991 7abd 40b1 7f3e ef12 6dbd
00000070: f27f 613d f98c 2a3e 0e81 39be abe4 813d
00000080: 1584 a03c e37a 9cbe dfef 1ebe 1b85 7fbd
00000090: 5a16 2f3d c633 463c f7d9 8d3e 8547 f2bd
000000a0: bc17 53be 26c2 a9bd 9c3f ed3e b4f0 343d
000000b0: 2a46 0fbd 7ac0 ac3d c84f 6c3c 5aff 15bc
000000c0: e448 953c 8563 c9be 803d fabd fb48 f23d
000000d0: fb41 7abd d17c 103e d187 42be a55a 853d
000000e0: c910 983d c002 313d a8bf 70be cabb e2bd
000000f0: 83ad 1cbe ecf3 58be 9ea3 3c3e 8c0f e7bc
00000100: a0a2 963d ee00 4cbe 1d32 35be c4b3 5bbd
00000110: cea8 263c cebd b13e 524b 4f3e 8e73 42bd
00000120: b039 a03d 3c8f 923d 0681 df3e 346b 983c
00000130: 0907 d93a 82d1 483e df07 9b3e ce59 39bd
00000140: 8522 28bd fb96 883e ef49 0d3e ada3 64be
00000150: 77ea 113d 8a82 093d bb56 10be 3d90 543d
00000160: 86e7 90ba 9384 03be 30ee 37be f468 35be
00000170: de25 23be 7af8 05be 717c 8a3e 737a 7ebe
00000180: 2b0c 143d 9dae a5be 08a9 e23d 177b 823d
00000190: 674b 02bd 86b2 8ebd 2e17 68bd f024 0c3b
000001a0: 194d aabd cba6 403e 9f1c a6bc cfc8 0fbe
000001b0: e0df 883d fa16 a6be c98a a9bd 90fc 74be
000001c0: 3cfb 7c3d a34c 2c3e 38d6 bebe 291e a03d
000001d0: 7bc4 133e d5a4 2dbe 4df2 37be 6a99 babd
000001e0: 8063 8dbd 4b0a 29bc bd5e 2bba e6dc 903e
000001f0: 67f5 053e af12 383d ca2b a1be 1fa0 013e
00000200: f783 c53d ec36 2e3d 71f6 153e 207e 9ebd
00000210: bfec 9c3d 5e05 ca3d ad7b 423e d7e9 e93c
00000220: f8bd e5bd 04f9 893e 3935 f63d 8017 ec3d
00000230: 3792 4d3d e8cd 11be 6c83 58bd cadb 57bd
00000240: 9478 043e 0a30 153e f57b d2be 0b2a e13c
00000250: 3c2e 8a3e c040 f4bd 544f 6bbd 5b2a 32bd
00000260: ca49 edbd bd29 063e f271 f33d 1266 77bd
00000270: 4ee1 543e da88 363e 3749 fb3d 621f c0bd
00000280: 8b2d 08be 5789 fc3d a3e1 903e 200a 6abd
00000290: 2df3 97bc 1b7a 803e 10ee 8b3e b125 b63b
000002a0: 0e1b 3b3c 93d6 123e fc7a 6b3e 83cf 2d3d
000002b0: c9ce 10bd 10cf ca3d 3212 f7bd d078 a13c
000002c0: e2e0 293d 6e90 cabd 8d9b 68be 6827 353e
000002d0: bf67 913d b32d 3cbe faa6 093e fedb 3e3d
000002e0: 4c94 013d 1f63 643e 00d3 483e 8f1d cabc
000002f0: e914 5a39 98db eebd 53b0 553e f6e2 273d
00000300: 5e14 4bbd 855c 99be 9252 7e3d 5827 ee3d
00000310: 6458 6b3c 34f0 59bc b786 cdbc 7467 943c
00000320: 2ae2 5e3d 1c40 25be fd85 9b3d 7678 87bd
00000330: 8247 21bd 9d66 9cbd fe3e 0c3e 583f 79be
00000340: f942 2cbe 4487 36be bb3e 70be fb3c 2a3e
00000350: 4869 d3bc 77e8 b23d de58 d33d 1e78 2d3e
00000360: e868 20be f834 643c 32d9 823e 0860 c5bd
00000370: 23c8 883d b594 2fbe 686e 50bd 9387 ebbc
00000380: 1eb9 6ebc e78b 833d a9a8 a4bd 9622 b83a
00000390: 3e27 3abb 82ff 6dbc f226 2e3c 1698 e73b
000003a0: 32e1 64be 3f78 b2bd f537 36be 0532 10be
000003b0: 2195 69be f530 653e 387c 52be e3c4 b03d
000003c0: 1180 933d 6d21 9d3d 9e68 ecbc a0ac 48bd
000003d0: 2d2f d9bc 0da6 19be 46cd 963d 48cf a0bc
000003e0: 28e4 603e c40d 943d ae5e 9bbe 22a0 973b
000003f0: 11b9 50bd b1c7 4dbd 57b2 76bd 48a8 38be
-0.0149692185 -0.14055175 0.24018854 -0.009300715 -0.017948227 -0.060282208 -0.1447884 -0.1295903
0.060155317 -0.28457853 -0.20914021 -0.0051719462 -0.11073245 -0.086681776 0.0984272 0.015353978
0.00469477 -0.085561216 0.21168417 -0.44357005 0.07949214 -0.0700778 -0.032652818 -0.08036858
0.005406907 -0.061173532 0.2496996 -0.057879385 0.05505366 0.1665534 -0.18115637 0.06342443
0.019594232 -0.30562505 -0.15521191 -0.0623828 0.042745925 0.012097305 0.27705356 -0.118300475
-0.20614523 -0.08288984 0.46337593 0.044174865 -0.034979023 0.084351495 0.014423318 -0.009155119
0.018223234 -0.3933374 -0.122187614 0.11830326 -0.06109808 0.14110114 -0.18997122 0.0651143
0.074250765 0.043215513 -0.23510611 -0.11070974 -0.15300564 -0.21186799 0.1842179 -0.028205656
0.07355237 -0.1992223 -0.17694898 -0.053638235 0.010172082 0.34715122 0.20243576 -0.047473483
0.07823503 0.07156226 0.43653125 0.018605806 0.0016557883 0.19611171 0.30279443 -0.04525166
-0.041048545 0.2667769 0.13797735 -0.22328062 0.035623994 0.033571757 -0.14095585 0.05189537
-0.0011055327 -0.12843542 -0.17961955 -0.17715818 -0.15932414 -0.13083068 0.27048066 -0.24851398
0.036144417 -0.32359782 0.110673964 0.06371134 -0.03181019 -0.069676444 -0.05666273 0.002138432
-0.083154865 0.18813626 -0.02027732 -0.14041446 0.06683326 -0.32439405 -0.08278424 -0.2392447
0.061763033 0.1682611 -0.3727281 0.078182526 0.1443042 -0.1695741 -0.17963524 -0.09111293
-0.06903744 -0.010317395 -0.00065372494 0.28293532 0.13081895 0.044939693 -0.3147872 0.12658738
0.09644311 0.042532846 0.14644791 -0.077389 0.07662343 0.09864305 0.18992491 0.028553886
-0.11217874 0.26947796 0.1202187 0.1152792 0.05018827 -0.14238703 -0.05285971 -0.05269984
0.12936622 0.14569107 -0.41110197 0.027485868 0.269884 -0.119264126 -0.0574487 -0.043497425
-0.1158634 0.1310186 0.11886968 -0.060400076 0.20789072 0.17825642 0.12269824 -0.09380986
-0.13298623 0.12330883 0.28297147 -0.057138562 -0.018548572 0.2509316 0.27330065 0.0055586924
0.011420025 0.14339666 0.22996134 0.042434227 -0.035353456 0.09902775 -0.12064017 0.019710928
0.04147423 -0.09890829 -0.22715588 0.17690814 0.07099866 -0.18376808 0.13442603 0.04659652
0.031635568 0.22303437 0.1961174 -0.024672298 0.0002079789 -0.11662978 0.20868044 0.04098793
-0.04957997 -0.299534 0.062090464 0.11628598 0.014364336 -0.013301898 -0.025088651 0.018115737
0.054414906 -0.16137737 0.075939156 -0.06614773 -0.039374836 -0.076367594 0.13695905 -0.2434057
-0.16822423 -0.17825037 -0.2346143 0.16624825 -0.025807038 0.087357454 0.103196844 0.16940352
-0.15665019 0.013928644 0.25556332 -0.09637457 0.06678798 -0.17146571 -0.05088654 -0.02875117
-0.014570503 0.06423169 -0.08039982 0.0014048393 -0.0028404738 -0.01452625 0.0106294025 0.0070676906
-0.2235153 -0.08714341 -0.17794783 -0.14081581 -0.22810794 0.22381957 -0.20555198 0.08631303
0.07202161 0.07672391 -0.02885848 -0.048992753 -0.026511753 -0.1500475 0.073633716 -0.01963009
0.21962035 0.07229188 -0.30345672 0.0046272436 -0.050957743 -0.05023927 -0.060228672 -0.18032944

weight_hh_l0 f4 [64, 4]
00000000: f6f5 773d 8dea bd3e 7bf1 2f3e 5819 2bbe
00000010: 6922 d4bd bab4 093e 7c73 cfbd a102 4fbe
00000020: 60d5 92be fd52 383e bb08 9bbe b002 2abe
00000030: 97b3 26be b6c6 c3bd c133 65be 5442 66bd
00000040: e5c4 963d 584b c0bd 74f2 79bd 5581 a43d
00000050: b5aa 30be ba66 42be 7714 873e e744 dcbe
00000060: 728c 07be 92c2 c63d 9b38 0cbe 4e94 7c3e
00000070: 6960 eebd b048 a23d ac56 0cbe 28ec 393e
00000080: 408d b1bd e293 423e 227d 12bd d3e6 dd3d
00000090: 45e4 2dbe 468b 553e 5466 913c 4ebb c2bd
000000a0: d73f eebe 4a95 52be 71d6 a73e d9f2 c0bd
000000b0: bac7 71ba 1c56 12be 4447 8bbd ee18 ed3c
000000c0: d18a eb3d 78af d23e c748 983d f659 6d3c
000000d0: bc53 943d 7cc1 273e a746 68be baa5 abbc
000000e0: ff6f 433e a752 8b3e 0392 cfbe c1e2 b53e
000000f0: 6f3f dc3e 453a 143e 5e15 5fbe 68f0 70bd
00000100: 6d57 07be 7ae4 08bd ff97 e9bd 822d ecbd
00000110: 808c 623d 0936 3dbe e412 203e f60a 99bd
00000120: b0e0 253e 7d1a 0dbb 2240 9ebd d973 eb3d
00000130: 3c5b 56be 7ac5 82be 5d3a 973d cf4a a6be
00000140: 0c0b 4b3d 176c 213e dc9a 3bbe 8788 843e
00000150: 5727 163e 9bfd 923e f65e 03bf 545b 853e
00000160: b361 383e 66fa b43e 970e 68be 5788 413e
00000170: 2d67 0d3e c3b6 67bd 31d7 54be 7879 a3be
00000180: 502c 83bd 30da 083d 2ae7 c53d 1b84 8f3e
00000190: 4aa8 053e ebde 0a3e 0545 c83d 7324 0d3e
000001a0: c917 53bd be46 443e b66b 59be 71f1 713e
000001b0: e92a 6f3d 0d01 0cbe d312 433e 302c b2be
000001c0: 3fa4 693e a03a 943e 6127 f6be 76fe 83be
000001d0: b552 f23d e4c9 603c 7e44 16be 1cdc 85bd
000001e0: aa35 c5be ca4d fc3d 2bd7 6d3e c441 d2be
000001f0: 330e d23e b1e3 b53d 77e6 8abd c834 853d
00000200: 478f 703e 7e31 ec3e ba0b b9be 913b 9f3e
00000210: 1afb 8fbd 9d34 6abe fc2d 0a3e 6c8a fdbd
00000220: ca58 303d 44ed abb9 c518 793c 3f81 93be
00000230: a26d c2be 1d35 0cbe dcb2 39bd 3e3d a5be
00000240: 8b61 e9bc 16e1 083e 7df9 b6be 1d24 b13d
00000250: f271 963d 5d18 1ebe ec3c 923e f10d 713e
00000260: f1dd 923e 7a7c 283e f56f ecbe 3152 813e
00000270: 11c8 363e 00ee 843e bf4d 6bbd a8c2 aa3d
00000280: 5f23 8e3e 52e2 aa3e 2ff4 86be 7db0 1d3f
00000290: c722 e1be 358f 42be f809 ed3e 12d8 7cbe
000002a0: 3ad3 ab3e 728b 893e be35 cebe 458b 0a3f
000002b0: f826 693e 6bb6 253e 98de 80be 6f74 b6bc
000002c0: 00c9 b7be 1ca8 ebbe 8676 b13e 7a80 34bf
000002d0: b240 633e 4f52 45bd 9d4a 54be e628 143d
000002e0: 33e7 2abd e9c7 603d e6a7 f7bd 74bc db3d
000002f0: f427 1bbb febd 273e ea0a adbe c254 3b3e
00000300: b961 e2bd 12b5 d73d d327 213e 671f bfbe
00000310: 3f4e 0ebf 5ea6 fbbe 57db 673e 1c44 bdbd
00000320: 2364 2a3e 92e1 3a3e 2caf 41be 0414 753e
00000330: ac6a 22be f620 763d acdb eebe d90b 39be
00000340: a729 da3d 0d26 d23e 9736 cdbe 7f5d b53e
00000350: b16f fc3e 24fb 493f 6d43 b8be 7dc7 9f3e
00000360: cff8 fe3d 924f 963e 5631 e2be 9127 603e
00000370: 3ea5 a53e 6618 de3d 9fb0 0cbe c9c4 66bd
00000380: 3ef6 0fbf efc1 0abf 56be 0d3e efba a3be
00000390: a246 8cbd 7537 da3d c413 9c3d d531 3dbe
000003a0: eb01 943e 20d2 a13e 1eaa 80be d122 a13e
000003b0: 0051 743e 99d7 f5bb 8673 34be cbc9 763c
000003c0: cf15 c63e de16 b53e e3d1 47be 6c6d 87be
000003d0: 082b 8dbd c5f2 b7be fe15 22be 7bb3 bbbe
000003e0: 77fc 1dbe 33fc ccbd fc7b 9c3e f89d eebd
000003f0: e1fb d23e a6a3 bebd b23e 16bd 22ed 603d
0.0605373 0.3709301 0.17181961 -0.16708887 -0.10358126 0.13447848 -0.10129449 -0.20215847
-0.28678417 0.18000408 -0.30280098 -0.16602588 -0.16279446 -0.095593855 -0.22383024 -0.0562156
0.073617734 -0.09389371 -0.061022237 0.080324806 -0.1725262 -0.189845 0.263828 -0.43021318
-0.1323717 0.0970508 -0.13693468 0.24665949 -0.116394825 0.0792402 -0.13704938 0.18156493
-0.086695194 0.19001725 -0.035763867 0.10835042 -0.16981609 0.2085391 0.01774899 -0.09508382
-0.4653308 -0.20564762 0.32780793 -0.094213195 -0.0009223182 -0.1429066 -0.06800702 0.028942551
0.115010865 0.41149497 0.07435756 0.01448678 0.072425336 0.16382402 -0.22683202 -0.020953048
0.19085692 0.27211496 -0.40541086 0.35524562 0.43017146 0.14475353 -0.21785495 -0.05882302
-0.13216944 -0.033421017 -0.11405944 -0.115321174 0.055309772 -0.18477644 0.15632206 -0.07472794
0.16198993 -0.002153068 -0.07727076 0.114967056 -0.2093324 -0.25541288 0.07384179 -0.3247895
0.049571082 0.15763889 -0.18320793 0.25885412 0.14663444 0.2870911 -0.51316774 0.2604624
0.1800602 0.3534729 -0.22661816 0.18899666 0.1380889 -0.05657078 -0.20785214 -0.3192861
-0.06404936 0.033411205 0.09663232 0.28030476 0.13052478 0.13561599 0.097787894 0.13783436
-0.051536355 0.19167611 -0.21232495 0.23627259 0.05839053 -0.13672276 0.1905015 -0.34799337
0.22816561 0.28950977 -0.4807692 -0.25780076 0.11832181 0.0137200095 -0.14674565 -0.06536123
-0.38517505 0.123195246 0.23226611 -0.410658 0.41026458 0.08881319 -0.06782239 0.06504208
0.23492156 0.4613151 -0.3614176 0.31100133 -0.07030316 -0.22871633 0.13494104 -0.123799175
0.043053426 -0.00032792438 0.015203659 -0.28809544 -0.37974268 -0.13692136 -0.04533659 -0.32273287
-0.028488895 0.13367113 -0.3573722 0.08649466 0.07345952 -0.15438981 0.28562105 0.23540474
0.28684953 0.16453734 -0.46179166 0.2525802 0.17849757 0.2596283 -0.05744719 0.08337909
0.2776136 0.33375794 -0.26358172 0.61597425 -0.43971846 -0.18999942 0.46296668 -0.246918
0.3355959 0.268642 -0.40275377 0.5411876 0.22768772 0.16182868 -0.25169826 -0.022272317
-0.35895538 -0.46026695 0.3466074 -0.7050854 0.22192648 -0.0481742 -0.20731588 0.036171816
-0.041724395 0.05487815 -0.12092571 0.10729304 -0.0023674937 0.1638107 -0.3379739 0.18294051
-0.11053795 0.10532583 0.15737848 -0.37328646 -0.55588144 -0.49150366 0.22642265 -0.092415065
0.16639762 0.18250111 -0.18914479 0.23933417 -0.15861005 0.060090028 -0.4665197 -0.18070926
0.10652476 0.41044655 -0.4008071 0.35422894 0.49303964 0.78898835 -0.35988942 0.31206885
0.124498 0.29357582 -0.44178265 0.21890093 0.32352632 0.108444974 -0.1373925 -0.056340013
-0.5623511 -0.5420217 0.13842139 -0.31978557 -0.0684941 0.10655109 0.076209575 -0.1847604
0.28907713 0.31605625 -0.2512979 0.31471875 0.23859024 -0.007502508 -0.17622194 0.01506276
0.38688514 0.3536901 -0.19513659 -0.2645067 -0.06892973 -0.35927406 -0.15828702 -0.3666037
-0.15428339 -0.10009041 0.30563343 -0.11651224 0.41207793 -0.09308557 -0.036680885 0.054913647

bias_ih_l0 f4 [64]
00000000: c803 6f3e 28f3 783e b7aa 813e b001 3dbe
00000010: 116b 02be b7ea 42be a413 0abe ed09 04be
00000020: 6b87 12bd 6564 4a3d fcf2 b7be c7b1 4c3b
00000030: 3793 74bc e780 083e a4b7 cf3c 29b0 053e
00000040: f441 783e b48f c23e 6e72 e63d 9eb1 013e
00000050: ce6e 45bd 7d23 de3d 3a7b 433e 30c3 5a3e
00000060: 47d6 b23e fa09 933e 79e2 e43c 442b 463e
00000070: 7dc0 d63e eed9 f1bc a54a 6d3e 1e81 b33d
00000080: 81e1 573e 8c81 cf3d 5169 7abd bd49 9dbe
00000090: 1929 113e d0c3 8a3c e773 223c f4ab f53d
000000a0: ce1c 89bc 0e50 6d3c 3c3b e23e 9c79 51be
000000b0: 3fdc a4be bad9 803e 59a1 033e a863 ae3e
000000c0: e4ab e33d 32c0 333e 3066 79bd bdca e13d
000000d0: 5b06 f03d 091d c63e 8f31 d93c 95e4 a3bd
000000e0: 42c8 53bd c38d 713e ab36 ad3e 672d 5a3e
000000f0: 43c9 033f af0e 933b 1559 a2be 321b 383e
0.23341286 0.24311507 0.25325558 -0.18457675 -0.12736155 -0.19034849 -0.13484055 -0.12894411
-0.035773676 0.04941215 -0.3592757 0.0031233893 -0.014927677 0.13330422 0.025356121 0.13055481
0.24243909 0.38000262 0.112522945 0.12665412 -0.048201375 0.108466126 0.19089976 0.2136352
0.34929106 0.2871855 0.027940022 0.19352442 0.41943732 -0.029522862 0.23173006 0.087648615
0.21082117 0.10132131 -0.061135594 -0.3072032 0.14175834 0.016939074 0.009915329 0.11995688
-0.016737368 0.014484419 0.44185817 -0.20456547 -0.32199284 0.25166112 0.12854518 0.34060407
0.1111677 0.17553785 -0.06088847 0.110249974 0.11719962 0.38694027 0.02651289 -0.08002583
-0.051704653 0.23589234 0.3383077 0.21306382 0.51478976 0.0044878344 -0.3170859 0.17979124

bias_hh_l0 f4 [64]
00000000: 95df 843e 3b86 32be 937c be3d ce23 013e
00000010: 295b 963d cfcc edbd 8ba0 763e c962 c2bc
00000020: e3d8 abbd 56db bf3b 9347 e1be 2c31 3e3e
00000030: 63c2 a7bc 56c1 d2bd 6818 6abe eacf 893e
00000040: ed83 dfbd 7df4 38bd c436 753e f92c 043d
00000050: 1c7e 06be a43b d83e e3d2 74be e906 383e
00000060: ebf9 db3e b674 673e b15e a53e 12fb 0d3e
00000070: 2530 153f 26f8 46be 7542 933d 3b2e 983e
00000080: c708 39bb ffbb 01be 0932 ae3d d1c8 b3be
00000090: 0c64 023e 209b 0abe f1fb 993e fe82 a93e
000000a0: 2269 cb3d e2be af3d de2f c43e bc06 0c3e
000000b0: 2eb3 82be 781b 72be c1ad c43d 7b81 3b3d
000000c0: d8b4 1f3e a22d 053e d200 6f3d ea5f 3b3e
000000d0: a5aa f33d a536 9f3e 9c8d 2e3d 855d 0b3e
000000e0: 3778 fe3d 52b1 843e a3e4 113e 4baf 613e
000000f0: 6bfe 133f 258d f8bd 9837 94be 6298 2f3e
0.2595183 -0.17434017 0.093011044 0.12611315 0.07341606 -0.1161133 0.2408468 -0.023728745
-0.08390977 0.0058550043 -0.4399992 0.18573445 -0.020478433 -0.10290782 -0.22860873 0.26916438
-0.10913835 -0.045155037 0.23946673 0.03226945 -0.13134044 0.42233002 -0.23908572 0.17971386
0.4296411 0.22603115 0.32298806 0.13865307 0.5827659 -0.19430599 0.0719041 0.2972277
-0.0028233991 -0.12669371 0.08505637 -0.35114148 0.12733477 -0.13535738 0.3007503 0.33107752
0.09932162 0.0858133 0.3831777 0.13674444 -0.25527328 -0.23643291 0.096034534 0.04577778
0.1559633 0.13005689 0.05835039 0.18298307 0.11897782 0.31096378 0.042615518 0.13609894
0.12425273 0.25916535 0.14247374 0.22039525 0.57810086 -0.12136296 -0.28948665 0.17147973

weight_hr_l0 f4 [4, 16]
00000000: 8f89 943e 1251 cabd 026c 19be 1238 e7be
00000010: aa84 92bc 5eef 63be 89e9 633e 95c1 603e
00000020: 881b aa3e fa93 723d a9d1 593e 3f08 c33e
00000030: e43c 9bbe c5b3 1a3e d165 ba3d d6be e03d
00000040: 985e 383d b697 6c3d ef2e d5be a8e2 19bd
00000050: 2769 723d f7f0 cfbe 693c 643e 1c1e bd3e
00000060: ffc0 613e b09a 0abd 612a 203e fdee c13d
00000070: 7b40 ffbd 51dc 283e 0364 8a3e e50e 6abe
00000080: 89be 243c d295 43be 1d5d 783c 76d1 e23e
00000090: 6721 80be 4342 cc3e 0206 14be 8e39 d2be
000000a0: e9ec af3d bb01 973e 454c 00be 37e1 dbbe
000000b0: 380a 713e 786a 1b3e bcb9 11be be60 cf3d
000000c0: 9c8a f93d d037 b2be 9647 8dbe 2040 cebe
000000d0: 599b 8a3e b02f ccbd 1aa0 bf3e 3d59 23bc
000000e0: 9456 943e a3cf b3be d427 df3e fb43 65bd
000000f0: 3461 fbbe 1f8b c33d ced3 b6bd f6f2 72bb
0.290112 -0.09878744 -0.14982608 -0.45159966 -0.017885525 -0.2225928 0.22257055 0.21948846
0.3322413 0.059223153 0.21271385 0.3809223 -0.30319893 0.15107639 0.09101451 0.10973899
0.045012087 0.05776187 -0.4163737 -0.037569672 0.059182312 -0.4061353 0.2228867 0.36937034
0.22046278 -0.033838928 0.15641166 0.094694115 -0.124634705 0.16490294 0.27029428 -0.22857244
0.010055193 -0.1910012 0.015158919 0.4430043 -0.25025484 0.39894304 -0.14455417 -0.41059536
0.08590109 0.29493508 -0.12529095 -0.42945263 0.23539054 0.15177333 -0.14231008 0.10125874
0.12184641 -0.34808207 -0.27593678 -0.40283298 0.27071646 -0.09970033 0.37426835 -0.0099700065
0.28972304 -0.35119352 0.43585074 -0.055973034 -0.49097598 0.095480196 -0.08927117 -0.0037071086

weight_ih_l1 f4 [64, 4]
00000000: f066 b1bc dd42 4c3e 821a a5bc 97dc 333e
00000010: 81aa 4bbd dee0 8c3d 2b26 aabe 79aa cb3d
00000020: 3e03 17be c961 19be 7c63 01be 5d4f 863e
00000030: c6fa 9f3e 4cb0 65bd 23a3 94be 094d d4bd
00000040: 7540 04be b482 403e 6cb5 16be bcfc 523e
00000050: 753b ffbe cc72 a2be 5d4e 6f3e c6ad 72be
00000060: 5e8e 943e 2666 383e a9eb 58be 1ae1 d9bd
00000070: a58c 99be 39ca 29be 2fec 65be f191 94bb
00000080: 977a b3be d241 9cbc bbd5 743d 49ef 2a3a
00000090: 7f85 be3d 255e 9d3d afa5 c3be d6c8 9037
000000a0: 5578 67be 17cb a73e b60d 42be 6f3f 033e
000000b0: 4e24 b5be 0bcc e83d 6fc9 853e 2714 c7be
000000c0: 7f3d a4bc ad7a 583e 1985 75be f569 35be
000000d0: 12e3 2b3e e335 453e f501 c6bd f19c 083d
000000e0: 1d6d e5be dd25 dfbd f4bd 05bd 49d9 64bd
000000f0: 2b63 f6be 1394 25be 89f4 a73e 3952 253e
00000100: dc0e 9e3e d7e1 2f3d e96d 113d 1cd1 f03d
00000110: 027e 993e bd1f 913e d553 3dbd a461 5bbc
00000120: ea76 10be 779d 183e 404e d83b a42a 91bd
00000130: 255c 673e c63c c03e 77fe cabe 4a90 cc3e
00000140: 7809 6d3e a42b 0f3e eb70 3bbe 6b4b b83e
00000150: 86c7 e1be d35b b53c a0c6 1b3e 8669 4ebe
00000160: 459a b33e 5ab2 b43e d97a 46be e38c ca3d
00000170: e480 83be 957c 34be 7cbf 93be bcae de3c
00000180: 9e8a dabe d4ab 41be 6787 97bc cc76 f13c
00000190: 08d6 99bd ea9c 833e f369 dfbe 1747 be3e
000001a0: 789c b93c f4ef 023e c1d3 b4be c75d b93e
000001b0: 9953 a0be 24de 81be 0b5a ef3d bc39 2cbe
000001c0: 129a fdbe 6797 9dbb c917 10be b173 f6bc
000001d0: d4a0 513e e397 663d 17ce 3abe 7ab2 c13e
000001e0: 6a6d 1cbf 4644 51be bfe7 2f3e 0d82 5bbe
000001f0: a8be bfbe bd30 9a3d efa2 833e 9d78 babe
00000200: 7a0b b13e ac5a 5a3e 14a5 b83b f9d3 303e
00000210: 64d1 a03e e386 883d f00f f2bd 1269 183e
00000220: f0a1 a1bd 8993 a1be 4f18 913e 6256 04be
00000230: 21d2 8abe de24 9abd af40 063e 9e86 10be
00000240: d603 88be 7eb7 53be 3804 133d 63d4 88be
00000250: 5c48 a43e 81c7 383e e640 e43c 85bc 103e
00000260: 0452 9ebe 76cc b2be 8935 e33d 8d8c 3e3e
00000270: 6c66 4ebc ae89 9cbe 8001 403e e90c a4be
00000280: 22e5 bf3e 715a c53d a935 cbbd 769c 803e
00000290: 7bdd d83d 8cf6 b43e a48c 80be 7460 8b3d
000002a0: aa8a 65be 3592 28be b9bc 94bd e20f 80be
000002b0: dbb2 c5bd ec97 03be e03e 813e 40c6 95be
000002c0: 425c 83be 73de 7fbe 32b7 8f3e 8135 8fbe
000002d0: 2ce5 39be 226a 883d 3fcc ac3e 816f db3c
000002e0: fa58 413c 0780 0f3e 6114 903d 3bfa 673e
000002f0: 41ed a5bd c782 083d f414 9c3e 98e9 153d
00000300: 1520 013d 9e64 0e3e 697a 80be 3624 7a3e
00000310: 6e5a 5dbc 5c4a af3e 6378 69bd e125 223d
00000320: ae3e 633c 14c5 2d3d e57a 9abd 1c38 a63d
00000330: bca8 133e e6dc b43d fe7f acbe 08d7 7d3e
00000340: 6c5b 2f3e 810c 8f3e ea06 a2be bffc 923d
00000350: db21 97be 8f9d d4be 69fa d63e 43e2 b8be
00000360: e5aa d43e 21f8 763e f821 83be 5798 053f
00000370: 84fb 8cbd 49d4 213e d63c 85bd ea98 66be
00000380: c956 a9bd cf21 5fbe eb07 7ebe 960d 53be
00000390: 2c63 f73e c3d7 ea3e 13f2 47be 3b96 4b3e
000003a0: 3297 c9bc c2b2 843e 3321 cdbe 426f 38bd
000003b0: 638c 01bf 0f81 0bbe 6e05 8c3e 6968 ebbd
000003c0: be13 b4bd 5c43 f83c 88cc c43c f35c 7dbc
000003d0: e056 7f3e 3674 b13d 785c 9cbe 1969 8a3e
000003e0: c88b 0ebf 6dd0 1bbe 0207 ee3e 740b 0abe
000003f0: 87d0 2fbf 97ff e4bd 67a2 0b3f cc05 13be
-0.02165553 0.19947381 -0.020154241 0.17564617 -0.049723152 0.068788275 -0.33232245 0.099446245
-0.1474733 -0.14978708 -0.12635607 0.26232424 0.31246012 -0.056076333 -0.29030713 -0.10366256
-0.12915213 0.1879986 -0.14717644 0.20604223 -0.4985005 -0.31728208 0.23369737 -0.23699102
0.29014868 0.18007717 -0.21183647 -0.10638638 -0.29990116 -0.16581048 -0.22453378 -0.004533999
-0.35054466 -0.019074354 0.05977414 0.00065206416 0.09302806 0.07683972 -0.38212344 1.725966e-05
-0.22604497 0.32772133 -0.18950543 0.12817167 -0.3537926 0.11367043 0.26130244 -0.38882563
-0.020048855 0.21140547 -0.23976554 -0.177162 0.16785839 0.19258837 -0.09668342 0.033352796
-0.4480981 -0.10895894 -0.032651857 -0.05587128 -0.48122534 -0.16169767 0.32803753 0.16144647
0.30870712 0.042939987 0.03550521 0.117586344 0.2997895 0.28344527 -0.046222527 -0.013389979
-0.14107862 0.14903818 0.006601125 -0.07088211 0.22593744 0.37546366 -0.39647266 0.39953834
0.23148143 0.13981491 -0.18304794 0.3599504 -0.44097537 0.022138512 0.15212488 -0.20157441
0.35078636 0.3529232 -0.193828 0.09890153 -0.25684273 -0.1762565 -0.28857028 0.02718293
-0.42683882 -0.18913203 -0.018497182 0.029475592 -0.07511526 0.25705653 -0.4363552 0.37163612
0.022657618 0.12786847 -0.35317805 0.3620436 -0.3131378 -0.25364792 0.11687096 -0.16818899
-0.4953161 -0.0048093083 -0.14071573 -0.030084463 0.20471507 0.056297194 -0.1824268 0.3783148
-0.6110445 -0.204362 0.17178248 -0.21436329 -0.37450147 0.07528827 0.25710246 -0.36420146
0.34579068 0.21323651 0.005634913 0.17268361 0.31409752 0.066663526 -0.11819446 0.14883831
-0.07892215 -0.31557873 0.28338858 -0.12923577 -0.2711344 -0.07526563 0.13110612 -0.14113852
-0.26565427 -0.20675465 0.035892695 -0.26724538 0.32086456 0.18044855 0.027862977 0.14134414
-0.30921948 -0.34921616 0.110941954 0.18608303 -0.012597661 -0.3057379 0.18750572 -0.320411
0.37479502 0.09636391 -0.09922344 0.2511937 0.10589119 0.3534435 -0.251073 0.06805506
-0.22416177 -0.16462024 -0.072625585 -0.25012118 -0.096532546 -0.12850922 0.25243282 -0.29252815
-0.25656325 -0.24987201 0.28069454 -0.27970508 -0.18153828 0.06660868 0.33749577 0.026786568
0.011800999 0.14013682 0.07035137 0.22654049 -0.08101893 0.033327844 0.30484736 0.036599725
0.031524736 0.1390557 -0.25093392 0.24427876 -0.01351033 0.3423642 -0.056999575 0.039586905
0.0138699245 0.042424276 -0.075429715 0.08116171 0.14419836 0.088311955 -0.336914 0.24789059
0.17124718 0.27939227 -0.316459 0.07177114 -0.29518017 -0.41526458 0.41987923 -0.36110124
0.41536632 0.24118091 -0.25611854 0.5218558 -0.0688391 0.15803637 -0.06505744 -0.2251927
-0.08268506 -0.2179024 -0.24807708 -0.20610651 0.4831785 0.45867738 -0.19525938 0.19881527
-0.024608228 0.2591763 -0.40064391 -0.04502798 -0.5060484 -0.1362345 0.27347893 -0.11494524
-0.08792828 0.030305557 0.02402331 -0.015464055 0.24935484 0.086647436 -0.30539298 0.27033308
-0.5568204 -0.15216227 0.46489722 -0.13480932 -0.6867756 -0.111815624 0.5454468 -0.1435768

weight_hh_l1 f4 [64, 4]
00000000: 797e 3d3e 6084 82bd f885 1dbd 0c46 253d
00000010: 864b 4a3e 653c f23b b7dc 0fbe cb23 2f3e
00000020: bb17 42be e1ee 083d a884 03bd d8f6 08bd
00000030: 0acd 27bc 3dbe 5d3e 2c43 8b3e fd49 093e
00000040: 6b41 243e 28be 0c3e 5550 babd 469d ad3e
00000050: 962f bdbe 3f16 8dbd b897 0fbe 759d 8cbe
00000060: d0a1 f0bd 74c1 bbbc 7c7a 9bb9 3106 34be
00000070: 4bcc 32be d443 453d 0afb 84be 33c1 02be
00000080: 6176 22be 75cb 363e 96d0 30bd a2e1 31bd
00000090: a652 173e 6709 1c3e dd37 47be 4472 1abd
000000a0: 05e6 c1bd d536 633d dc78 6a3e f592 913d
000000b0: 0e47 63be a505 1bbd ec29 b0be a7a1 45be
000000c0: f98a d6be 7fe4 313d 0d47 14be af5c 39be
000000d0: 7744 1bbe aa0f 843e 54e7 5e3d e25e 103e
000000e0: c4d7 093e 644b 693b 830f 73be cdf9 89bd
000000f0: 0524 3d3c f42b 133d 1e43 1cbd 11dd 6ebe
00000100: 859e 293e 0bdb 383c 1d36 e13c a884 0cbe
00000110: 0031 6d3d d454 8abc ed07 ea3d ec0d 593c
00000120: 09a6 4dbe 71e7 edbb 0b3d 81be 4564 9ebb
00000130: e998 8c3d e851 8fbd 8b74 953e f476 5f3b
00000140: 4513 bc3a 622e 09bd 8e44 da3d d8cb 803e
00000150: 0d2e 183e a3c7 9b3d f9b1 f63d 3529 24bd
00000160: 834a fbbd abc5 1c3e c6b0 40be 2115 07be
00000170: 5a58 663e 861f c4bd ef7c 503e ba88 87bc
00000180: 99dd 2e3e db48 71bd 4e51 a23e e0c6 babd
00000190: a570 703e 185c 14be d8b0 283c 62e3 0cbd
000001a0: 5629 04bd 7230 aebd e5d3 2f3e 98a8 c43d
000001b0: 03d5 c1bd d96b d2bd fbd9 20be dcbd 21be
000001c0: 3f43 913c dc63 883e 3144 ff3c 93b2 57be
000001d0: ef90 6d3e 9e0b 1abe 1e45 3c3e 39b9 9a3d
000001e0: 7c98 05be 26bb 21be baeb 273e dbaf 713d
000001f0: 6b66 e5bd 296c d73d ae3f 2c3e 59c5 9d3d
00000200: 1ed1 263d 1f7f 253d 287b 6c3c deeb 333e
00000210: 5598 683e f8c0 4fbd 6ec5 323e 60f3 80bc
00000220: 1210 e93d 298e 21be cfd8 3bbe 9c57 29be
00000230: 3a08 0b3e e57c d0ba 9315 58be 252f 16be
00000240: 0684 87be 0203 063e ba48 263e b095 8abe
00000250: 644a aa3e f298 47bd 9cf1 3e3c 9993 073e
00000260: 2a26 0ebd 89a3 32bd 7184 1ebe a38a 76be
00000270: 3ad9 e73c 9b8d e3bd 001a 3dbe b20d 8b3c
00000280: 6145 d93d f18a a7bd db4f d1bd 020d 87bd
00000290: 10f7 113e b539 593e 169b 843e 2da6 153e
000002a0: 832e 73be d99c 7bbe eecc 62bd 8637 c93d
000002b0: 9543 2e3b 9f8b 05be 1aad a03d a75c 30be
000002c0: 67b7 123e db0f 80be e044 1c3e 5dc8 b9be
000002d0: b1d0 df3d 9454 e9bd b343 343c 1287 7abd
000002e0: 9211 18be 0c8e dfbd dbb7 d53d 98ec 633e
000002f0: 6037 a63d 54f0 13be 7414 d9bd a90b 8eba
00000300: 4054 bf3c 179e 54be 5d06 eb3d 9702 933d
00000310: 529c a7be 56b5 b2bd 15fa bd3d f29b 72bd
00000320: 3196 12be 44b6 1bbe 7f16 383c 7790 4fbd
00000330: ffa8 123d b6e4 59be a039 0e3e e0af 0c3e
00000340: 572d 413e 5a25 173e f14b 9ebd 3e3b 903d
00000350: e3f9 cb3d 02b0 9d3d 4721 8abd cf30 313e
00000360: 2f34 c63d 0c8f 97bd ce1c c5bc 0cf7 13be
00000370: a052 24b8 ab1f 053e cb2a 77be 596d c3b9
00000380: 7629 bb3c 54c6 593e b9b6 b43d d800 173e
00000390: fd67 b63d 2800 0c3c e189 21bc d752 823d
000003a0: 47d6 c73d eb18 5d3e d8b2 4ebd 1625 20be
000003b0: 3a09 4a3e e984 013d 45c6 2bbe 328e 19be
000003c0: 9e4c 69be 6bd0 253d f267 62be ba8d 4cbe
000003d0: 06b0 5b3e 1120 443d 8164 223e 3212 44be
000003e0: 4d68 1bbe 0ea9 1a3e deb3 0c3e aba8 3abe
000003f0: a511 3abc 9a76 253e f90e b9bd 1570 ab3d
0.18505277 -0.06372905 -0.03845784 0.040350005 0.19755372 0.0073924535 -0.1404904 0.17103498
-0.18954365 0.033430938 -0.032108933 -0.033438534 -0.010241756 0.21654601 0.27199686 0.1340713
0.1604058 0.13744414 -0.09097353 0.33909053 -0.36950368 -0.06889009 -0.1402272 -0.2746388
-0.11749613 -0.022919394 -0.00029655162 -0.17580487 -0.17460744 0.04816039 -0.25972778 -0.12769012
-0.1586547 0.1785105 -0.043167673 -0.04342807 0.14777622 0.15237962 -0.19454904 -0.03770663
-0.09467701 0.055472214 0.22897667 0.07108108 -0.22195074 -0.03784718 -0.34406984 -0.19299947
-0.41902903 0.0434308 -0.14480229 -0.18101762 -0.15162836 0.257932 0.05441983 0.14098695
0.13461214 0.0035597915 -0.23736386 -0.06737099 0.011544232 0.03593059 -0.038149945 -0.23326518
0.16564377 0.011282693 0.027491624 -0.1372248 0.05790806 -0.016886152 0.11427293 0.013247948
-0.20082869 -0.007260256 -0.25241885 -0.0048337304 0.06865103 -0.06998044 0.29190478 0.0034098001
0.0014349004 -0.0334915 0.10657607 0.2515552 0.14861317 0.07606437 0.12045664 -0.04007836
-0.12270071 0.1530978 -0.18817434 -0.13191654 0.22494641 -0.09576325 0.20360158 -0.016544688
0.1707672 -0.05890737 0.31702656 -0.09119964 0.2348047 -0.14488256 0.010296069 -0.034396537
-0.032265984 -0.08505334 0.17170675 0.09602469 -0.09464457 -0.102744766 -0.15708153 -0.15795082
0.01773226 0.26638687 0.031160446 -0.21064214 0.23199819 -0.15043494 0.18385741 0.0755486
-0.1304645 -0.15794048 0.16398516 0.0590056 -0.11201175 0.10518677 0.16821167 0.07703657
0.040726773 0.040404435 0.01443366 0.17570445 0.2271436 -0.05072114 0.17458126 -0.01574105
0.11380018 -0.15776886 -0.18344425 -0.16537327 0.13577357 -0.0015906362 -0.2110198 -0.14666422
-0.26467913 0.13087085 0.1623868 -0.27067327 0.3325988 -0.048729844 0.011654284 0.13239898
-0.034704365 -0.04361299 -0.1548021 -0.24076323 0.028301824 -0.111109935 -0.1846695 0.016974304
0.10608936 -0.08180798 -0.10220309 -0.06594278 0.14254403 0.2121342 0.2589957 0.14614172
-0.23748212 -0.24571551 -0.055371217 0.098250434 0.0026590575 -0.13041542 0.078455165 -0.17222844
0.14327775 -0.25012097 0.15260649 -0.36285678 0.109284766 -0.11393085 0.011002469 -0.06116397
-0.14850453 -0.10915765 0.10435458 0.22258222 0.08116031 -0.14447147 -0.10599604 -0.0010837215
0.023355603 -0.20763431 0.11475823 0.07178228 -0.3273645 -0.08725993 0.09276215 -0.059230752
-0.14315106 -0.15206248 0.011235832 -0.05067488 0.0358057 -0.21278653 0.1388917 0.13738966
0.18864952 0.14760342 -0.077293284 0.070425496 0.099597715 0.076995865 -0.067446284 0.17303775
0.09677922 -0.07400331 -0.024061587 -0.1444971 -3.9177598e-05 0.13000362 -0.24137418 -0.0003727477
0.022846919 0.21267062 0.08823914 0.14746416 0.08906553 0.008544959 -0.009859533 0.06363457
0.09757667 0.21591537 -0.050463527 -0.15639147 0.19730082 0.031620894 -0.16774853 -0.1499565
-0.22783133 0.040481966 -0.22109964 -0.1997594 0.21453866 0.047882143 0.15858652 -0.19147566
-0.15176506 0.15103552 0.13740489 -0.18228404 -0.011356746 0.16158524 -0.09036059 0.08370987

bias_ih_l1 f4 [64]
00000000: 280f 353e 9c7b c93c a124 753d c00e f3bd
00000010: 7749 953e 60d6 5c3e 293d 233e c356 68bd
00000020: e203 e3bd 574a 173e 32af a13e 8c02 1abe
00000030: d1ac a83e 9651 cebc 8c11 48bd b923 8a3e
00000040: 164b b6bd b4cc 8ebe 0859 81be 15b3 18be
00000050: 59bc 763d 449f 6a3d b658 b03c e0f8 e2bd
00000060: c344 fd3d 4d86 67be 8bf5 3dbe da47 4c3d
00000070: 22a0 9f3d 2c20 64be 5e25 c83d 548c 473e
00000080: 3b48 193e cef9 083e 2a31 c83d 8c6c 3ebe
00000090: f451 21be 68d8 98be a220 09be 6c39 f4bd
000000a0: 5249 873c 4691 bbbb b7b1 0b3d d6cd 493e
000000b0: de61 4e3e 690f 28bd 0910 4cbd a9f1 1f3e
000000c0: f8bc 333e 04b0 84bd 98a9 6e3e f4df 8e3e
000000d0: f6bf ae3d cc2d 9c3e 0599 8c3e 5bd0 ca3e
000000e0: 12ba 073e 38c9 c93d 3465 9a3e 7dbe 8cbd
000000f0: 028f 9d3e 3b8d cd3d 4331 383e fb15 04be
0.17681563 0.024595074 0.059849385 -0.11868048 0.29157612 0.21566153 0.159413 -0.056723367
-0.11084725 0.14774452 0.31578976 -0.15040034 0.32944348 -0.025185388 -0.04884486 0.2698038
-0.0890104 -0.2789055 -0.25263238 -0.14912064 0.060238216 0.057280794 0.021526676 -0.110826254
0.12366631 -0.22609825 -0.18550698 0.04987321 0.07794215 -0.22277898 0.09772752 0.19487125
0.1496896 0.13376543 0.09775002 -0.18596095 -0.15753919 -0.29852605 -0.13391355 -0.11925015
0.016514454 -0.005724105 0.03410503 0.19707426 0.20154521 -0.04103032 -0.04981998 0.1561953
0.17552555 -0.06478885 0.23306882 0.27905238 0.085327074 0.3050369 0.27460495 0.39612088
0.13254574 0.098528326 0.30155337 -0.0687227 0.3077317 0.10036703 0.17987542 -0.1289901

bias_hh_l1 f4 [64]
00000000: 472a 46bd 5c0f 09be a7c6 a5bd 3a99 15be
00000010: b4e5 c1bd ad5f 6cbd 16bd b53e 7800 8e3e
00000020: 6551 8c3e e6f4 a43e 72f3 ac3c dade 393e
00000030: 2454 b13d e6aa 36be 19f4 0a3e 4716 3e3e
00000040: 34cd 16be 1e87 803d 01c9 c23d 17ad 073e
00000050: 452b f5bc 507c 19be 70de bfbc e5dd ecbd
00000060: 0ab9 92be e948 653d 855f 0ebe 53e4 803d
00000070: 7fc6 11be 31aa b7bd 4998 363e 9f40 78bd
00000080: c3c5 cd3d e669 9bbc c985 49bc 1cfc 9cbd
00000090: 5d52 28be f0fb 51bd bef6 8a3d e43e 933e
000000a0: 0a66 42be f2c6 dc3d 4ca1 1cbe 2417 873e
000000b0: 94c5 1d3e 32b9 6fbd 749d 8abe bebf 683e
000000c0: a0d1 a6bd 20d1 843d 8f31 b03d ae6a 8d3d
000000d0: 21d4 9c3e a369 4f3d 5114 a7bc 4527 b73e
000000e0: 228e 8d3e 8ff9 8b3e 69a4 913e d823 763e
000000f0: d2ed b33e 658b 8d3e 3d6d 463e bd5c 08be
-0.048380163 -0.13384765 -0.080945306 -0.14609233 -0.094676405 -0.05770843 0.35495824 0.27734733
0.2740585 0.32218093 0.021112178 0.18151417 0.08658627 -0.1783863 0.13569678 0.18563186
-0.14726716 0.062757716 0.09510995 0.13249622 -0.02992786 -0.14988828 -0.023421496 -0.115657605
-0.286568 0.055977736 -0.13903625 0.062935494 -0.14235877 -0.08968008 0.1783153 -0.060608502
0.10047486 -0.018971395 -0.012299963 -0.076652735 -0.16437669 -0.051265657 0.067853436 0.2875892
-0.18984237 0.10780133 -0.15295905 0.26384842 0.15407401 -0.058526225 -0.27073252 0.22729394
-0.081454515 0.064852 0.086032026 0.06905113 0.30630592 0.050637852 -0.02039543 0.35772148
0.276475 0.27338836 0.28445747 0.24037111 0.3514238 0.27645412 0.19377609 -0.13316627

weight_hr_l1 f4 [4, 16]
00000000: 0475 fcbd 8e04 3bbe 5670 523c da71 a2bd
00000010: da32 743d e35c bebe 2802 3f3e b2a7 1d3e
00000020: 270a 2dbe 2963 cbbe 02b9 873e 187d af3e
00000030: 590c ca3d ff9f 973e 705e 21be 9e39 023d
00000040: 1207 a3bd 4c6f 6cbd 8fd2 ba3e e7b0 9b3e
00000050: b028 253e eaa1 8ebe a93f 3abc 37f0 9e3e
00000060: 82b7 ccbd 4fc2 713d fe18 aa3e fa10 5a3e
00000070: 0fd8 9b3e fa18 0b3e eaf9 59be 8f56 dd3a
00000080: 3e16 85be 8e24 643b cab7 d83e afc6 9b3e
00000090: a508 ffbc 274d e1bd 0589 943e 07f2 b73e
000000a0: 6bdd 44be e3a3 b2be 4519 adbd df66 a23e
000000b0: e523 5b3e b579 543e a824 783c 1dc5 4b3e
000000c0: 30f3 9abe 2fca 8abe 40af 663e 7e96 9d3e
000000d0: 3c24 bd3e d5c7 93be a404 d03e 1b76 cb3e
000000e0: 2de9 1cbe 82cd b2be 3b4f dd3d 3ea4 5a3e
000000f0: f2c1 003f 1839 58bd b177 86be 19a9 9f3e
-0.123270065 -0.18263456 0.012844166 -0.07931872 0.05961881 -0.37180242 0.18653166 0.15396002
-0.16898404 -0.3972409 0.26508337 0.34275126 0.098656364 0.29614255 -0.15758681 0.03179323
-0.07960333 -0.05772333 0.36488768 0.30408403 0.16128802 -0.27857906 -0.011367717 0.31042644
-0.09995939 0.059023198 0.33222193 0.21295539 0.30438277 0.13583747 -0.21286741 0.0016886758
-0.25993532 0.0034811827 0.4232772 0.3042502 -0.031132052 -0.11001044 0.29010788 0.3592684
-0.19225089 -0.3489066 -0.084520854 0.3171911 0.21400411 0.20749553 0.015145458 0.19899411
-0.30263662 -0.2710738 0.2252779 0.3077888 0.36941707 -0.28863397 0.4062854 0.39738545
-0.15323325 -0.34922415 0.10806128 0.21351716 0.5029594 -0.052788824 -0.26263192 0.311837

weight_ih_l2 f4 [64, 4]
00000000: 34ab 8dbe 0e9b 87be 9417 08be be35 9ebe
00000010: b6c9 d2bb 271f 77bd 051b 52be 805c 9bbe
00000020: 9a48 5f3e 1201 d23e 40bc 0a3e d4a1 983e
00000030: 1b72 dfbd 6461 ca3e ade4 ecbd 603e 413d
00000040: 089e 033e 064c 913e e27c b23e ea32 803e
00000050: 4b78 cdbe 229a 9bbe 6c8a a5be 7583 43be
00000060: d3bb b03e 1688 c63d c00a f13d 35ca d93e
00000070: 0fb4 823e 1f39 7bbd 150e b43e 9d47 c13e
00000080: ac4c 813e c1fe 0f3e 39eb 413d c8f0 b33e
00000090: 6f58 56be 45da 1fbe 47af 86be e5be 9cbe
000000a0: 0466 b63e d107 c23b 1c7f 653e 38db 91bd
000000b0: 281f 30be 394e 823e 9a68 49be 7d11 01be
000000c0: 5c78 0f3e 3d41 8ebd 64da fcbc cb95 c6be
000000d0: 4e3c 6e3e 1b70 6b3c 8877 e53c 04a6 833e
000000e0: 87d1 7cbb 4dff 9c3d b354 58be 2002 75be
000000f0: 1c36 52bc 6f41 01be 6c59 9bbe cfae 12be
00000100: 8d70 6bbe 38fa 85be c326 34be 6403 febe
00000110: b6d6 85be bc10 52bd 9407 f43c 3466 1d3d
00000120: 32ab 0a3e 23c2 d83e e2df cf3e 8bd4 a93d
00000130: ba55 c93d 8779 bc3d 9b81 f93c 785c 443c
00000140: 40a1 a83e cef3 c83e 5e8f 913e 288f ea3e
00000150: 9bc5 63be 84c6 80be aac8 e0be 4125 a0be
00000160: e5a6 453e d047 eb3d 5dfa e33e e287 8a3e
00000170: 1207 cb3e 3361 df3e 746b f23e d06f 703e
00000180: d9d8 323e dd05 d93e c8e5 f83e 7488 433e
00000190: 1fb3 b4be 45ba 15be 4ac1 73be 01e4 6cbe
000001a0: 6604 e73e 51fa 093f f40f 173e 313a 8c3e
000001b0: 0960 b7be 3e21 bf3c 51dd 11be 6912 e2bb
000001c0: 6e3a a13e 54be 9a3e ae02 d03d ed72 923e
000001d0: 73b7 b63e 3345 543e 706e 81bc 1020 b1bc
000001e0: 10fb 8cbe c616 3abe cf9c f5be 52fe 65be
000001f0: 85de 28be b5b2 a2be 6203 80be 2b07 6cbe
00000200: cdff af3e 0ed3 803d 0221 723e 9eed af3e
00000210: 5410 adbe f437 c1be d540 97be e923 8cbe
00000220: a209 dbbe 0f33 953c cabc 68be 2d30 24bd
00000230: 765d bc3e 42c2 783e 2bc8 ac3d 82e0 4e3d
00000240: 1177 4ebe 37b7 b43d e7e7 25be 87c6 1d3e
00000250: d4c6 3fbd 7389 91bd d447 51bd 4193 c6be
00000260: 123b 983b e633 00be 82f1 61be c559 4d3e
00000270: b7b1 903c 8188 f4bd f0ba b4be 2e20 4bbe
00000280: 3cfe b93d f493 af3e 9981 d93d 9a79 5f3e
00000290: f575 2fbe bb78 bbbe 2fd8 2fbe d693 5bbe
000002a0: 94de bcbc 51a1 943e 30d9 ec3d 53de 663e
000002b0: b059 d5be d5ca 503c 0842 28be e79f b1be
000002c0: 9912 993e ad65 b83e d3d6 c23e 9a07 b83e
000002d0: 765f 52be a0cb a8be b3bf cfbd e1f8 a7be
000002e0: e17b 1cbd 3465 b0bd f95d d5be a067 9bbe
000002f0: 6040 de3e 464b b23e b9b8 883e 7012 14bc
00000300: 9d52 49be e060 2cbd 75f3 a1be e2ed b6be
00000310: 82aa 32be bf1b 4a3e 18d7 91be dce0 8ebe
00000320: 409c dd3d a787 083e e5d3 4b3d c8a5 df3e
00000330: 4c79 2e3e 1a73 673d 6641 4bbe 8f5e 0c3e
00000340: 2ee1 0c3d 72e1 cb3d 0744 463d 7cd7 253e
00000350: e282 5bbe 8842 10bf f744 c9be f8fa a2be
00000360: 304f 253e 70d9 bd3e d1e5 093e d09e d13e
00000370: 31f7 043f 0b17 893d ba19 ae3e 2702 b53e
00000380: 9fcd d23e 3276 fc3e c7eb ab3e 73dd 053e
00000390: a19a 04bf 38a0 11bf 3cc1 c9be d10a e0be
000003a0: 323a 303e b2c4 a93e 7f1c 893e 1ea2 873e
000003b0: ef98 9cbe 2235 38be 6f66 13bd 0e73 11be
000003c0: 70f1 f1bd 9187 82bb 0055 143d dcb3 4f3e
000003d0: a20e 923e c02a ac3b 0b9a 9f3e d7a2 833e
000003e0: 2461 bfbe cfb9 2bbe 064b a9be 4d48 f1be
000003f0: 8ee4 f1be 5426 fbbe 4d94 3cbe d9d4 c4be
-0.2766968 -0.26485485 -0.13290244 -0.30900377 -0.006432737 -0.060332444 -0.2051812 -0.3034401
0.21805039 0.41016442 0.13548374 0.29810965 -0.10910436 0.39527428 -0.11567054 0.047178626
0.12853253 0.28378314 0.34860903 0.25038844 -0.4013084 -0.30391032 -0.3233217 -0.19093116
0.34518299 0.09693925 0.117696285 0.42537084 0.25528 -0.06133377 0.35166994 0.3774995
0.25253808 0.14062025 0.047343466 0.3514464 -0.20932172 -0.15610607 -0.263056 -0.3061439
0.35624707 0.005921342 0.2241177 -0.07121891 -0.17199385 0.25450304 -0.19668809 -0.12604327
0.14010757 -0.06946037 -0.030865856 -0.38786158 0.23265192 0.01436999 0.028011099 0.25712597
-0.0038577036 0.07665882 -0.2112606 -0.23926592 -0.0128302835 -0.12622617 -0.3034166 -0.14324497
-0.22992153 -0.26167464 -0.17592911 -0.49611962 -0.26140374 -0.05128549 0.02978877 0.038427547
0.13541868 0.42335615 0.40600497 0.082924925 0.09830804 0.09202867 0.030457309 0.011984937
0.32935524 0.39248508 0.28429693 0.45812345 -0.22243349 -0.25151455 -0.43903095 -0.31278422
0.19301946 0.114883065 0.4452695 0.27056795 0.39653832 0.43628845 0.47347605 0.23480153
0.17465533 0.42387286 0.4861281 0.19095021 -0.3529291 -0.14621837 -0.23804203 -0.23133852
0.45120543 0.5389758 0.1475218 0.27388147 -0.35815457 0.02333128 -0.14244582 -0.0068991673
0.3148989 0.30223334 0.10156761 0.28603306 0.35686836 0.20729522 -0.015799731 -0.021621734
-0.27535295 -0.1817275 -0.47971198 -0.22460297 -0.16491134 -0.31776968 -0.2500258 -0.2304961
0.34374848 0.062902555 0.23645404 0.34360975 -0.3380152 -0.37738 -0.2954165 -0.27371147
-0.42780787 0.018212823 -0.22728267 -0.040085007 0.36790055 0.24292853 0.084366165 0.050507076
-0.20162608 0.08824008 -0.16201745 0.15407763 -0.046820477 -0.071062945 -0.05109389 -0.3878422
0.0046457136 -0.12519798 -0.22064784 0.20053776 0.017662866 -0.119400986 -0.35298872 -0.19836494
0.090816945 0.34292567 0.10620422 0.21823731 -0.17134841 -0.36615548 -0.17172311 -0.21443114
-0.023055352 0.29029325 0.11564863 0.22545747 -0.4166999 0.012743671 -0.16431439 -0.34692308
0.29897 0.36015072 0.38054523 0.359433 -0.20544228 -0.32967854 -0.101439856 -0.32807067
-0.038204078 -0.08613053 -0.41673258 -0.30352497 0.4340849 0.34823054 0.26703432 -0.009037599
-0.1966042 -0.042084575 -0.31631055 -0.35728365 -0.17447856 0.19737147 -0.28484416 -0.2790593
0.10820818 0.13332997 0.049762625 0.4368117 0.17038459 0.056506254 -0.19849166 0.13707946
0.034394436 0.0995511 0.04840472 0.16195482 -0.21436647 -0.5635152 -0.39310429 -0.318321
0.16143489 0.37079954 0.13466574 0.40941477 0.51939684 0.06693848 0.34004003 0.35353205
0.411725 0.49308926 0.3357832 0.13072757 -0.51798445 -0.568851 -0.3940524 -0.43758252
0.172097 0.3315788 0.26779553 0.26490873 -0.3058543 -0.17989019 -0.03598636 -0.14204046
-0.11813629 -0.003983446 0.036213875 0.20283455 0.2852679 0.0052541196 0.31172213 0.25710174
-0.373788 -0.16770099 -0.3306505 -0.47125474 -0.47244686 -0.4905268 -0.18415947 -0.3844364

weight_hh_l2 f4 [64, 4]
00000000: 4650 833e aea5 afbe b640 533e 6fb9 0f3c
00000010: 4f49 103f bc86 01be 52d4 483e f5df 7e3e
00000020: 897a af3e a7d1 6dbe fb4b 3fbe 179c 0a3e
00000030: 7a7a c1bb 6ecf 53be e308 27bd 486b 5fbd
00000040: 82b4 87be 2027 96be d091 dc3d 7ed5 f7bc
00000050: 6e25 51be 0750 78be 8e48 27be d0ec 673e
00000060: 24f3 b9bc 87f3 34be ceff 96bd 9912 a03e
00000070: febd 8bbd 820e a2be 75fe 1abd a456 b53e
00000080: 48a8 1b3e 5737 d1bd 4653 423e e78b 9b3e
00000090: 9641 33be 4ed0 21be c6f1 c63e 0bf7 d93c
000000a0: 3a7b a43d 0502 67be 2b74 673d c479 13bc
000000b0: 4a63 afbc d606 07bf 9686 943e af06 443d
000000c0: 44e5 743e 0931 23bf 7e95 8c3e 01cc 753e
000000d0: 1c17 19bd c214 9abe a02b 843e aa6c d73e
000000e0: 0fcb b03c 5cdf d6be 7bb1 dd3d 35ba e3bd
000000f0: ddda 733d 5c71 c5be ac6d 403e 85d3 96bd
00000100: 58b0 423e b772 003e 45af 8f3e e372 453e
00000110: 7a61 7c3e b7f3 0d3e 3869 eabd 4d58 443e
00000120: 9eab 213e edf8 97be e35c 223c 26b7 ee3d
00000130: 2879 2abe bbe4 f7bd 6873 263d 5090 35be
00000140: eef9 893c 64e9 fabe 9e8d 99bd 3511 fe3d
00000150: 1609 bc3d 48be e63d 4dcd 713e cb6f 4e3e
00000160: 4d3d 223c b311 d6be f29c 86bd 7d4a 473e
00000170: 1a6e 623d 8179 6e3d 5c04 16bd 295c 333e
00000180: 8c6f 4dbe 95be 81be 6788 10be 0afc f43d
00000190: 52fd 0fbd d18e 7fbe b5cf 2a3e a7eb 393e
000001a0: eaf6 263d 4d6c 093e 60a1 7e3e e466 8b3e
000001b0: c562 133e 65ef 92be 12ce bf3e bcaf aa3d
000001c0: b31c 803e 1d0c 0cbd 9434 c8bc da2e 883e
000001d0: 0bb5 18be ecc1 36be b8b5 4c3e 4724 aa3c
000001e0: 5ddd 0f3e f4e0 493e 91c8 70bd 2eb7 07be
000001f0: 7759 34be 97b6 58bd 87c7 88bd d912 a53d
00000200: a1dd d73d 30fe 25bd 22e2 9dbe b795 7d3e
00000210: c423 e7bd c2b0 c2bd 9194 0e3e 03db c3bd
00000220: 350f 63be b8df 203d 3132 493d 05c5 843d
00000230: a9c2 cfbd 67a6 cd3d 016b 2d3d db77 e7bc
00000240: 4e70 0bbe 9822 b13e 209c 33bd ff42 c9bb
00000250: 1bae 60be 4e34 70bd 4c8a 6e3e a379 efbd
00000260: 47fb 213d 8eeb 8c3e eb0e 49be f693 cebd
00000270: c0aa 96be 445b 9a3d 7b85 15bd 3fd4 c9bd
00000280: c86a b9bd 53ee 093b 6ab7 8bbe 0952 f73d
00000290: 6f84 8b3d 2805 e0bd 1c71 313e a897 8dbd
000002a0: 5b10 3a3e bdc8 85be 79a2 143e b625 843e
000002b0: f730 b0be 2465 62bd 12f1 403d 2cb8 ed3d
000002c0: 10ff 513e fca3 2f3c 1b7c 9ebe e857 df3d
000002d0: 5999 2abd 87c1 49be 1448 063e ba75 6ebd
000002e0: 175d cf3d 07d7 163d fe2b 003e 2ee2 86bd
000002f0: 9ab4 fa3c a11d 733d 3c29 fabd 1801 af3c
00000300: 46f4 b93e 1901 8dbe f73c bcbd 4249 873e
00000310: 7bee 013f a3c5 3abc d50b 1cbe a798 6c3e
00000320: 3947 25be c023 b9be 4329 c63e 90a1 b03d
00000330: 6f94 f23d b6dc 62be 2fde a83e ebd5 44bd
00000340: ab03 80bd 1fcc b5be 9436 853e e3cc a8be
00000350: ba26 313d 34d0 1ebe fd53 f1bd ebc7 8d3e
00000360: e071 89be 6150 cabe 39cd f33e 3d2b 6abe
00000370: 8a79 04bc 5261 87be 19fb db3e 2e79 08be
00000380: 18df f4bd 51de 72be 9fdb 9c3e 578e 59be
00000390: 1d8e dbbd ce47 b4be 0a64 0ebd e1fd 943d
000003a0: 0911 473d a2ba 96be b5bf b83e 3e83 a93d
000003b0: cb0a c23d 8216 87be 458e bc3e c96e b43e
000003c0: a30f 6f3e 850d 9fbe 2dd3 c73e 1769 a53d
000003d0: f293 f83c b965 9ebe 4e6f 513d 34fa 53be
000003e0: a0be 623e 5348 d9be 6740 973e 57c3 e43a
000003f0: 731d 2f3d 33ae edbe 5d8b 973e e8f1 b33e
0.2564718 -0.3430609 0.20630154 0.008772238 0.5636186 -0.12649053 0.19612244 0.2489012
0.34273174 -0.23224507 -0.18681328 0.13536106 -0.005904493 -0.20684597 -0.04077996 -0.05454567
-0.26504904 -0.29326725 0.10769999 -0.030253168 -0.20424435 -0.24249278 -0.16336271 0.2264893
-0.022698946 -0.17671023 -0.073730096 0.3126419 -0.068233475 -0.31651694 -0.037840325 0.35417664
0.15200913 -0.10215633 0.18977079 0.30380175 -0.17505488 -0.15802118 0.38856333 0.026607057
0.08031316 -0.22559364 0.05650727 -0.009001199 -0.02140965 -0.52744806 0.2900893 0.047857936
0.23915583 -0.63746697 0.27457803 0.24003603 -0.037375554 -0.30093962 0.25814533 0.42075092
0.0215812 -0.41967285 0.10824867 -0.111195005 0.059534896 -0.3856305 0.18791837 -0.07364563
0.19012582 0.1254376 0.28063408 0.19282107 0.2464656 0.13862501 -0.1144585 0.19174309
0.15788123 -0.29682103 0.009909841 0.116560265 -0.1664778 -0.12104174 0.040637404 -0.17730832
0.016842809 -0.49006188 -0.074977145 0.12405626 0.091814205 0.11266762 0.23613472 0.20159833
0.009902311 -0.41810378 -0.06572904 0.19462009 0.055280782 0.058221344 -0.03662525 0.17515625
-0.20062083 -0.25340715 -0.14114533 0.11962135 -0.035153694 -0.24956824 0.16680796 0.181563
0.04076282 0.1342022 0.24866247 0.27226937 0.14393146 -0.2869827 0.37461907 0.083343
0.25021896 -0.03419124 -0.024439134 0.26598245 -0.14912812 -0.17847413 0.19991195 0.020769252
0.14049287 0.19714719 -0.058785025 -0.13253471 -0.17612253 -0.052908506 -0.06678682 0.080602355
0.10540319 -0.040525615 -0.30836588 0.24764143 -0.112861186 -0.0950637 0.13923861 -0.095632575
-0.2217377 0.039275855 0.049120132 0.06482891 -0.1014455 0.10041504 0.042338375 -0.028255394
-0.1361706 0.34596705 -0.043850064 -0.0061420198 -0.21941416 -0.05864363 0.23294944 -0.11693122
0.039546277 0.27523464 -0.19634597 -0.10086815 -0.29427147 0.07536939 -0.03650425 -0.09854936
-0.0905357 0.0021046593 -0.2728837 0.12076194 0.06812369 -0.109384835 0.17328304 -0.06913692
0.18170302 -0.26129714 0.14515103 0.2581002 -0.34412357 -0.055272236 0.047104903 0.116073936
0.20507455 0.010720249 -0.3095406 0.10905439 -0.04165015 -0.19702731 0.13113433 -0.05821774
0.10125177 0.03682616 0.12516782 -0.06586109 0.030603696 0.05935443 -0.12214896 0.021362826
0.36319178 -0.275399 -0.091913156 0.2642308 0.5075452 -0.011399659 -0.15238889 0.23105107
-0.1614045 -0.36160088 0.38703355 0.086245656 0.11844718 -0.22154507 0.32982013 -0.04805557
-0.062506996 -0.35507295 0.26018202 -0.32968816 0.043249823 -0.1550911 -0.117835976 0.27691588
-0.26844692 -0.3951445 0.4761751 -0.22868057 -0.008085618 -0.26441437 0.4296501 -0.13327476
-0.11956614 -0.2371762 0.30636308 -0.21245705 -0.10720465 -0.35211033 -0.034763373 0.07274986
0.04860023 -0.29439265 0.3608376 0.082769856 0.09474715 -0.2638436 0.36827293 0.35240772
0.23345809 -0.31065002 0.39028302 0.08076685 0.030343983 -0.30936983 0.05113154 -0.20700914
0.2214303 -0.42437991 0.29541323 0.0017453235 0.042752694 -0.46421966 0.29598513 0.35145497

bias_ih_l2 f4 [64]
00000000: ebdc 233e 8e14 1b3c e50e 9e3d 89cb 09be
00000010: a6ba 853c 507e 6ebc a320 983d 5b17 d53e
00000020: 9c76 243d b2a1 64bd 2802 583e 5e1e ab3e
00000030: 3dd0 053f 3492 8d3e 60c7 873e 379d 98bc
00000040: 21b1 ecbb f715 25be 624d f33d 3945 b83d
00000050: de0b 4abd 3973 213e 2946 1bbd 1ccf 953e
00000060: 2fb7 8c3d b040 f83d 1535 39bd 6d2e 19be
00000070: e47e 753e 3dd7 31be 39d2 e7bd 3214 30be
00000080: b6f8 64be 1e81 4ebe f34c 5fbe aebd 893e
00000090: 48d3 4ebd e4d7 4d3e 8278 69bd 3aa3 75be
000000a0: a8d5 9f3e 21eb 6d3e 2018 803d 0d0a 083e
000000b0: bc5f 533e 82ed 60be 62af 7a3e 414f a63b
000000c0: bfd4 ea3e 10c7 3a3d ef01 5d3e 37f1 5b3e
000000d0: a9f6 8f3e 4242 84bd 0a83 c73e 4060 cc3d
000000e0: b02f c73e d80b c43e 5b13 a43e 4b77 813e
000000f0: 0dc8 f93e f466 8e3d 0d5b b53e 9e01 1f3e
0.16002242 0.00946535 0.07717685 -0.13456549 0.016324352 -0.014556482 0.074281 0.4161938
0.040152177 -0.055818267 0.21094573 0.33421606 0.5227087 0.27650607 0.265193 -0.018629653
-0.007223264 -0.1612166 0.11879994 0.08997578 -0.049327724 0.1576661 -0.037908707 0.29259574
0.06870877 0.12121713 -0.04521664 -0.14959116 0.23974186 -0.17367263 -0.11319394 -0.17195204
-0.223605 -0.20166442 -0.21806698 0.26902527 -0.050494462 0.20101887 -0.05699969 -0.23988047
0.31217694 0.23234226 0.062546015 0.13285084 0.20641989 -0.21965602 0.24480966 0.005075366
0.45865437 0.045599997 0.21582769 0.21478735 0.28117874 -0.0645795 0.38967162 0.09979296
0.3890357 0.38290286 0.32046017 0.25286326 0.4878544 0.069532305 0.3542103 0.1552796

bias_hh_l2 f4 [64]
00000000: b3be 123e 75e3 d23d 728b b83e 9e4d ac3e
00000010: 0b8b 0e3e b757 7e3e 4c0b d13d 75ee bf3e
00000020: f94a 9d3e 9a66 fa3c f884 bc3e b97d 803d
00000030: 5b57 133f d48a 933e c4d2 753d b704 663e
00000040: cd14 57be 4632 cb3d 454c 27bc 304c 82be
00000050: cdf5 c53e d30f a73d df96 973e 9d36 923d
00000060: c2af a43e 73df 3cbe a18c 023e 5d37 89bd
00000070: b7b5 3d3e 531f 9f3d e4d7 31be 6cc7 333e
00000080: 401e 0bbe 05cc 43bd 5df2 1abd 7697 26be
00000090: 95e7 b6be 361f 663e 1908 cfbe cc63 0fbe
000000a0: 2d05 9f3e dc22 323c 12a8 483e 9588 9ebd
000000b0: 9ef5 1d3e 2d47 18be 26e1 2a3e 3441 50be
000000c0: c78b b43e a330 bf3e a083 243e 582f 25bd
000000d0: deed 073f c83c e43d 039d b03d 1164 cc3e
000000e0: 5449 be3c 3c97 643e 0347 c63e 7e54 dc3e
000000f0: 475f 263f 6fdf b63d cab4 2a3d 8bb3 783e
0.14330558 0.1029729 0.36043888 0.33652967 0.13920228 0.24838148 0.10207233 0.37486616
0.30721262 0.030566502 0.36820197 0.0627398 0.5755517 0.28816855 0.060015455 0.22462736
-0.21004029 0.09921698 -0.010211055 -0.2544875 0.38664094 0.08157315 0.29607293 0.07139323
0.32165343 -0.18444614 0.12748958 -0.06700013 0.1852635 0.077696465 -0.17367512 0.17556542
-0.13585758 -0.04780199 -0.037828792 -0.16268715 -0.35723558 0.22472844 -0.40435866 -0.14002913
0.31058636 0.010872569 0.19595364 -0.07740895 0.15425727 -0.14870901 0.1668745 -0.20337373
0.35262892 0.37341794 0.16065836 -0.040328354 0.5309733 0.111444056 0.086236976 0.39920095
0.023228325 0.22323316 0.38726053 0.43033212 0.6498913 0.08929335 0.04167632 0.2428724
