saved_models/LSTM/ckpt__epoch10.ckpt (torch, 17513 bytes, 20 tensors)

weight_ih_l0 f4 [64, 8]
0.043960024 0.33387622 0.07664497 0.14475025 0.21649542 0.062481187 -0.21979143 -0.017940296
0.050883286 0.0011131889 -0.20755918 -0.0077033103 0.17501366 0.14249758 0.07158628 -0.011813805
-0.20437002 -0.26606315 -0.072073326 -0.16619924 -0.25815496 0.021576878 -0.05678608 -0.07958331
-0.24655302 -0.09120873 0.061949622 0.3051102 0.1070404 0.03382098 -0.031484004 -0.2008767
-0.0263348 -0.15761338 -0.046610404 0.09650278 0.052730046 -0.13794145 -0.19460337 -0.02326937
0.041721866 -0.23193932 -0.23147933 0.07072741 -0.23149002 -0.008280589 -0.23590095 0.13681594
0.021691555 -0.058898926 0.25630856 -0.102890916 -0.1965934 0.15351066 -0.121894695 0.057476938
0.2798886 0.026145263 0.15472448 0.18310076 -0.0022624142 0.28535363 -0.055233687 0.20895374
0.05048542 0.100596614 -0.051568806 -0.020403782 -0.07443288 0.16439189 -0.1729271 -0.010590609
-0.00074018387 0.17198022 0.18443191 -0.13870744 0.08879877 0.2132671 -0.24835621 -0.083715886
0.3042584 -0.109654486 -0.26273587 -0.08900393 0.11964677 0.3120709 -0.020553306 -0.21376657
-0.24897006 -0.18007839 0.12942222 -0.1509336 0.07034108 0.2533255 0.054679826 -0.10211735
0.057684954 0.013996608 0.27145824 0.17652467 -0.18684697 0.030144643 -0.22785658 0.018365022
-0.044592083 0.31858996 0.11701362 -0.0914804 0.0698816 -0.17140995 -0.20606413 0.102837004
0.012753082 -0.25498784 0.043524 0.118582085 -0.018284913 -0.1735921 0.18202193 -0.011886559
0.008702501 -0.102939844 0.13831961 0.11467811 0.062216677 -0.07085512 0.10441739 0.09544664
0.20539564 0.05769793 0.041041706 0.09542769 0.199109 0.25026935 0.24132037 0.09815205
-0.043312628 -0.18720682 0.056802955 -0.0053599454 -0.00065766217 -0.072494216 -0.18435256 0.048471168
0.15200543 0.060256634 0.08468155 -0.010032787 -0.046978854 -0.18513192 0.12764964 -0.15190923
0.19239002 -0.2553643 -0.22722194 -0.22536884 -0.22334258 -0.1303078 0.0147091355 -0.17467596
0.11726823 0.21498911 -0.2229251 -0.13097183 0.19396654 -0.117906645 0.059835054 0.15975407
-0.109899655 -0.17354566 -0.23269935 0.087478556 -0.09631296 0.120530196 0.058372136 0.023204928
0.013144388 0.14197613 -0.19726339 -0.17382203 -0.0167496 -0.21236932 -0.008123948 0.14626239
-0.22629072 -0.15656328 0.20707934 0.076783 -0.17202786 -0.12295964 0.069253094 0.17635499
-0.07755123 0.0070249205 0.05067636 0.23998566 0.014138395 0.17961451 -0.06569944 -0.032470025
0.1756202 0.09740714 0.10981548 -0.17767924 0.21929729 -0.030648224 0.2066197 0.17815211
0.121800065 0.13679415 -0.049597234 0.11649748 -0.15203156 0.12293387 -0.19023867 0.06573791
-0.14014411 0.11886593 0.12113446 0.10395266 0.1261384 -0.15303567 0.17157099 -0.028639333
0.02000001 -0.20152764 -0.026860716 -0.12588397 -0.20044367 -0.0065091704 -0.16464037 0.14271566
-0.06619805 -0.011640141 -0.18729521 -0.1271607 -0.019148799 0.100688405 0.17962049 -0.21321796
0.019408312 -0.17520753 -0.15805244 0.042663578 0.12387449 0.1465897 -0.035817727 0.026819387
-0.13175792 -0.11000076 0.04054954 0.1444336 -0.003977372 -0.08326172 -0.10843191 -0.2708875
00000000: 6d0f 343d d3f1 aa3e 0af8 9c3d 6939 143e
00000010: fab0 5d3e 46ec 7f3d 0111 61be 87f7 92bc
00000020: fe6a 503d 6ce8 913a 658a 54be 0d6c fcbb
00000030: c836 333e e3ea 113e d49b 923d b18e 41bc
00000040: 6046 51be 6e39 88be 2e9b 93bd 2230 2abe
00000050: e32c 84be fec1 b03c 8598 68bd 93fc a2bd
00000060: 6578 7cbe a5cb babd e3be 7d3d 6737 9c3e
00000070: ff37 db3d de87 0a3d 5ff5 00bd 9fb2 4dbe
00000080: 14bc d7bc 6765 21be 8dea 3ebd 40a3 c53d
00000090: 76fb 573d 8640 0dbe 1b46 47be 689f bebc
000000a0: 8ce4 2a3d 8081 6dbe eb08 6dbe 88d9 903d
000000b0: b80b 6dbe 4fab 07bc 0590 71be 7a19 0c3e
000000c0: 7db2 b13c 0040 71bd e03a 833e 79b8 d2bd
000000d0: c84f 49be e631 1d3e eda3 f9bd f06c 6b3d
000000e0: 8f4d 8f3e 972e d63c 1870 1e3e c47e 3b3e
000000f0: 0345 14bb df19 923e b83c 62bd f8f7 553e
00000100: cdc9 4e3d 9905 ce3d d039 53bd d525 a7bc
00000110: 4470 98bd 5956 283e cd13 31be 3c84 2dbc
00000120: e608 42ba 951b 303e b8db 3c3e 5309 0ebe
00000130: 21dc b53d b162 5a3e 1751 7ebe 3c73 abbd
00000140: c2c7 9b3e 8892 e0bd 5185 86be b147 b6bd
00000150: 5e09 f53d c2c7 9f3e 685f a8bc a0e5 5abe
00000160: 02f2 7ebe 7866 38be 4287 043e 568e 1abe
00000170: fc0e 903d e1b3 813e f4f7 5f3d e722 d1bd
00000180: 0f47 6c3d 0752 653c 93fc 8a3e e2c2 343e
00000190: d054 3fbe e6f1 f63c 3c53 69be 3e72 963c
000001a0: 30a6 36bd 391e a33e d6a4 ef3d 135a bbbd
000001b0: 161e 8f3d 1786 2fbe 7a02 53be 359c d23d
000001c0: 4ef2 503c c48d 82be 3946 323d 2adb f23d
000001d0: 3eca 95bc 21c2 31be f563 3a3e d8bf 42bc
000001e0: ef94 0e3c 20d2 d2bd a8a3 0d3e 5bdc ea3d
000001f0: ead6 7e3d 7d1c 91bd c9d8 d53d 8779 c33d
00000200: 3c53 523e aa54 6c3d 591b 283d 986f c33d
00000210: 3be3 4b3e 4e23 803e b01c 773e f103 c93d
00000220: 9568 31bd 25b3 3fbe 37aa 683d 7ba2 afbb
00000230: f666 2cba d977 94bd ebc6 3cbe b489 463d
00000240: 50a7 1b3e a9cf 763d 856d ad3d 8f60 24bc
00000250: e66c 40bd 3993 3dbe 96b6 023e 188e 1bbe
00000260: e401 453e 1cbf 82be deac 68be 17c7 66be
00000270: ebb3 64be 686f 05be 96fe 703c 41de 32be
00000280: 532a f03d 1b26 5c3e 7a46 64be 7b1d 06be
00000290: 2a9f 463e 0a79 f1bd 9a15 753d 9296 233e
000002a0: 1213 e1bd f4b5 31be bd48 6ebe f527 b33d
000002b0: bb3f c5bd 89d8 f63d 9f17 6f3d 4318 be3c
000002c0: 8f5b 573c 3162 113e 6aff 49be 67fe 31be
000002d0: 7536 89bc 5877 59be 4f1a 05bc cfc5 153e
000002e0: c1b8 67be 2052 20be 9b0c 543e 6840 9d3d
000002f0: 1228 30be 44d2 fbbd 91d4 8d3d 6796 343e
00000300: 2ed3 9ebd 4e31 e63b 0492 4f3d cdbe 753e
00000310: baa4 673c deec 373e 6e8d 86bd 4aff 04bd
00000320: c8d5 333e 657d c73d f0e6 e03d 8cf1 35be
00000330: 788f 603e fc11 fbbc 1d94 533e 826d 363e
00000340: 5072 f93d c413 0c3e 7826 4bbd 3b96 ee3d
00000350: 29ae 1bbe c1c4 fb3d edcd 42be 99a1 863d
00000360: f081 0fbe fb6f f33d 5815 f83d 22e5 d43d
00000370: 6d2a 013e 62b5 1cbe 4eb0 2f3e 099d eabc
00000380: 10d7 a33c 435d 4ebe 010b dcbc bae7 00be
00000390: 1b41 4dbe e14a d5bb 7c97 28be 0e24 123e
000003a0: d892 87bd 4ab6 3ebc 51ca 3fbe 6a36 02be
000003b0: f1dd 9cbc b935 ce3d 6fee 373e cf55 5abe
000003c0: 2efe 9e3c 9a69 33be 80d8 21be 01c0 2e3d
000003d0: e9b1 fd3d 9c1b 163e 9cb5 12bd 55b4 db3c
000003e0: 8ceb 06be 1448 e1bd 4617 263d 67e6 133e
000003f0: 9d54 82bb 1f85 aabd 8d11 debd c4b1 8abe

weight_hh_l0 f4 [64, 4]
-0.31502223 -0.24623793 -0.049153395 0.11509724 -0.22734943 -0.21663795 -0.07917321 0.007303781
0.21649702 -0.23737665 -0.08468703 0.26145163 -0.23130968 0.14350282 -0.24557403 0.13005112
0.14525965 0.21309088 -0.041227587 -0.28490224 0.23781133 0.061844792 0.06922572 0.17059326
0.3009703 -0.25237212 -0.09259754 0.27941254 -0.06937751 0.08065459 -0.10417248 0.1748607
-0.15471837 0.22032554 -0.22982658 -0.078800164 -0.08044277 -0.14730173 0.08489949 0.15598914
-0.065752186 0.08316518 -0.1266364 0.26851055 0.31603938 -0.0475862 -0.13237 0.12480371
-0.10503146 0.14060467 0.0752585 -0.049279053 -0.09291812 0.11331161 0.0014452453 -0.101214185
0.08375727 -0.1213554 -0.19780946 -0.19397397 0.05723207 0.050353404 -0.0013918073 0.2735939
-0.03207963 -0.29136702 -0.29490012 0.2954002 0.09428004 -0.09215246 0.1193242 0.0767913
0.22258802 0.077628046 0.022987796 0.11525915 0.24384837 -0.18061915 0.18336286 -0.14605269
0.1114919 -0.07139711 -0.20174107 0.02324318 -0.15349151 0.109462544 -0.25424254 0.22803551
-0.1723902 -0.16763481 0.099470615 0.32230183 0.07407596 0.11506317 0.11807301 -0.16635297
0.010621695 -0.27650648 0.11320148 -0.024644908 0.3267592 0.067113996 0.02214501 0.33499664
-0.26798117 0.035932913 -0.05489687 -0.28036532 -0.0038368402 -0.12222607 0.33835056 -0.24622878
0.20272152 -0.02341338 -0.24748506 0.10307171 -0.062996574 0.04218232 -0.19450139 -0.107303984
0.081241705 0.009970865 -0.13751742 0.22300686 -0.020017767 -0.26634026 -0.3077182 -0.12625687
0.1407701 -0.079229765 -0.10829463 0.20629017 -0.36727348 -0.1662294 0.081600256 0.080850475
0.037811358 -0.15279189 0.050902724 -0.32285953 -0.044408713 0.23356982 -0.11379701 -0.29625994
0.17912987 -0.22579138 -0.09122866 0.25816453 0.022780506 0.13467649 -0.34497246 0.33822054
-0.27616122 0.29119477 0.2261028 -0.050757833 -0.12942755 0.059065238 0.07460459 -0.045391083
0.06832712 -0.13171397 0.046278927 0.20239429 0.01431867 -0.041408844 -0.14664449 0.26375353
-0.25739577 0.052677635 0.09091591 0.07269927 -0.10063181 -0.117014885 -0.17337392 0.29461864
0.018870234 -0.107643 0.07096848 0.025738986 -0.1972613 0.1635283 0.1442439 -0.19502684
-0.19763052 0.13974649 0.031532273 -0.019550765 0.13535622 0.07738146 0.13909309 0.03152126
0.03107607 -0.004363272 -0.12000422 -0.063948795 -0.34837037 -0.11315884 0.20267366 0.07877015
0.11030062 -0.2596226 -0.09508665 -0.21235794 0.33449093 -0.19203953 0.045278177 0.09124783
0.107996136 -0.19145942 -0.13823828 0.083865695 -0.30287388 -0.0016878408 -0.13051318 0.16843969
-0.33389786 -0.040625624 0.058797315 0.26731184 -0.053410757 -0.09266328 0.23126546 0.18534838
0.016834041 0.06766067 0.107653596 0.30584943 0.33998528 -0.18055098 -0.17055719 0.05247581
-0.23262715 0.30582768 0.16756211 -0.19628671 -0.2758979 -0.07398323 0.2759266 -0.08416556
-0.0710675 -0.2574524 0.04895846 -0.13352126 -0.11374249 0.08658163 -0.087727666 0.11132373
-0.10942354 -0.03895679 0.102825515 0.15795615 -0.033995558 0.14603792 -0.022859724 0.2941771
00000000: 984a a1be cc25 7cbe 1255 49bd 1ab8 eb3d
00000010: 4ace 68be 57d6 5dbe 9025 a2bd 8e54 ef3b
00000020: 65b1 5d3e dd12 73be 6570 adbd fddc 853e
00000030: 72dc 6cbe 67f2 123e c277 7bbe 1f2c 053e
00000040: f2be 143e 7f34 5a3e 42de 28bd b5de 91be
00000050: d084 733e f750 7d3d 37c6 8d3d 00b0 2e3e
00000060: c718 9a3e eb36 81be c7a3 bdbd 290f 8f3e
00000070: cc15 8ebd 3c2e a53d 6258 d5bd af0e 333e
00000080: 7e6e 1ebe 059d 613e a957 6bbe fb61 a1bd
00000090: 2ebf a4bd 44d6 16be c9df ad3d 9ebb 1f3e
000000a0: 15a9 86bd 8252 aa3d f9ac 01be 377a 893e
000000b0: eacf a13e bfe9 42bd 008c 07be 1699 ff3d
000000c0: bc1a d7bd acfa 0f3e 2121 9a3d d5d8 49bd
000000d0: db4b bebd eb0f e83d 636e bd3a 6249 cfbd
000000e0: ee88 ab3d 2e89 f8bd 908e 4abe 1da1 46be
000000f0: 2d6c 6a3d 5f3f 4e3d 4e6d b6ba 8014 8c3e
00000100: ee65 03bd 0f2e 95be 26fd 96be b23e 973e
00000110: e515 c13d 6eba bcbd 3f60 f43d c244 9d3d
00000120: 1dee 633e 74fb 9e3d e750 bc3c fd0c ec3d
00000130: 63b3 793e 3af4 38be 79c3 3b3e d68e 15be
00000140: de55 e43d a638 92bd 3695 4ebe 7b68 be3c
00000150: e12c 1dbe e62d e03d 142c 82be 2482 693e
00000160: 0e87 30be 76a8 2bbe 40b7 cb3d bf04 a53e
00000170: 23b5 973d 3da6 eb3d 43d0 f13d 6f58 2abe
00000180: 9e06 2e3c 4292 8dbe 2dd6 e73d 1ee4 c9bc
00000190: fb4c a73e 1073 893d 7469 b53c ae84 ab3e
000001a0: d434 89be 642e 133d 8adb 60bd 0b8c 8fbe
000001b0: 7f73 7bbb a951 fabd 493c ad3e 6623 7cbe
000001c0: 3b96 4f3e 6bcd bfbc b96c 7dbe 4317 d33d
000001d0: 5904 81bd 5ec7 2c3d 5f2b 47be 31c2 dbbd
000001e0: 0d62 a63d d75c 233c 5ed1 0cbe e95b 643e
000001f0: 4dfc a3bc c05d 88be 3d8d 9dbe 7b49 01be
00000200: 0926 103e 3743 a2bd 93c9 ddbd bb3d 533e
00000210: 450b bcbe 0a38 2abe 091e a73d ef94 a53d
00000220: 15e0 1a3d 7a75 1cbe 607f 503d d84d a5be
00000230: e9e5 35bd ed2c 6f3e 680e e9bd 62af 97be
00000240: d26d 373e db35 67be 17d6 babd 242e 843e
00000250: 2f9e ba3c a2e8 093e 3ba0 b0be 3e2b ad3e
00000260: 0165 8dbe 7b17 953e 7e87 673e 72e7 4fbd
00000270: a888 04be 64ee 713d 4bca 983d 00ec 39bd
00000280: 17ef 8b3d 07e0 06be f98e 3d3d 7340 4f3e
00000290: db98 6a3c 529c 29bd f929 16be b40a 873e
000002a0: 61c9 83be 81c4 573d 1f32 ba3d 5be3 943d
000002b0: 0d18 cebd 80a5 efbd ef88 31be 41d8 963e
000002c0: c095 9a3c ef73 dcbd ec57 913d 91da d23c
000002d0: defe 49be f673 273e acb4 133e 1eb5 47be
000002e0: a85f 4abe b419 0f3e fc27 013d ed28 a0bc
000002f0: d29a 0a3e 2c7a 9e3d 6b6e 0e3e 701c 013d
00000300: 3e93 fe3c c7f9 8ebb c6c4 f5bd 96f7 82bd
00000310: 9a5d b2be d2bf e7bd af89 4f3e 3f52 a13d
00000320: 4be5 e13d 41ed 84be cabc c2bd 5c74 59be
00000330: 6542 ab3e 03a6 44be 9c75 393d 24e0 ba3d
00000340: 142d dd3d f00d 44be 568e 0dbe c7c1 ab3d
00000350: 4912 9bbe 8a3a ddba 3fa5 05be 747b 2c3e
00000360: a9f4 aabe 0e67 26bd 74d5 703d 19dd 883e
00000370: 3dc5 5abd 3fc6 bdbd dad0 6c3e f7cb 3d3e
00000380: 8be7 893c ad91 8a3d 7d79 dc3d 4c98 9c3e
00000390: 8d12 ae3e 5be2 38be 8ba6 2ebe e0f0 563d
000003a0: d035 6ebe 7295 9c3e 6795 2b3e 62ff 48be
000003b0: 7d42 8dbe 8584 97bd 4046 8d3e fe5e acbd
000003c0: d68b 91bd cdd0 83be ab88 483d ccb9 08be
000003d0: d3f1 e8bd b651 b13d 90aa b3bd b2fd e33d
000003e0: 7319 e0bd 2891 1fbd 2f96 d23d 42bf 213e
000003f0: ed3e 0bbd f78a 153e 5144 bbbc 619e 963e

bias_ih_l0 f4 [64]
-0.10336527 0.13110724 0.09248395 -0.15325923 0.119764 0.05859247 0.18847191 -0.008035709
-0.020336641 -0.10871438 -0.16113016 0.066771634 -0.26806998 -0.31959325 0.09570651 0.23501745
-0.08088202 0.34834597 0.14727075 0.07933404 0.076270446 -0.11933803 0.06108865 0.09018716
-0.16398554 0.07481251 -0.02804709 0.182118 -0.25282425 0.1293913 -0.069466196 0.103300944
-0.21703869 -0.07462033 0.2864102 -0.023967488 0.06792494 -0.14988168 0.15650344 -0.00088765204
-0.27562752 0.10710781 0.11368264 -0.35098457 0.06735623 -0.085269555 0.039121233 -0.06802497
-0.09177544 0.28784984 0.15277922 0.056503855 0.08369335 0.20713447 0.05045793 -0.091284625
0.16638096 0.050404035 0.06266843 -0.02186383 -0.18035488 0.15377505 0.26479134 -0.2062142
00000000: 2cb1 d3bd fa40 063e 3a68 bd3d fdef 1cbe
00000010: d446 f53d a8fe 6f3d c8fe 403e 35a8 03bc
00000020: 0799 a6bc a5a5 debd 4eff 24be 91bf 883d
00000030: 7840 89be baa1 a3be c601 c43d 6aa8 703e
00000040: 79a5 a5bd 675a b23e 25ce 163e e379 a23d
00000050: ae33 9c3d 7f67 f4bd 1838 7a3d 0cb4 b83d
00000060: d3eb 27be 4d37 993d 03c3 e5bc 247d 3a3e
00000070: 2e72 81be 277f 043e 4b44 8ebd 728f d33d
00000080: 643f 5ebe 8bd2 98bd 5ca4 923e 7757 c4bc
00000090: 3b1c 8b3d 957a 19be 7042 203e 52b1 68ba
000000a0: 0d1f 8dbe 575b db3d 72d2 e83d 40b4 b3be
000000b0: 10f2 893d cea1 aebd 963d 203d ad50 8bbd
000000c0: c3f4 bbbd 0e61 933e 2872 1c3e 9670 673d
000000d0: 6b67 ab3d 0f1b 543e f9ac 4e3d 6ff3 babd
000000e0: c55f 2a3e 7674 4e3d 4e58 803d c61b b3bc
000000f0: f3ae 38be 3577 1d3e bb92 873e d129 53be

bias_hh_l0 f4 [64]
0.08156555 0.16339341 0.35242298 0.026730282 0.09268051 0.0687831 -0.038357213 -0.05507865
0.009088523 -0.1727946 -0.08577329 0.14530917 0.18746184 0.009250257 0.10545097 -0.13491829
-0.12784363 -0.10606176 -0.2188401 0.31584594 0.16294669 -0.117850244 0.3039228 0.14144737
0.3248081 -0.022946889 0.15836087 0.335899 0.12279093 0.34932515 0.25695547 0.08695419
-0.26991934 0.33439904 0.15619823 0.24591136 0.13590744 -0.20085192 -0.094465636 0.13839927
0.01793499 -0.31607106 0.16687152 -0.25476894 -0.018382024 -0.08424642 -0.124311134 0.0931303
0.27369276 0.10338197 -0.05125361 -0.16188248 0.17238432 0.092259906 0.08207958 0.26047716
-0.058830082 0.21174288 0.14284554 0.02167979 0.2415671 0.22184289 0.120932825 -0.023395764
00000000: d70b a73d 9a50 273e c970 b43e 77f9 da3c
00000010: 47cf bd3d 27de 8c3d 741c 1dbd 279a 61bd
00000020: 07e8 143c 11f1 30be e8a9 afbd edcb 143e
00000030: fff5 3f3e 648e 173c aef6 d73d 0528 0abe
00000040: 71e9 02be e836 d9bd 9f17 60be 8fb6 a13e
00000050: 7fdb 263e 785b f1bd c59b 9b3e 94d7 103e
00000060: 3f4d a63e 1dfb bbbc 5a29 223e f4fa ab3e
00000070: d079 fb3d bfda b23e ab8f 833e 0a15 b23d
00000080: de32 8abe 5a36 ab3e 6ef2 1f3e 30d0 7b3e
00000090: 522b 0b3e 20ac 4dbe 3377 c1bd 8ab8 0d3e
000000a0: 66ec 923c 11d4 a1be 5ee0 2a3e 1371 82be
000000b0: e695 96bc 6389 acbd d696 febd 19bb be3d
000000c0: 7521 8c3e edb9 d33d 4eef 51bd 85c4 25be
000000d0: 8485 303e c3f2 bc3d 5719 a83d 435d 853e
000000e0: d0f7 70bd 20d3 583e 1a46 123e d199 b13c
000000f0: 5e5d 773e c82a 633e a1ab f73d 79a8 bfbc

weight_hr_l0 f4 [4, 16]
-0.072484136 -0.27935588 -0.27562258 -0.069473706 0.38524517 0.060627583 -0.22616963 -0.26515734
0.07399634 0.334624 -0.18237305 0.14325911 -0.019182745 -0.24233001 -0.2609948 -0.091458976
-0.3693466 0.29473528 0.30979973 0.26847228 0.0024854164 -0.20450577 0.1486148 0.031792823
-0.29497463 0.17472386 0.2249622 -0.049512077 0.051884957 0.06963428 0.016982198 -0.15818161
-0.3367274 0.279721 0.28291297 0.23903127 0.074665196 -0.25661403 0.08816754 0.073391795
-0.19335972 -0.3451874 0.36761534 -0.16267303 0.27401063 0.3806541 0.3070282 -0.121050395
0.29292548 -0.12061504 -0.24245337 -0.25576904 0.03682827 0.17412911 -0.166413 -0.23044324
0.24690107 0.2534955 0.07751234 -0.14849542 -0.31969523 0.120776646 -0.29312962 0.31461245
00000000: 9072 94bd bc07 8fbe 671e 8dbe 3b48 8ebd
00000010: db3e c53e a154 783d 0399 67be b4c2 87be
00000020: 658b 973d d653 ab3e 00c0 3abe 84b2 123e
00000030: 2225 9dbc 5c25 78be 1ca1 85be d84e bbbd
00000040: ff1a bdbe 8be7 963e 129e 9e3e 3375 893e
00000050: 5ee2 223b f669 51be 7a2e 183e 3139 023d
00000060: ea06 97be d0ea 323e 7e5c 663e 2dcd 4abd
00000070: 5285 543d 6b9c 8e3d 401e 8b3c 5cfa 21be
00000080: 8967 acbe 9737 8f3e f8d9 903e 9dc4 743e
00000090: 11ea 983d ea62 83be 2f91 b43d 704e 963d
000000a0: 1700 46be 67bc b0be 1438 bc3e c293 26be
000000b0: 1f4b 8c3e 18e5 c23e cd32 9d3e 45e9 f7bd
000000c0: 54fa 953e 0505 f7bd b245 78be 29f4 82be
000000d0: 3dd9 163d e74e 323e 2b68 2abe 50f9 6bbe
000000e0: a2d3 7c3e 2aca 813e cabe 9e3d 2f0f 18be
000000f0: 18af a3be bf59 f73d 1615 96be e214 a13e

weight_ih_l1 f4 [64, 4]
-0.01916071 0.10444689 -0.22598387 0.32429662 0.15550044 0.20839909 -0.19546309 0.271992
0.27727762 -0.23143247 -0.12660797 -0.04200612 0.08452017 0.082527995 -0.10266709 -0.07875575
-0.009521847 0.0320157 0.03503285 0.21524444 0.14844316 0.26859924 0.24724473 0.28025213
0.11762901 -0.17875002 -0.022803707 0.05983907 -0.29296935 0.37434623 -0.013877345 -0.29044083
0.1400359 -0.19373073 -0.04241447 0.19912256 -0.2820423 0.26816186 -0.09455222 0.26176396
0.291707 -0.155945 0.023144104 0.33703092 -0.16417465 -0.087535664 -0.07333763 0.051712014
0.14830965 -0.09831962 -0.27810597 0.055055853 0.21108368 0.049556356 0.10827415 0.3175234
0.046689317 -0.17047253 0.17771657 0.10868313 0.23029613 -0.047530822 -0.09529045 0.10453095
-0.07037708 -0.12734315 0.0053343386 0.23100825 -0.08670231 -0.0008767419 -0.18531159 0.17485075
0.32162237 -0.3468178 -0.33973524 0.31043977 0.22045548 0.09547287 -0.333382 0.056542348
0.06676949 0.11559109 -0.024682177 -0.0025265457 -0.17431358 0.33181486 -0.1415356 0.08155351
-0.105455294 -0.11255801 -0.0034904685 0.13771264 0.044554844 0.31214955 0.16219808 0.09360851
0.2809433 0.092777535 -0.034457184 0.3771889 -0.23823757 -0.14900061 0.10328965 0.10127283
-0.050865375 -0.12153398 0.024225306 -0.103016704 -0.2533284 0.032874994 0.18684095 -0.046582066
0.28588974 -0.16042162 0.12478844 0.32543266 -0.12552728 -0.12596643 -0.031145515 0.046194017
0.12505977 -0.090466134 0.06509812 0.06563837 0.08360881 -0.1486657 -0.2759769 0.19442894
-0.12590599 0.019492006 0.2549869 -0.010658145 0.2557503 0.10131398 -0.27823925 0.28185588
0.27448428 -0.21956973 -0.24723639 -0.04664085 -0.031704996 -0.15013246 -0.11933789 0.2925685
0.3836215 -0.31214422 -0.22096942 -0.11484653 0.20046107 -0.19513775 -0.07014495 0.1599432
0.10167174 0.064346924 0.40262902 -0.043250754 -0.28629187 0.27426556 -0.07951736 -0.21829396
-0.2814911 0.014676341 -0.086273454 -0.3343303 -0.386392 0.16385888 0.38075548 -0.042124256
0.057203673 0.053734746 -0.2803053 -0.0050047855 -0.06803565 0.032077942 -0.08253759 -0.17446312
-0.116406456 -0.10457612 0.3294083 -0.11960913 -0.27510396 0.30431554 0.29346487 -0.009758537
-0.17016219 -0.0763728 0.13823727 -0.23405398 0.2522227 -0.29768836 -0.3006904 0.1990872
-0.022049299 0.12203356 -0.2671153 0.05185562 -0.077945694 -0.0378439 -0.1792263 0.3728658
0.15504928 -0.041014858 -0.24589075 0.07811412 -0.06898428 -0.21201162 -0.15244108 -0.107129775
0.108765714 0.01383099 0.14593881 0.17832601 0.092732996 -0.11306992 0.22027697 0.16571516
0.3401822 0.10862794 -0.17017291 0.23393226 0.05708806 0.06580279 0.23750834 -0.113928206
0.25635403 0.022048665 -0.16384475 -0.044412855 -0.12986504 0.19853857 0.0823056 0.31249538
0.332881 -0.3170708 -0.10507513 0.127043 -0.09403904 -0.06978749 0.06713253 -0.14620903
0.089410484 -0.21599469 -0.21585998 0.20196435 0.1995798 -0.29804328 0.13708206 0.21024239
0.3200104 0.0698284 -0.06938226 0.16560034 0.28542742 -0.3262092 0.0633646 0.2034911
00000000: ecf6 9cbc 40e8 d53d 5168 67be 350a a63e
00000010: 823b 1f3e 9266 553e 7a27 48be 8942 8b3e
00000020: 55f7 8d3e a2fc 6cbe 85a5 01be 9c0e 2cbd
00000030: e918 ad3d 7004 a93d 2043 d2bd b24a a1bd
00000040: 8501 1cbc e522 033d 9b7e 0f3d 0a69 5c3e
00000050: 7c01 183e d785 893e b92d 7d3e 357d 8f3e
00000060: 7ae7 f03d 3f0a 37be d7ce babc d019 753d
00000070: 1400 96be 4faa bf3e ce5d 63bc a9b4 94be
00000080: 9265 0f3e 5961 46be ccba 2dbd c9e6 4b3e
00000090: d967 90be 834c 893e 98a4 c1bd ed05 863e
000000a0: 9f5a 953e 0cb0 1fbe b498 bd3c 518f ac3e
000000b0: 661d 28be e645 b3bd 0a32 96bd facf 533d
000000c0: 7cde 173e cc5b c9bd e863 8ebe 3f82 613d
000000d0: 5226 583e 9bfb 4a3d d6be dd3d 6d92 a23e
000000e0: 4c3d 3f3d 5a90 2ebe 55fb 353e 4395 de3d
000000f0: c0d2 6b3e aeaf 42bd a427 c3bd 5314 d63d
00000100: dc21 90bd 3e66 02be adcb ae3b 6d8d 6c3e
00000110: fb90 b1bd 27d5 65ba 52c2 3dbe 130c 333e
00000120: b0ab a43e 1a92 b1be c7f1 adbe f6f1 9e3e
00000130: 15bf 613e 4887 c33d 0cb1 aabe f398 673d
00000140: 71be 883d 05bb ec3d 4732 cabc 6794 25bb
00000150: 427f 32be a3e3 a93e b5ee 10be 8705 a73d
00000160: f2f8 d7bd d084 e6bd 58c0 64bb 8b04 0d3e
00000170: 247f 363d 11d2 9f3e 4117 263e d2b5 bf3d
00000180: cdd7 8f3e 2602 be3d fa22 0dbd e71e c13e
00000190: 8df4 73be 9e93 18be 8689 d33d 2168 cf3d
000001a0: 3658 50bd cfe6 f8bd 2674 c63c 6cfa d2bd
000001b0: 43b4 81be eea7 063d 3c53 3f3e d6cc 3ebd
000001c0: 2460 923e 9145 24be 1591 ff3d 1c9f a63e
000001d0: 398a 00be 58fd 00be e124 ffbc f035 3d3d
000001e0: ab0f 003e 4f46 b9bd 2a52 853d 696d 863d
000001f0: 193b ab3d d23b 18be d84c 8dbe 6118 473e
00000200: 80ed 00be b3ad 9f3c a58d 823e 809f 2ebc
00000210: b4f1 823e b47d cf3d 6075 8ebe 6a4f 903e
00000220: 3489 8c3e e3d6 60be 892b 7dbe 7a0a 3fbd
00000230: 19dd 01bd 53bc 19be 6c67 f4bd 8acb 953e
00000240: 0a6a c43e 5ed1 9fbe cf45 62be a834 ebbd
00000250: ab45 4d3e 31d2 47be 28a8 8fbd 26c8 233e
00000260: 4639 d03d 52c8 833d 6425 ce3e b427 31bd
00000270: d994 92be 896c 8c3e ffd9 a2bd 7488 5fbe
00000280: 9a1f 90be 0975 703c 23b0 b0bd 572d abbe
00000290: 2cd5 c5be 9fca 273e 62f2 c23e 7c8a 2cbd
000002a0: 664e 6a3d f718 5c3d 2d84 8fbe 2fff a3bb
000002b0: 4656 8bbd 2964 033d 7809 a9bd 76a6 32be
000002c0: 8266 eebd 012c d6bd 34a8 a83e a2f5 f4bd
000002d0: 6dda 8cbe 3fcf 9b3e 0741 963e 45e2 1fbc
000002e0: ff3e 2ebe 5869 9cbd 128e 0d3e d9ab 6fbe
000002f0: 5523 813e 9c6a 98be 18f4 99be 84dd 4b3e
00000300: bba0 b4bc bbec f93d 56c3 88be 8f66 543d
00000310: fea1 9fbd 3502 1bbd 1987 37be 44e8 be3e
00000320: 3dc5 1e3e 32ff 27bd c9ca 7bbe 4cfa 9f3d
00000330: a147 8dbd 9319 59be 8419 1cbe db66 dbbd
00000340: 8fc0 de3d 609b 623c fc70 153e 189b 363e
00000350: ccea bd3d 3491 e7bd 4990 613e 3cb1 293e
00000360: 5c2c ae3e 5378 de3d cf41 2ebe f08b 6f3e
00000370: 2bd5 693d 9dc3 863d 6335 733e 3153 e9bd
00000380: d640 833e 679f b43c ebc6 27be 41ea 35bd
00000390: 57fb 04be b24d 4b3e d78f a83d 65ff 9f3e
000003a0: 616f aa3e 1b57 a2be a131 d7bd 8f17 023e
000003b0: 8a97 c0bd beec 8ebd c87c 893d d2b7 15be
000003c0: d81c b73d b62d 5dbe 660a 5dbe becf 4e3e
000003d0: a65e 4c3e 2199 98be 3d5f 0c3e c849 573e
000003e0: 67d8 a33e 3102 8f3d 4918 8ebd 2393 293e
000003f0: 8b23 923e e404 a7be 4dc5 813d f95f 503e

weight_hh_l1 f4 [64, 4]
0.30943087 0.036850084 -0.010397471 -0.067771465 0.32497314 0.18416686 0.2193967 0.20625882
-0.0010689782 0.07778682 0.27029562 0.21303709 0.2570366 -0.056412112 0.21566744 0.06948017
0.29255623 0.25791618 -0.13983065 0.05501167 0.24960414 -0.079135954 0.098585136 -0.14832793
0.16076075 -0.021811254 0.1774397 0.14183995 -0.008586086 -0.26707596 -0.257138 0.2207057
-0.08759816 0.2088305 0.03150399 -0.28628278 0.3013463 0.00015685524 -0.01734356 0.12494251
0.16165785 0.29978457 0.24021062 0.15155515 0.213392 0.026516793 0.12943088 -0.13606293
-0.10831527 -0.04348943 -0.1351617 0.024871353 0.19039856 -0.11446461 0.026604608 0.040333424
0.14613785 0.20364054 0.12219245 0.10248991 0.15145059 0.023676382 0.26341555 0.18044853
0.062085368 -0.08304108 -0.11729507 0.2008051 0.17590778 0.2035013 -0.16952825 0.25999302
0.16424736 0.28910878 -0.12536703 0.16536552 0.19220324 0.14724992 0.09401051 -0.118264824
-0.092937656 0.30956286 -0.06326185 0.26886287 0.025695788 0.14863242 0.122954465 0.15383987
-0.036778074 0.2141524 0.038582977 0.17201693 0.039542727 -0.1077142 -0.32560593 0.13175663
0.11638724 -0.0168133 0.12020117 -0.1912962 0.009760869 0.23334982 0.07560874 -0.06708374
0.011798043 0.32681575 0.014376367 0.1302851 -0.23841931 0.030891187 -0.17652708 0.16329277
-0.11170308 -0.05440914 0.035140947 -0.3641535 -0.019688983 0.11179039 -0.1486017 -0.16619137
-0.070171244 0.30398798 0.24681698 -0.19460545 0.16346455 0.071265094 0.11880845 -0.14632435
-0.045349438 -0.15771666 -0.055762544 0.30900353 0.17028168 -0.11116337 0.33572558 -0.18481058
-0.13376272 0.045710545 -0.021543551 -0.27332813 0.29483548 0.33724263 0.3091495 0.114453465
0.11530283 0.009679379 0.2173213 -0.09375753 -0.07119175 0.10166282 0.22585972 -0.22903813
0.12152045 -0.3544199 -0.11665248 0.07121962 0.16633795 -0.011778227 0.05538347 -0.009668789
-0.0033970324 -0.12403426 0.07767687 -0.13402364 0.026703421 -0.08303161 -0.043447398 -0.016206812
0.02588985 0.09970537 0.119281344 -0.21646847 0.19161142 0.10398693 -0.034634434 0.16672868
0.05162495 0.14122988 -0.13407904 0.21335281 -0.18830892 -0.15512285 -0.23225032 -0.16534942
-0.1821556 -0.16118026 -0.28280693 0.08233269 0.069348104 0.33743584 0.24304733 0.15754281
0.2584714 -0.03250537 -0.11510638 0.10722757 0.26004264 -0.112537295 0.17329587 -0.10750737
0.25601727 -0.035613514 0.37180987 -0.12504119 0.12506826 -0.08173435 0.08633175 0.1245051
0.2585719 0.22488563 0.3427107 0.053656135 0.1224616 0.13072206 0.059447322 0.17723264
0.15262741 -0.04154666 0.18016978 -0.11783846 -0.051061362 -0.057669442 -0.30688336 -0.019627577
0.27517614 0.09213736 0.33554456 -0.2781765 0.009138784 -0.05782551 0.25718623 0.033454515
0.3411427 0.21555983 0.1453359 0.109080665 -0.17390862 0.18989901 -0.050765093 0.041841444
-0.034579754 0.26373738 0.012465148 0.024847701 -0.07149305 0.05616326 -0.11501589 -0.00066277554
0.22865768 0.2559877 -0.023911059 -0.13778666 0.011449349 -0.07447196 -0.06345917 -0.24851319
00000000: b96d 9e3e 1df0 163d 275a 2abc c4cb 8abd
00000010: e162 a63e 3d96 3c3e 87a9 603e 8335 533e
00000020: f51c 8cba b24e 9f3d 3064 8a3e 6526 5a3e
00000030: 4d9a 833e 6310 67bd edd7 5c3e 9f4b 8e3d
00000040: eec9 953e 970d 843e c42f 0fbe eb53 613d
00000050: 3a98 7f3e 0812 a2bd 01e7 c93d 47e3 17be
00000060: 779e 243e 84ad b2bc c1b2 353e 7e3e 113e
00000070: a8ac 0cbc 2ebe 88be 98a7 83be ad00 623e
00000080: aa66 b3bd aad7 553e 540a 013d a893 92be
00000090: 104a 9a3e 8279 2439 1514 8ebc dce1 ff3d
000000a0: a389 253e 5d7d 993e c6f9 753e 4631 1b3e
000000b0: 6f83 5a3e bf39 d93c 8789 043e 1554 0bbe
000000c0: 65d4 ddbd f921 32bd d467 0abe 02bf cb3c
000000d0: d7f7 423e 6c6c eabd e8f1 d93c a934 253d
000000e0: 29a5 153e 2587 503e 0940 fa3d 3be6 d13d
000000f0: dd15 1b3e f9f4 c13c 67de 863e 80c7 383e
00000100: 3a4d 7e3d 7111 aabd 6638 f0bd da9f 4d3e
00000110: 2b21 343e a562 503e d098 2dbe ce1d 853e
00000120: 7630 283e 1106 943e 3760 00be 9455 293e
00000130: edd0 443e afc8 163e 9588 c03d d434 f2bd
00000140: 1956 bebd 067f 9e3e 6e8f 81bd 65a8 893e
00000150: f97f d23c 1933 183e 8dcf fb3d 3388 1d3e
00000160: 9ba4 16bd c44a 5b3e 2f09 1e3d 3525 303e
00000170: 8ef7 213d 4399 dcbd d2b5 a6be 36eb 063e
00000180: 6f5c ee3d 0cbc 89bc 082c f63d 27e3 43be
00000190: 0dec 1f3c 41f3 6e3e c1d8 9a3d 3363 89bd
000001a0: 944c 413c 6554 a73e db8a 6b3c 7569 053e
000001b0: 3124 74be 840f fd3c 84c3 34be 3836 273e
000001c0: 96c4 e4bd 1edc 5ebd f4ef 0f3d 5472 babe
000001d0: ca4a a1bc 5cf2 e43d 0b2b 18be 122e 2abe
000001e0: f1b5 8fbd 50a4 9b3e 97bd 7c3e a746 47be
000001f0: 4063 273e 6ff3 913d d851 f33d 0dd6 15be
00000200: 55c0 39bd 7a80 21be 4467 64bd b635 9e3e
00000210: 525e 2e3e 9fa9 e3bd 39e4 ab3e fc3e 3dbe
00000220: 18f9 08be fb3a 3b3d 1a7c b0bc aaf1 8bbe
00000230: adf4 963e 11ab ac3e d848 9e3e 9466 ea3d
00000240: e423 ec3d 4296 1e3c 7a89 5e3e f303 c0bd
00000250: fbcc 91bd 9934 d03d c547 673e f988 6abe
00000260: b7df f83d 8676 b5be 7fe7 eebd 98db 913d
00000270: 7f54 2a3e 77f9 40bc c7d9 623d d769 1ebc
00000280: bfa0 5ebb ad05 febd 0d15 9f3d 7e3d 09be
00000290: 22c1 da3c 7a0c aabd e6f5 31bd 26c4 84bc
000002a0: f316 d43c 5432 cc3d c749 f43d e9a9 5dbe
000002b0: c935 443e 19f7 d43d d6dc 0dbd ecba 2a3e
000002c0: af74 533d 919e 103e 044c 09be 2979 5a3e
000002d0: 0ed4 40be 86d8 1ebe 07d3 6dbe 5c51 29be
000002e0: ff86 3abe 700c 25be 12cc 90be 0b9e a83d
000002f0: 6106 8e3d 64c4 ac3e 66e1 783e e752 213e
00000300: 5d56 843e 5a24 05bd e5bc ebbd 219a db3d
00000310: 4f24 853e f479 e6bd 7974 313e d32c dcbd
00000320: b214 833e 7adf 11bd dd5d be3e cc0a 00be
00000330: e511 003e 5764 a7bd b3ce b03d 88fc fe3d
00000340: 8963 843e 6b48 663e c777 af3e 89c6 5b3d
00000350: 26cd fa3d 01dc 053e 097f 733d 797c 353e
00000360: 5c4a 1c3e d52c 2abd 6d7e 383e 4a55 f1bd
00000370: b825 51bd cb36 6cbd d11f 9dbe 03ca a0bc
00000380: e3e3 8c3e 83b2 bc3d 7fcc ab3e 266d 8ebe
00000390: d7ba 153c 71da 6cbd eaad 833e 9a07 093d
000003a0: 42aa ae3e b7bb 5c3e efd2 143e af65 df3d
000003b0: 1a15 32be e374 423e 0fef 4fbd ef61 2b3d
000003c0: 80a3 0dbd 9608 873e 9f3a 4c3c 688d cb3c
000003d0: f36a 92bd 720b 663d 738d ebbd 1dbe 2dba
000003e0: 3d25 6a3e d210 833e 20e1 c3bc f217 0dbe
000003f0: 0d96 3b3c c184 98bd e2f6 81bd 3e7a 7ebe

bias_ih_l1 f4 [64]
0.15825318 0.22214484 -0.035037708 0.19946845 0.3737796 0.31419358 0.00013363136 0.040956136
0.20717923 -0.044799373 0.20054176 -0.046874914 0.09934472 -0.034358982 0.01853922 0.0071560065
0.04128653 -0.077246316 -0.0042792456 0.062031385 -0.03009219 -0.12357994 0.13093922 0.25493184
-0.15452757 -0.08914145 -0.082216695 0.15781672 -0.062990636 0.22085305 0.016547535 0.04372103
-0.093531184 0.19846937 0.11113599 -0.088237494 0.20884156 0.088991426 -0.22145914 0.11840054
-0.24153145 0.09375677 0.09221146 0.21620405 -0.02645962 -0.08947971 -0.13251592 0.20787574
0.038273666 0.19766836 0.11187529 0.2011917 0.011053271 0.10801801 0.25000912 -0.017799018
0.051039875 0.050697405 0.051598497 -0.017403256 0.19874074 0.25279084 0.23924533 0.14183319
00000000: 1f0d 223e f079 633e b383 0fbd 7541 4c3e
00000010: 0a60 bf3e fbdd a03e 651f 0c39 9fc1 273d
00000020: cb26 543e 8c7f 37bd d25a 4d3e e9ff 3fbd
00000030: 3f75 cb3d 01bc 0cbd 90df 973c ef7c ea3b
00000040: 111c 293d 5133 9ebd ea38 8cbb 9f14 7e3d
00000050: e583 f6bc 7b17 fdbd ee14 063e 6d86 823e
00000060: 7a3c 1ebe cb8f b6bd 3a61 a8bd b59a 213e
00000070: 3c01 81bd 4d27 623e b28e 873c d314 333d
00000080: 478d bfbd 8e3b 4b3e 449b e33d dcb5 b4bd
00000090: 90da 553e 2341 b63d 2fc6 62be fb7b f23d
000000a0: 0554 77be 8d03 c03d 5dd9 bc3d 9864 5d3e
000000b0: d8c1 d8bc 2341 b7bd 41b2 07be 61dd 543e
000000c0: d9c4 1c3d 9369 4a3e df1e e53d 3205 4e3e
000000d0: c718 353c 8c38 dd3d 3201 803e 3fcf 91bc
000000e0: 300f 513d 15a8 4f3d f258 533d 4691 8ebc
000000f0: b182 4b3e cd6d 813e bafc 743e b83c 113e

bias_hh_l1 f4 [64]
0.17607094 -0.030674892 0.38310012 -0.106478475 -0.0150781 -0.02809887 0.1428048 0.024899323
-0.039010733 0.17262127 0.21403134 -0.0074039716 0.04568195 0.2397979 0.17188247 0.09542712
-0.091380596 0.09590516 -0.13474545 0.089496 0.30190897 0.03627741 -0.09598233 0.2003334
0.13788216 -0.09379304 -0.10240823 0.2365069 0.005467569 0.06028111 0.27768496 0.17733873
-0.009599016 -0.15089503 0.061947063 0.19996016 -0.17967702 -0.19861378 0.14324994 0.28235093
-0.087439984 -0.02741169 0.1556603 0.25091603 -0.15004404 0.07282257 -0.056655668 -0.15718015
0.20678733 -0.01522969 -0.011099792 0.049297776 0.20954968 0.3080809 0.1129836 -0.15118653
0.19048426 0.3159821 0.19652875 0.05324565 0.21057768 -0.018878534 -0.053993825 0.13451746
00000000: f14b 343e e949 fbbc b325 c43e 6311 dabd
00000010: 230a 77bc 9a2f e6bc 6c3b 123e aaf9 cb3c
00000020: b8c9 1fbd a1c3 303e 082b 5b3e 049d f2bb
00000030: ff1c 3b3d 958d 753e f501 303e 4b6f c33d
00000040: c025 bbbd ed69 c43d b6fa 09be ae49 b73d
00000050: d093 9a3e 9f97 143d 6292 c4bd 3324 4d3e
00000060: fb30 0d3e 9116 c0bd 68bb d1bd dd2e 723e
00000070: 4b29 b33b 53e9 763d b92c 8e3e 4998 353e
00000080: 3145 1dbc 3a84 1abe 34bc 7d3d 5bc2 4c3e
00000090: 41fd 37be 6961 4bbe 1db0 123e 4d90 903e
000000a0: bc13 b3bd 7b8e e0bc 6a65 1f3e 1178 803e
000000b0: 25a5 19be 0024 953d c60f 68bd d5f3 20be
000000c0: 0fc0 533e f385 79bc e7db 35bc 77ec 493d
000000d0: 3194 563e c8bc 9d3e f263 e73d a4d0 1abe
000000e0: 4e0e 433e 68c8 a13e d53e 493e 1c18 5a3d
000000f0: ada1 573e 28a7 9abc a128 5dbd f2be 093e

weight_hr_l1 f4 [4, 16]
-0.02382316 0.34201983 0.25815427 0.2871371 0.34123063 0.1789116 -0.31039268 -0.010778242
-0.26853058 -0.020599162 0.3694586 0.20990291 -0.31169593 -0.2810301 -0.24716242 0.10438612
-0.29670718 0.28034434 0.35590768 0.18777469 0.30006117 0.09673481 -0.17125554 -0.2242584
-0.21909283 -0.3825808 0.34030515 -0.1330499 -0.10721358 -0.16690096 -0.048233494 0.35786256
-0.061114267 -0.15224369 0.115243986 0.023192335 -0.021342622 0.16859896 -0.19855261 -0.25807956
-0.24750243 -0.15578657 0.24990736 0.18570776 -0.23351292 -0.11132748 -0.041750524 0.09467836
0.24284159 -0.081927456 -0.05398465 -0.17909567 -0.33468956 -0.05740869 0.35522035 0.16424915
-0.03730616 0.09466454 0.0009366259 0.13410364 -0.012485932 0.2663897 -0.0660509 -0.08557035
00000000: ca28 c3bc 391d af3e cc2c 843e a203 933e
00000010: c8b5 ae3e 9a34 373e caeb 9ebe 3997 30bc
00000020: d77c 89be 93bf a8bc ad29 bd3e caf0 563e
00000030: 9c96 9fbe 2de3 8fbe 2518 7dbe 64c8 d53d
00000040: 01ea 97be 4b89 8f3e 8839 b63e 0248 403e
00000050: 9ea1 993e e61c c63d 9d5d 2fbe fea3 65be
00000060: df59 60be a1e1 c3be 7a3c ae3e 3c3e 08be
00000070: cb92 dbbd 16e8 2abe 7c90 45bd c339 b73e
00000080: f452 7abd c5e5 1bbe 0a05 ec3d dafd bd3c
00000090: b9d6 aebc 35a5 2c3e 6051 4bbe 0123 84be
000000a0: 4771 7dbe 8486 1fbe b7e7 7f3e 2d2a 3e3e
000000b0: 031e 6fbe a9ff e3bd 9902 2bbd bae6 c13d
000000c0: 77ab 783e 95c9 a7bd 021f 5dbd db64 37be
000000d0: 6e5c abbe 6025 6bbd 71df b53e ee30 283e
000000e0: 58ce 18bd 7bdf c13d e687 753a 7752 093e
000000f0: cb91 4cbc 3b64 883e b245 87bd 823f afbd

weight_ih_l2 f4 [64, 4]
-0.0041815643 -0.17701203 0.03831362 0.14235006 0.18397169 0.16637896 -0.09859663 0.1510098
-0.098941796 -0.038712684 0.019406646 0.17015633 0.31224784 0.28313756 0.046496626 0.09459782
0.1552793 0.19508883 0.015049869 0.13642186 0.13186154 -0.31428778 -0.31011033 0.13187887
-0.058850624 0.32685372 0.16316731 0.11217339 -0.068636194 0.10476976 -0.060861703 -0.11417991
-0.15485571 -0.41118842 -0.38266683 0.34166732 -0.010571226 0.23998617 0.34836832 -0.045066666
-0.30601734 -0.16464117 0.06644937 -0.04920361 0.05442068 0.28962594 -0.17934708 -0.21818714
-0.015929054 0.23469199 -0.105513066 -0.07901246 -0.19421056 -0.3739528 -0.33232734 0.10384266
0.2618583 -0.085874476 0.17487992 0.05987896 0.1956083 0.1866919 0.19276583 -0.108304515
-0.1739198 -0.163252 -0.22301766 0.022468243 0.12911917 0.3547285 -0.14465353 0.10673689
0.09882604 -0.15499547 -0.25232503 -0.016343389 0.10068317 0.24140589 0.35340384 -0.30789638
0.08258831 -0.12421071 -0.00097111205 -0.21985264 -0.088200085 0.06774216 -0.060256787 0.32546583
0.15133743 0.11556579 0.17945012 -0.12940694 0.0033755428 0.072104946 -0.074481085 -0.26458964
-0.23649463 -0.15761864 -0.20760164 0.25544235 0.2662374 0.15146957 0.27299598 -0.18698014
0.012334913 -0.1385121 0.03243391 -0.09518058 -0.14910184 -0.00066156004 -0.13907056 0.12191273
-0.08711031 -0.07708636 0.10119532 -0.12484878 -0.2676047 -0.24607737 0.050574545 0.047987025
-0.055992737 0.023836318 0.3763314 -0.13797505 -0.048034888 0.1907832 0.0342455 -0.02733692
0.015279515 -0.31251216 -0.04357674 0.036609907 -0.30399862 -0.25215155 -0.023792641 0.16139795
0.052855544 0.34834287 0.3880793 -0.20114389 -0.18668954 0.011584 -0.03764942 0.29742616
0.32116628 0.23206608 0.0443048 -0.23519439 0.029426835 -0.3172968 -0.08621795 -0.09378495
-0.29908305 -0.31374797 -0.1216034 0.27587602 -0.34602827 0.035279635 0.07315901 -0.009018528
0.1785958 0.15734476 0.16526322 -0.28178567 0.051379595 0.34680954 0.1481321 -0.031476893
0.01201828 0.2294279 -0.100879505 -0.21203347 0.29206783 0.35806122 0.11519279 0.018531952
-0.19571859 -0.27808166 -0.10792058 0.09191297 0.059376802 -0.20297785 -0.12614873 0.13281266
-0.22539262 -0.013109124 0.07192246 0.11569147 0.04752344 -0.30408332 -0.03543513 -0.1424952
-0.2919065 -0.299132 -0.16965352 0.39985904 0.18336801 -0.029830653 0.2010263 -0.06367951
-0.06425441 -0.030799866 -0.12657729 0.17611425 0.26623508 0.17445056 0.017910907 -0.18415777
0.12697096 -0.11725713 0.29522917 0.0093489615 -0.02415159 -0.11741899 -0.025619578 0.13466023
0.3518575 0.16870476 0.28071645 -0.24840322 0.18381402 0.22533804 0.13218175 -0.1556055
-0.39797685 -0.0637856 -0.40901014 0.24999465 0.33756098 0.36897025 0.3174509 -0.22462523
-0.23114538 -0.42372385 -0.070457876 0.06087046 0.012382284 0.033299837 0.30393702 0.16893089
-0.06924691 0.12764663 0.08873481 -0.13955136 -0.2958125 0.014338352 -0.31086573 0.144169
0.25732723 0.114916585 0.056084357 0.065609775 0.2583883 0.16776977 0.40055224 -0.2620058
00000000: 8105 89bb a442 35be beee 1c3d 37c4 113e
00000010: 1363 3c3e 3f5f 2a3e 08ed c9bd 50a2 1a3e
00000020: ffa1 cabd 3191 1ebd b0fa 9e3c 763d 2e3e
00000030: f3de 9f3e 68f7 903e 3f73 3e3d 80bc c13d
00000040: 8901 1f3e 5ec5 473e ba93 763c 2cb2 0b3e
00000050: b606 073e 54ea a0be c8c6 9ebe 410b 073e
00000060: 5a0d 71bd 5f59 a73e 5515 273e 2abb e53d
00000070: 2291 8cbd 8791 d63d 1f4a 79bd 28d7 e9bd
00000080: 7f92 1ebe 4a87 d2be e8ec c3be 05ef ae3e
00000090: ef32 2dbc efbe 753e 555d b23e d397 38bd
000000a0: 4eae 9cbe b297 28be 9b16 883d b989 49bd
000000b0: 38e8 5e3d da49 943e c3a6 37be 736c 5fbe
000000c0: a67d 82bc 1953 703e 3c17 d8bd 49d1 a1bd
000000d0: 22df 46be be76 bfbe cf26 aabe 76ab d43d
000000e0: 4b12 863e f5de afbd b913 333e a443 753d
000000f0: 8b4d 483e 292c 3f3e 6864 453e c2ce ddbd
00000100: 0818 32be 882b 27be be5e 64be 520f b83c
00000110: d137 043e f99e b53e 0e20 14be df98 da3d
00000120: 4f65 ca3d 22b7 1ebe bf30 81be 92e2 85bc
00000130: fa32 ce3d 1b33 773e 59f1 b43e 98a4 9dbe
00000140: 0f24 a93d 2f62 febd 3a92 7eba 0d21 61be
00000150: 3fa2 b4bd 67bc 8a3d d2cf 76bd 75a3 a63e
00000160: 33f8 1a3e c2ad ec3d c6c1 373e 4183 04be
00000170: 3638 5d3b c2ab 933d 8a89 98bd 4b78 87be
00000180: a62b 72be c866 21be 8695 54be 57c9 823e
00000190: 4550 883e d71a 1b3e 21c6 8b3e b977 3fbe
000001a0: 6018 4a3c 1ed6 0dbe 6bd9 043d 09ee c2bd
000001b0: 27ae 18be 8b6c 2dba 8368 0ebe 62ad f93d
000001c0: e466 b2bd 74df 9dbd 7e3f cf3d b8b0 ffbd
000001d0: 7c03 89be b5fb 7bbe 4127 4f3d 0b8e 443d
000001e0: a458 65bd 6244 c33c 82ae c03e 5549 0dbe
000001f0: 3bc0 44bd ac5c 433e 0245 0c3d adf1 dfbc
00000200: ee56 7a3c 9801 a0be 867d 32bd 45f4 153d
00000210: b5a5 9bbe 021a 81be c9e8 c2bc 8145 253e
00000220: 0e7f 583d ff59 b23e 54b2 c63e aaf8 4dbe
00000230: 8b2b 3fbe d1ca 3d3c 4736 1abd 3e48 983e
00000240: e86f a43e bba2 6d3e f378 353d ccd6 70be
00000250: 8c10 f13c ba74 a2be 0993 b0bd 5312 c0bd
00000260: 6a21 99be 93a3 a0be 340b f9bd 9f3f 8d3e
00000270: 9e2a b1be 6181 103d 64d4 953d 73c2 13bc
00000280: d1e1 363e fc1e 213e c33a 293e 3646 90be
00000290: 6973 523d 0591 b13e f1af 173e eaed 00bd
000002a0: 52e8 443c 26ef 6a3e ea99 cebd 4d1f 59be
000002b0: ea89 953e cd53 b73e 33ea eb3d 52d0 973c
000002c0: 746a 48be b860 8ebe 7705 ddbd de3c bc3d
000002d0: 1735 733d 6dd9 4fbe 222d 01be 0b00 083e
000002e0: 53cd 66be a7c7 56bc 154c 933d a6ef ec3d
000002f0: f0a7 423d cfb0 9bbe 6d24 11bd 43ea 11be
00000300: c574 95be d427 99be a7b9 2dbe 53ba cc3e
00000310: d3c4 3b3e 6a5f f4bc d7d9 4d3e 676a 82bd
00000320: d197 83bd 0050 fcbc 7a9d 01be 4b57 343e
00000330: f74f 883e 2ba3 323e e5b9 923c db93 3cbe
00000340: ad04 023e 8224 f0bd 4728 973e 632c 193c
00000350: 8ed9 c5bc 5e79 f0bd 26e0 d1bc 5fe4 093e
00000360: ab26 b43e f1c0 2c3e 11ba 8f3e 6a5d 7ebe
00000370: be39 3c3e 04bf 663e a75a 073e 0c57 1fbe
00000380: 9fc3 cbbe 06a2 82bd c769 d1be 99fe 7f3e
00000390: cbd4 ac3e abe9 bc3e ed88 a23e 2804 66be
000003a0: 60b1 6cbe 55f2 d8be 384c 90bd 4e53 793d
000003b0: 10df 4a3c 6965 083d a29d 9b3e 38fc 2c3e
000003c0: 53d1 8dbd ccb5 023e 99ba b53d 8de6 0ebe
000003d0: bc74 97be 68eb 6a3c cb29 9fbe 0aa1 133e
000003e0: 65c0 833e 6359 eb3d b6b8 653d 6b5e 863d
000003f0: 794b 843e d7cb 2b3e 2f15 cd3e a025 86be

weight_hh_l2 f4 [64, 4]
-0.104211986 0.05401671 0.31615734 0.18864076 0.2723559 -0.08455069 -0.27218437 0.2546339
-0.15589985 0.37207663 -0.0649384 0.1472499 -0.15530823 0.09313295 -0.057174142 -0.22044128
0.028499441 -0.02668161 -0.017221645 -0.062729664 -0.36339507 0.030091908 0.21271357 -0.0017714483
0.3011875 -0.040829204 -0.31359074 -0.049210068 0.1743237 0.32918876 -0.049308077 -0.009918001
0.0046639945 0.046556592 0.031594455 0.13512237 -0.065428585 0.3124672 0.04141709 0.2178294
-0.3169596 -0.005245617 0.23220329 0.05014475 -0.022186667 -0.10321459 0.19793706 0.34827203
0.12921922 0.2136546 -0.18900533 0.18855396 -0.24487199 0.04859364 -0.08576816 0.34008676
0.25854895 0.2993749 0.027578345 0.30968666 0.13447857 -0.039938748 0.1036998 0.13554393
-0.2991483 0.35182488 0.23337968 0.13008992 0.18951713 0.109653585 -0.10885849 0.26998043
-0.23602577 0.24777603 0.06344965 -0.0020783506 0.09821194 -0.10102796 -0.1476839 -0.12881154
-0.25870436 -0.1298318 0.102554955 0.30511633 -0.11381221 0.28408432 0.18691245 0.17704631
0.21594644 0.022498751 -0.23202358 0.1430668 0.20913497 0.2624306 -0.06288168 -0.31038743
-0.24751091 0.10627276 0.008266709 0.19316694 -0.12779649 0.0048310794 -0.07522228 0.29260245
-0.05718265 0.14785482 -0.016752785 0.08137873 0.23906755 0.2780832 -0.2238971 0.14547318
-0.050303757 0.13013332 -0.21719602 0.022395914 -0.24888268 0.083403476 0.29001382 0.13099058
0.2667384 0.11004427 0.0013272641 0.1844807 0.13702106 -0.054448564 -0.22750767 0.085294455
0.02954198 -0.043898802 0.29541078 0.2874227 0.034343686 0.08745373 0.045692272 -0.11014776
0.1539353 0.0026465487 -0.10188437 -0.05472323 -0.0663307 -0.049820807 0.11085521 -0.035632674
0.25834 0.041638765 0.1369764 -0.28653896 -0.24525584 -0.0100373225 -0.07155956 0.026024342
-0.1880448 -0.1262945 -0.1291213 0.22036491 0.10057214 0.1518072 0.051550936 0.12185823
0.07045415 0.0067559504 0.14393756 -0.28619173 0.31150857 0.18073806 0.110766485 -0.077515736
-0.059370596 -0.27017167 -0.31853357 0.019919077 0.049336765 -0.2518789 0.081327476 -0.2634524
0.08074255 -0.10310891 -0.033439383 0.02871797 0.065190375 -0.050929677 -0.011871861 0.116797686
-0.34136814 0.23355033 -0.0342444 -0.04899089 -0.0404465 0.058297995 0.21529943 0.21815465
-0.32083082 0.07594457 -0.03990073 -0.07374074 -0.05785129 0.076823086 -0.09095411 0.2925212
-0.23177086 0.30374634 0.1415795 0.009530593 -0.09358053 0.23720591 0.10048303 0.004902626
0.1535995 -0.00485602 0.13394457 -0.03756192 -0.29635295 0.27507868 0.16402231 0.07432781
0.00980136 0.15253897 -0.0030016387 0.3414177 0.030954417 0.051954713 -0.11531283 0.079285525
-0.13742334 0.23723225 0.23250271 0.11515909 0.004214856 0.19985501 -0.029483577 0.37787104
-0.24713545 0.04460825 0.21301948 -0.02016703 0.19706953 -0.09966606 0.16198546 0.13795567
0.030238949 -0.05742467 -0.0003472435 0.18997386 0.035370942 0.3068323 0.075636275 -0.058377184
0.3661298 -0.011129252 -0.30770782 0.08452843 -0.032274563 0.18738343 0.027522374 -0.13046296
00000000: 186d d5bd a040 5d3d 60df a13e 0b2b 413e
00000010: 3c72 8b3e ea28 adbd c05b 8bbe 605f 823e
00000020: 36a4 1fbe d480 be3e 6dfe 84bd aec8 163e
00000030: 1f09 1fbe 7dbc be3d 6f2f 6abd 5cbb 61be
00000040: a977 e93c 6493 dabc 6814 8dbc 6978 80bd
00000050: eb0e babe 4e83 f63c 96d1 593e f12f e8ba
00000060: 3f35 9a3e 863c 27bd f78e a0be 7f90 49bd
00000070: e981 323e 6e8b a83e 44f7 49bd 1c7f 22bc
00000080: 6cd4 983b 20b2 3e3d 3069 013d 855d 0a3e
00000090: 6cff 85bd b3fb 9f3e f7a4 293d ac0e 5f3e
000000a0: 8748 a2be 6de3 abbb b3c6 6d3e 9564 4d3d
000000b0: d0c0 b5bc 2c62 d3bd 03b0 4a3e b650 b23e
000000c0: 0b52 043e 45c8 5a3e 9d8a 41be 4a14 413e
000000d0: b9bf 7abe 200a 473d 38a7 afbd da1f ae3e
000000e0: 8760 843e ab47 993e fbeb e13c 408f 9e3e
000000f0: c0b4 093e d096 23bd 9060 d43d 07cc 0a3e
00000100: f729 99be 6422 b43e 15fb 6e3e 4b36 053e
00000110: c710 423e 0f92 e03d 33f1 debd e03a 8a3e
00000120: bdb0 71be 00b9 7d3e e4f1 813d f034 08bb
00000130: 5723 c93d bfe7 cebd 733a 17be 2ce7 03be
00000140: e674 84be a1f2 04be 5508 d23d 3538 9c3e
00000150: 6016 e9bd 8073 913e fa65 3f3e a14b 353e
00000160: 1021 5d3e 4d4f b83c 9797 6dbe 1a80 123e
00000170: 7a27 563e 4e5d 863e 1cc8 80bd 1aeb 9ebe
00000180: 8073 7dbe 88a5 d93d 1771 073c 8ecd 453e
00000190: 15dd 02be 084e 9e3b 240e 9abd fdcf 953e
000001a0: 5b38 6abd 4167 173e 233d 89bc e4a9 a63d
000001b0: 20ce 743e ec60 8e3e 4845 65be ecf6 143e
000001c0: 500b 4ebd ab41 053e a268 5ebe a377 b73c
000001d0: 1adb 7ebe 71cf aa3d b17c 943e 6522 063e
000001e0: f091 883e e45e e13d 98f7 ad3a 82e8 3c3e
000001f0: 404f 0c3e 7505 5fbd c5f7 68be dcae ae3d
00000200: 0602 f23c 3bcf 33bd 1540 973e 1129 933e
00000210: f7ab 0c3d f11a b33d d227 3b3d 2695 e1bd
00000220: 37a1 1d3e b871 2d3b c1a8 d0bd 7725 60bd
00000230: 64d8 87bd e710 4cbd 0e08 e33d 91f3 11bd
00000240: 2445 843e 698d 2a3d 8b43 0c3e 3cb5 92be
00000250: 5924 7bbe 9573 24bc d28d 92bd 0031 d53c
00000260: d18e 40be 5853 01be 6038 04be 57a7 613e
00000270: c4f8 cd3d 5973 1b3e 1327 533d cf90 f93d
00000280: 444a 903d 0561 dd3b 5e64 133e b987 92be
00000290: 0d7e 9f3e 6613 393e 8ad9 e23d 92c0 9ebd
000002a0: 952e 73bd f153 8abe d516 a3be 552d a33c
000002b0: 5915 4a3d 45f6 80be 058f a63d 3ce3 86be
000002c0: 5a5c a53d c42a d3bd bcf7 08bd f341 eb3c
000002d0: 8882 853d a39b 50bd 3282 42bc a033 ef3d
000002e0: cec7 aebe d127 6f3e db43 0cbd acaa 48bd
000002f0: 3bab 25bd e1c9 6e3d 7477 5c3e ef63 5f3e
00000300: f043 a4be d488 9b3d f36e 23bd 6305 97bd
00000310: 79f5 6cbd 6c55 9d3d 2646 babd 57c5 953e
00000320: 5755 6dbe a484 9b3e 37fa 103e 3426 1c3c
00000330: 26a7 bfbd 1be6 723e 0cca cd3d 35a6 a03b
00000340: 3049 1d3e 401f 9fbb c428 093e 87da 19bd
00000350: 93bb 97be 1dd7 8c3e 77f5 273e 2e39 983d
00000360: e295 203c 2d33 1c3e 24b7 44bb 4dce ae3e
00000370: 1e94 fd3c 77ce 543d 2229 ecbd 7360 a23d
00000380: b4b8 0cbe 03ed 723e 3115 6e3e 87d8 eb3d
00000390: c61c 8a3b cba6 4c3e 8b87 f1bc 5078 c13e
000003a0: 1311 7dbe 24b7 363d c721 5a3e 5435 a5bc
000003b0: 98cc 493e b81d ccbd 84df 253e 4044 0d3e
000003c0: acb7 f73c 2136 6bbd 3c0e b6b9 8288 423e
000003d0: 1fe1 103d 2019 9d3e 31e7 9a3d ea1c 6fbd
000003e0: 5d75 bb3e 7757 36bc e18b 9dbe 3e1d ad3d
000003f0: 5532 04bd 71e1 3f3e 9a76 e13c 1598 05be

bias_ih_l2 f4 [64]
0.14442123 0.23484115 0.12320638 0.07669949 0.097739555 0.21026374 -0.13743387 0.03253513
-0.049108885 -0.10880569 0.028019259 0.20385599 0.07612131 -0.1507987 0.11144643 0.13611574
0.23781483 -0.038594585 0.09729325 0.0869485 0.11511524 0.12619494 -0.02155658 0.27755228
-0.00082056166 -0.00036428418 0.11194514 0.19349407 0.19839402 0.20147802 0.32317352 -0.15621755
0.23670511 -0.014321054 -0.082431294 -0.05311346 -0.14977686 0.12792897 -0.11198043 -0.1680703
-0.11350676 -0.20871876 -0.06454685 0.13518248 0.14564332 0.25672552 0.18577956 -0.044165276
-0.051366284 0.32353765 0.09398295 0.16252191 0.2718609 -0.036560263 0.021798505 0.28389415
0.08071537 0.19714464 -0.08433609 -0.06395639 0.13914646 0.022363445 0.2838775 -0.07789256
00000000: 29e3 133e 337a 703e a053 fc3d 9f14 9d3d
00000010: ad2b c83d 614f 573e 77bb 0cbe 8e43 053d
00000020: 6626 49bd 85d5 debd a588 e53c a0bf 503e
00000030: 7de5 9b3d f96a 1abe 073e e43d ed61 0b3e
00000040: bb85 733e 5b15 1ebd af41 c73d 0e12 b23d
00000050: 8ac1 eb3d 3f39 013e 6d97 b0bc 551b 8e3e
00000060: f61a 57ba 65fd beb9 7e43 e53d 4f23 463e
00000070: cd27 4b3e 4150 4e3e 0077 a53e 7ef7 1fbe
00000080: d362 723e dba2 6abc bdd1 a8bd 808d 59bd
00000090: 1b5f 19be d0ff 023e ff55 e5bd 9f1a 2cbe
000000a0: 3b76 e8bd 5fba 55be 2431 84bd 476d 0a3e
000000b0: 8623 153e 8771 833e ff3c 3e3e a6e6 34bd
000000c0: 7465 52bd baa6 a53e 227a c03d 256c 263e
000000d0: 5a31 8b3e 37c0 15bd c792 b23c 935a 913e
000000e0: 1a4e a53d 49e0 493e 66b8 acbd 91fb 82bd
000000f0: 697c 0e3e 8b33 b73c 6458 913e 2286 9fbd

bias_hh_l2 f4 [64]
0.028350404 0.2120006 -0.005439891 0.17793328 0.2912695 0.11938439 -0.09244905 0.0049970895
-0.085002296 0.17691895 0.13249612 0.18900847 0.1482456 -0.03542868 -0.0811011 0.11702297
-0.035074405 -0.09816867 -0.11014909 0.23689684 0.17868747 0.22793621 0.0053248927 0.23442711
0.27318454 -0.09035843 0.32339594 -0.019062098 0.12123664 0.1360028 0.09724221 -0.03430986
-0.079245575 0.09276634 -0.06315537 -0.14046787 -0.04295357 0.20009656 -0.041166995 -0.032479428
-0.26975286 0.16931766 -0.17159507 -0.09343349 -0.15853147 -0.0017552993 -0.18740295 -0.07060739
0.23994082 0.26910213 0.29410914 0.16472363 -0.003600511 0.06439033 0.039666668 0.1318692
0.059999473 -0.016914697 0.11583845 0.20589392 0.2215234 -0.02916055 0.07238396 0.0005040541
00000000: 1b3f e83c af16 593e 1d41 b2bb 2434 363e
00000010: 4721 953e ce7f f43d ed55 bdbd a0be a33b
00000020: af15 aebd 3e2a 353e 10ad 073e 708b 413e
00000030: b2cd 173e aa1d 11bd 5518 a6bd bda9 ef3d
00000040: 2eaa 0fbd a80c c9bd d995 e1bd 1695 723e
00000050: d9f9 363e 1c68 693e 707c ae3b a90d 703e
00000060: d8de 8b3e d70d b9bd 2794 a53e 1e28 9cbc
00000070: ea4a f83d 5144 0b3e ec26 c73d 7f88 0cbd
00000080: 814b a2bd 47fc bd3d 9a57 81bd cfd6 0fbe
00000090: 15f0 2fbd 1de6 4c3e b99e 28bd 2609 05bd
000000a0: 0c1d 8abe 9c61 2d3e 9eb6 2fbe 0f5a bfbd
000000b0: 1356 22be 1212 e6ba 8fe6 3fbe 9b9a 90bd
000000c0: 0cb3 753e c1c7 893e 7995 963e 50ad 283e
000000d0: 8df6 6bbb 14df 833d 8479 223d b808 073e
000000e0: 02c2 753d b190 8abc b63c ed3d dbd5 523e
000000f0: 08d7 623e 1be2 eebc 0b3e 943d 7f22 043a
