saved_models/LSTM/ckpt__epoch100.ckpt (torch, 17615 bytes, 8 tensors)

weight_ih_l0 f4 [64, 8]
00000000: e37e 363e 6eda 1ebe 7552 1cbe 86de a1be
00000010: e712 b4bd c3df f43d 4947 d6bd 9f01 1abe
00000020: 3b65 ab3d e918 733e 221d 1fbe 2d21 74bd
00000030: 5e0d 8a3e ccaf 293e 5e97 0b3e 90c6 563e
00000040: 2757 98be ef63 183d 6b75 e23d c4f6 5a3e
00000050: 1577 98be 445a 903e 5a77 90bb 0b4d b93d
00000060: 8672 543d 19a4 823e fc3b 8bbe 222e 70bd
00000070: f212 013d ea3d e5bd a10c c2bd 1206 d7bd
00000080: 9077 54be e68f f03d 9fba 463d c2e0 18bc
00000090: 0141 86be f793 acbe 2bc8 6c3e 20e6 8ebd
000000a0: f7d9 f93b fcb2 23bd eaa6 833e c3a1 05be
000000b0: 8a76 b13c 6b84 a93e 579f 273e 8c08 afbd
000000c0: beed 3e3e 72f8 983e 7f77 7bbe 8eb5 8fbe
000000d0: 7794 7ebc 3acf 08be 9b35 6b3e 06d3 a23c
000000e0: 9beb 173d c2f0 92bd 4146 38bd 28a8 583d
000000f0: b593 783d cbe1 d73d 7960 f3be ec5c 353c
00000100: ff89 2b3d 9df2 a5bd 7303 673e 55ca 8e3e
00000110: f32d 34be 47cb abbd 0c0a 49be 12bc 493c
00000120: e696 f93c be1f 073d 7239 b33c 2a89 bc3d
00000130: d340 eebd 144a 3fbe 1c36 3c3e cdbd cf3b
00000140: 6806 83bd 2949 1d3e e3d9 b73e 2f26 223e
00000150: 4ab6 3cbe bd50 093e bb9c 8ebd b2ef 7d3c
00000160: 6c0f 813c 8105 853e 0177 123e 4640 74be
00000170: a5b2 1e3e 7fc1 0a3e 5fed bdbd 9de5 b3bc
00000180: 44fe ae3c a9cf 8cbe d0a4 e4bd 9343 a4bd
00000190: f587 9d3e ec4d 58bb 857a 743e 2d3b b83c
000001a0: ef96 953c 69f5 393d feab 723e 1220 983d
000001b0: 680c 68bd b1e6 7a3d 6d42 21be e192 17bd
000001c0: 9e3b 6bbd 6a95 b03b 4199 12be 6e3a 45bc
000001d0: 6181 4c3d bdf8 a0be cce0 893e f3f5 753d
000001e0: 47cc 2fbe 3b6c b83e ce88 8c3b 86cd 6d3d
000001f0: 14e2 1bbc a4d7 f5bc bd47 0d3e edef 5dbc
00000200: b849 20be cfe4 dc3d 425e 43bc 78b2 993e
00000210: 6b00 143c c3b7 a73d a89f 3a3d a9bb 643e
00000220: bacd 9cbc 332a 553a 1f34 53bc 62fe 32be
00000230: d496 fe3c 599d a63c 0100 5abc 367d 35bd
00000240: 964c 5d3d d0bb 503d 360f f2bd 2362 e4bc
00000250: a511 b53c 37d1 64bd 71f3 a1bc 1f43 903c
00000260: 20ed ef3d 4ae2 6f3e 1b27 1abe 8e78 9a3d
00000270: 1b67 c3bc 3528 d43b c611 89bb e1f1 e1bb
00000280: 3f21 ae3c 8579 98bc 8408 b63c 9d41 54be
00000290: f4da 963d f065 913c 3917 44bc b03e d2bc
000002a0: 77bc 68bd dc09 6d3e c4f4 97be 45cd 9e3d
000002b0: f59d 31bc 18a8 26bd a5d8 ae3d 0c71 ce3c
000002c0: 0b02 5f3e 35fb 65bd 8810 81bd 8307 543c
000002d0: 5723 193d cb17 d1bc 315b 8cbd 5c13 0a3d
000002e0: a27b a93c c7f3 9ebd 21e7 2e3e 0945 90bd
000002f0: 6901 a83c 4fd7 59bc 66dd 193e ae29 a7bd
00000300: 55b6 e73c c84f d0bd 77a3 b83d e504 853d
00000310: 0081 32bc 1028 3d3e 0ae5 94bd b7e9 d4bd
00000320: 2640 aa3c 50d2 7ebd d5ff a43d 39b0 20bd
00000330: c325 e4bc b4ee d33b 4167 a8bc 42dc 96bc
00000340: 703c 7f3c df92 443c 5c5a 0fbe fb3a 44be
00000350: cd3d aabc 45d5 f2bc 7ba7 b43d ee7c f4bd
00000360: 4237 1abd a93a 733e df77 393d 86b8 1c3d
00000370: 4884 19bc 82b2 a5bb 7042 c8bd 7c00 9f3c
00000380: 042a 97bc 1bd3 093e ef6d a3be e5f5 95bd
00000390: 3498 3ebd 38c3 cf3b 7636 7ebc 8f9a 453c
000003a0: 83f4 483d ba7f f1bb 2827 96bd 0ee5 8cbc
000003b0: ffbc 1bbd 369b e5bd fbab 233d 4057 90bc
000003c0: d9f4 fc3c 031a 9abb 5bf1 873d f226 90bd
000003d0: 67e0 81bc 63ad d03c 74e9 993e af79 31bd
000003e0: 2179 c93c e9f0 88be 33b7 013e 4e6c 5f3c
000003f0: bd0f adba 7184 9cbb 652a 5d3d 5211 cabc
0.17821841 -0.15513012 -0.1526583 -0.31615084 -0.08792668 0.11956742 -0.10462815 -0.15039681
0.083689176 0.23739971 -0.15538457 -0.05960195 0.26963323 0.16570967 0.13631961 0.20974183
-0.29753992 0.03720468 0.11057552 0.21383196 -0.29778352 0.28193867 -0.004408759 0.09047898
0.05186703 0.25515822 -0.27194202 -0.058637746 0.03151221 -0.1119345 -0.09475065 -0.10499205
-0.20748734 0.117461964 0.04851782 -0.00933093 -0.2622147 -0.33706638 0.23123233 -0.069774866
0.0076248604 -0.039965615 0.25713283 -0.13049988 0.02166297 0.3310884 0.16369377 -0.08546552
0.18645379 0.2987705 -0.24557303 -0.28068203 -0.015538326 -0.133603 0.22969668 0.019876014
0.037089925 -0.07174827 -0.044988874 0.05289474 0.06068774 0.105411135 -0.4753454 0.011069518
0.04187965 -0.081029154 0.2255991 0.27888742 -0.17595653 -0.083883815 -0.19632739 0.012312906
0.030467462 0.032989256 0.021877978 0.092058495 -0.11633458 -0.18680602 0.18380016 0.0063397647
-0.06397706 0.1535994 0.35908422 0.15834878 -0.18428913 0.13409705 -0.06963488 0.015499042
0.015754424 0.25980762 0.14303209 -0.23852643 0.15497835 0.13550375 -0.092737906 -0.021960074
0.021361478 -0.27502182 -0.11164248 -0.08020701 0.3076779 -0.003300543 0.23874862 0.022489155
0.018260447 0.045400057 0.23698422 0.07427992 -0.056652457 0.06125516 -0.15747996 -0.03700531
-0.057429902 0.0053889053 -0.14316274 -0.0120378565 0.049928073 -0.31439772 0.2692932 0.06004901
-0.1716777 0.36020073 0.0042887693 0.05805733 -0.00951435 -0.030010052 0.13796897 -0.013545972
-0.15653121 0.10785829 -0.011924328 0.30018973 0.009033303 0.08189347 0.045562416 0.22337212
-0.019141067 0.00081315933 -0.012890845 -0.17479852 0.03107778 0.020338701 -0.013305665 -0.044308864
0.054028116 0.050960362 -0.118193075 -0.027878826 0.02210314 -0.055863585 -0.019769402 0.01761013
0.1171515 0.23426166 -0.1505398 0.07542525 -0.023852875 0.0064745196 -0.004183027 -0.0068952893
0.021256087 -0.018612633 0.022220857 -0.20728154 0.07365981 0.017748803 -0.011968427 -0.025664657
-0.05682036 0.23148292 -0.2967893 0.07753996 -0.010840883 -0.04068765 0.085374154 0.02520039
0.21778123 -0.056147773 -0.06301981 0.012941244 0.03738722 -0.02552404 -0.06853331 0.03370987
0.020688836 -0.077613406 0.17080356 -0.070444174 0.020508485 -0.0132959625 0.15025863 -0.08162247
0.028285185 -0.10171467 0.090155534 0.06495074 -0.010895014 0.18472314 -0.07270248 -0.1039614
0.020782541 -0.06221229 0.080566086 -0.03923056 -0.027850037 0.0064676646 -0.020557048 -0.018415574
0.015578374 0.011997907 -0.13999313 -0.19163124 -0.020781422 -0.02964271 0.08821007 -0.11937891
-0.037650354 0.23752846 0.045280334 0.038261913 -0.009369917 -0.00505668 -0.09778297 0.01940941
-0.018452652 0.13459437 -0.3191981 -0.07322291 -0.04653187 0.0063404106 -0.015515914 0.012060775
0.04906131 -0.0073699625 -0.07331687 -0.017199066 -0.038022038 -0.11211245 0.039958935 -0.017619729
0.030878471 -0.004702808 0.06637832 -0.07038678 -0.015854074 0.025473302 0.30060923 -0.043328937
0.024593892 -0.267463 0.12667541 0.013636662 -0.0013203543 -0.0047765304 0.05399551 -0.024666462

weight_hh_l0 f4 [64, 16]
00000000: bc1f 9e3e ce3f bc3e fe22 e1be 6549 8cbe
00000010: 262b 843e 43b6 043e 1961 253e 313b 903e
00000020: edb4 353e 0009 8e3e 5a58 9cbd 5634 b33e
00000030: 9ca2 103f 32eb 3c3d 3997 6c3e 9671 323e
00000040: dae3 ca3b 08c1 a93e 76ab cf3d f049 0ebe
00000050: 8103 f73d bc63 8b3e 3fed 853e bbd6 23be
00000060: 0558 793e 5ff5 be3e 1aab 9d3d a715 623e
00000070: c96a f03d dae4 353e 9c80 bd3e 6746 be3e
00000080: 9169 833d b112 ca3c cf57 30be d509 8e3d
00000090: 6064 0cbc 7242 a53e 3713 a9bd a11a 0a3e
000000a0: f8f4 bdbd cc24 693e 59e8 1c3e 558a 09bd
000000b0: 0c42 c63c 0132 e03d b96b 01bc a7ee 0f3d
000000c0: 096c 74bd f460 bfbe bffc 893e d49a 983e
000000d0: ff4a 8b3e b393 d1bd 601f d63d b3d3 f5bd
000000e0: 24e4 b03c 5cdd 8f3d e1d4 893e 614d 153e
000000f0: 7c98 213d 07f4 7bbd b70c 5fbe e9dc b5be
00000100: 6606 da3d 3769 e33d ffbc d6bd d366 b8bd
00000110: 2222 783e f511 1fbe cee4 db3c 9474 03bd
00000120: deb8 c83d a801 833d 03c7 5cbd 854d 673e
00000130: 06f6 ed3d 7e69 503d d38b 7abe ff99 7dbd
00000140: e0e5 97be bf72 2d3e a5fe 0d3e d7e4 14be
00000150: 8d3d 183e 4f84 c83c 0b07 2ebe 5394 793d
00000160: e947 b53a fd6e 4cbe 455b 9a3d d598 5d3e
00000170: 371d 3fbe ea48 95be 2397 a43d 86fa aabe
00000180: cdc2 61be 82b2 db3d 9877 853e 92e3 5d3d
00000190: 0261 6abd 7043 313e 959e dfbd a364 81be
000001a0: 3e47 22be 8f06 0abe 0a92 b0bd afc2 1a3c
000001b0: 3616 9d3d 0b0c dcbd e361 903d 655a 7d3d
000001c0: c658 1dbe 0c5c 7a3e 9ff3 87bd 60c1 783e
000001d0: da29 83be b6f3 993d 84a5 28be 120b aa3e
000001e0: 5d14 c83d 691d 8ebd b66e 743d b089 833e
000001f0: 9fe1 27be 5412 c5bd 238d 373e bf53 083e
00000200: 887f 69be 3089 8fbe abc5 d4bb 1712 933d
00000210: 51f1 33bc c670 163e 390e 683c 1f99 963d
00000220: 8b41 873d f457 863e 1503 173e 215f 3e3e
00000230: c61d a2bd bc0d a43d 3e26 e53b 6eef 283e
00000240: c8f5 aa3d 5489 4c3d 1d04 ecbc b0a1 343e
00000250: d6f5 51be d87d 02be fadf 423e 24e1 9ebd
00000260: 2032 7e3d 0f30 7ebd 9580 88be 63bd 253e
00000270: 21f2 ef3d 19c5 db3c 8018 c03d b4de 5ebe
00000280: 1755 fc3d c40f 473d b488 893d 17f4 5e3e
00000290: 88d3 d13e c652 003e c2fd 20be 5da9 a9be
000002a0: 4dbb b63c 5bf5 733e 6bf1 a73e 9cf0 9bbd
000002b0: 6be6 87be 3c61 de3d dd29 b9bd 7013 db3d
000002c0: f486 06bb d4e1 c93c 0b13 633d 5188 253e
000002d0: 69f5 39be 2bf9 1fbd b38f 04be 1333 8fbe
000002e0: b4b1 9a3e 89e6 823e 6cfd 1c3e cd1f 16be
000002f0: a8d3 55be 0bf0 6b3d a585 493e c36c 943d
00000300: 3d9a 973b 93af 653d f7e5 df3d 277f 843d
00000310: 1e9b 943d 5a41 c2bd d161 1d3e 8047 833d
00000320: dac1 5d3e a5d7 c13d fd1c 2cbd edb2 bbbd
00000330: 35de 87bd b431 96be c9d9 84bc c476 6b3d
00000340: ab79 24be b0eb 5cbe 0fb4 633e 2c45 133e
00000350: 67c3 543e 0d46 58be dc1e ae3e 6e70 da3d
00000360: 29ef a33d c36d 363d a939 0dbd c7fc a53d
00000370: 37a2 9ebe 98e1 3b3d ec99 4e3e 2726 31be
00000380: 2ff9 ebbd 7aa4 373d 47c1 433e 938a 453e
00000390: 79c0 3dbc f362 233e 37ad 46be cfac b33e
000003a0: 6a9b d13b d63f d4bd 22be c1be 3c31 1bbc
000003b0: b1cb 92be ae24 e6bc 7527 0abe a647 da3d
000003c0: f224 64bd bf8f 6d3d 9e2b 9f3d 5c45 81be
000003d0: 2508 4abd ada2 69bd 91cf 153e 76d7 b53d
000003e0: 0c74 903e c465 c03e 6bd5 ccbd b7de 873e
000003f0: 332f 483e e300 153e 22de 703e 7cd8 833e
0.30883586 0.3676743 -0.4397201 -0.27399746 0.2581417 0.12960152 0.16150321 0.2817016
0.17744799 0.2774124 -0.07634039 0.35000867 0.5649812 0.046122737 0.23104562 0.17426142
0.006191713 0.33155084 0.101401255 -0.13895392 0.12061215 0.2722453 0.26157567 -0.15999882
0.24349983 0.37296578 0.07698651 0.22078572 0.11739118 0.17763081 0.37012184 0.37163088
0.064166196 0.024667116 -0.17220996 0.06935469 -0.008568853 0.32277256 -0.08255618 0.1348672
-0.0927524 0.22767943 0.15323009 -0.03357919 0.024201415 0.109470375 -0.007899218 0.035139706
-0.059673343 -0.37378657 0.26950642 0.29805624 0.27205655 -0.102332495 0.10455203 -0.12003269
0.02159316 0.07024643 0.26920226 0.14580299 0.03945206 -0.06151202 -0.21782194 -0.35520104
0.10645752 0.111040525 -0.10485267 -0.09003987 0.2423177 -0.15534194 0.026842501 -0.0320936
0.098008856 0.063968 -0.05390073 0.22588165 0.11619191 0.050881855 -0.24467401 -0.06191444
-0.29667568 0.16938303 0.1386667 -0.1454042 0.1486723 0.024477152 -0.16994874 0.06093247
0.0013830635 -0.19964214 0.075369395 0.21640332 -0.18663488 -0.29157192 0.080366395 -0.3339426
-0.22046967 0.10727407 0.26067805 0.054172106 -0.05722142 0.17310882 -0.10918919 -0.25272092
-0.15847489 -0.13479064 -0.08621605 0.00944583 0.07670252 -0.107444845 0.070499204 0.061853785
-0.15365896 0.24449176 -0.06638264 0.24292517 -0.25617868 0.07517187 -0.16469389 0.3321157
0.09769509 -0.06939203 0.059675895 0.25690985 -0.16394661 -0.096226364 0.17924933 0.13313197
-0.22802556 -0.28034353 -0.0064932904 0.07181185 -0.010982827 0.14691457 0.014163547 0.07353424
0.06604298 0.26238978 0.1474727 0.18590976 -0.07915835 0.08010432 0.006993084 0.16497585
0.0834766 0.049935654 -0.028810555 0.17639804 -0.20503935 -0.12743318 0.19030753 -0.07757786
0.06205952 -0.06205755 -0.266606 0.16185527 0.11716104 0.026827382 0.09379673 -0.21764642
0.12320917 0.04859902 0.06715527 0.217728 0.40981698 0.12531576 -0.15721801 -0.33137026
0.022306109 0.23824064 0.32801375 -0.07614252 -0.26542982 0.1085839 -0.09041188 0.10697067
-0.0020527216 0.024643816 0.055438083 0.16165282 -0.18160023 -0.039055984 -0.12945442 -0.27968654
0.30213702 0.2556651 0.15331048 -0.14660569 -0.20881522 0.05760197 0.19679888 0.07247307
0.004626541 0.056075644 0.10932534 0.06469565 0.07256149 -0.09485121 0.15369345 0.06410122
0.2165598 0.09464959 -0.042019833 -0.09164987 -0.066341795 -0.29334795 -0.01621713 0.05748631
-0.16062038 -0.21574283 0.22236656 0.14381856 0.20777665 -0.21120472 0.3400792 0.106659755
0.080046006 0.04453827 -0.034478817 0.08104854 -0.30983135 0.04586944 0.20175904 -0.1729971
-0.115221374 0.04483459 0.19116698 0.19291143 -0.011581534 0.15955715 -0.19402014 0.3509278
0.0063967006 -0.10363738 -0.37840372 -0.009472188 -0.2867103 -0.028093662 -0.13491614 0.10658197
-0.055699296 0.057998415 0.07771991 -0.2524823 -0.049324173 -0.057039905 0.14629962 0.088789865
0.28213537 0.3757764 -0.10001644 0.26537105 0.19549255 0.1455112 0.23522237 0.25751102

bias_ih_l0 f4 [64]
00000000: 7329 3d3e aa9e 39bd 69d1 4a3a 7b49 65be
00000010: 1407 0cbd c44c 46be 4896 90bd 8671 8cbe
00000020: 2584 19be 0237 88be 2fc2 27be cf04 b3be
00000030: a201 8dbd be3d fabe 880d 173e cb27 9ebd
00000040: c80e e83e d9a9 b63e 1d26 963d 68e2 233d
00000050: 0ff6 053f f2af bb3e 3a97 2ebb 4e4f c03e
00000060: 4164 cd3e 045a 763e 674d 06bd 21e3 c83e
00000070: a7fb a53e ee47 29bd a32d 0f3f 2a54 8f3e
00000080: c9fa 213e 9339 92bd d3d9 fabe caaf 3abe
00000090: 7951 a63e 61cb b63d db00 5ebd a73f 913e
000000a0: a9f4 f03d 3983 39bb df15 853e 970f bc3e
000000b0: 3b9d 993e faf8 b13b 0797 3d3e 6f30 2e3e
000000c0: c9b5 043f 2e98 3f3e dfd4 e43e 312a 503e
000000d0: 818f 1c3e 9dae e43e 266b f5bc ee4d d33e
000000e0: f044 923d 226c 003f f02e c63d 36c1 0c3e
000000f0: 39f5 303e 3566 d5bc 347e c33e bc4e ec3d
0.18472843 -0.04531733 0.0007736893 -0.22391312 -0.034186438 -0.19365221 -0.07059914 -0.27430362
-0.14991815 -0.26604468 -0.16382669 -0.34964606 -0.06885077 -0.4887523 0.14751256 -0.07722434
0.45323777 0.35676458 0.07331488 0.04001084 0.5232858 0.36657673 -0.002664043 0.37560505
0.4011555 0.24057776 -0.03278866 0.39235786 0.32418558 -0.041328363 0.5592901 0.279939
0.15818323 -0.07139888 -0.48994312 -0.1823112 0.32484034 0.0892551 -0.054200035 0.28368875
0.11765415 -0.0028306975 0.2599325 0.36730644 0.3000277 0.0054312916 0.18514644 0.17010663
0.5183988 0.18710396 0.44693658 0.20328595 0.15289117 0.4466447 -0.029958319 0.41270393
0.07142055 0.50165 0.09676921 0.13745579 0.17281045 -0.026049713 0.38182223 0.11538455

bias_hh_l0 f4 [64]
00000000: 8e1a 0e3d c619 053e 6777 443e de67 a73c
00000010: 898d 683e 0881 853e da8b 86be 6623 67bd
00000020: 6ef6 c23d 074e 843d e086 133d a186 f63c
00000030: 40f0 333e 9f28 afbe 1353 4fbe c531 743e
00000040: 6956 b03e 3050 d23e 043c b63e c5b9 f63c
00000050: 98f5 e13d 28d1 8a3e dfa0 353e 4c61 b53e
00000060: 1a98 8b3d 756e 813e 37f0 65bd ebe8 df3e
00000070: e722 f53b 7068 803e cbc3 ca3d 4f66 bf3e
00000080: 5164 0c3e 8118 e6bb f43a 14be a99c fa3d
00000090: bdac cabc ce23 923e 9519 fcbc d22e aa3e
000000a0: 8bff ae3d 1795 103e e346 383e dd80 a13e
000000b0: e3e3 633e c815 283e b742 72bd c8a6 b43e
000000c0: 3156 053f f8c8 023e fbbb bd3e 5025 0b3f
000000d0: 31db 943e 5f55 d03e eca2 ae3e 7489 f23d
000000e0: 3888 9d3e af60 d83d f871 ac3d 9737 4d3e
000000f0: 1307 b93e a7c7 df3e d657 8b3d 3963 153e
0.034693293 0.12998113 0.19186173 0.02043527 0.22710241 0.26075006 -0.26278573 -0.056430243
0.09519659 0.06460195 0.0360173 0.030093493 0.17572117 -0.3421068 -0.20246534 0.2384711
0.34440926 0.41076803 0.35592663 0.030117879 0.110331714 0.271127 0.17737149 0.35425794
0.068161204 0.25279585 -0.05613729 0.4373239 0.0074809673 0.2507968 0.09900626 0.37382743
0.13710143 -0.007021964 -0.14475614 0.12236912 -0.024740571 0.28542942 -0.030773917 0.33238846
0.08544835 0.14119373 0.17995791 0.31543627 0.222549 0.16414559 -0.059145655 0.35283494
0.5208464 0.12771976 0.3705748 0.5435381 0.2907348 0.40690133 0.34108675 0.11842623
0.3076799 0.10565316 0.08420175 0.20040737 0.3613821 0.4370701 0.06803863 0.14588632

weight_ih_l1 f4 [64, 16]
00000000: 888b fe3d 9fb6 603e 1a69 0bbe 7107 2c3c
00000010: 46e0 b93e 784b 72be bd13 933e 28f5 a1be
00000020: 1af1 d83c 9760 30be babb 9e3e 05d2 90bc
00000030: 4bc3 9a3e c565 c03e 9cfd 583c 7544 a23e
00000040: e9af ad3e e5ad a83e c674 45be fc52 f5be
00000050: eb1b 5a3e 449f 933e bdc8 c13e 95bb 053e
00000060: 92bf a03c 5cc8 7c3e 7218 bdbd 8ed0 a13d
00000070: f3ea 913e 44f3 18be 78e0 b43e 6efa 193e
00000080: 228a 35bc 40d0 023d 4f3f d0bd 98e7 0cbe
00000090: 6474 9b3d 2d59 96bd 0641 683e 13f2 9a3e
000000a0: e288 3c3e 9eb0 2ebe 61db 733c 36a5 823d
000000b0: feca f23d ce62 c43c 1445 acbd 5be7 45bb
000000c0: ab5b a73e c1d9 dd3e 45d0 b6bc d662 f3bd
000000d0: 4386 893e 7e15 083e 3f99 ec3e de3c b43d
000000e0: 6f28 393b 8008 a33d 36f1 dabe 6375 9d3e
000000f0: 835c 443e 1519 8e3d 4b45 b23e ced9 393e
00000100: 654d 1a3d 1559 883e 4301 8c3c 8ad9 863d
00000110: 5dd9 3bbe cb55 6a3e 1e93 483e 9755 8f3c
00000120: 4751 813d f103 f7bd d79c 25bd 321e 8dbd
00000130: 0060 073e de29 a53e 8c3b 3b3e cfe6 8c3e
00000140: bce9 ab3d 45c9 843e 229e 6cbe 6a8f af3d
00000150: 53f8 aa3e 7562 52bd 0cd7 9abc d79e 333e
00000160: d5a8 1bbe 99d4 6a3e 7369 483c b9f7 d83d
00000170: 1b39 c93e 348a d4bd 9a60 623d 156a 03be
00000180: 1210 0d3e decc edbc 02b7 44bc 9aed a8be
00000190: f319 ef3c e393 5cbe a001 893e 1eba 5b3b
000001a0: 6681 823d 2f32 7f3e 52c2 9dbc a702 543d
000001b0: 917b 8e3e 06fc c03e 1ef9 5c3e 156f 593d
000001c0: 56bb a03c 5e01 6a3e d9f3 31bd 0f8b 74be
000001d0: 8c9b 363d 23a3 55be 0288 c1bd 419f 143e
000001e0: 5d88 a1be e873 2abc a668 683e e949 ba3d
000001f0: 6567 7b3d 99fe 153d bbb2 f03d cc47 04be
00000200: 831a 4d3d ba48 003e 1e43 9bbe 4f7f 23bd
00000210: 3269 493e d53a f53c 360c 783e e86b c3be
00000220: 8427 93be be22 7e3e 9b7c c2bd 8803 6fbd
00000230: a99b 6d3d f36d 863e 37fd 9dbd b911 14be
00000240: 9bd1 823e d856 9a3e 7004 69bd c180 cbbb
00000250: 83a0 8d3e 8e91 8c3e c88c cd3e aa2f 143e
00000260: 1324 74be ce1f d33b 49b4 f93c 9626 9a3e
00000270: f173 94bd b7f6 803e 40b9 3d3e 9fad 833e
00000280: f1a8 503e 71ed 9b3e f3b8 053e fd0e 58be
00000290: 2ab2 6f3e 92b4 783e 0aac 8d3e 81bd 833e
000002a0: b812 3f3d 618f 83bd 189b 0c3e 8b9a c83c
000002b0: b2c1 0e3d 5d2c ea3d 3ba2 39bd ffcc 053e
000002c0: 7f0c 813d cb06 d13e 9fa1 f73d e12c 903d
000002d0: 4abf b83e ec9d adbd bbe5 d73c a206 9b3d
000002e0: f067 04be c92e ddbb 22d9 d53d 45c9 f4bd
000002f0: 9472 8e3d 6851 c23d 311c b7bd 538a 0ebd
00000300: 71bc 763e 4e6e c23e 0bc5 aabe b674 06be
00000310: 4d31 363d 7a55 c8bc 87aa 01bd 6474 3c3e
00000320: 3a00 9e3d 8b93 47be 6e27 2abe 6118 4dbe
00000330: bf55 613d b00d 803e ab78 40be c468 9a3e
00000340: 5035 e23c ec18 9d3e f35c 73be 5950 193d
00000350: e22b 6bbd 6f1b b93d ae36 673d 1214 173e
00000360: 977e 64be c1af 39be 4408 0e3e 8efa 333c
00000370: bf38 27be b940 263e 47d1 8a3e 7e9d 933e
00000380: 2cc9 c9bd e413 ab3c 1828 4e3e f0b0 afbe
00000390: 2b53 913e 0074 d43d 7caa 873e a55a 853e
000003a0: 274a b23d 6eef 993e 833a b53c 0594 cc3e
000003b0: d6ea 62bc b9db 663e 152e b13e 00fa bc3d
000003c0: 1223 233e 82b0 ce3c ac44 99be dd6c 3dbe
000003d0: b5d7 a23d a279 3abe aa62 253d 34d6 a33e
000003e0: e10e e1bd 9376 b0bb 7b8d e23d 0766 f73d
000003f0: ce4f 723d 670b e33c c66d e53d a0fd b9bd
0.12428957 0.21944664 -0.13614312 0.010499821 0.3630392 -0.23661602 0.28725997 -0.31632352
0.026482154 -0.17224346 0.310026 -0.01767827 0.30227122 0.37577644 0.013244059 0.31692854
0.3392327 0.3294517 -0.19282827 -0.47914875 0.21299712 0.28832448 0.37848464 0.13059838
0.019622598 0.24685806 -0.09233178 0.07901107 0.28499565 -0.14936548 0.35327506 0.15036938
-0.011080297 0.031936884 -0.10168325 -0.13760221 0.07590559 -0.07341228 0.22681054 0.30262813
0.18411592 -0.17059562 0.014883847 0.06379168 0.11855124 0.023972895 -0.08411613 -0.0030197713
0.32687125 0.43330196 -0.022316108 -0.11884086 0.26860246 0.13289449 0.46210667 0.08800672
0.002825286 0.079606056 -0.42762154 0.3075362 0.19175915 0.06938378 0.3481849 0.18149492
0.037671465 0.26630464 0.017090445 0.06584461 -0.18344636 0.2288429 0.19587371 0.017496867
0.063143305 -0.12061299 -0.040432777 -0.06890525 0.13220215 0.32258505 0.18284434 0.27519843
0.08394191 0.25934806 -0.23107198 0.08572276 0.3339258 -0.051363427 -0.01890137 0.17541061
-0.15201123 0.22932662 0.012232172 0.10594124 0.3930138 -0.10377923 0.055267908 -0.12833436
0.13775662 -0.029028352 -0.012006523 -0.32993776 0.029187178 -0.2154079 0.26759052 0.0033527683
0.06372337 0.24921487 -0.019257698 0.051760342 0.2782865 0.3769228 0.21579406 0.05308445
0.019620579 0.22852084 -0.043445442 -0.23881172 0.044581935 -0.20863013 -0.094497696 0.14513876
-0.3154935 -0.010403611 0.2269617 0.090961285 0.0613779 0.036619756 0.1175284 -0.12918013
0.05007411 0.12527743 -0.30324644 -0.039916333 0.19669035 0.02993528 0.24223408 -0.38168263
-0.28741086 0.2481794 -0.09496423 -0.058352977 0.058009777 0.2625576 -0.077143125 -0.14459886
0.2555054 0.30144382 -0.056888998 -0.006210417 0.27661523 0.274548 0.4014647 0.14471307
-0.23841886 0.0064430004 0.030481474 0.30107564 -0.072486766 0.25188228 0.18527699 0.257184
0.20376946 0.3045459 0.13058834 -0.21099468 0.23407808 0.24287632 0.27670318 0.25730518
0.04664871 -0.06423832 0.13731039 0.024487754 0.03485269 0.11434243 -0.04532073 0.13066481
0.063012116 0.40825495 0.12091374 0.0703981 0.36083442 -0.08477387 0.026354661 0.075696245
-0.12930274 -0.006749962 0.104418054 -0.119524516 0.06955448 0.09488183 -0.08940924 -0.034799885
0.24095322 0.3797478 -0.33353457 -0.13130459 0.04448061 -0.02445482 -0.03165677 0.18403774
0.07714887 -0.19489877 -0.16616604 -0.20028831 0.055013414 0.25010443 -0.18796031 0.30158055
0.027613312 0.30683076 -0.23765926 0.03743014 -0.057414897 0.09038436 0.05644863 0.1475375
-0.22313915 -0.18133451 0.1387034 0.01098503 -0.1633024 0.16235627 0.2711279 0.28831095
-0.098528236 0.020883508 0.20132482 -0.3431468 0.28383765 0.10373688 0.26497257 0.2604572
0.0870555 0.30065483 0.022122627 0.3995668 -0.013849935 0.22544755 0.3460547 0.09227371
0.15931347 0.02523065 -0.29935205 -0.1849856 0.07951299 -0.18210462 0.040377297 0.31999362
-0.10989166 -0.005385229 0.110621415 0.12080007 0.05915814 0.027715398 0.11202578 -0.09081578

weight_hh_l1 f4 [64, 16]
00000000: cfe4 4e3e 9261 2cbe e077 e4bd 8a7d 0f3e
00000010: 7c66 71be 952d c7be ce8f cebe 115b f6bd
00000020: aeca c3be e95b f7be 3a35 4bbe 6cd7 1ebe
00000030: b43a b0be fe45 a0bd 1c60 c0be 34f9 a1be
00000040: 7758 5dbe 531a 463d 8090 b03d e166 50bc
00000050: 719f a8be bc03 76be 7c88 84bd 37fa a5be
00000060: 9228 26be 698f b9be c0f4 b7be 1c85 66be
00000070: 5da8 f2be e56e 3dbe 7702 8cbe 085b 1fbe
00000080: 2911 2ebe 7646 c8be 465c c13c 3378 a4be
00000090: 9b07 6dbe 1b23 70be 6c98 36be 26be bcbe
000000a0: 2d91 cdbe 3d59 d8bc f668 e2be fc07 1abe
000000b0: 7bec 0dbf 76a0 d1be 8608 1abd d23c d6be
000000c0: 59ee 6d3e de44 98be 9709 693a ab36 28bd
000000d0: 9869 b2be c5ab 6ebe c30f 81be 0ce4 bebc
000000e0: 2f05 2fbe 273a a9be c42f e8be 5b0a 4dbe
000000f0: 6322 a4be 166e 45be 7f97 0dbf 1966 99be
00000100: 1e65 233c bbe7 26be 3af6 783d 7fa2 17bd
00000110: 0253 b2be 412b 383d 985a 64be 747d a0be
00000120: eceb e03d f8fa 0dbe fec1 70bd d626 67bd
00000130: 34b1 6cbe f6cc 96be 883a a0bd 8789 83be
00000140: 5cf6 49bd 8048 fc3c 3467 623e 171d 8bbe
00000150: 30e6 e1bd 2608 97be bb07 90be e4ec 16be
00000160: dbaf 62be 63b6 febd 922c 1bbe b22c 0dbe
00000170: 6a68 2f3d a3a2 33bd 5eb7 7ebd 8f83 92be
00000180: 133f 313d b0af 28be dced 6d3d 847a a4be
00000190: 0949 2d3b c157 87bd 3f95 99be 7f48 b3be
000001a0: d702 78be 25c5 43be 60c0 953d 9d44 94be
000001b0: 3d0e c8be 73a1 7ebe e122 ac3d 2a01 47bd
000001c0: 92a7 a73d 0f0b e53d 288f 533e 4df1 0cbe
000001d0: 9d6d 9fbe 3700 b23d ca48 a4be 3772 afbd
000001e0: c646 933c 776a a6bd 2c84 8abe fb05 f1bc
000001f0: 4d9e adbe 55b2 66be ea59 00be 0d89 bebe
00000200: 19d1 d3bd 0fa5 9fbd 7301 613e 1eea 59be
00000210: 04f9 80be 2f9c 9bbd 5877 18be 315e 10be
00000220: faf1 8dbd 5804 623e 43ec 99bd 9cba cf3c
00000230: 5f29 4b3d 0482 54bd 9c84 13be 5d36 7e3d
00000240: 9ee6 50be 233e 0f3d b66e 903d 3aeb 66be
00000250: a8bc f03d f16a 133e 1feb 2ebe 4d79 07be
00000260: 9deb 3abe b8b4 853d 5e52 ddbd 1421 ba3d
00000270: ef9d 4abe 7b31 99be 3368 6dbe 125a 5dbe
00000280: 3042 233e a95b 92bd 5600 973d dfa7 813e
00000290: c607 84be 8d5c 87bb 6114 89bd 5282 b6bc
000002a0: c35c c53d d5b9 0b3d 0daa aebc 30fd 403d
000002b0: ea6f 92bd f586 45bd 74d6 e0be 21ff 99be
000002c0: 333e 41bb 1797 78bd 0d5f 83bd a418 9d3d
000002d0: d296 19be e828 98bd abe7 dabe 07cc 9fbd
000002e0: f8fa b6bc 6100 e03c c3c7 00be 121c 5ebe
000002f0: c553 be3c 75eb 5fbe 2e58 79be 8376 233b
00000300: 994b af3d dedf 56be 02c7 81bd 1055 6e3d
00000310: 47ec 64be f83e 613d c0d1 81be 6241 cfbb
00000320: bee5 39be 2459 5b3d ca3c e03c 4eb3 51be
00000330: 5a87 9fbd de77 75be 3d18 12be 16e1 8a3d
00000340: d8f8 753b 6f5f 20be d12e 9a3e 6d92 9bbd
00000350: a84e 65bc 50f2 55be ab39 60bd f2cf acbc
00000360: 6dd6 cd3c 69c7 383e a889 b33d bace 21be
00000370: 0142 20be 05e5 95be 8571 37be 37d2 c8bd
00000380: e486 b03e c9c7 50bd 3d87 963e 9df1 473e
00000390: f3a4 eabb 8f58 23be 7241 18be cba6 05be
000003a0: 6f8e 22bd 37cf d3be 9e1e 2ebd c9a7 a5be
000003b0: d184 e6bd 3ea1 87be 964c a4be aa1e bebd
000003c0: 9a94 31bd bbb7 a03c 27bf 0f3b 3dc3 7bbc
000003d0: 4ff2 d0bd f504 ddbe 3454 4c3d 41ad 97bd
000003e0: 8bb1 22bd 6529 d7bd 726f 1dbe 0eae 8bbe
000003f0: d021 9bbe 685b cebe bc00 0dbd f8e6 9bbe
0.20204471 -0.16834095 -0.11155677 0.14012733 -0.23574251 -0.38901964 -0.4034409 -0.12029088
-0.3824057 -0.4831231 -0.19844523 -0.15511864 -0.34419787 -0.0782585 -0.37573326 -0.3163544
-0.21615778 0.04836495 0.08621311 -0.012719841 -0.32934144 -0.24024862 -0.06471345 -0.3241746
-0.16226414 -0.36242226 -0.35928917 -0.22511715 -0.47394076 -0.18499334 -0.2734563 -0.1556207
-0.16998734 -0.39116257 0.02360357 -0.32122955 -0.23147433 -0.23450892 -0.17831582 -0.36863822
-0.40149823 -0.02640974 -0.44220704 -0.15042108 -0.55438966 -0.40942734 -0.037605785 -0.41843277
0.23235454 -0.29740041 0.00088896736 -0.04106776 -0.34846187 -0.23307712 -0.25207338 -0.0233021
-0.17091821 -0.3305218 -0.45348942 -0.20023482 -0.32057485 -0.19280276 -0.5530929 -0.29960707
0.009972839 -0.16299336 0.060781695 -0.037020203 -0.34828955 0.044963125 -0.22300184 -0.31345713
0.109824985 -0.13865268 -0.058778755 -0.05643352 -0.23114473 -0.29453248 -0.07823664 -0.25690863
-0.049307212 0.03079629 0.22109681 -0.2717063 -0.11030233 -0.29498404 -0.28130898 -0.14738804
-0.22137396 -0.12437131 -0.15153721 -0.13786581 0.042824186 -0.043856274 -0.06218659 -0.28615996
0.043273043 -0.1647327 0.05808817 -0.32124722 0.0026441237 -0.066085346 -0.29996678 -0.35016248
-0.24219833 -0.19118173 0.07312083 -0.28958598 -0.39073363 -0.24866275 0.0840509 -0.048585095
0.081862584 0.1118375 0.20660079 -0.13763924 -0.31138316 0.08691447 -0.32086784 -0.08566707
0.017978083 -0.08125775 -0.27053964 -0.029421797 -0.33909836 -0.22528966 -0.125343 -0.37213936
-0.103426166 -0.07795154 0.21973209 -0.21280715 -0.25189984 -0.07598149 -0.14889276 -0.14098431
-0.06930919 0.2207197 -0.075157665 0.025357537 0.0496 -0.051881805 -0.14406055 0.062063564
-0.20400473 0.034971368 0.070523664 -0.2255067 0.11754733 0.14396264 -0.17081879 -0.13229866
-0.18253942 0.0652861 -0.10806726 0.090883404 -0.1978681 -0.29920563 -0.2318428 -0.2161639
0.15943217 -0.07146389 0.07373111 0.25323388 -0.2578718 -0.004130906 -0.0669334 -0.022278938
0.096368335 0.03411277 -0.02132132 0.04711646 -0.07150252 -0.04822441 -0.43913615 -0.3007746
-0.0029486537 -0.060690966 -0.06414614 0.076707155 -0.1499894 -0.07429677 -0.42754874 -0.07802587
-0.022336468 0.02734393 -0.12576203 -0.21690395 0.023233304 -0.21867163 -0.24350044 0.0024942465
0.08559341 -0.20983836 -0.06336786 0.05818659 -0.22355758 0.054991692 -0.2535534 -0.006324933
-0.18154046 0.053551808 0.027372736 -0.20478556 -0.07789488 -0.23971507 -0.14267059 0.06781213
0.0037532356 -0.15661405 0.30113843 -0.07596288 -0.013995804 -0.20893216 -0.054742496 -0.02109525
0.02512666 0.18044819 0.0876649 -0.15801516 -0.15650178 -0.2927629 -0.17914398 -0.0980572
0.34477913 -0.05097178 0.29400054 0.19525762 -0.0071607768 -0.15951751 -0.14868715 -0.13051908
-0.039686617 -0.4136903 -0.042509668 -0.32354572 -0.112558015 -0.26490206 -0.3208968 -0.092831925
-0.043354608 0.01961886 0.0021934004 -0.015366373 -0.10202467 -0.43167844 0.04988499 -0.074060924
-0.0397201 -0.10505942 -0.15374544 -0.2728123 -0.30299234 -0.40304112 -0.03442453 -0.30449653

bias_ih_l1 f4 [64]
00000000: 062b 143e 4164 823e 73c5 013e 7544 083e
00000010: d7af a0bd 287f 463e 98ba e3bb d5de 653e
00000020: e94b 7e3e 1553 b93e 4bd1 a03e 41e3 973e
00000030: 2ec1 cbbd a774 293e e551 5c3d 4348 813d
00000040: df02 30bd 6fdc 9dbd be5e 993e a16a e43d
00000050: 29a7 413e ed66 bf3e 460a f83d 4b5a 97bd
00000060: f5a0 b53c 06ed 853e 7458 e4bd b193 a5bd
00000070: 043e 533e 9b4f f53d df65 c6bd b605 c03e
00000080: 90be 37be 5df7 78bd e872 1d3e 7096 edbd
00000090: c6d6 37be 6afe 423d 7963 94be d72d 283d
000000a0: 8636 adbc d591 9b3d 5514 083e f23f b2bd
000000b0: e305 47bd 95d0 3abd 933e f83d 72b0 5abe
000000c0: 14fe 043f 211b 9d3d ba0e b13e 4a44 bc3e
000000d0: 3088 443d b57b 193e 167b 1f3e 4f50 cebc
000000e0: ea43 e73e 8e77 583e e824 103e 3e0c e13e
000000f0: eecb b53e d74d aebc e4f2 023f f9cf 7f3e
0.14469537 0.25467113 0.12672977 0.13307364 -0.07846039 0.19384444 -0.006949734 0.22448285
0.24833645 0.361962 0.31409678 0.29665568 -0.099489555 0.16548406 0.05378904 0.06312611
-0.042971488 -0.0770806 0.29955095 0.1115315 0.18911423 0.37383214 0.121113345 -0.07390269
0.022171477 0.26157397 -0.111496836 -0.080848105 0.20629126 0.11978074 -0.09687399 0.37504357
-0.17943788 -0.06078278 0.15375865 -0.11600959 -0.17953023 0.04760591 -0.28982142 0.04105934
-0.021144163 0.07596175 0.13289006 -0.08703603 -0.0485896 -0.045609076 0.1212131 -0.21356371
0.5195019 0.0767119 0.34581548 0.3677085 0.04798144 0.14988597 0.15574297 -0.025184778
0.45169002 0.21139356 0.14076579 0.43954653 0.35507149 -0.021277351 0.5115187 0.24981679

bias_hh_l1 f4 [64]
00000000: 4d56 483e a714 963d b04b 883e df90 f6bc
00000010: bd1a 07be 3d82 19bb 6652 c6bd 8b43 623d
00000020: f09a 973e f91e 993c b95b 0cbe e248 cfbd
00000030: d633 313e 8991 373e 53f8 c83d 02c9 f8bd
00000040: b2be 433b d0e1 8f3e 79c0 abbc f695 cd3e
00000050: 73ab a3bd 27f7 613d af74 8cbd 7cf8 253e
00000060: 6b6b f03c a40d 7f3e 9e64 cd3d d322 23bd
00000070: feda 983d d818 b53e ef95 eb3d 9d50 163e
00000080: a9c2 4cbd a67b e63c ab51 b9bc 6dc3 21be
00000090: 7fd3 a6bd f7fd 84be 8236 a93d 510a 0ebe
000000a0: e989 4dbe 56d5 f0bd 859a 3ebe 8500 6abe
000000b0: 5fa8 193e 589a 49be f5a6 aebb f8a7 ff3c
000000c0: bd18 ac3d 8251 243e ec65 b33d 52fb 563d
000000d0: 7d2d 0c3e 3f84 9e3e 06a1 323e 87aa b63e
000000e0: 3ac9 c93e faec 983e 3a47 933e 34ab f53e
000000f0: bfff be3e 3fee bb3e f6f7 aa3d 85e7 483e
0.19564171 0.07328158 0.26620245 -0.030098377 -0.13193794 -0.0023423575 -0.09683685 0.055240195
0.29610395 0.018691527 -0.13706864 -0.10121323 0.1730493 0.17926611 0.09812989 -0.12147714
0.0029868302 0.2810197 -0.020965802 0.40153474 -0.07991686 0.055167343 -0.06858193 0.1620807
0.029348096 0.24907547 0.10028957 -0.039828133 0.074636444 0.35370517 0.11503207 0.14679189
-0.04999033 0.028135132 -0.02262195 -0.15797205 -0.081458084 -0.2597501 0.0826235 -0.13871123
-0.2007214 -0.117594406 -0.18613632 -0.2285176 0.15005635 -0.19687784 -0.0053299614 0.031208023
0.08403156 0.16046718 0.087596744 0.05248577 0.13689227 0.3096027 0.17444238 0.35676977
0.39411336 0.298683 0.2876528 0.4798218 0.37304494 0.36705205 0.08348076 0.19619568
