saved_models/LSTM/ckpt__epoch100.ckpt (torch, 17513 bytes, 20 tensors)

weight_ih_l0 f4 [64, 8]
0.04907087 -0.050655577 -0.29482365 0.301711 -0.08579475 0.107403 0.14661121 -0.010678753
-0.0053385836 0.031169308 0.17956336 -0.09665765 -0.21064146 0.18917075 0.30841923 -0.0069744433
0.028399654 0.4401062 -0.2728521 -0.18126932 0.031086242 -0.09331082 0.24638973 -0.037623324
-0.023112211 0.2793725 0.18148193 0.39254767 -0.014119324 4.0173672e-05 0.03542197 0.06734168
-0.07160565 -0.1048116 0.0063279863 0.3731385 -0.07552792 0.07635841 0.21985602 -0.05165875
0.38130954 -0.084383495 -0.1275157 -0.17969643 -0.0071049784 -0.07209899 -0.3094552 0.114601865
-0.013665054 0.035613343 -0.067421705 0.23247696 0.0042337845 0.3097065 -0.21845296 0.109978974
-0.01908351 -0.09454429 -0.037201237 0.09939116 0.2236453 0.07031461 0.07560776 0.10579354
-0.14975572 0.23615937 0.20501341 -0.1405554 0.0030364494 -0.08797683 -0.070341155 -0.09725638
-0.0026131207 0.0233008 -0.29696542 0.1563211 0.05642169 -0.0066039446 0.13105816 0.048348173
-0.17026842 -0.15254007 -0.04087245 0.21361905 0.057972398 -0.055604786 -0.20821252 -0.045826457
0.0088232495 -0.12044474 0.26079336 -0.22323383 0.12738426 -0.06112607 0.25976503 -0.04214356
0.027536267 -0.33463553 0.06561538 0.05701753 0.003953263 0.004277566 -0.2949976 0.024122372
-0.09579156 0.13177434 0.185971 0.103451535 -0.111848935 -0.32117155 -0.2831303 0.14225413
0.052386623 -0.009880262 -0.015640689 -0.090141 -0.24226093 -0.14726426 0.15103261 0.086403176
0.0047610416 -0.27516127 0.076666 -0.19446278 0.042567175 -0.025238782 0.39512867 -0.07478384
0.011445346 0.08897757 -0.038007095 -0.04336289 -0.047906887 0.09846124 -0.17467834 0.17606655
-0.15795866 0.12702811 0.10293723 0.18072991 0.03975185 0.17172128 -0.05716751 -0.065548435
0.011741269 0.045728356 -0.15522459 0.05348828 0.061303668 0.27288133 -0.05872214 0.14722875
0.09343274 -0.13196358 0.055774264 0.080027685 -0.045856435 0.19539328 -0.1970857 -0.19783348
-0.23792289 0.13267945 0.22840384 -0.12799124 -0.06470334 -0.15424131 0.035511993 -0.010760432
-0.17425871 0.06497766 0.16856304 -0.12878332 0.0068374877 -0.12140032 -0.3575775 -0.07306813
-0.108380474 0.037702918 0.07751078 -0.031128606 0.0210132 -0.15549985 0.06119847 0.028790858
0.02424782 -0.20912519 -0.32222033 0.09104195 -0.0072494047 0.009956123 -0.22410204 -0.04965576
0.121016435 0.11182023 0.063147284 0.25315222 0.023637826 -0.00046283536 -0.25765538 -0.100006945
0.058584947 0.07883933 -0.11894281 -0.118249096 0.07619697 -0.030208241 -0.0053633987 0.076768346
-0.022840995 0.07049459 -0.006763658 -0.17328481 -0.07439747 0.18759589 0.08825919 0.060411204
0.02511695 0.1024022 -0.2792011 0.16347218 0.042209864 -0.082820006 -0.010444428 -0.16701849
-0.051666833 0.24687704 -0.13309045 -0.01263148 -0.009456642 0.011609701 -0.13872395 0.07659359
0.026352843 0.07589134 -0.20879674 0.13077496 -0.06699359 0.22780399 0.13759695 0.010801999
0.0120727755 0.33877844 -0.01674184 -0.14453574 0.048438117 -0.07701473 0.19856164 -0.14233638
0.013778944 -0.10440055 -0.079431385 0.099484734 0.030140396 0.25789285 -0.03611638 0.16037999
00000000: 89fe 483d 397c 4fbd 20f3 96be dd79 9a3e
00000010: 28b5 afbd 1bf6 db3d 4021 163e f0f5 2ebc
00000020: 49ef aebb c756 ff3c 75df 373e 72f4 c5bd
00000030: 65b2 57be fab5 413e 20e9 9d3e df89 e4bb
00000040: 64a6 e83c 9a55 e13e 45b3 8bbe aa9e 39be
00000050: 93a8 fe3c be19 bfbd 974d 7c3e ea1a 1abd
00000060: d255 bdbc ea09 8f3e 66d6 393e 02fc c83e
00000070: bd54 67bc 2780 2838 a116 113d 6fea 893d
00000080: fca5 92bd 77a7 d6bd ff5a cf3b 020c bf3e
00000090: 62ae 9abd cc61 9c3d f021 613e 2098 53bd
000000a0: 013b c33e 41d1 acbd 7a93 02be 5702 38be
000000b0: e1d0 e8bb a3a8 93bd e970 9ebe 62b4 ea3d
000000c0: 64e3 5fbc 4cdf 113d 6414 8abd 710e 6e3e
000000d0: 8fbb 8a3b da91 9e3e 22b2 5fbe a83c e13d
000000e0: 0555 9cbc 70a0 c1bd 5360 18bd 988d cb3d
000000f0: 4603 653e 1b01 903d 3ed8 9a3d 49aa d83d
00000100: 9059 19be c3d3 713e 09ef 513e c1ed 0fbe
00000110: 2bff 463b 322d b4bd 060f 90bd 5a2e c7bd
00000120: e440 2bbb 52e1 be3c da0b 98be a312 203e
00000130: 6e1a 673d e765 d8bb 1c34 063e bc08 463d
00000140: d85a 2ebe 7733 1cbe df69 27bd f4be 5a3e
00000150: 7774 6d3d d8c1 63bd aa35 55be 86b4 3bbd
00000160: 648f 103c bbab f6bd b586 853e 6997 64be
00000170: 0571 023e 545f 7abd ecff 843e ba9e 2cbd
00000180: bd93 e13c 5955 abbe 5b61 863d 378b 693d
00000190: 608a 813b d32a 8c3b ed09 97be 489c c53c
000001a0: 5e2e c4bd daef 063e 2f6f 3e3e 66de d33d
000001b0: 0e11 e5bd 9970 a4be 74f6 90be 11ab 113e
000001c0: 5b93 563d d3e0 21bc e720 80bc d89b b8bd
000001d0: 4013 78be 71cc 16be 4ba8 1a3e 26f4 b03d
000001e0: 8302 9c3b f0e1 8cbe 1003 9d3d 4021 47be
000001f0: eb5a 2e3d 90c1 cebc 4e4e ca3e 4528 99bd
00000200: 4385 3b3c df39 b63d 54ad 1bbd 499d 31bd
00000210: 033a 44bd 0ca6 c93d e1de 32be ca4a 343e
00000220: eabf 21be a813 023e c1d0 d23d 4311 393e
00000230: d6d2 223d b4d7 2f3e 7b28 6abd 423e 86bd
00000240: 745e 403c a84d 3b3d 32f3 1ebe 8716 5b3d
00000250: 8e19 7b3d 1ab7 8b3e a086 70bd 22c3 163e
00000260: aa59 bf3d 7621 07be 8e73 643d 8ee5 a33d
00000270: f5d3 3bbd 2d15 483e d5d0 49be dc94 4abe
00000280: 0fa2 73be 1fdd 073e b2e2 693e 2310 03be
00000290: 2f83 84bd 6ff1 1dbe 0675 113d 864c 30bc
000002a0: e070 32be 0213 853d ca9b 2c3e c6df 03be
000002b0: 010d e03b bba0 f8bd 6614 b7be bea4 95bd
000002c0: 95f6 ddbd 606e 1a3d f9bd 9e3d 6b01 ffbc
000002d0: e023 ac3c 5a3b 1fbe 3fab 7a3d ceda eb3c
000002e0: 5da3 c63c ea24 56be 10fa a4be 3474 ba3d
000002f0: 6a8c edbb 021f 233c 017b 65be d763 4bbd
00000300: 77d7 f73d 0102 e53d 5d53 813d 2b9d 813e
00000310: 1da4 c13c b6a8 f2b9 68eb 83be 71d0 ccbd
00000320: c5f6 6f3d 8476 a13d 4a98 f3bd 952c f2bd
00000330: 280d 9c3d 4677 f7bc 73bf afbb b938 9d3d
00000340: 0a1d bbbc 785f 903d ada1 ddbb 9371 31be
00000350: b35d 98bd 2319 403e 3cc1 b43d bd71 773d
00000360: 10c2 cd3c 3fb8 d13d 72f3 8ebe 4065 273e
00000370: 40e4 2c3d 899d a9bd 1b1f 2bbc e506 2bbe
00000380: 9aa0 53bd 56cd 7c3e dd48 08be 44f4 4ebc
00000390: 08f0 1abc 9e36 3e3c a70d 0ebe 1add 9c3d
000003a0: ebe1 d73c eb6c 9b3d d0ce 55be dfe9 053e
000003b0: ef33 89bd 7345 693e 37e6 0c3e defa 303c
000003c0: e4cc 453c 5e74 ad3e 2f26 89bc 2d01 14be
000003d0: 0c67 463d e6b9 9dbd be53 4b3e a1c0 11be
000003e0: 14c1 613c f5cf d5bd ecac a2bd a7be cb3d
000003f0: fee8 f63c 880a 843e c5ee 13bd a73a 243e

weight_hh_l0 f4 [64, 4]
-0.019620482 0.20567381 0.33637062 0.06393227 -0.24541165 0.095783845 0.025705121 0.2338469
-0.2539909 0.28272465 0.22529955 0.35330683 0.42356044 -0.2424342 -0.19774784 0.13946287
0.20610885 -0.13852127 0.27560985 0.38532993 0.029823458 -0.104845546 -0.054481268 -0.29361126
0.17536262 0.10063782 0.028845906 -0.07744927 -0.121468924 0.2781598 0.11233139 0.09202111
0.040622573 0.40440607 0.51847565 0.2723548 -0.30114442 0.08669889 -0.20522007 -0.028096134
-0.13222449 0.31500018 -0.22976409 -0.18151608 0.20630573 0.18692249 -0.043501996 -0.22563607
-0.2392257 0.62854266 0.42469996 0.6870662 -0.28519225 -0.10118348 0.18129733 0.22527632
0.3119737 -0.12475568 0.12742117 0.0060915872 0.024432547 0.016231632 0.08541228 0.5319859
-0.18765597 -0.09503777 -0.047315683 0.27602264 0.15428045 -0.07757786 -0.08358823 0.13237669
-0.2303116 0.060451984 -0.021210484 0.026960928 -0.027720528 0.28661212 -0.0081582535 0.061218422
-0.26924965 -0.20332547 0.13537568 0.1969012 -0.25774533 0.43486133 -0.054671064 -0.042166643
0.3808592 -0.1281979 -0.3249996 -0.29304993 -0.4279691 0.1890239 0.3350537 0.19055991
-0.34723702 -0.004736836 0.045375068 -0.23732609 0.15262161 -0.2935708 0.25273374 0.07433366
-0.25235435 0.10546345 -0.038257986 -0.055751376 -0.090726666 -0.07542866 0.30776837 0.015683139
-0.14632788 0.34659192 0.25099805 0.431063 -0.11299895 0.098368526 -0.21682419 0.25638318
-0.010404606 0.2980266 0.5114253 0.31539366 -0.37413692 -0.029251914 -0.13641311 0.15594707
-0.2541194 0.3492345 0.24582683 0.4015331 0.32413837 -0.20226331 -0.18504743 -0.11107374
-0.18141423 0.2798291 0.40750226 0.244448 0.3504896 -0.20098847 -0.29097155 -0.15216543
-0.28906745 0.09955366 0.2516189 0.04921215 -0.036161415 0.32959875 0.27440038 0.079499565
0.38400775 0.073197275 -0.103620045 -0.1849975 -0.12912856 0.1793922 0.5757608 0.4645036
-0.07136364 -0.3446889 -0.19549805 -0.40749875 -0.026488295 -0.07321709 -0.15240204 -0.21174918
-0.0071706735 -0.0882594 -0.29056007 -0.27228704 -0.27696124 0.30913067 -0.019482762 -0.027226292
0.30026698 -0.19328159 -0.6467722 -0.5430269 -0.14607315 0.16362405 0.18949886 0.092499726
0.41400284 -0.10683246 0.029678587 -0.34786966 -0.15266232 0.25735268 0.28304592 0.4284156
-0.14833003 -0.00060733105 -0.08470195 0.3187361 0.021330219 -0.17717695 -0.32039812 -0.22412048
-0.5640239 0.5724554 0.48919272 0.15392351 -0.09949715 0.057227653 0.057707626 -0.01821611
-0.056869056 -0.14769606 0.16372102 0.27028346 -0.37271702 0.2954461 0.59307545 0.5045963
0.18240644 0.25068334 0.0025997476 -0.06272981 -0.024953457 0.3928238 0.1645482 0.3718655
0.017146781 0.21423501 0.12828557 0.03575219 0.13453999 -0.24172345 0.046795182 0.06041382
-0.2650228 0.09398504 0.051075485 0.22214171 0.10586367 0.26269665 0.12684914 -0.014945675
-0.3687354 0.36628625 0.55831707 0.46092853 0.002994506 -0.12929118 -0.06302764 0.29970172
-0.027739955 -0.24571295 -0.037640985 0.0639284 0.06349369 -0.017311767 0.050903045 0.038491417
00000000: 22bb a0bc 289c 523e c538 ac3e ecee 823d
00000010: 314d 7bbe 522a c43d 8c93 d23c 9075 6f3e
00000020: 180b 82be 49c1 903e edb4 663e a2e4 b43e
00000030: eadc d83e ac40 78be 697e 4abe 5bcf 0e3e
00000040: 330e 533e 85d8 0dbe bc1c 8d3e f749 c53e
00000050: 5350 f43c 43b9 d6bd c027 5fbd 3754 96be
00000060: 4292 333e 341b ce3d 404e ec3c b99d 9ebd
00000070: b3c4 f8bd f66a 8e3e 000e e63d 9075 bc3d
00000080: db63 263d 500e cf3e d2ba 043f 1772 8b3e
00000090: 9a2f 9abe 308f b13d 3625 52be dd29 e6bc
000000a0: db65 07be b447 a13e 4747 6bbe 5adf 39be
000000b0: cf41 533e 9c68 3f3e 262f 32bd 240d 67be
000000c0: 95f7 74be 2ce8 203f 4672 d93e 92e3 2f3f
000000d0: b804 92be 4939 cfbd 02a6 393e d6ae 663e
000000e0: 04bb 9f3e e87f ffbd b27a 023e f09b c73b
000000f0: c426 c83c 33f8 843c a2ec ae3d 3a30 083f
00000100: e328 40be 2aa3 c2bd 17ce 41bd d752 8d3e
00000110: b2fb 1d3e 24e1 9ebd 4e30 abbd c18d 073e
00000120: ced6 6bbe 809c 773d 9cc1 adbc 2add dc3c
00000130: 2916 e3bc d3be 923e 32aa 05bc 2bc0 7a3d
00000140: 17db 89be 8d34 50be ec9f 0a3e 78a0 493e
00000150: 32f7 83be 25a6 de3e c4ee 5fbd eeb6 2cbd
00000160: faff c23e 4f46 03be 5966 a6be a40a 96be
00000170: c41e dbbe 7b8f 413e 298c ab3e 2322 433e
00000180: 0dc9 b1be 7637 9bbb 35db 393d 9c05 73be
00000190: d748 1c3e e94e 96be 5166 813e 3f3c 983d
000001a0: 9734 81be 39fd d73d 68b4 1cbd 8e5b 64bd
000001b0: e7ce b9bd 577a 9abd d193 9d3e ed79 803c
000001c0: fad6 15be 7f74 b13e d182 803e 4ab4 dc3e
000001d0: fe6b e7bd 7075 c93d 2907 5ebe a844 833e
000001e0: 1578 2abc f196 983e c5ec 023f 477b a13e
000001f0: e08e bfbe b6a1 efbc e1af 0bbe 97b0 1f3e
00000200: f01b 82be ddce b23e 07ba 7b3e bf95 cd3e
00000210: 77f5 a53e 1d1e 4fbe 137d 3dbe a17a e3bd
00000220: a7c4 39be c345 8f3e 23a4 d03e 9450 7a3e
00000230: 5f73 b33e eccf 4dbe 39fa 94be 41d1 1bbe
00000240: a600 94be cae2 cb3d 31d4 803e ae92 493d
00000250: fe1d 14bd 2bc1 a83e 357e 8c3e abd0 a23d
00000260: aa9c c43e 74e8 953d bf36 d4bd fc6f 3dbe
00000270: 473a 04be 97b2 373e 0f65 133f 6ad3 ed3e
00000280: 1a27 92bd 107b b0be a430 48be ada3 d0be
00000290: fbfd d8bc d7f2 95bd 480f 1cbe c7d4 58be
000002a0: f8f7 eabb 58c1 b4bd 4ac4 94be 3569 8bbe
000002b0: ddcd 8dbe 6046 9e3e 509a 9fbc ac09 dfbc
000002c0: 98bc 993e 9ceb 45be dd92 25bf d003 0bbf
000002d0: 3394 15be 108d 273e fd0b 423e 7f70 bd3d
000002e0: 2ef8 d33e faca dabd 8220 f33c f91b b2be
000002f0: 8353 1cbe bbc3 833e 65eb 903e 4a59 db3e
00000300: d4e3 17be 4c35 1fba 3778 adbd 6131 a33e
00000310: b6bc ae3c e06d 35be 390b a4be d77f 65be
00000320: df63 10bf 708c 123f 7877 fa3e 209e 1d3e
00000330: 29c5 cbbd 8b67 6a3d d55e 6c3d f439 95bc
00000340: 87ef 68bd a33d 17be 7ca6 273e 9862 8a3e
00000350: c4d4 bebe b644 973e cbd3 173f 392d 013f
00000360: c1c8 3a3e 9159 803e 8760 2a3b 7d78 80bd
00000370: 316b ccbc 3320 c93e 537f 283e 2865 be3e
00000380: 6877 8c3c 6c60 5b3e 4b5d 033e e370 123d
00000390: dac4 093e 5a86 77be 4eac 3f3d 7b74 773d
000003a0: 12b1 87be 3b7b c03d 8734 513d 1e79 633e
000003b0: 0dcf d83d 2d80 863e bee4 013e b4de 74bc
000003c0: e3ca bcbe df89 bb3e deed 0e3f d3fe eb3e
000003d0: 793f 443b e864 04be a314 81bd 8172 993e
000003e0: e73e e3bc 2d9c 7bbe 6f2d 1abd e5ec 823d
000003f0: fb08 823d 68d1 8dbc b67f 503d 2da9 1d3d

bias_ih_l0 f4 [64]
0.11893162 -0.08891622 0.15543382 -0.25065753 0.14190108 0.082971685 0.02799505 0.19319221
-0.24472088 0.011676844 -0.17179543 -0.35933697 -0.13094969 -0.22930227 -0.10174836 0.16087921
0.45654505 0.15236507 0.08064129 -0.07485435 0.32673064 0.40684298 0.27070224 0.13227057
0.013855792 -0.054833878 0.28908 0.23228613 0.3339807 0.31261906 0.2601813 0.25510865
0.20345229 0.012585121 0.26006782 0.17834263 -0.08591772 -0.2128358 -0.2965384 -0.13177447
-0.16528346 -0.27835318 0.18105564 0.25274864 0.058627993 0.41834393 0.04095265 -0.08583791
0.24002726 0.13774335 0.2677416 0.2084364 0.23672068 0.32586768 0.31294674 0.16618098
0.24504252 -0.17143297 0.3423214 0.12985022 0.42507583 0.08103601 -0.11948626 0.18721548
00000000: 6c92 f33d b519 b6bd 0b2a 1f3e 2f56 80be
00000010: 844e 113e 0fed a93d e055 e53c 2ed4 453e
00000020: 1c98 7abe 3c50 3f3c 24eb 2fbe 04fb b7be
00000030: ad17 06be 37ce 6abe 7261 d0bd 85bd 243e
00000040: 46c0 e93e 9705 1c3e 4327 a53d 3d4d 99bd
00000050: 3d49 a73e b94d d03e 7c99 8a3e f071 073e
00000060: 6703 633c 7d99 60bd 4b02 943e 6adc 6d3e
00000070: 85ff aa3e 9b0f a03e 7c36 853e 9a9d 823e
00000080: cc55 503e d331 4e3c 9c27 853e 739f 363e
00000090: a1f5 afbd a1f1 59be e2d3 97be e3ef 06be
000000a0: 1140 29be 4f84 8ebe a666 393e 4568 813e
000000b0: e823 703d 2d31 d63e f7bd 273d c9cb afbd
000000c0: b5c9 753e 980c 0d3e 6d15 893e 5a70 553e
000000d0: e866 723e 21d8 a63e 8e3a a03e 592b 2a3e
000000e0: 6dec 7a3e 208c 2fbe c044 af3e 75f7 043e
000000f0: 8aa3 d93e 35f6 a53d 36b5 f4bd 6ab5 3f3e

bias_hh_l0 f4 [64]
0.18379925 0.23649637 0.083614655 -0.3508058 0.031773027 -0.027170243 -0.29211137 0.07402315
-0.004405887 0.04951482 -0.044651277 -0.106374644 0.06385865 -0.22542171 0.060880713 -0.03188126
0.42486805 0.024918495 0.059425056 -0.104708694 -0.015777273 0.10392303 0.2254567 0.122337185
0.10757718 -0.208161 -0.0138621 -0.019468863 0.26877013 0.43069112 -0.05213336 0.3209739
-0.20219165 -0.39315176 -0.114165045 0.09458466 0.010398441 -0.100569054 -0.13183573 -0.12672423
0.00019292349 -0.35461572 -0.037817597 0.3677441 0.10180092 0.25715968 -0.14472343 0.159285
0.40377977 0.15561672 0.5837094 0.18794686 -0.02915338 0.410224 -0.1393669 -0.1462111
-0.19448496 0.11692295 0.2631003 0.3832023 0.53392345 0.4663753 -0.0050765276 0.23945345
00000000: df35 3c3e 1b2c 723e 293e ab3d d19c b3be
00000010: 6f24 023d 2194 debc 9f8f 95be 7399 973d
00000020: 425f 90bb 0dd0 4a3d 42e4 36bd f3da d9bd
00000030: 53c8 823d f3d4 66be 0e5e 793d ed95 02bd
00000040: 4e88 d93e df21 cc3c b067 733d 8371 d6bd
00000050: 573f 81bc 99d5 d43d 1fde 663e eb8b fa3d
00000060: 6d51 dc3d 2828 55be dd1d 63bc 2a7d 9fbc
00000070: 3d9c 893e 8c83 dc3e ca89 55bd b156 a43e
00000080: 540b 4fbe 304b c9be 5dcf e9bd 9ab5 c13d
00000090: 395e 2a3c 26f7 cdbd f2ff 06be ffc3 01be
000000a0: 814b 4a39 3190 b5be a0e6 1abd f448 bc3e
000000b0: 007d d03d 6faa 833e 6132 14be 9b1b 233e
000000c0: 39bc ce3e fd59 1f3e fb6d 153f 2475 403e
000000d0: 12d3 eebc e108 d23e 32b6 0ebe 5db8 15be
000000e0: 1127 47be 4d75 ef3d 15b5 863e 1833 c43e
000000f0: 35af 083f bec8 ee3e 0059 a6bb 4933 753e

weight_hr_l0 f4 [4, 16]
0.05795767 0.22562411 -0.013383716 0.14733694 -0.055743285 -0.0018275254 0.42321754 -0.21533169
0.023170976 0.06604147 0.01271429 -0.10691412 0.30757135 -0.35697418 0.27859622 -0.05796592
0.4066687 0.10230367 0.07512298 -0.21070524 0.19756328 0.058050793 -0.25397244 0.01709154
-0.06614759 -0.29539883 0.17932515 0.3150362 -0.5246937 0.23177479 -0.10222425 0.034650266
0.4507988 -0.25557587 0.51252705 -0.25574428 -0.013975083 -0.07672711 -0.20014755 0.20351502
-0.27161673 -0.2966463 -0.31621498 0.3206857 -0.2653307 0.09353681 -0.20376572 0.4207003
0.044951946 -0.31411636 0.4326786 -0.2586378 0.32084167 0.39578524 -0.24626216 0.28121066
-0.104942694 -0.28969073 -0.34642354 0.012839762 -0.41555378 0.45408553 0.0461204 0.31344035
00000000: 0665 6d3d 020a 673e 6047 5bbc 7fdf 163e
00000010: 1253 64bd 9489 efba f8af d83e e97f 5cbe
00000020: 0fd1 bd3c c040 873d 994f 503c caf5 dabd
00000030: fe79 9d3e 52c5 b6be 2aa4 8e3e ac6d 6dbd
00000040: e136 d03e 9684 d13d 14da 993d 1dc3 57be
00000050: 074e 4a3e abc6 6d3d ad08 82be 8f03 8c3c
00000060: 6378 87bd 843e 97be 03a1 373e 6d4c a13e
00000070: 5452 06bf 5f56 6d3e f35a d1bd 70ed 0d3d
00000080: 1acf e63e d7da 82be f934 033f eaf0 82be
00000090: bff7 64bc 1a23 9dbd 7bf3 4cbe 3e66 503e
000000a0: 5911 8bbe 06e2 97be eee6 a1be eb30 a43e
000000b0: 6dd9 87be 3a90 bf3d f6a7 50be 0866 d73e
000000c0: 881f 383d dcd3 a0be 0d88 dd3e 2c6c 84be
000000d0: 5c45 a43e 5da4 ca3e 262c 7cbe d8fa 8f3e
000000e0: 32ec d6bd 5852 94be 6d5e b1be dd5d 523c
000000f0: 77c3 d4be e67d e83e bfe8 3c3d 417b a03e

weight_ih_l1 f4 [64, 4]
0.22619307 0.19826189 0.2492384 0.093684524 -0.15222417 0.3204261 -0.1028846 0.11646599
0.07633867 -0.1955596 -0.13216794 0.17573285 0.37449887 -0.24287182 -0.21600115 -0.03286936
0.21498688 -0.14823169 0.07909141 0.29650068 0.5865523 -0.08779386 -0.1982163 -0.026191117
-0.10254507 0.016062597 -0.096986346 -0.15834732 -0.035416365 -0.04733773 0.023934878 -0.074527256
-0.19606368 -0.0543289 0.2787665 0.08232294 -0.22612186 0.31366166 0.33860552 0.25302806
0.37591654 -0.12062961 -0.16605559 -0.14919594 0.09297364 -0.062383484 -0.05235251 -0.26183718
-0.025166987 0.20375967 0.061217505 -0.1257959 0.575383 -0.37870148 -0.32941067 -0.10280503
0.083505064 0.039361518 -0.10996231 0.14238274 0.107108034 0.011609454 -0.13278623 0.31012496
-0.20059843 0.18651377 0.45454136 0.06639182 0.030586677 0.43098646 0.20498236 0.5189489
0.15930149 0.091481395 -0.0219006 0.13126855 0.8251523 -0.28416204 -0.21815328 -0.06825145
-0.146082 0.31490093 0.28681484 0.53083307 0.8561533 -0.2622351 -0.026168905 -0.16518483
-0.27524155 0.19222811 -0.03159532 0.30519998 -0.114531465 0.20161013 0.31004518 0.32964265
-0.099953555 0.3217753 0.09640273 0.44172382 0.053479783 0.4230206 0.18502204 0.34717423
0.84614223 -0.27259684 -0.10065635 0.07615964 -0.008653452 -0.22646216 0.08038646 0.16168301
-0.3685075 0.29314643 0.017165024 0.25063932 0.7454866 -0.31648245 -0.28489092 -0.09297899
-0.049754206 0.007814279 -0.2445068 -0.17619272 0.09856043 0.20754983 0.14981039 0.49496228
-0.058123894 0.043333396 0.049195733 0.36290643 -0.19803248 0.057995956 0.15675859 0.21661246
0.050913025 -0.34040803 0.031862617 -0.24966985 0.1815838 -0.30221298 -0.1650154 0.082403615
-0.20162578 0.12625761 0.16383381 0.25728944 -0.12510325 0.010182933 0.34588885 0.24439938
-0.1669162 -0.00011959132 0.2692155 0.2969451 0.016254503 0.026257202 0.16862467 0.18008561
-0.33478782 0.26005408 0.034024894 -0.034479287 -0.11899534 0.28158438 0.15770389 0.12278745
-0.35306725 0.33996797 0.027689703 0.17920354 0.35543892 -0.18591736 -0.23180668 -0.17021382
0.10061053 0.121594 0.20752546 0.37108365 -0.46810472 0.16370791 -0.20892161 0.10573449
0.06359882 0.047668934 0.25107813 0.12600693 -0.031969875 -0.38132685 -0.013992125 -0.30163527
-0.05944692 0.09196486 0.42961043 0.08796416 -0.3913831 0.07913336 0.16430852 0.1449994
0.0106204 -0.025644936 -0.0007641579 0.16235949 0.74193245 -0.16007078 -0.087846264 -0.19022498
0.025281936 0.061785452 0.17003243 0.25139394 0.37146616 -0.22203425 -0.3012111 -0.43174633
0.013524499 0.010813875 -0.075386174 0.14323317 -0.30679476 0.4339825 0.28960034 0.06660426
-0.39384508 0.29930487 0.3389376 0.31796816 -0.21194434 0.42347926 0.12285194 0.31127173
0.5332795 -0.15934554 -0.20430648 0.0030205077 0.26239395 -0.029453905 0.09557053 0.14720023
-0.15140519 0.37358713 0.3889572 0.23838474 0.33220524 -0.45558676 -0.45891538 -0.398493
0.23677266 -0.11719185 -0.2802157 -0.2768045 -0.10070171 0.07961179 0.0919423 0.3419876
00000000: 289f 673e 2a05 4b3e 5a38 7f3e acdd bf3d
00000010: a7e0 1bbe e40e a43e 29b5 d2bd b985 ee3d
00000020: 7357 9c3d c740 48be 0857 07be 50f3 333e
00000030: 51be bf3e 64b3 78be 682f 5dbe 06a2 06bd
00000040: 8525 5c3e 0cca 17be adfa a13d f0ce 973e
00000050: 4b28 163f 44cd b3bd 37f9 4abe c18e d6bc
00000060: 2603 d2bd b595 833c c7a0 c6bd cd25 22be
00000070: c010 11bd 35e5 41bd 1413 c43c bfa1 98bd
00000080: ebc4 48be fb87 5ebd 7cba 8e3e ee98 a83d
00000090: 7d8c 67be 4398 a03e b45d ad3e e58c 813e
000000a0: 2278 c03e a80c f7bd 7a0a 2abe d2c6 18be
000000b0: f768 be3d d385 7fbd 966f 56bd 860f 86be
000000c0: ff2a cebc 60a6 503e 35bf 7a3d a4d0 00be
000000d0: 4d4c 133f 29e5 c1be 84a8 a8be 728b d2bd
000000e0: b404 ab3d 8b39 213d eb33 e1bd c8cc 113e
000000f0: 755b db3d 9435 3e3c 1df9 07be b3c8 9e3e
00000100: ad69 4dbe 77fd 3e3e a5b9 e83e 6ff8 873d
00000110: e990 fa3c 42aa dc3e e5e6 513e d6d9 043f
00000120: ee1f 233e 995a bb3d e368 b3bc 436b 063e
00000130: 2e3d 533f b07d 91be 9363 5fbe 6bc7 8bbd
00000140: 8596 15be b23a a13e 65d9 923e ade4 073f
00000150: dd2c 5b3f ae43 86be 2c60 d6bc 3626 29be
00000160: 76ec 8cbe 72d7 443e 186a 01bd 2c43 9c3e
00000170: 798f eabd e372 4e3e 3ebe 9e3e ecc6 a83e
00000180: 73b4 ccbd bbbf a43e cb6e c53d a029 e23e
00000190: 9e0d 5b3d 2896 d83e 6b76 3d3e d2c0 b13e
000001a0: c79c 583f d091 8bbe eb24 cebd 96f9 9b3d
000001b0: 35c7 0dbc b2e5 67be a8a1 a43d 3b90 253e
000001c0: 04ad bcbe 4a17 963e aa9d 8c3c cc53 803e
000001d0: 36d8 3e3f fd09 a2be 39dd 91be c56b bebd
000001e0: 11cb 4bbd 7607 003c fe5f 7abe dd6b 34be
000001f0: 0dda c93d f187 543e e567 193e b26b fd3e
00000200: 5213 6ebd 5c7e 313d 7781 493d dfce b93e
00000210: 07c9 4abe 2b8d 6d3d 5385 203e a8cf 5d3e
00000220: 2d8a 503d f649 aebe 6082 023d 74a9 7fbe
00000230: 1bf1 393e a9bb 9abe ccf9 28be 3ac3 a83d
00000240: fd76 4ebe ad49 013e 0dc4 273e 71bb 833e
00000250: 111b 00be 51d6 263c 5818 b13e d543 7a3e
00000260: 15ec 2abe 1acd fab8 9dd6 893e 3009 983e
00000270: 2a28 853c 5819 d73c f2ab 2c3e 5d68 383e
00000280: 4f69 abbe cf25 853e b05d 0b3d 273a 0dbd
00000290: d4b3 f3bd d42b 903e 217d 213e fd77 fb3d
000002a0: 3bc5 b4be 4810 ae3e 84d5 e23c 2281 373e
000002b0: 17fc b53e 1f61 3ebe bb5e 6dbe 884c 2ebe
000002c0: e50c ce3d 4606 f93d 8e81 543e adfe bd3e
000002d0: 6cab efbe 0ca3 273e 8cef 55be 538b d83d
000002e0: 1940 823d 8040 433d 508d 803e f607 013e
000002f0: d8f2 02bd 463d c3be 3a3f 65bc f06f 9abe
00000300: 9d7e 73bd 1358 bc3d e6f5 db3e 8e26 b43d
00000310: 5e63 c8be ac10 a23d 7e40 283e b97a 143e
00000320: 3001 2e3c 5415 d2bc c551 48ba 9141 263e
00000330: 49ef 3d3f 98e9 23be bee8 b3bd 56ca 42be
00000340: 101c cf3c be12 7d3d fb1c 2e3e b5b6 803e
00000350: d030 be3e f25c 63be 5738 9abe db0d ddbe
00000360: dc95 5d3c ae2c 313c 1164 9abd b7ab 123e
00000370: 3414 9dbe f432 de3e 7f46 943e d067 883d
00000380: 10a6 c9be 7d3e 993e 3b89 ad3e b9cc a23e
00000390: f007 59be 46d2 d83e cc99 fb3d 025f 9f3e
000003a0: 0185 083f 7a2b 23be b835 51be b6f3 453b
000003b0: 8058 863e 5149 f1bc 7bba c33d a8bb 163e
000003c0: f609 1bbe d046 bf3e 6625 c73e 211b 743e
000003d0: ce16 aa3e ab42 e9be f5f6 eabe 4607 ccbe
000003e0: 8874 723e 4802 f0bd 6f78 8fbe 52b9 8dbe
000003f0: b33c cebd 820b a33d 3f4c bc3d 0019 af3e

weight_hh_l1 f4 [64, 4]
0.12087382 0.1910517 -0.186419 -0.42508012 0.34876263 -0.12028959 -0.060718607 0.0072208005
0.30886754 0.042898823 0.058634643 -0.010134126 0.23362151 -0.2877251 0.11128679 -0.032415606
0.0307116 -0.11207789 0.28403816 -0.37539324 0.5576325 -0.26352003 0.292811 0.2411937
0.46396178 -0.5542812 0.27903843 -0.2175119 -0.06252152 -0.08144733 0.19935608 -0.015695788
-0.09825934 0.12837605 0.12539026 -0.04202731 0.02980022 -0.027334278 0.116357535 -0.23421374
0.31102288 -0.13689384 0.44922996 -0.06661982 0.19507599 -0.31093144 0.39374316 0.112844095
0.019796751 -0.33524507 0.24811998 -0.003346052 0.21467826 0.11711645 0.32831535 -0.07572567
0.52889305 -0.39279705 0.23220234 -0.08898227 0.08335488 -0.30381233 0.23668739 -0.30641824
-0.21891662 -0.103594646 -0.029511692 -0.010039801 0.025279282 0.1275378 -0.22803581 -0.12520806
0.0579432 -0.05200462 0.005277994 -0.2884407 0.12940486 0.21086764 -0.14973101 -0.18224736
-0.010928 0.2062308 -0.24099974 -0.4658063 0.039686568 0.02563781 -0.28318125 0.12373976
-0.14813222 -0.06519862 0.024931688 -0.016240867 -0.0913948 0.15445374 -0.116713665 -0.14884065
-0.26118422 0.0026256712 0.15946661 -0.1358044 0.070652656 -0.24003214 0.24493472 -0.09730141
-0.11183321 0.19191267 -0.169048 -0.18642694 -0.24271165 -0.033803176 -0.08217089 -0.08303627
0.29951492 -0.051030062 0.018812787 -0.29567683 0.12809142 0.045846544 0.09948678 0.14642464
0.22721021 0.10555975 0.111215845 -0.030396212 0.17449026 0.00886211 -0.12810704 -0.023465242
0.05234759 0.20351465 0.0046112686 0.11511441 0.054325435 0.1236931 -0.164045 -0.24582464
0.11341367 -0.053029362 -0.07677902 0.17899908 -0.07366012 -0.021178316 0.03028446 0.07737451
0.07528127 -0.012324155 -0.10647639 -0.32566494 -0.35394645 -0.09228273 -0.035545945 0.043761417
-0.28887838 -0.084347196 -0.039607443 -0.29631677 0.07647539 -0.03516011 0.087914646 0.075096525
0.026207035 0.18765824 -0.25625756 -0.1762608 -0.27984223 -0.18994407 -0.22987042 -0.025501762
-0.10301421 -0.00584081 -0.299582 -0.022650937 -0.050907865 -0.3219265 0.41568503 0.2460427
0.06096339 0.10471944 0.15706126 -0.1834325 -0.35644647 -0.13645847 -0.14914618 -0.20436333
0.13846283 -0.0106035955 0.12725765 -0.106434 0.0050619435 0.16969445 0.09536006 0.19650096
0.025454387 -0.31633112 0.05573565 -0.31548434 0.3127452 -0.3832416 0.24021327 0.12609756
0.36623943 -0.09705151 -0.035157 -0.004347441 -0.01421001 0.17912462 0.1369473 -0.263287
0.30829805 -0.23320575 0.35873574 -0.2848736 0.21239857 0.12059236 0.2250831 -0.029024918
0.49596387 -0.21732013 0.42052618 -0.06282084 0.17815153 0.014516118 -0.00604617 -0.36876982
0.2907603 0.13250253 -0.106596954 -0.1311612 0.0831879 -0.29558924 0.3868269 0.15704603
0.179378 -0.09616635 -0.04543566 -0.15296702 0.34012756 0.08085479 0.33810744 -0.37012982
0.09075034 -0.37452495 0.09117502 -0.23079 -0.024382167 -0.19920728 0.11394681 -0.16438137
0.38646027 -0.2794923 0.0677249 0.25462997 0.43531373 -0.37080222 0.05062152 0.052394357
00000000: b18c f73d 0fa3 433e 9fe4 3ebe 1aa4 d9be
00000010: 0491 b23e 635a f6bd 13b4 78bd 779c ec3b
00000020: e323 9e3e adb6 2f3d e12a 703d 9b09 26bc
00000030: 7a3a 6f3e b450 93be 54ea e33d 3ac6 04bd
00000040: e596 fb3c 1889 e5bd 736d 913e 8b33 c0be
00000050: 01c1 0e3f 19ec 86be 53eb 953e 7bfb 763e
00000060: 668c ed3e 5fe5 0dbf 20de 8e3e 71bb 5ebe
00000070: 480b 80bd dccd a6bd 0024 4c3e 7494 80bc
00000080: 313c c9bd 0375 033e 4e66 003e d424 2cbd
00000090: 971f f43c 23ec dfbc dc4c ee3d bad5 6fbe
000000a0: 643e 9f3e e62d 0cbe 7801 e63e f96f 88bd
000000b0: 00c2 473e 6832 9fbe b498 c93e ce1a e73d
000000c0: cc2c a23c 3ea5 abbe 2a13 7e3e 7049 5bbb
000000d0: 9ed4 5b3e c0da ef3d f318 a83e 0f16 9bbd
000000e0: 8965 073f b21c c9be 73c6 6d3e 563c b6bd
000000f0: f7b5 aa3d 4a8d 9bbe 2e5e 723e dae2 9cbe
00000100: ae2b 60be 6e29 d4bd 81c2 f1bc fa7d 24bc
00000110: 7f16 cf3c 4599 023e 3882 69be 8b36 00be
00000120: d955 6d3d cc02 55bd 06f3 ac3b 80ae 93be
00000130: b582 043e b0ed 573e 1653 19be 0d9f 3abe
00000140: 5b0b 33bc 2b2e 533e a3c8 76be 2a7e eebe
00000150: 628e 223d 6206 d23c 22fd 90be 456b fd3d
00000160: f9af 17be db86 85bd 8a3d cc3c 910b 85bc
00000170: 322d bbbd 1f29 1e3e 9307 efbd af69 18be
00000180: f0b9 85be 7413 2c3b 374b 233e 4f10 0bbe
00000190: 57b2 903d fcca 75be 2bd0 7a3e f645 c7bd
000001a0: cf08 e5bd c184 443e eb1a 2dbe b4e6 3ebe
000001b0: 6789 78be 3375 0abd 3649 a8bd ec0e aabd
000001c0: 055a 993e e604 51bd 461d 9a3c f462 97be
000001d0: 662a 033e 96c9 3b3d babf cb3d 57f0 153e
000001e0: cba9 683e b62f d83d 22c5 e33d 7a01 f9bc
000001f0: 93ad 323e 6232 113c 7e2e 03be 2e3a c0bc
00000200: 6d6a 563d 2566 503e 201a 973b 1bc1 eb3d
00000210: 5984 5e3d cf52 fd3d 6afb 27be 74b9 7bbe
00000220: 6d45 e83d 5135 59bd 523e 9dbd 894b 373e
00000230: 1edb 96bd 267e adbc 1e17 f83c 8776 9e3d
00000240: 112d 9a3d 41eb 49bc 4b10 dabd 8ebd a6be
00000250: 7838 b5be bafe bcbd a098 11bd 2c3f 333d
00000260: dee7 93be 39be acbd 6a3b 22bd d5b6 97be
00000270: 219f 9c3d 0c04 10bd 980c b43d 35cc 993d
00000280: 23b0 d63c 7b29 403e 3134 83be b67d 34be
00000290: 7b47 8fbe b380 42be 2763 6bbe 12e9 d0bc
000002a0: 1df9 d2bd 4464 bfbb d062 99be 758e b9bc
000002b0: c484 50bd 8dd3 a4be abd4 d43e 9ef2 7b3e
000002c0: bfb4 793d 2577 d63d abd4 203e bbd5 3bbe
000002d0: 2780 b6be c5bb 0bbe c7b9 18be 9f44 51be
000002e0: 33c9 0d3e b4ba 2dbc d44f 023e 12fa d9bd
000002f0: a9de a53b 62c4 2d3e 234c c33d 8c37 493e
00000300: b885 d03c 27f6 a1be 114b 643d 2a87 a1be
00000310: 2420 a03e 3e38 c4be 78fa 753e b81f 013e
00000320: bc83 bb3e f1c2 c6bd c900 10bd fa74 8ebb
00000330: 1ad1 68bc 726c 373e ea3b 0c3e 8ecd 86be
00000340: 3ed9 9d3e 7dcd 6ebe 36ac b73e f4da 91be
00000350: 037f 593e 21f9 f63d 2f7c 663e aac5 edbc
00000360: faee fd3e 2b89 5ebe 354f d73e 36a8 80bd
00000370: 5b6d 363e 03d5 6d3c f31e c6bb 66cf bcbe
00000380: 89de 943e beae 073e 814f dabd 1f4f 06be
00000390: 6b5e aa3d 7957 97be 2d0e c63e add0 203e
000003a0: deae 373e ddf2 c4bd be1a 3abd 63a3 1cbe
000003b0: 3325 ae3e 3297 a53d 6b1c ad3e a881 bdbe
000003c0: 50db b93d bcc1 bfbe f8b9 ba3d 3754 6cbe
000003d0: 1cbd c7bc fefc 4bbe f25c e93d 9753 28be
000003e0: 1fde c53e 9d19 8fbe 5ab3 8a3d dc5e 823e
000003f0: 71e1 de3e cad9 bdbe 8358 4f3d 779b 563d

bias_ih_l1 f4 [64]
0.27722648 0.13135737 0.2835128 0.019247698 0.15611894 -0.100260586 -0.003271214 -0.15514149
0.15769832 0.08266119 0.27607805 0.47833416 -0.042805236 -0.09243417 0.0017390827 -0.038633548
-0.20244494 0.21014963 0.016227847 -0.33474198 -0.1002548 -0.22509776 -0.21519686 0.13429461
0.17525885 -0.223733 -0.12881103 0.097548805 -0.10527704 -0.15380144 -0.021357825 0.20302798
0.23542728 0.13288128 0.22036543 0.21825403 -0.094196126 -0.14575468 0.24141268 0.026373377
0.26636946 0.093333736 -0.11172422 -0.13927361 0.03423639 -0.17566158 -0.28530872 0.15875757
-0.10024822 0.14615291 0.11509591 0.16607328 0.22238405 0.0277553 0.3577926 0.07795156
0.29143256 0.21212986 0.3820765 0.4814646 0.19181654 0.16801965 -0.037767198 -0.045512885
00000000: a1f0 8d3e 8c82 063e 9728 913e 59ad 9d3c
00000010: a5dd 1f3e 6c55 cdbd dd61 56bb 69dd 1ebe
00000020: ab7b 213e 454a a93d 1a5a 8d3e 37e8 f43e
00000030: 8b54 2fbd 204e bdbd eff1 e33a 363e 1ebd
00000040: ba4d 4fbe 7731 573e 43f0 843c 4d63 abbe
00000050: 6352 cdbd 0780 66be 915c 5cbe 8784 093e
00000060: 0e77 333e 431a 65be 0ae7 03be abc7 c73d
00000070: 7d9b d7bd 207e 1dbe 9bf6 aebc 91e6 4f3e
00000080: d913 713e 0812 083e 7aa7 613e fc7d 5f3e
00000090: e6e9 c0bd b740 15be e334 773e fb0c d83c
000000a0: 9461 883e c225 bf3d abcf e4bd be9d 0ebe
000000b0: 753b 0c3d a1e0 33be fc13 92be 5891 223e
000000c0: f04e cdbd 1ca9 153e 68b7 eb3d 1d0f 2a3e
000000d0: a5b8 633e 155f e33c 9730 b73e 11a5 9f3d
000000e0: a636 953e 9238 593e 889f c33e 8782 f63e
000000f0: 8e6b 443e 580d 2c3e c7b1 1abd b86b 3abd

bias_hh_l1 f4 [64]
0.22540909 0.09307087 0.033216782 0.015222082 0.28233534 -0.12874062 0.33235997 -0.08501132
0.01833938 -0.10001643 0.08877044 0.42077938 -0.11917991 0.31466374 0.17497982 0.16525957
0.0020276527 -0.21886131 0.05022656 0.13601738 0.024595272 -0.051127803 0.15079841 0.22671527
-0.121499814 -0.06471954 0.0022230144 0.10663229 0.060056325 -0.003307364 0.109181054 -0.27345583
-0.015359286 0.009381412 -0.21055636 0.07999369 0.20033188 -0.33422753 -0.23300992 0.18701132
0.25188163 0.08445749 -0.027482433 0.050651263 -0.03699835 -0.13251722 -0.27496484 -0.18369585
0.29229447 0.3268617 0.29871672 -0.14869294 0.020461503 0.085903965 0.13932607 0.25433874
0.2517882 0.17603374 0.25560883 0.25004184 -0.12899297 0.2889129 0.08147956 0.40202644
00000000: a4d1 663e f19b be3d 520e 083d 0a66 793c
00000010: 428e 903e 95d4 03be 162b aa3e 6a1a aebd
00000020: 783c 963c 6ad5 ccbd 47cd b53d 6570 d73e
00000030: 9914 f4bd 9b1b a13e e92d 333e ce39 293e
00000040: 5ee2 043b 2e1d 60be 5eba 4d3d 2448 0b3e
00000050: 067c c93c 636b 51bd e66a 1a3e 0c28 683e
00000060: e5d4 f8bd ae8b 84bd feaf 113b 0862 da3d
00000070: 9ffd 753d 5cc0 58bb 519a df3d 6702 8cbe
00000080: 84a5 7bbc 7eb4 193c 169c 57be bbd3 a33d
00000090: cd23 4d3e df1f abbe 279a 6ebe e57f 3f3e
000000a0: a1f6 803e 0cf8 ac3d d722 e1bc b377 4f3d
000000b0: 958b 17bd 98b2 07be 31c8 8cbe c41a 3cbe
000000c0: 9fa7 953e 6b5a a73e 66f1 983e f642 18be
000000d0: e29e a73c 6bee af3d 7eab 0e3e b038 823e
000000e0: 62ea 803e 3042 343e 29df 823e 7c05 803e
000000f0: bc16 04be 64ec 933e c1de a63d 69d6 cd3e

weight_hr_l1 f4 [4, 16]
0.19941495 0.19710962 -0.08102059 -0.14630751 0.29684782 0.19752069 0.25160837 0.34133387
0.37679282 0.19141155 0.04511554 -0.14720112 0.40931287 0.2683196 0.062099885 -0.18745346
-0.3148734 -0.100714505 0.17141204 0.001740427 -0.00042370535 0.1361648 -0.29057539 -0.3216857
0.0013679281 0.058104977 -0.2612469 0.4464621 -0.0128863 -0.32240453 0.044962753 0.024566948
0.17861427 0.32091823 -0.22283244 -0.12888402 0.16175838 0.16525424 0.35988557 0.024622334
0.3500539 0.43682563 0.20842688 -0.32706496 0.30440742 0.2531903 0.22758552 -0.42399073
0.17396937 0.040913925 -0.30349967 -0.16478491 0.52619624 0.40850383 0.5473702 -0.03566343
0.025479395 0.15046775 0.47076762 -0.38647678 -0.044755735 0.40465072 0.039544586 -0.29612187
00000000: 6f33 4c3e 1bd7 493e 20ee a5bd a3d1 15be
00000010: 70fc 973e dd42 4a3e d0d2 803e 50c3 ae3e
00000020: fdea c03e 6401 443e 13cb 383d e4bb 16be
00000030: 7591 d13e 3061 893e 735c 7e3d cdf3 3fbe
00000040: 1637 a1be 6843 cebd a386 2f3e 0a1f e43a
00000050: c524 deb9 c96e 0b3e 4cc6 94be fdb3 a4be
00000060: 0d4c b33a 7cff 6d3d 27c2 85be ae96 e43e
00000070: 0f21 53bc 3512 a5be dd2a 383d a040 c93c
00000080: a9e6 363e 654f a43e 302e 64be 2cfa 03be
00000090: fda3 253e 6838 293e ec42 b83e c7b4 c93c
000000a0: 443a b33e 9ca7 df3e db6d 553e 0f75 a7be
000000b0: 4adb 9b3e 29a2 813e 2e0c 693e 5015 d9be
000000c0: 0725 323e 5c95 273d 4f64 9bbe 60bd 28be
000000d0: ccb4 063f 6a27 d13e 7420 0c3f d113 12bd
000000e0: 2aba d03c 3814 1a3e 7408 f13e 49e0 c5be
000000f0: ca51 37bd 612e cf3e 81f9 213d 499d 97be

weight_ih_l2 f4 [64, 4]
0.120952144 0.24394818 -0.1765791 -0.17363194 0.07436221 0.44683248 0.06949916 -0.07333788
0.2774735 -0.027118001 0.25561148 -0.24958763 0.30440503 -0.23644303 0.29623735 -0.20122574
-0.0148779955 -0.0070670093 -0.058530208 -0.2757429 -0.22910252 0.2702478 -0.222586 -0.25860578
-0.0549619 -0.12017201 0.21836124 0.2010518 -0.07343326 0.114258 0.0912127 -0.3788824
-0.3540888 0.33977565 -0.11270655 -0.04870853 0.028237455 -0.007347328 0.15239143 -0.30802485
0.16972443 0.012177695 0.20136087 -0.17520882 -0.44507354 0.52960014 -0.07825387 -0.115618944
0.40339065 0.26242626 0.2744962 -0.40059152 -0.118767135 0.110252015 0.3098983 0.049896136
0.15977688 0.0022515527 0.14826705 -0.30688488 0.08833634 -0.16505538 0.068856575 0.045025952
-0.19424903 0.22221763 -0.07190814 -0.24851136 -0.05481689 0.10599037 -0.35239846 -0.2711122
0.23908295 -0.2911281 0.25562412 0.016897293 0.2931835 -0.09338702 0.34613556 0.43019587
0.250185 -0.20621933 0.4446222 0.41870227 -0.45732272 0.22237734 -0.46361768 -0.023858553
0.057894573 -0.1765375 0.12833872 0.49171814 0.2426526 0.23386978 0.057791043 -0.16992104
-0.05719822 0.403126 -0.42297947 -0.41944042 0.34911418 0.07164241 0.27211767 -0.092877045
0.05184213 -0.19845976 0.21382101 -0.24582867 -0.3028899 0.1677182 -0.11935466 -0.28453746
0.36592278 -0.042493455 0.29572567 -0.1590382 0.2977928 -0.26923004 0.37131563 0.34404612
0.21827646 -0.45355007 0.32747266 0.05097578 0.22044814 -0.35909384 0.35887027 0.44087303
-0.15883619 0.03219528 -0.11336066 -0.27802926 0.004223932 -0.41254178 0.30614772 0.08241947
-0.04852208 0.44672045 -0.1705208 -0.025096672 0.33056688 -0.04477468 0.046753194 0.25601754
0.24252331 -0.24107234 0.4859154 0.29895166 0.23804563 -0.35339296 0.1789143 0.040975474
-0.1443628 0.4312032 -0.14194024 -0.17869067 0.007444039 -0.07629765 0.2831161 0.29541504
-0.25434873 0.37163165 -0.045754634 -0.33025536 0.2897502 -0.027703429 0.38509372 0.31183755
-0.19410308 0.41258678 -0.42975312 -0.002292284 -0.07814984 0.26041502 -0.073974326 -0.23017164
0.34652466 -0.16542982 0.4346 0.1670101 0.09048762 -0.20145904 0.13702059 0.33686444
-0.15041041 0.4086416 -0.43248218 -0.0408625 0.32233807 -0.064726315 0.4095524 0.14496389
-0.36609513 0.6208009 -0.058916055 -0.23684564 -0.24474686 0.24951246 -0.24057643 -0.15543514
0.17060882 0.01724951 -0.12038386 -0.371832 0.44694534 -0.12885574 0.16632007 0.33487603
0.3220587 -0.3329756 0.48379 0.13245586 -0.66120756 0.3072915 -0.41378766 -0.2678602
0.4206044 -0.24541292 0.5541007 0.22403148 0.26324388 0.38909867 0.045683857 -0.28896207
-0.39717707 0.5228618 -0.26127124 -0.24925244 -0.03282915 -0.26328257 0.1995286 -0.16559204
0.21623833 0.34891465 0.0477934 -0.21127425 -0.3254681 0.23377341 -0.5917048 -0.5408731
0.22981142 -0.15776531 -0.10078794 -0.28900895 0.6736903 -0.28710842 0.22831997 0.41175452
0.57339424 -0.21479928 0.3398012 0.41730008 0.547195 -0.34777114 0.2920114 0.12074447
00000000: c2b5 f73d 8dcd 793e 27d1 34be 92cc 31be
00000010: 374b 983d 3ac7 e43e 9355 8e3d 2c32 96bd
00000020: 0211 8e3e 9226 debc 82df 823e e693 7fbe
00000030: fada 9b3e 1f1e 72be 6cac 973e 1f0e 4ebe
00000040: d6c2 73bc 5f92 e7bb 5fbd 6fbd 2c2e 8dbe
00000050: da99 6abe eb5d 8a3e 96ed 63be fa67 84be
00000060: bb1f 61bd be1c f6bd 179a 5f3e 86e0 4d3e
00000070: 2d64 96bd 1900 ea3d b9cd ba3d e0fc c1be
00000080: 214b b5be 13f7 ad3e b1d2 e6bd 9882 47bd
00000090: 3c52 e73c dbc1 f0bb 800c 1c3e 6fb5 9dbe
000000a0: 3ecc 2d3e f484 473c 8b31 4e3e f169 33be
000000b0: aee0 e3be e093 073f 9143 a0bd a0c9 ecbd
000000c0: 3889 ce3e bc5c 863e c48a 8c3e 551a cdbe
000000d0: 2f3c f3bd cfcb e13d fdaa 9e3e e45f 4c3d
000000e0: 8d9c 233e c98e 133b 51d3 173e 0420 9dbe
000000f0: afe9 b43d 4704 29be ad04 8d3d 226d 383d
00000100: 38e9 46be 058d 633e 9344 93bd c379 7ebe
00000110: ad87 60bd 7b11 d93d 926d b4be 38cf 8abe
00000120: 29d2 743e be0e 95be 2ae1 823e 316c 8a3c
00000130: 261c 963e b241 bfbd ae38 b13e a242 dc3e
00000140: 4018 803e 292b 53be 85a5 e33e 2560 d63e
00000150: 3426 eabe e3b6 633e 4c5f edbe 0373 c3bc
00000160: dc22 6d3d 3fc6 34be 3a6b 033e 7bc2 fb3e
00000170: ec79 783e 8f7b 6f3e 4db6 6c3d c8ff 2dbe
00000180: ae48 6abd 8866 ce3e c490 d8be e5c0 d6be
00000190: 18bf b23e 41b9 923d 0253 8b3e 5236 bebd
000001a0: 6a58 543d 0939 4bbe e5f3 5a3e 83ba 7bbe
000001b0: 6314 9bbe 52be 2b3e 3770 f4bd e5ae 91be
000001c0: 3b5a bb3e 9e0d 2ebd 5b69 973e e9da 22be
000001d0: 4c78 983e 85d8 89be 151d be3e d026 b03e
000001e0: dd83 5f3e b737 e8be 7faa a73e fbcb 503d
000001f0: 28bd 613e 26db b7be d8bd b73e 1cba e13e
00000200: f4a5 22be 33df 033d a229 e8bd da59 8ebe
00000210: e968 8a3b ad38 d3be 65bf 9c3e 8acb a83d
00000220: 17bf 46bd 8bb8 e43e 019d 2ebe 8997 cdbc
00000230: 1040 a93e a865 37bd 4780 3f3d bb14 833e
00000240: 0858 783e abdb 76be e7c9 f83e 3110 993e
00000250: 3cc2 733e ecef b4be 4f35 373e e6d5 273d
00000260: d8d3 13be aac6 dc3e c858 11be b0fa 36be
00000270: 20ed f33b f141 9cbd 98f4 903e a440 973e
00000280: ff39 82be 8146 be3e 3669 3bbd 3b17 a9be
00000290: 235a 943e 4df2 e2bc 012b c53e 2ca9 9f3e
000002a0: f5c2 46be 933e d33e 9a08 dcbe 253a 16bb
000002b0: 060d a0bd 1e55 853e da7f 97bd 1db2 6bbe
000002c0: ae6b b13e 6f66 29be e483 de3e b204 2b3e
000002d0: 9351 b93d 474b 4ebe 204f 0c3e 7f79 ac3e
000002e0: 3005 1abe 7939 d13e 4e6e ddbe 705f 27bd
000002f0: 7f09 a53e 3b8f 84bd dab0 d13e 6a71 143e
00000300: d270 bbbe cfec 1e3f f651 71bd aa87 72be
00000310: ec9e 7abe 3280 7f3e ab59 76be 642a 1fbe
00000320: 14b4 2e3e d84e 8d3c d08b f6bd c460 bebe
00000330: 05d6 e43e c2f2 03be cf4f 2a3e df74 ab3e
00000340: e1e4 a43e c77b aabe 53b3 f73e 82a2 073e
00000350: e644 29bf 5055 9d3e fadb d3be f924 89be
00000360: 7659 d73e 864d 7bbe 8bd9 0d3f 8268 653e
00000370: e7c7 863e f137 c73e ff1e 3b3d d6f2 93be
00000380: cb5a cbbe 45da 053f 58c5 85be 083c 7fbe
00000390: dc77 06bd f9cc 86be 3a51 4c3e f690 29be
000003a0: 956d 5d3e f1a4 b23e 03c3 433d 4758 58be
000003b0: c1a3 a6be 4c62 6f3e f779 17bf a976 0abf
000003c0: af53 6b3e 3b8d 21be e869 cebd fbf8 93be
000003d0: f876 2c3f e0ff 92be b6cc 693e 7dd1 d23e
000003e0: f7c9 123f 58f4 5bbe 6cfa ad3e 5ba8 d53e
000003f0: f914 0c3f 0f0f b2be 8582 953e e048 f73d

weight_hh_l2 f4 [64, 4]
0.25929052 0.090451404 0.15162301 0.2210406 -0.11004862 -0.37265173 0.30607697 0.4983606
0.058975823 0.03781086 -0.053307444 0.38815954 0.024064159 0.14085092 -0.10454948 0.01717241
-0.17933956 -0.07606078 0.022599436 0.23744199 0.050240986 0.38123962 -0.29277134 0.2641972
-0.25474313 0.34948105 -0.13101208 0.18179978 0.32439387 0.029025555 -0.019106442 0.56707317
0.16406158 -0.20490071 -0.06165127 0.26072583 0.21712607 -0.15302518 0.16056904 0.23895082
-0.15087654 -0.32085916 0.30771565 0.435656 -0.16231023 -0.063185826 -0.29353213 -0.028087117
-0.13328695 -0.2991921 0.0445298 0.56978464 0.13802429 -0.14493674 0.21357337 0.26190114
0.025403187 0.19707118 0.09851611 0.14396496 -0.0023924105 -0.045221396 -0.10911946 0.34636936
0.14903247 0.16013892 -0.18649192 0.100274906 -0.17277205 -0.21478155 0.1384723 -0.024735847
0.05550427 -0.058320966 -0.02778281 0.17811622 -0.0035879153 -0.03545807 0.117458865 -0.25477055
-0.084343724 -0.13731603 0.17174675 -0.1425375 -0.120331004 0.106576376 -0.27988246 -0.21699388
0.09622423 0.1970838 0.20539927 -0.10836887 -0.107766196 0.022983754 0.14965539 -0.07445032
-0.086905465 -0.052416727 0.0084918 0.19133979 -0.06363377 -0.112821385 0.13228422 0.11249797
-0.06401143 -0.31548733 0.16835529 -0.11858692 -0.31406355 0.11312473 -0.28146508 -0.3969516
0.15583138 -0.18519711 -0.061281513 -0.08366331 0.2801013 0.15013422 -0.11693384 0.34802052
-0.19464096 0.2797793 0.06494627 0.1500877 -0.053449295 0.10752501 0.04994456 -0.03686186
-0.11948708 0.045489136 0.27276224 0.19681278 0.13694255 -0.17489004 0.11122294 -0.26466432
-0.09917841 -0.21097222 -0.19147633 0.1544213 -0.08961812 -0.03158508 -0.15160187 -0.044963278
0.06940441 0.219774 -0.28260675 0.17224622 0.02519128 0.07530674 -0.07615172 -0.061610725
-0.08310465 -0.15469888 -0.16068314 -0.34320277 0.077192836 -0.005833604 -0.065682404 -0.15018688
0.2346289 -0.18901397 0.2654459 0.058580976 -0.20239937 -0.0062480564 -0.29724893 -0.1776752
0.1147199 -0.07089773 -0.068842895 0.2926867 -0.002221685 -0.16454352 -0.052254897 0.05518299
0.033718735 0.20133553 -0.15336248 -0.21482585 0.0007896414 -0.014189455 -0.32116055 0.22868702
0.21089336 -0.2972756 0.19969493 -0.07960063 -0.13699518 0.1315331 0.028417947 -0.056380276
-0.09821216 0.2819783 0.19150852 0.35878363 0.04056638 -0.28376466 0.10626833 0.49140504
0.123926304 -0.2736192 0.2826082 0.45474008 -0.072342575 -0.030227225 0.11548736 0.2897539
0.32635918 0.14297062 0.07497667 0.31723326 -0.47536495 0.047088552 -0.36470985 -0.22936966
0.07534596 0.30408254 -0.23666205 0.22039437 0.13205642 -0.16424718 0.07512206 0.29885632
-0.17656222 0.056428418 -0.1774245 0.30785128 0.119895674 -0.021602498 0.27960357 0.5392748
0.018889911 -0.16635026 0.29877388 0.6447628 -0.2604505 0.24941917 -0.10049444 -0.011652695
0.10504401 -0.3465795 0.17925964 0.5976271 0.35935307 -0.19528295 0.3660675 0.08095968
-0.11305768 0.09998162 0.0438227 0.18210976 0.2206401 -0.084017314 -0.032901872 0.36823934
00000000: bac1 843e 963e b93d 1043 1b3e 7858 623e
00000010: 2c61 e1bd 35cc bebe 1fb6 9c3e 1f29 ff3e
00000020: a290 713d 8fdf 1a3d e858 5abd d9bc c63e
00000030: 3322 c53c 393b 103e 0a1e d6bd 27ad 8c3c
00000040: caa4 37be c1c5 9bbd 7422 b93c fe23 733e
00000050: 7ec9 4d3d d731 c33e 20e6 95be db44 873e
00000060: b16d 82be 2eef b23e 0828 06be b929 3a3e
00000070: f416 a63e 00c7 ed3c 1d85 9cbc b52b 113f
00000080: c2ff 273e 7ed1 51be 0b86 7cbd db7d 853e
00000090: 4c56 5e3e a2b2 1cbe 366c 243e 86af 743e
000000a0: 617f 1abe a747 a4be e88c 9d3e 4e0e df3e
000000b0: a734 26be 9267 81bd d849 96be f416 e6bc
000000c0: 607c 08be b52f 99be e164 363d 68dd 113f
000000d0: 3d56 0d3e 4c6a 14be fab2 5a3e e817 863e
000000e0: 581a d03c 07cd 493e d0c2 c93d 8d6b 133e
000000f0: fdc9 1cbb 123a 39bd 067a dfbd 5357 b13e
00000100: f89b 183e 75fb 233e bdf7 3ebe ee5c cd3d
00000110: 28eb 30be b2ef 5bbe afcb 0d3e d5a2 cabc
00000120: 7258 633d f7e1 6ebd c798 e3bc 1964 363e
00000130: 3b23 6bbb 7b3c 11bd 468e f03d 4971 82be
00000140: 67bc acbd 939c 0cbe 61de 2f3e 5af5 11be
00000150: 1a70 f6bd b744 da3d c14c 8fbe a533 5ebe
00000160: 3611 c53d 56d0 493e 3054 523e 80f0 ddbd
00000170: 86b4 dcbd 6d48 bc3c 433f 193e 6979 98bd
00000180: 7efb b1bd ecb2 56bd 3121 0b3c 94ee 433e
00000190: 6c52 82bd e60e e7bd 8475 073e 5665 e63d
000001a0: 6d18 83bd 8e87 a1be 5465 2c3e b3dd f2bd
000001b0: f0cc a0be f0ad e73d 311c 90be 3d3d cbbe
000001c0: 4392 1f3e 50a4 3dbe 5302 7bbd ab57 abbd
000001d0: 7069 8f3e c9bc 193e 027b efbd bf2f b23e
000001e0: f64f 47be 3b3f 8f3e 8d02 853d 97b0 193e
000001f0: a6ed 5abd 1336 dc3d ab92 4c3d 76fc 16bd
00000200: a4b5 f4bd d152 3a3d 7ea7 8b3e 4a89 493e
00000210: ab3a 0c3e 6016 33be dac8 e33d 1582 87be
00000220: 0d1e cbbd 1a09 58be 5f12 44be 9e20 1e3e
00000230: b489 b7bd 5b5f 01bd 853d 1bbe 6a2b 38bd
00000240: e623 8e3d 6f0c 613e d5b1 90be 5061 303e
00000250: f15d ce3c 6c3a 9a3d 6ff5 9bbd 875b 7cbd
00000260: c532 aabd 6269 1ebe 1f8a 24be 46b8 afbe
00000270: 4717 9e3d d127 bfbb 7f84 86bd 97ca 19be
00000280: 8f42 703e e18c 41be 86e8 873e 9bf2 6f3d
00000290: c841 4fbe 7fbc ccbb 0331 98be 7df0 35be
000002a0: 44f2 ea3d d432 91bd 81fd 8cbd 08db 953e
000002b0: b099 11bb 197e 28be 3b09 56bd 8f07 623d
000002c0: a81c 0a3d e72a 4e3e 0e0b 1dbe 4ffb 5bbe
000002d0: f0ff 4e3a e37a 68bc 286f a4be ee2c 6a3e
000002e0: 6ef4 573e 8234 98be d47c 4c3e a805 a3bd
000002f0: 7748 0cbe 9db0 063e c1cc e83c 01ef 66bd
00000300: 7523 c9bd 765f 903e cf1a 443e 7db2 b73e
00000310: ef28 263d 9a49 91be 36a3 d93d 7199 fb3e
00000320: 13cd fd3d d117 8cbe 06b2 903e b1d3 e83e
00000330: 5828 94bd 169f f7bc a384 ec3d a05a 943e
00000340: 8d18 a73e e466 123e 5e8d 993d 666c a23e
00000350: 0963 f3be eddf 403d 40bb babe e1df 6abe
00000360: fc4e 9a3d b5b0 9b3e 8957 72be 10af 613e
00000370: cc39 073e 6a30 28be 98d9 993d b203 993e
00000380: bacc 34be 7c21 673d c5ae 35be af9e 9d3e
00000390: dd8b f53d b9f7 b0bc 3328 8f3e ea0d 0a3f
000003a0: 04bf 9a3c b957 2abe e4f8 983e 2d0f 253f
000003b0: c559 85be bd67 7f3e 07d0 cdbd f2ea 3ebc
000003c0: 5021 d73d de72 b1be d78f 373e 17fe 183f
000003d0: 20fd b73e 41f8 47be 336d bb3e 30ce a53d
000003e0: c98a e7bd 2ac3 cc3d 6e7f 333d fb7a 3a3e
000003f0: 7aef 613e 4511 acbd 1dc4 06bd de89 bc3e

bias_ih_l2 f4 [64]
0.17670406 0.14567661 0.3907963 0.33331406 0.026544906 -0.0067751743 0.24220051 0.3357097
0.28962213 0.14288166 0.49107036 -0.005472059 0.30850163 0.2151285 0.36435956 0.2834101
0.3158456 0.07040188 -0.36562315 0.25422943 0.27819595 0.22653571 0.39426664 -0.2427157
-0.06539338 0.17370939 -0.20419623 0.13704652 0.03478123 -0.024728881 -0.07122133 0.2316581
0.065784074 -0.12088655 -0.016506676 0.100269906 0.16457641 -0.039481826 -0.22194412 -0.087055154
0.17489848 0.1272106 -0.18506898 0.20821156 0.18322954 -0.10972177 -0.23709491 0.28175914
0.06789606 0.22723071 0.2428127 0.1955424 0.38628677 -0.12736008 0.2453323 0.43919605
0.13404398 0.45441803 0.34402132 0.025215859 0.32121268 0.23670213 0.51311636 0.2081852
00000000: e9f1 343e 402c 153e 7416 c83e 24a8 aa3e
00000010: b474 d93c 4802 debb 6903 783e 24e2 ab3e
00000020: 5a49 943e 924f 123e 936d fb3e f54e b3bb
00000030: edf3 9d3e a54a 5c3e 568d ba3e 211b 913e
00000040: 84b6 a13e dc2e 903d f532 bbbe 5c2a 823e
00000050: b36f 8e3e faf8 673e 51dd c93e 778a 78be
00000060: f7ec 85bd e0e0 313e d118 51be ec55 0c3e
00000070: c376 0e3d 3994 cabc 7ddc 91bd c837 6d3e
00000080: cdb9 863d 5e93 f7bd 0239 87bc 4f5a cd3d
00000090: b886 283e b2b7 21bd 5245 63be f949 b2bd
000000a0: 9618 333e 7f43 023e b982 3dbe 6935 553e
000000b0: 86a0 3b3e cfb5 e0bd 02c9 72be bc42 903e
000000c0: 170d 8b3d 2baf 683e e4a3 783e 443c 483e
000000d0: 61c7 c53e ae6a 02be 6438 7b3e 4ede e03e
000000e0: d342 093e 7ba9 e83e 9023 b03e 7d91 ce3c
000000f0: fd75 a43e 0b62 723e 985b 033f 802e 553e

bias_hh_l2 f4 [64]
0.13761589 0.0060623027 0.35349008 0.1314925 0.19948563 -0.12720816 0.051263355 0.24008241
0.30043656 0.1943434 0.46533182 0.04086971 0.48765683 0.1508069 0.21934037 0.044871565
0.22532573 -0.17139679 -0.11404345 0.12170352 0.23172131 -0.20990065 -0.00052975497 0.047711395
0.16234627 -0.17075004 0.22894783 -0.25027654 0.01912447 0.090833776 0.3616605 0.07258352
0.17678924 -0.20240425 -0.007040814 0.14580363 0.25544617 -0.183582 -0.3260554 0.01601776
0.2600026 -0.08124086 0.1891612 0.026040059 -0.21262228 0.2572301 0.07092864 0.03935934
0.3320445 0.38285205 0.3929786 0.4506851 0.2293094 -0.09412182 0.20599654 0.08661057
0.03165424 0.31893387 0.3651268 0.13912968 0.082471706 0.07887277 0.34033483 0.4024585
00000000: 2eeb 0c3e 48a6 c63b a7fc b43e f8a5 063e
00000010: f645 4c3e db42 02be 86f9 513d 2ad8 753e
00000020: d2d2 993e f501 473e f93f ee3e ff66 273d
00000030: 28ae f93e 206d 1a3e c39a 603e 3fcb 373d
00000040: cabb 663e a482 2fbe 9d8f e9bd b23f f93d
00000050: 5a48 6d3e 32f0 56be 41df 0aba 066d 433d
00000060: 1a3e 263e 19d9 2ebe 4d71 6a3e 3f24 80be
00000070: ecaa 9c3c 0f07 ba3d 912b b93e aba6 943d
00000080: 3d08 353e 0f43 4fbe a1b6 e6bb 8c4d 153e
00000090: d7c9 823e ebfc 3bbe bcf0 a6be ad37 833c
000000a0: 101f 853e 9c61 a6bd 79b3 413e f651 d53c
000000b0: a8b9 59be aab3 833e 0943 913d 4237 213d
000000c0: bd01 aa3e 2f05 c43e 7e34 c93e 33c0 e63e
000000d0: 15d0 6a3e f1c2 c0bd c2f0 523e e260 b13d
000000e0: e0a7 013d 4d4b a33e e6f1 ba3e 0378 0e3e
000000f0: ede6 a83d 0c88 a13d 5e40 ae3e 0a0f ce3e
