saved_models/LSTM/ckpt__epoch100.ckpt (torch, 17513 bytes, 20 tensors)

weight_ih_l0 f4 [64, 8]
-0.24322036 0.045441758 -0.1264177 -0.23206641 0.07363403 -0.11359078 -0.29228207 0.027419744
-0.007099925 0.02770721 0.20485587 0.033395037 0.02157436 -0.37696916 -0.21620305 -0.027857581
0.02593063 -0.0065250564 -0.16187604 0.17644458 -0.07853969 0.31621101 0.2443998 -0.13763414
-0.0080248825 0.01783367 -0.031751525 -0.11098293 0.11081932 0.22090769 0.19203527 -0.097270116
0.074936345 0.11469645 0.10161011 -0.09202859 -0.01695436 -0.05293758 0.16800988 -0.19460954
-0.056305323 -0.120219074 0.1022189 0.16534974 0.0064503923 0.23710683 0.11479517 0.11614966
0.022299701 -0.022135183 0.3272269 0.3199794 -0.15668832 0.15583107 -0.20005071 0.121579416
-0.07509073 0.44508016 -0.1048072 0.09618931 -0.0770509 -0.059315402 0.022159312 0.105741985
0.037479263 0.3459198 0.027120588 0.02270262 0.102556996 -0.09931387 -0.17079055 0.083536595
-0.11333407 0.13884988 -0.11125673 -0.037009265 0.13004394 0.20550115 -0.19112566 0.056050327
0.004581507 -0.40798604 0.024262214 0.056652464 -0.027591605 -0.08768997 0.105867796 -0.042970598
0.12186237 0.050451823 -0.23670526 0.055890225 -0.26846638 0.057723235 -0.07033662 -0.15668134
0.018688992 0.12335568 0.047450285 -0.09817258 -0.10697168 0.34324035 0.19262092 0.035644453
-0.21476574 -0.15268213 0.08833892 0.14617933 0.33149222 0.2860996 -0.02354637 0.051570103
-0.045601115 0.2509398 -0.024122283 -0.00499127 0.027545677 -0.09527072 0.013248821 -0.017699515
0.053652965 -0.06913286 -0.4302325 -0.3236613 0.104746 -0.09406974 0.1400822 -0.11410296
-0.1457837 0.19330701 -0.05190132 0.16111998 0.08641435 0.15662335 0.16729124 0.055074766
-0.15123649 0.17785972 -0.10158285 -0.1278697 -0.023602631 -0.20754644 0.044240467 0.0393243
-0.029808434 -0.1751172 -0.24497063 0.079336 0.053480346 -0.020152766 0.0061999685 0.003878127
-0.053441755 0.033108532 -0.03665887 0.10251411 -0.019174658 0.36717212 -0.09197406 -0.0020830745
0.013301214 -0.24604133 -0.022026429 0.16003226 0.035357118 0.10159669 0.023248771 -0.041572742
0.049321264 -0.03255801 0.17776753 0.1845532 0.017733457 -0.054117236 -0.054451726 -0.24901363
0.036856253 0.27961692 -0.2105831 -0.024679989 0.13361973 -0.021749757 -0.0062189084 0.14858331
-0.0047642286 -0.045789976 -0.07297897 0.042541835 0.0077559385 -0.031277448 0.001547471 0.019596653
0.014731601 -0.2063457 -0.15867297 0.029889576 -0.015405992 -0.047179833 -0.17580898 0.053834103
0.0074887313 -0.17314692 -0.03724415 -0.046804443 0.14235623 -0.17820372 -0.09351467 0.15389884
0.08769494 -0.18344902 -0.017374428 0.07190019 0.03785467 0.1496455 0.10135958 0.17340851
-0.29077843 -0.16042279 0.013371355 -0.1068007 0.08839722 -0.121445425 -0.08698248 -0.21071325
-0.049940657 0.25097027 0.14463857 -0.14643344 0.11530456 -0.15024278 0.1653616 0.019010521
-0.13048124 0.1637039 -0.04827673 0.08686436 -0.071657665 0.09651598 0.13084751 -0.12987004
-0.062783875 0.028187841 0.029020969 0.044703584 -0.06343213 -0.21199769 -0.15955886 0.067304716
-0.009763217 0.0030210007 0.22619745 0.1721892 0.021892717 0.063078925 -0.15521152 0.057044163
00000000: c20e 79be 2321 3a3d a473 01be d1a2 6dbe
00000010: 70cd 963d 48a2 e8bd ffa5 95be 5f9f e03c
00000020: 7da6 e8bb 3bfa e23c bdc5 513e 3cc9 083d
00000030: b6bc b03c 1a02 c1be 5564 5dbe 9535 e4bc
00000040: 796c d43c 24d0 d5bb d5c2 25be e3ad 343e
00000050: 6bd9 a0bd 69e6 a13e f143 7a3e f7ef 0cbe
00000060: cc7a 03bc eb17 923c e30d 02bd 054b e3bd
00000070: 3df5 e23d a035 623e e5a4 443e 8e35 c7bd
00000080: 3a78 993d f9e5 ea3d f618 d03d 7c79 bcbd
00000090: dfe3 8abc 13d5 58bd c80a 2c3e b947 47be
000000a0: 69a0 66bd 6b35 f6bd 2558 d13d 7151 293e
000000b0: d05d d33b 22cc 723e bb19 eb3d dfdf ed3d
000000c0: ddad b63c d854 b5bc 498a a73e 57d4 a33e
000000d0: e772 20be 2e92 1f3e 18da 4cbe a1fe f83d
000000e0: 2bc9 99bd 8ce1 e33e 28a5 d6bd e7fe c43d
000000f0: ddcc 9dbd b5f4 72bd 7287 b53c 418f d83d
00000100: db83 193d 661c b13e ff2b de3c d8fa b93c
00000110: 6709 d23d 1265 cbbd b8e3 2ebe 3c15 ab3d
00000120: b11b e8bd aa2e 0e3e 92da e3bd 0797 17bd
00000130: 3d2a 053e e56e 523e 72b6 43be 0795 653d
00000140: 7720 963b 8ce3 d0be 8dc1 c63c 6a0c 683d
00000150: ca07 e2bc cd96 b3bd 37d1 d83d f001 30bd
00000160: fa92 f93d 92a6 4e3d dd62 72be 26ed 643d
00000170: 6d74 89be 336f 6c3d a50c 90bd 1371 20be
00000180: a819 993c e7a1 fc3d 3b5b 423d b50e c9bd
00000190: f813 dbbd 33bd af3e 6b3e 453e ebff 113d
000001a0: 8deb 5bbe b458 1cbe 09eb b43d 09b0 153e
000001b0: 59b9 a93e a67b 923e 51e4 c0bc 2c3b 533d
000001c0: 3cc8 3abd 2e7b 803e 189c c5bc cf8d a3bb
000001d0: 79a7 e13c 4c1d c3bd 9511 593c 93fe 90bc
000001e0: 36c3 5b3d 8795 8dbd 6f47 dcbe efb6 a5be
000001f0: 1285 d63d a3a7 c0bd b571 0f3e d0ae e9bd
00000200: 5248 15be 46f2 453e 7b96 54bd a3fc 243e
00000210: 02fa b03d df61 203e 654e 2b3e 1496 613d
00000220: bddd 1abe dc20 363e ab0a d0bd 46f0 02be
00000230: 4e5a c1bc 0e87 54be 7e35 353d 8412 213d
00000240: d130 f4bc ec51 33be 95d9 7abe ea7a a23d
00000250: 350e 5b3d 6a17 a5bc 1b29 cb3b 2d28 7e3b
00000260: bee5 5abd d09c 073d 9c27 16bd ebf2 d13d
00000270: 2c14 9dbc fcfd bb3e e55c bcbd 3184 08bb
00000280: 56ed 593c 42f2 7bbe c570 b4bc 7fdf 233e
00000290: a0d2 103d ed11 d03d 3574 be3c 2e48 2abd
000002a0: 1805 4a3d 8c5b 05bd b108 363e 84fb 3c3e
000002b0: c145 913c 09aa 5dbd c608 5fbd 6efd 7ebe
000002c0: 95f6 163d f329 8f3e 19a3 57be b02d cabc
000002d0: 9cd3 083e 8c2c b2bc fcc7 cbbb 3926 183e
000002e0: 3f1d 9cbb 458e 3bbd 0076 95bd 5940 2e3d
000002f0: 8725 fe3b c81c 00bd 83d4 ca3a 2989 a03c
00000300: d05c 713c 4a4c 53be 2b7b 22be fcda f43c
00000310: 6a69 7cbc a43f 41bd 4507 34be 2681 5c3d
00000320: 0864 f53b 6d4d 31be 528d 18bd 04b6 3fbd
00000330: d5c5 113e 097b 36be 9f84 bfbd a897 1d3e
00000340: 6899 b33d 0fda 3bbe d154 8ebc 6840 933d
00000350: 800d 1b3d ac3c 193e 9d95 cf3d 0092 313e
00000360: e9e0 94be df45 24be 8713 5b3c 53ba dabd
00000370: 9a09 b53d 61b8 f8bd df23 b2bd 37c5 57be
00000380: 938e 4cbd 2d7f 803e 221c 143e a6f2 15be
00000390: cc24 ec3d 3ed9 19be 8d54 293e f4bb 9b3c
000003a0: e09c 05be ffa1 273e d2bd 45bd f1e5 b13d
000003b0: 41c1 92bd 2caa c53d e4fc 053e a7fc 04be
000003c0: d594 80bd 30ea e63c 62bd ed3c 1b1b 373d
000003d0: b4e8 81bd ec15 59be 6663 23be 0ed7 893d
000003e0: e6f5 1fbc fbfb 453b 4ea0 673e 5e52 303e
000003f0: 5b58 b33c 862f 813d c5ef 1ebe 24a7 693d

weight_hh_l0 f4 [64, 4]
-0.15395187 0.17678854 0.07390174 0.38444173 -0.12646328 0.096730776 0.09931901 -0.033211563
0.05908059 0.18239076 0.085088894 0.23740774 -0.12356041 0.028826063 0.11503605 -0.14043379
-0.0328332 0.30454555 0.2563916 -0.10923043 -0.25432065 0.22741346 -0.0001992333 0.13221405
-0.11191266 0.09871874 0.026572036 -0.027621262 -0.34620938 0.18327175 0.14838578 0.2857035
-0.20180218 0.18860406 -0.04634867 0.3541187 -0.009449436 0.20023458 0.0126397805 0.029398372
0.44732592 -0.029907683 -0.21459977 -0.28489906 0.032142807 -0.007035218 0.08848048 -0.013339859
0.034632176 -0.19965622 -0.055493098 -0.35972968 -0.21131225 0.020088164 0.21207915 0.08279984
0.36287764 -0.12276344 -0.13869914 -0.1771296 0.17855942 0.098398305 0.13851114 -0.011819411
0.09228955 0.026525928 -0.27106735 -0.2568355 -0.11840205 0.1845119 0.07171907 -0.24221066
0.37151232 -0.12673795 0.096507475 -0.11080893 0.06005146 0.11173089 -0.24015158 0.20045735
0.15257242 -0.09089438 -0.17384335 -0.15156801 -0.03007487 -0.09453065 -0.15757181 -0.33048806
-0.100813195 0.21626435 -0.2584298 -0.15716225 0.01902833 -0.22299437 -0.09633321 -0.2776934
0.3930705 0.056509994 0.14797764 -0.02202926 0.10857693 -0.055663154 -0.044545874 -0.22160202
0.3675882 -0.17787836 -0.17380935 -0.15559322 -0.10991287 0.19579943 0.070869036 -0.05625193
0.371028 -0.028074106 -0.19755018 0.015674295 -0.10781777 0.336826 0.048323456 -0.292354
-0.076327 -0.17695114 0.08386317 -0.08685201 0.12140707 -0.38226137 -0.53462213 -0.2229133
0.052541412 0.26711428 -0.21505606 -0.049241405 -0.47250187 0.27846625 0.37317026 0.15451115
-0.2653151 0.4285158 0.1708458 0.46858463 -0.4052714 0.02825349 0.1095079 0.13545199
-0.20325276 0.078562826 -0.062865384 0.49721023 -0.08337385 -0.094712906 0.107463166 0.10472279
0.017224157 -0.088171124 0.22685188 0.27563363 0.15934686 -0.16936903 -0.40463606 -0.13177963
0.5335294 -0.24735476 -0.34278303 -0.115738034 -0.21905343 -0.09721397 -0.117960945 -0.036775056
-0.15294704 -0.20216882 -0.09978647 -0.0696526 0.40311632 -0.4730613 -0.22622396 -0.40757436
0.43881926 -0.31454152 -0.040325955 -0.37585896 0.027452888 -0.16095571 0.078394905 -0.39604166
0.26981118 -0.21279438 -0.08049355 -0.38674545 -0.1060715 0.10919696 -0.038773883 0.09044228
0.30893794 -0.04555379 -0.50589675 -0.30508733 -0.38914526 0.24181566 0.33602887 -0.027339276
-0.08104213 0.45117423 0.27860877 -0.04204969 -0.08487786 0.14393443 0.12249517 -0.14754646
0.6524414 -0.13367677 -0.6100395 -0.6106837 0.21874154 -0.15160519 0.08102335 -0.24433655
-0.09335444 0.41544062 -0.10006541 0.12280272 0.4628018 -0.41548553 -0.2846152 -0.26928815
0.35519075 0.15385433 -0.025116524 -0.18865426 -0.34487468 0.52255714 0.24209951 0.075274214
0.21296738 0.09232789 -0.058568183 -0.025213579 0.20817773 -0.1963721 -0.024958253 0.24626634
0.4318625 0.09029844 -0.38994604 -0.25388134 0.48377144 -0.05328844 -0.4724171 -0.44481984
0.034196883 0.37446037 0.044323657 0.18092875 -0.04627429 0.0022630142 -0.20397256 -0.13262898
00000000: 8fa5 1dbe 0e08 353e cc59 973d 8cd5 c43e
00000010: 977f 01be c91a c63d c467 cb3d d908 08bd
00000020: 7dfe 713d a5c4 3a3e 1643 ae3d 041b 733e
00000030: 3e0d fdbd a324 ec3c 0598 eb3d e0cd 0fbe
00000040: 1b7c 06bd 65ed 9b3e c345 833e 34b4 dfbd
00000050: 5136 82be 13df 683e 48e9 50b9 1f63 073e
00000060: 7732 e5bd 0d2d ca3d 99ad d93c fc45 e2bc
00000070: 5b42 b1be 97ab 3b3e 71f2 173e bb47 923e
00000080: 3ba5 4ebe 6c21 413e 1ad8 3dbd 0c4f b53e
00000090: cfd1 1abc 4b0a 4d3e 1517 4f3c dbd4 f03c
000000a0: e707 e53e f500 f5bc 0bc0 5bbe 4ade 91be
000000b0: 2da8 033d b087 e6bb 4135 b53d 6d8f 5abc
000000c0: 78da 0d3d ae72 4cbe bb4c 63bd 7d2e b8be
000000d0: 3d62 58be ef8f a43c 472b 593e f692 a93d
000000e0: 19cb b93e 666b fbbd 2607 0ebe 7661 35be
000000f0: 48d8 363e 0d85 c93d ddd5 0d3e 34a6 41bc
00000100: 4e02 bd3d e74c d93c 57c9 8abe f17f 83be
00000110: c67c f2bd b0f0 3c3e 73e1 923d 1206 78be
00000120: dd36 be3e 98c7 01be b6a5 c53d cbef e2bd
00000130: 85f8 753d 2ad3 e43d 4cea 75be b144 4d3e
00000140: f23b 1c3e d526 babd fe03 32be a534 1bbe
00000150: 935f f6bc 4999 c1bd 815a 21be bb35 a9be
00000160: 2677 cebd 6774 5d3e e950 84be 24ef 20be
00000170: 4de1 9b3c a358 64be 594a c5bd d42d 8ebe
00000180: 8940 c93e 0677 673d 7387 173e b576 b4bc
00000190: 955d de3d 0cff 63bd bc75 36bd a4eb 62be
000001a0: 8534 bc3e bf25 36be 14fb 31be d453 1fbe
000001b0: 001a e1bd a57f 483e c923 913d 6c68 66bd
000001c0: 62f7 bd3e abfb e5bc 984a 4abe 6167 803c
000001d0: 90cf dcbd 7574 ac3e d1ee 453d 6caf 95be
000001e0: 5551 9cbd ae32 35be 74c0 ab3d 77df b1bd
000001f0: 45a4 f83d c3b7 c3be ffdc 08bf 6243 64be
00000200: aa35 573d 34c3 883e a837 5cbe 5bb1 49bd
00000210: c4eb f1be 2193 8e3e 2c10 bf3e 2c38 1e3e
00000220: 61d7 87be 6c66 db3e 34f2 2e3e 53ea ef3e
00000230: bc7f cfbe dd73 e73c ae45 e03d edb3 0a3e
00000240: 7e21 50be 8ce5 a03d 91bf 80bd 5792 fe3e
00000250: e9bf aabd d7f8 c1bd a615 dc3d e778 d63d
00000260: ad19 8d3c 1093 b4bd dc4b 683e da1f 8d3e
00000270: d32b 233e 136f 2dbe 752c cfbe 3df1 06be
00000280: 6295 083f 914a 7dbe 4281 afbe 1008 edbd
00000290: 8b4f 60be 1e18 c7bd 8295 f1bd 71a1 16bd
000002a0: 269e 1cbe 5805 4fbe d95c ccbd 06a6 8ebd
000002b0: 4365 ce3e 1735 f2be 41a7 67be 96ad d0be
000002c0: ebac e03e 960b a1be d42c 25bd 9670 c0be
000002d0: e1e4 e03c 93d1 24be 828d a03d f9c5 cabe
000002e0: b124 8a3e c5e6 59be cdd9 a4bd 8003 c6be
000002f0: 043c d9bd a8a2 df3d 5dd1 1ebd cd39 b93d
00000300: 1d2d 9e3e 9c96 3abd 7382 01bf 6834 9cbe
00000310: 0c3e c7be 869e 773e fa0b ac3e 9ef6 dfbc
00000320: 6bf9 a5bd 4f00 e73e cfa5 8e3e 4c3c 2cbd
00000330: 72d4 adbd 8c63 133e bfde fa3d 6b16 17be
00000340: 6606 273f 90e2 08be 8c2b 1cbf c455 1cbf
00000350: c8fd 5f3e 643e 1bbe 92ef a53d 5c33 7abe
00000360: 9d30 bfbd a2b4 d43e 18ef ccbd fe7f fb3d
00000370: 5cf4 ec3e 85ba d4be 15b9 91be 23e0 89be
00000380: 90db b53e fd8b 1d3e 2bc1 cdbc 952e 41be
00000390: 6a93 b0be 4ec6 053f efe8 773e 5e29 9a3d
000003a0: 1f14 5a3e 6816 bd3d 31e5 6fbd b58c cebc
000003b0: 8b2c 553e c515 49be 4075 ccbc 3e2d 7c3e
000003c0: 151d dd3e 63ee b83d 02a7 c7be bcfc 81be
000003d0: e4b0 f73e fb44 5abd a7e0 f1be 6dbf e3be
000003e0: 0812 0c3d 45b9 bf3e b98c 353d 6345 393e
000003f0: 1c8a 3dbd 144f 143b 2fde 50be e4cf 07be

bias_ih_l0 f4 [64]
-0.33450907 -0.3417092 0.053414058 0.109075315 0.50828034 -0.313493 -0.27375782 -0.17792612
-0.07485759 -0.10076043 -0.14416389 0.072108574 0.12534863 0.091755554 0.21334258 -0.25780794
0.04218385 0.35970506 0.25143155 0.00014018067 0.11372221 -0.22508278 0.29324827 0.43491772
0.4077161 0.35231152 0.2237298 -0.12805837 0.18366016 -0.017735025 0.1500591 0.199387
0.28729662 0.06524277 0.10826837 -0.19442812 -0.080625504 -0.0062833563 -0.26474002 0.10184284
0.23867483 -0.30053923 -0.06756425 0.26961878 0.25072253 0.15421444 0.38613793 -0.20420592
0.40514585 0.13089739 0.27218089 0.35107744 0.33858007 0.3073991 -0.15689844 0.024186702
0.17829442 0.028055307 0.053591136 -0.18192461 0.522541 0.12894294 0.19930871 0.07049386
00000000: c644 abbe 82f4 aebe b3c8 5a3d e162 df3d
00000010: a91e 023f 2882 a0be fc29 8cbe 4432 36be
00000020: f04e 99bd 7c5b cebd b39f 13be a9ad 933d
00000030: 645b 003e 56ea bb3d 7a76 5a3e 67ff 83be
00000040: f9c8 2c3d 432b b83e a3bb 803e 76fd 1239
00000050: 31e7 e83d 1a7c 66be a324 963e 89ad de3e
00000060: 2ac0 d03e 2d62 b43e 6d19 653e bc21 03be
00000070: 6911 3c3e 0b49 91bc 18a9 193e 1b2c 4c3e
00000080: 8b18 933e 009e 853d cfbb dd3d 2a18 47be
00000090: fc1e a5bd 9de4 cdbb 018c 87be fb92 d03d
000000a0: 2d67 743e 47e0 99be 205f 8abd 790b 8a3e
000000b0: b45e 803e 64ea 1d3e dfb3 c53e 5b1b 51be
000000c0: 476f cf3e f709 063e 4b5b 8b3e 6cc0 b33e
000000d0: 5e5a ad3e 6a63 9d3e fca9 20be 3123 c63c
000000e0: d092 363e 3ed4 e53c 6182 5b3d 724a 3abe
000000f0: 3fc5 053f 9e09 043e 9517 4c3e 165f 903d

bias_hh_l0 f4 [64]
-0.17170925 -0.011095435 0.1433175 0.07898487 0.26721433 0.03458605 -0.42100278 -0.08414109
-0.32158548 -0.3017795 0.028603645 -0.31373435 0.07297911 0.0049095415 0.1107394 0.16052033
0.2572862 0.38783747 0.50917655 0.35217983 0.33520103 0.16409925 0.14287215 0.37610668
0.42615712 0.37847763 0.34086874 0.1303453 0.455808 0.07288379 -0.09538837 0.16336955
0.12450921 -0.23703937 -0.1829639 0.034934092 -0.12915 -0.09505162 0.003867855 0.18430337
0.35047218 -0.08398978 -0.2370174 0.028263066 0.25018457 0.024365235 -0.0023318017 -0.005706007
0.0322665 -0.12967202 0.07402824 0.21555656 0.43914396 0.33579627 -0.16911797 0.20510128
0.40431914 0.13976465 0.35235873 -0.23043253 0.19246756 0.1515856 0.37128413 0.017680706
00000000: 8dd4 2fbe a1c9 35bc d3c1 123e d2c2 a13d
00000010: 51d0 883e 1aaa 0d3d ad8d d7be 2a52 acbd
00000020: daa6 a4be d882 9abe 3152 ea3c caa1 a0be
00000030: 1276 953d 38e0 a03b 57cb e23d 715f 243e
00000040: 04bb 833e a292 c63e 6559 023f ea50 b43e
00000050: 789f ab3e a209 283e 144d 123e 0e91 c03e
00000060: 4431 da3e d2c7 c13e 5986 ae3e 3d79 053e
00000070: ab5f e93e 1944 953d fa5a c3bd 594a 273e
00000080: affe fe3d 73ba 72be e35a 3bbe 0d17 0f3d
00000090: e63f 04be 6caa c2bd d77b 7d3b 06ba 3c3e
000000a0: 1771 b33e d502 acbd b0b4 72be f287 e73c
000000b0: 3118 803e 9a99 c73c 24d1 18bb 75f9 babb
000000c0: e129 043d bec8 04be 1e9c 973d dcba 5c3e
000000d0: 7ad7 e03e 7ded ab3e 432d 2dbe 1206 523e
000000e0: eb02 cf3e 771e 0f3e 5d68 b43e 81f6 6bbe
000000f0: 3716 453e 4139 1b3e f418 be3e 21d7 903c

weight_hr_l0 f4 [4, 16]
0.12967356 -0.3781017 -0.37743226 -0.027180271 -0.12058384 -0.11093645 -0.1355607 0.39170754
0.2515384 -0.18680397 -0.39597166 0.15085113 0.37926292 0.16236655 -0.028481279 -0.3474928
0.19715665 0.5338679 0.41728804 0.47334528 0.15583842 -0.2445043 0.24344797 0.1255499
-0.17037639 0.47272018 0.027403517 -0.32989573 -0.44239601 0.22074662 0.005036045 -0.33629602
-0.5680464 0.15404554 0.2681725 0.15196702 0.30238616 -0.07955312 0.33546412 -0.30374414
-0.22370179 0.14516768 -0.039123673 -0.2189867 0.04769582 -0.2657397 -0.35039988 0.27640197
-0.33217913 0.09906034 0.09666208 -0.068092406 0.13990435 -0.16812138 0.32619634 -0.41308564
-0.16653739 -0.21272255 0.2324801 0.012817491 -0.22431603 -0.2031874 -0.3817715 0.27519238
00000000: 25c9 043e 8c96 c1be cd3e c1be 29a9 debc
00000010: a9f4 f6bd a632 e3bd 6dd0 0abe e48d c83e
00000020: a4c9 803e 8a49 3fbe ccbc cabe b878 1a3e
00000030: c02e c23e 6b43 263e 9251 e9bc 94ea b1be
00000040: 6fe3 493e 91ab 083f c7a6 d53e 505a f23e
00000050: 1b94 1f3e 565f 7abe 6d4a 793e 2790 003e
00000060: 2677 2ebe 6108 f23e 577d e03c 18e8 a8be
00000070: bb81 e2be 670b 623e 6805 a53b fe2e acbe
00000080: 7d6b 11bf 1dbe 1d3e e84d 893e 3e9d 1b3e
00000090: 5cd2 9a3e bfec a2bd f4c1 ab3e 5a84 9bbe
000000a0: 1512 65be d6a6 143e 2540 20bd 0d3e 60be
000000b0: b15c 433d 090f 88be 9d67 b3be 8f84 8d3e
000000c0: 6213 aabe 26e0 ca3d c5f6 c53d 0874 8bbd
000000d0: 1643 0f3e 0328 2cbe 3503 a73e f67f d3be
000000e0: c788 2abe f1d3 59be 430f 6e3e 7400 523c
000000f0: 1ab3 65be 5c10 50be 8e77 c3be 04e6 8c3e

weight_ih_l1 f4 [64, 4]
-0.08547472 0.27314055 0.101505734 -0.11441049 0.2802978 0.3175853 -0.075313784 -0.11706726
-0.3347898 0.14338268 0.56024873 0.450475 -0.15454555 0.31257835 -0.13757157 0.040399738
0.1150477 -0.173484 -0.13340843 -0.12696421 0.27230114 0.0899513 -0.16635302 -0.20651846
0.116434366 0.2577275 0.11761525 0.06726807 0.007863057 0.23861508 -0.04527773 -0.36982572
-0.28323105 0.5619242 0.027355859 0.0801116 0.056596752 0.46932098 0.093092375 -0.43081045
0.10365486 0.20630282 0.14665031 -0.04846024 -0.12642998 0.1787544 -0.015241195 0.058266282
0.05227854 0.042712864 -0.1871713 -0.3560842 0.0031177446 -0.050124533 -0.32583588 -0.3258361
-0.32668144 0.37291685 0.3896002 0.23508894 -0.12738603 0.07719576 -0.22823025 0.0529098
-0.35175556 0.31139445 0.15935008 -0.08076682 0.37020144 -0.17466702 -0.021334585 -0.18785782
-0.23060448 0.8387397 0.7042476 0.32598525 -0.24163246 0.40135485 0.008024255 0.034229666
0.3864351 0.113009065 -0.52754444 -0.57193995 0.42134857 0.100535735 -0.25835314 -0.3106564
0.05428358 0.41144097 0.05009908 0.115868725 -0.12020303 0.42491758 -0.37708208 -0.51013327
-0.12158658 0.9419747 0.005109571 0.1332046 0.25667053 0.31261668 -0.47486734 -0.49089205
0.07869117 0.5844191 -0.048701704 -0.17463058 -0.15089546 0.3813811 0.009683969 -0.0008436366
0.4114423 -0.18928455 -0.23282707 -0.338638 0.37462905 -0.20027769 -0.3032824 -0.31347802
0.026102401 0.8502977 0.07295877 -0.107715756 0.27320376 0.36867133 -0.35102102 -0.30562356
0.27174664 0.075493544 -0.15590219 -0.26582602 -0.061541423 -0.09388256 -0.03154775 -0.32535452
-0.29440343 0.57402945 -0.16099423 -0.06097001 -0.09015856 0.20513454 0.28737712 0.38249853
-0.039486993 -0.030463936 -0.19778536 -0.4447299 0.17960843 -0.1552634 -0.04064205 -0.29100046
-0.15475732 -0.120920874 0.1971521 0.31420684 0.38790804 0.11198102 -0.046687853 -0.3935344
0.006994963 0.26987445 0.12571806 0.1785425 -0.30310038 0.018196354 0.27464998 0.28069326
-0.35145834 0.07800915 0.13373299 0.23209228 0.3283144 0.08383662 -0.28621688 -0.28969607
0.046181306 0.072557256 0.09386017 -0.12091945 -0.25661153 -0.23027962 0.3204115 0.016141394
0.37482315 -0.23146756 -0.09691599 0.077269875 0.22305027 -0.10528074 -0.206788 -0.35775122
-0.24015506 0.42931116 -0.10736958 -0.13010749 0.07998233 -0.31975776 -0.2686951 -0.44828466
-0.48620728 0.37241346 0.7974615 0.32752308 0.117583044 0.58190477 -0.16783483 -0.058358777
0.32544592 0.040127896 -0.55902606 -0.63133776 0.25421855 0.07839002 -0.3642006 -0.43496025
-0.05894259 0.1311239 0.06761679 -0.15118618 -0.02326716 0.27216384 -0.39062476 -0.36568663
-0.45167497 0.47014585 0.15252803 0.2759712 -0.02444312 0.40910453 -0.24531597 -0.3411532
-0.022481343 0.12513563 0.11357497 0.16219911 -0.18040366 0.4915747 0.022768065 -0.40449926
0.05499987 0.19462813 -0.518317 -0.5965954 0.15629806 -0.2122586 -0.2602728 -0.51709616
-0.29691577 0.6722729 0.068394944 0.1410226 0.062316496 0.3704883 -0.14173159 -0.11962533
00000000: 5f0d afbd 14d9 8b3e 3de2 cf3d 0c50 eabd
00000010: 3183 8f3e 8a9a a23e 1d3e 9abd f6c0 efbd
00000020: 9269 abbe e9d2 123e 766c 0f3f a9a4 e63e
00000030: 3041 1ebe 450a a03e 90df 0cbe 327a 253d
00000040: 219e eb3d caa5 31be 389c 08be e802 02be
00000050: 0e6b 8b3e 6338 b83d 7258 2abe 9379 53be
00000060: 2475 ee3d dcf4 833e 44e0 f03d d8c3 893d
00000070: 0dd4 003c 8357 743e 2475 39bd cc59 bdbe
00000080: a903 91be 44da 0f3f 6519 e03c 8d11 a43d
00000090: ffd1 673d d74a f03e 37a7 be3d 3093 dcbe
000000a0: 0049 d43d 0c41 533e 802b 163e 3f7e 46bd
000000b0: dc76 01be 650b 373e 35b6 79bc a0a8 6e3d
000000c0: 0622 563d aff3 2e3d d5a9 3fbe ab50 b6be
000000d0: 1353 4c3b 624f 4dbd f6d3 a6be fdd3 a6be
000000e0: ca42 a7be f5ee be3e ad79 c73e 28bb 703e
000000f0: 7c71 02be d018 9e3d 31b5 69be f2b7 583d
00000100: 4e19 b4be 186f 9f3e ab2c 233e 1369 a5bd
00000110: 0b8b bd3e e9db 32be dec5 aebc cd5d 40be
00000120: 9523 6cbe a5b7 563f 9249 343f 8ae7 a63e
00000130: 806e 77be 627e cd3e 2a78 033c 6834 0c3d
00000140: d2da c53e 4c71 e73d 270d 07bf a86a 12bf
00000150: 00bb d73e aee5 cd3d dd46 84be 5b0e 9fbe
00000160: 7658 5e3d 64a8 d23e b134 4d3d 954c ed3d
00000170: 022d f6bd cc8e d93e e710 c1be 1898 02bf
00000180: 6302 f9bd 4125 713f 306e a73b c966 083e
00000190: 526a 833e 4b0f a03e d021 f3be 3456 fbbe
000001a0: d628 a13d 7d9c 153f 707b 47bd 5cd2 32be
000001b0: 5784 1abe 6244 c33e 83a9 1e3c 7e27 5dba
000001c0: 91a8 d23e cfd3 41be 386a 6ebe f661 adbe
000001d0: 61cf bf3e 9815 4dbe d547 9bbe 3180 a0be
000001e0: b4d4 d53c 1cad 593f 686b 953d 149a dcbd
000001f0: 5de1 8b3e 7dc2 bc3e 07b9 b3be b17a 9cbe
00000200: 6022 8b3e 5c9c 9a3d d3a4 1fbe 591a 88be
00000210: dc12 7cbd 8045 c0bd 3738 01bd de94 a6be
00000220: 0cbc 96be 98f3 123f acdb 24be b0bb 79bd
00000230: 0da5 b8bd ca0e 523e 1823 933e d9d6 c33e
00000240: 1dbd 21bd 818f f9bc 3f88 4abe a3b3 e3be
00000250: 46eb 373e 5efd 1ebe 4778 26bd 03fe 94be
00000260: b478 1ebe 5da5 f7bd 3de2 493e b8df a03e
00000270: e29b c63e 4e56 e53d c33b 3fbd 577d c9be
00000280: 0136 e53b fc2c 8a3e 3cbc 003e d8d3 363e
00000290: f92f 9bbe 8510 953c ec9e 8c3e 07b7 8f3e
000002a0: 59f2 b3be 43c3 9f3d 4df1 083e 99a9 6d3e
000002b0: d318 a83e 89b2 ab3d 058b 92be 0b53 94be
000002c0: 9c28 3d3d e698 943d c339 c03d 9ea4 f7bd
000002d0: 9662 83be 6cce 6bbe fa0c a43e f53a 843c
000002e0: d2e8 bf3e d505 6dbe e47b c6bd ab3f 9e3d
000002f0: 4a67 643e 6e9d d7bd 3cc0 53be 2b2b b7be
00000300: 35eb 75be acce db3e 95e4 dbbd e63a 05be
00000310: c7cd a33d 4ab7 a3be 6792 89be 9185 e5be
00000320: 29f0 f8be faac be3e 7026 4c3f 1bb1 a73e
00000330: 61cf f03d b6f7 143f e5dc 2bbe 9d09 6fbd
00000340: d9a0 a63e 265d 243d 551c 0fbf 5a9f 21bf
00000350: ef28 823e f28a a03d 8078 babe 1cb3 debe
00000360: c96d 71bd 5845 063e ac7a 8a3d 8dd0 1abe
00000370: c59a bebc 0f59 8b3e f8ff c7be 473b bbbe
00000380: f141 e7be f5b6 f03e 4f30 1c3e 194c 8d3e
00000390: f03c c8bc 2676 d13e 1c34 7bbe a2ab aebe
000003a0: cb2a b8bc 8e23 003e fe99 e83d 8617 263e
000003b0: bdbb 38be aeaf fb3e 1884 ba3c 871a cfbe
000003c0: 8b47 613d 994c 473e 6cb0 04bf 7aba 18bf
000003d0: 990c 203e 525a 59be 7a42 85be 6a60 04bf
000003e0: 5805 98be 141a 2c3f a612 8c3d 3a68 103e
000003f0: 953f 7f3d a4b0 bd3e 1622 11be 20fe f4bd

weight_hh_l1 f4 [64, 4]
-0.30408978 -0.51579046 -0.10758395 -0.44188035 0.036204554 -0.0661572 0.28799868 -0.10757386
0.45639637 0.31893444 0.17646015 0.048696313 0.022615759 -0.084387906 -0.2079628 -0.24333121
0.35204 -0.20703843 0.08343888 -0.24896136 0.37238863 0.28584775 0.23525144 0.20228569
-0.48209423 -0.20343997 -0.3165889 -0.6354535 -0.30454975 -0.05337331 0.013506758 -0.35848132
-0.18107308 0.06790599 -0.24444775 -0.0819866 0.10954519 0.15645474 -0.23392427 0.070431694
-0.1856093 0.02520156 -0.016094605 -0.26002172 -0.049056917 -0.14795282 -0.21514195 -0.4598514
-0.02753942 0.22134244 0.21162961 0.0072340374 0.14224894 -0.31762844 0.1585605 0.043331187
-0.087681755 0.0640711 -0.1702844 0.111390755 0.25322512 0.19007462 0.11084896 -0.15210675
0.037557326 -0.16598444 0.016814915 0.04537571 0.26234448 -0.025662417 -0.025342176 0.092107944
0.42580292 0.52199006 0.41210043 0.23917292 0.3822482 0.33616126 0.33428243 0.12553516
-0.17237622 0.09560392 -0.12422046 0.12761283 0.13339426 0.22233061 -0.057430428 -0.12762016
0.06778661 -0.11608056 -0.19194528 -0.08260056 0.18110174 0.040490925 -0.12892865 0.12498981
0.4035804 0.024513468 0.27851894 0.25452256 0.11690238 0.25343406 0.07822832 0.036233418
0.22922234 0.1060873 0.2927803 0.3449564 0.24459335 0.08100932 0.16095087 0.06462322
-0.024587361 0.06332397 0.12612817 -0.21428747 -0.04939365 -0.07198423 -0.025529543 -0.10564102
0.27366164 0.340027 0.19733158 0.27968752 0.22661571 0.07434942 0.181522 -0.0338194
0.25572336 -0.10972035 0.002702485 0.069488026 0.09923404 0.21613833 -0.00238592 0.12704177
-0.1652541 -0.22493178 -0.025023086 -0.20044188 -0.24966665 0.17629315 -0.1587444 -0.08473538
-0.017250009 0.16295083 0.039782174 0.18443921 -0.17445104 0.2505755 0.033601373 -0.014014906
-0.20973569 0.1899911 0.04249995 -0.29866433 -0.15897177 -0.141366 0.032666456 0.07107567
-0.21880677 0.11730719 -0.01491288 -0.1560351 0.045803357 -0.26340023 0.09211177 -0.09028549
-0.12136002 -0.058085542 -0.1388578 -0.17947687 -0.0031175925 0.016599257 0.20682074 0.12824716
-0.097777024 -0.21413668 0.09979013 -0.20182833 0.055516385 0.11572525 -0.23091704 -0.31334156
0.02591271 0.057485398 -0.015523722 0.09114239 0.044238027 -0.13324296 0.13281684 0.14872941
-0.05823615 -0.25280884 -0.020415148 -0.37701917 0.13411926 0.021355148 -0.12908804 -0.19725958
0.5315536 0.67181367 0.4519241 0.2609887 0.08771693 -0.014757783 0.17381623 -0.1897518
-0.14125142 -0.14989083 -0.21530998 0.016235758 0.21833579 0.0606881 0.119976655 -0.28927058
0.10593564 -0.24969943 -0.32717133 -0.1347657 0.11400917 -0.17001933 -0.104388796 -0.3442749
0.022136034 0.2724481 0.1951566 0.03273077 0.10358973 -0.32056335 -0.23524597 -0.23277418
0.13134088 -0.17617162 0.04319272 0.040807433 -0.26551944 0.08604639 -0.011662557 -0.052635085
0.18849456 0.016804835 0.023836697 -0.1541595 0.064450584 -0.24731533 -0.22745633 -0.11306359
0.112336755 0.100917034 0.3757552 0.31063285 0.12793133 -0.29371822 0.09601945 -0.08674986
00000000: a8b1 9bbe d80a 04bf f954 dcbd 243e e2be
00000010: 3a4b 143d 6d7d 87bd 9074 933e af4f dcbd
00000020: c9ac e93e 604b a33e f8b1 343e c975 473d
00000030: af44 b93c 91d3 acbd 33f4 54be d12b 79be
00000040: 963e b43e e201 54be 01e2 aa3d baef 7ebe
00000050: b9a9 be3e a35a 923e c1e5 703e fb23 4f3e
00000060: 0ed5 f6be 9152 50be f117 a2be 15ad 22bf
00000070: f2ed 9bbe f99d 5abd 734b 5d3c dd8a b7be
00000080: 396b 39be 4c12 8b3d 8350 7abe 97e8 a7bd
00000090: 3b59 e03d ac35 203e d889 6fbe 7e3e 903d
000000a0: 5d10 3ebe 8173 ce3c d5d8 83bc 9121 85be
000000b0: e8ef 48bd f280 17be 2c4e 5cbe a571 ebbe
000000c0: 5a9a e1bc 98a7 623e 6fb5 583e 810b ed3b
000000d0: b5a9 113e 32a0 a2be af5d 223e 0b7c 313d
000000e0: 7e92 b3bd b537 833d 095f 2ebe d620 e43d
000000f0: b9a6 813e eca2 423e c804 e33d dfc1 1bbe
00000100: b6d5 193d d3f7 29be 6fbf 893c e1db 393d
00000110: 0452 863e fd39 d2bc 659a cfbc 17a3 bc3d
00000120: d702 da3e 24a1 053f d4fe d23e bfe9 743e
00000130: 09b6 c33e 541d ac3e 1127 ab3e 4a8c 003e
00000140: 6483 30be fdcb c33d 4c67 febd f0ac 023e
00000150: 8198 083e a3aa 633e 2b3c 6bbd dcae 02be
00000160: b5d3 8a3d a5bb edbd 4e8d 44be 7b2a a9bd
00000170: bc72 393e d0d9 253d df05 04be a8fa ff3d
00000180: 17a2 ce3e 78d0 c83c 099a 8e3e c850 823e
00000190: 846a ef3d 1cc2 813e 2b36 a03d 7e69 143d
000001a0: 43b9 6a3e 4c44 d93d 4de7 953e 209e b03e
000001b0: ae76 7a3e 37e8 a53d 4ed0 243e 2e59 843d
000001c0: 6f6b c9bc ffaf 813d be27 013e 2d6e 5bbe
000001d0: ff50 4abd 786c 93bd 5523 d1bc 525a d8bd
000001e0: 611d 8c3e 0518 ae3e 4a11 4a3e 3433 8f3e
000001f0: f30d 683e 8244 983d e7e0 393e 3686 0abd
00000200: 2cee 823e 10b5 e0bd 2d1c 313b bd4f 8e3d
00000210: 373b cb3d 5e53 5d3e 185d 1cbb 3d17 023e
00000220: 5f38 29be 8454 66be 37fd ccbc a340 4dbe
00000230: 9da8 7fbe 3186 343e e48d 22be be89 adbd
00000240: e44f 8dbc 95dc 263e a2f2 223d a2dd 3c3e
00000250: 4ba3 32be 6f4b 803e 98a1 093d c79e 65bc
00000260: f4c4 56be 078d 423e 6d14 2e3d 88ea 98be
00000270: 7fc9 22be 40c2 10be 43cd 053d 1f90 913d
00000280: e20e 60be c13e f03d 2755 74bc aac7 1fbe
00000290: 4d9c 3b3d 65dc 86be 18a5 bc3d 99e7 b8bd
000002a0: 9a8b f8bd 1beb 6dbd bd30 0ebe c9c8 37be
000002b0: 8650 4cbb 2afb 873c d1c8 533e 3953 033e
000002c0: 523f c8bd a546 5bbe c55e cc3d 16ac 4ebe
000002d0: 2665 633d 5c01 ed3d 8475 6cbe 4e6e a0be
000002e0: e446 d43c cf75 6b3d 3657 7ebc dda8 ba3d
000002f0: ef32 353d d870 08be 2301 083e 864c 183e
00000300: 0789 6ebd 2970 81be ab3d a7bc a808 c1be
00000310: 8f56 093e fef0 ae3c a82f 04be 6afe 49be
00000320: e613 083f fbfb 2b3f 9862 e73e 50a0 853e
00000330: efa4 b33d a1ca 71bc e2fc 313e 4c4e 42be
00000340: 36a4 10be fb7c 19be 387a 5cbe da00 853c
00000350: 6b93 5f3e 1694 783d 52b6 f53d 461b 94be
00000360: c9f4 d83d 35b1 7fbe 0083 a7be 0500 0abe
00000370: a47d e93d 8c19 2ebe cbc9 d5bd cd44 b0be
00000380: a156 b53c 517e 8b3e 22d7 473e b310 063d
00000390: da26 d43d e120 a4be 52e4 70be 5b5c 6ebe
000003a0: 397e 063e 5566 34be d9ea 303d b225 273d
000003b0: 2af2 87be 1739 b03d 4f14 3fbc e397 57bd
000003c0: b804 413e 4baa 893c 2d45 c33c fddb 1dbe
000003d0: abfe 833d 3b40 7dbe 50ea 68be e28d e7bd
000003e0: d010 e63d 97ad ce3d fc62 c03e 450b 9f3e
000003f0: 6e00 033e 3c62 96be d8a5 c43d e9a9 b1bd

bias_ih_l1 f4 [64]
0.34723884 0.21262804 0.3387796 0.042947754 -0.12088023 0.1726703 0.0034884252 0.2873172
0.25178456 0.20856468 0.1886504 -0.073621415 -0.13445629 0.04942997 -0.13450004 0.31205586
0.026029462 -0.03354354 0.17045441 -0.27103895 -0.18510477 0.11144997 0.17023328 0.09347629
-0.26768115 -0.1310973 -0.06553101 0.1203214 -0.092774935 -0.037792828 -0.054659594 -0.09712634
-0.18012246 0.21107556 0.09880512 -0.18465745 0.054033015 0.18096517 -0.028337961 0.06566198
0.073820844 0.0044192104 -0.027673824 -0.21820933 0.22956188 -0.10348215 0.130952 -0.005720967
0.09909786 -0.013402093 0.013894451 0.36086696 0.0830396 0.13453266 0.16288404 -0.046996985
-0.003205147 0.2574031 0.3092777 0.15509096 0.015339665 -0.00958793 0.052294478 0.07675208
00000000: 4ac9 b13e 2abb 593e 8574 ad3e fce9 2f3d
00000010: 0e90 f7bd 7cd0 303e 109e 643b 3d1b 933e
00000020: e8e9 803e fb91 553e 922d 413e d3c6 96bd
00000030: e9ae 09be 1577 4a3d 61ba 09be c9c5 9f3e
00000040: bd3b d53c f364 09bd 9a8b 2e3e 9ec5 8abe
00000050: 1b8c 3dbe e23f e43d a251 2e3e 7f70 bf3d
00000060: 810d 89be 5f3e 06be 1f35 86bd 116b f63d
00000070: c900 bebd a7cc 1abd bde2 5fbd 2dea c6bd
00000080: 0672 38be 3124 583e 575a ca3d d816 3dbe
00000090: b951 5d3d ef4e 393e 0325 e8bc ca79 863d
000000a0: 622f 973d 06cf 903b 37b4 e2bc 4472 5fbe
000000b0: 4512 6b3e 73ee d3bd 4818 063e f376 bbbb
000000c0: d2f3 ca3d 7494 5bbc 8da5 633c 8ec3 b83e
000000d0: aa10 aa3d eec2 093e 13cb 263e e97f 40bd
000000e0: 720d 52bb 57ca 833e a659 9e3e 2ad0 1e3e
000000f0: 3853 7b3c b116 1dbc bc32 563d 3230 9d3d

bias_hh_l1 f4 [64]
0.13891444 0.16088986 0.120946445 -0.034312323 0.24219128 0.00039070178 0.35326254 0.3634385
0.30649608 0.109054126 -0.048905782 -0.007869552 0.050279137 0.29714727 0.17480297 0.2886146
-0.03268986 0.16648309 -0.0065811416 -0.2916983 0.013989299 0.03083934 -0.006862612 -0.23249823
0.08738545 0.14933409 -0.13660365 -0.10727708 -0.114084765 -0.16059135 0.08913087 -0.05304651
-0.1949081 0.078283496 -0.04136549 0.24503627 0.16301244 0.051003166 0.25054488 -0.1429981
0.046983656 -0.057339855 0.102419786 0.15513492 0.18751447 -0.1073934 -0.18509853 0.07154506
0.24315044 -0.071656905 0.17464003 0.061728574 0.017595775 -0.100803696 0.27971843 0.29167604
0.060065288 -0.008276401 0.2141551 0.021963393 0.06078586 0.24523023 0.2006337 0.16806066
00000000: 963f 0e3e 50c0 243e c5b2 f73d 148b 0cbd
00000010: fe00 783e 1bd7 cc39 d4de b43e 9c14 ba3e
00000020: 0eed 9c3e c557 df3d 6e51 48bd 4bef 00bc
00000030: 7ff1 4d3d b023 983e 8dff 323e 4bc5 933e
00000040: cde5 05bd 8b7a 2a3e 9ea6 d7bb 7b59 95be
00000050: 5f33 653c c9a2 fc3c c3df e0bb 0414 6ebe
00000060: 25f7 b23d 09eb 183e d4e1 0bbe 16b4 dbbd
00000070: 46a5 e9bd 0f72 24be 3f8a b63d 4c47 59bd
00000080: fd95 47be 1953 a03d dc6e 29bd caea 7a3e
00000090: bcec 263e b2e8 503d 6b47 803e 186e 12be
000000a0: ef71 403d 32dd 6abd 77c1 d13d b0db 1e3e
000000b0: cb03 403e 12f1 dbbd 788a 3dbe 3786 923d
000000c0: 6efc 783e dbc0 92bd d6d4 323e 1ad7 7c3d
000000d0: 0425 903c 2b72 cebd 4137 8f3e 9056 953e
000000e0: 0507 763d be99 07bc 794b 5b3e 93ec b33c
000000f0: 98fa 783d a21d 7b3e ec72 4d3e 1818 2c3e

weight_hr_l1 f4 [4, 16]
-0.34821224 -0.1317062 0.35550833 0.09919382 0.016715258 -0.16183415 0.39770743 -0.019812023
0.13359685 0.27780813 0.47654194 -0.40323368 0.0119274 0.06562351 -0.2616365 -0.20017779
-0.3878582 -0.1751844 0.2256734 0.15469614 -0.115634665 -0.070973866 0.2874018 -0.08699695
0.21331982 0.21014948 0.3298936 -0.13707453 -0.16173998 0.30327222 -0.3967225 -0.32237533
-0.39457527 -0.3486255 0.5930373 0.36343327 -0.1305076 -0.16504581 0.34188733 -0.18788804
0.28207022 0.30891562 0.28146714 -0.12140761 -0.2959506 0.26654035 -0.14067535 -0.23038639
-0.07527237 0.027561527 0.63043326 0.39595222 -0.4968474 -0.3464249 0.22701296 -0.41362813
0.33281362 0.34716406 0.10645512 -0.25628284 -0.04267177 0.4329521 -0.45647624 -0.41825458
00000000: e048 b2be fddd 06be 3005 b63e 2126 cb3d
00000010: 70ee 883c dab7 25be 4fa0 cb3e d34c a2bc
00000020: 9dcd 083e de3c 8e3e 4efd f33e a574 cebe
00000030: 246b 433c 9e65 863d 38f5 85be 68fb 4cbe
00000040: 5a95 c6be 8a63 33be ee16 673e aa68 1e3e
00000050: ded1 ecbd bf5a 91bd 5426 933e 752b b2bd
00000060: 8370 5a3e 6d31 573e d0e7 a83e 445d 0cbe
00000070: 2a9f 25be 7f46 9b3e 361f cbbe 610e a5be
00000080: c505 cabe 0b7f b2be 4bd1 173f ed13 ba3e
00000090: c9a3 05be c501 29be db0b af3e b965 40be
000000a0: 826b 903e 302a 9e3e 761c 903e 8ea4 f8bd
000000b0: d686 97be fa77 883e 330d 10be 69ea 6bbe
000000c0: 6628 9abd b6c8 e13c 1364 213f 40ba ca3e
000000d0: c862 febe 9b5e b1be 1676 683e 11c7 d3be
000000e0: 8c66 aa3e 7dbf b13e 2405 da3d 8137 83be
000000f0: 98c8 2ebd e6ab dd3e 41b7 e9be 7725 d6be

weight_ih_l2 f4 [64, 4]
0.25868908 0.29529738 -0.14374386 -0.2348599 -0.15236373 -0.22970489 -0.2293856 -0.261983
0.104394384 0.22529091 0.12210873 0.18197839 -0.0027139618 0.07209579 -0.38153377 -0.2385422
0.27421668 0.048683245 -0.11883661 -0.098846 0.22633918 0.31105703 0.015097536 0.29806462
-0.047698747 0.22830807 -0.030464906 -0.06487245 0.23457262 0.0761756 0.15660854 0.27863526
-0.39347842 -0.40380147 -0.19931057 -0.16986324 0.3354582 0.033391584 0.025077077 -0.004315995
-0.2905118 -0.33082432 0.045727126 -0.19307208 -0.011553875 0.037569262 0.0022268628 0.079315595
0.1851045 0.12539297 -0.08182754 0.09293276 -0.04090508 -0.19646418 0.035214975 -0.033495467
-0.013839037 0.021938976 0.3469875 -0.074201606 0.009129253 0.24360397 0.18091391 0.025958324
0.28133753 0.21186082 0.15195154 -0.009220466 -0.29101893 -0.22800666 -0.45494902 -0.17371964
0.46687186 0.14109036 0.33896062 0.12127278 -0.35146224 -0.5613098 -0.3412207 -0.5333999
-0.08929371 0.29651478 0.21394756 -0.0058210883 0.33451128 0.2454318 0.055074297 0.30906698
0.049335204 0.16173781 0.019592727 0.49183083 0.23527029 0.2695573 0.2907385 0.5055685
-0.65684986 -0.26152927 -0.64251703 -0.20590757 0.24816042 0.045159284 0.5540589 0.1627511
-0.6736468 -0.5183741 -0.2871556 -0.23278466 -0.2857637 -0.00891906 -0.06648978 0.097108155
0.44078073 0.14663924 0.057214785 0.4404259 -0.64202195 -0.38253886 -0.57986224 -0.13002735
0.14517619 0.22328046 0.0048696613 0.46792912 0.26689306 0.41498268 0.29950333 0.11251239
-0.23346187 -0.2702817 -0.39978254 -0.17038877 -0.25873056 -0.07761758 -0.4056679 -0.22728203
0.3067223 0.33783054 0.26300016 -0.11310958 -0.13262948 -0.03927825 -0.33301768 -0.11205223
-0.30100068 -0.13302429 -0.3647382 -0.09910246 -0.2111625 -0.19323367 -0.052266505 -0.043940246
-0.30994582 -0.050007463 -0.10721111 -0.081432484 -0.24553485 -0.15291801 0.03755841 -0.29715037
-0.33847496 0.038984805 -0.052972257 -0.046884816 -0.06884928 -0.37132302 0.029208504 0.04177765
-0.28009155 -0.3134265 -0.064503565 -0.22873431 -0.07040418 -0.27696198 -0.16731209 -0.36576346
-0.12213355 -0.2311795 -0.19839972 -0.19098027 0.3807096 0.11558156 0.41961047 0.36095527
0.19877791 0.11837962 0.26131445 0.31478596 -0.18839842 -0.14419034 -0.047667943 -0.43687952
0.4182659 0.38605228 -0.07021514 -0.04282767 -0.3975279 -0.3587471 -0.5084658 -0.23268835
0.2676856 0.42684424 0.539289 0.32619357 -0.48739034 -0.3533049 -0.26003048 -0.56537783
0.39343184 0.04450024 -0.1469785 0.115850724 0.20556709 -0.045007143 0.29672465 0.21708919
0.42364475 0.43950945 0.4011888 0.26543704 0.3075879 0.21527301 0.1792203 0.5028282
-0.39045098 -0.5438864 -0.51848745 -0.46726906 0.29608 0.46596605 0.12507686 0.27657437
-0.11550129 -0.28261173 -0.54999447 -0.3694386 0.023959283 -0.01275566 -0.06281926 -0.06454081
0.1991569 0.28467837 0.14782022 0.023455251 -0.22608341 -0.25669104 -0.2746614 -0.5284375
0.07175817 0.17519249 -0.14536087 0.29414374 0.02700798 0.37649575 -0.061814856 -0.040903106
00000000: e572 843e 3831 973e 9731 13be 1d7f 70be
00000010: 3d05 1cbe c237 6bbe 0fe4 6abe a322 86be
00000020: b9cc d53d a9b2 663e 2414 fa3d 8b58 3a3e
00000030: b9dc 31bb f5a6 933d 6558 c3be 6844 74be
00000040: 2166 8c3e 1568 473d 9c60 f3bd c66f cabd
00000050: 75c5 673e de42 9f3e a85b 773c ed9b 983e
00000060: c35f 43bd 97c9 693e 8a91 f9bc d9db 84bd
00000070: ce33 703e f401 9c3d fd5d 203e 48a9 8e3e
00000080: 0176 c9be 11bf cebe 1218 4cbe a1f0 2dbe
00000090: 2dc1 ab3e 9dc5 083d 716e cd3c 316d 8dbb
000000a0: f6bd 94be ce61 a9be 5e4c 3b3d b0b4 45be
000000b0: 774c 3dbc 3ae2 193d 8ff0 113b 3770 a23d
000000c0: 098c 3d3e 0467 003e 3395 a7bd 8853 be3d
000000d0: 168c 27bd e82d 49be 943d 103d 8b32 09bd
000000e0: 21bd 62bc 5eb9 b33c 58a8 b13e 03f7 97bd
000000f0: dd92 153c 5273 793e 7f41 393e 8da6 d43c
00000100: 790b 903e 0bf2 583e 2f99 1b3e 7011 17bc
00000110: 6f00 95be 947a 69be 14ef e8be 90e3 31be
00000120: d409 ef3e fe79 103e 3f8c ad3e dd5d f83d
00000130: dcf2 b3be 00b2 0fbf 7bb4 aebe e58c 08bf
00000140: 9fdf b6bd c9d0 973e 1215 5b3e d4be bebb
00000150: 1045 ab3e 7952 7b3e 9695 613d 073e 9e3e
00000160: b613 4a3d 999e 253e ed80 a03c 40d1 fb3e
00000170: b2ea 703e 6a03 8a3e addb 943e f06c 013f
00000180: 5027 28bf 2ae7 85be ff7b 24bf 6fd9 52be
00000190: c41d 7e3e f1f8 383d ced6 0d3f 39a8 263e
000001a0: 1e74 2cbf 2ab4 04bf 0f06 93be 1a5f 6ebe
000001b0: 9f4f 92be 4021 12bc cb2b 88bd a4e0 c63d
000001c0: 03ae e13e 9928 163e 0d5a 6a3d 817f e13e
000001d0: 8d5b 24bf 22dc c3be da71 14bf e425 05be
000001e0: 11a9 143e a2a3 643e ae91 9f3b 6894 ef3e
000001f0: 35a6 883e 9c78 d43e 8058 993e e56c e63d
00000200: a110 6fbe 5d62 8abe 4cb0 ccbe 657a 2ebe
00000210: 5578 84be f7f5 9ebd b4b3 cfbe 9fbc 68be
00000220: b50a 9d3e 20f8 ac3e f5a7 863e ffa5 e7bd
00000230: 06d0 07be 3be2 20bd 4b81 aabe a47b e5bd
00000240: c31c 9abe 8537 08be f7be babe 3bf6 cabd
00000250: fb3a 58be 0cdf 45be 6715 56bd b0fa 33bd
00000260: 38b1 9ebe a0d4 4cbd 8091 dbbd 13c6 a6bd
00000270: 7d6d 7bbe 8a96 1cbe d9d6 193d 1824 98be
00000280: 974c adbe 88ae 1f3d 70f9 58bd 4b0a 40bd
00000290: da00 8dbd 0d1e bebe ac46 ef3c 0b1f 2b3d
000002a0: 2968 8fbe 7079 a0be 721a 84bd 5439 6abe
000002b0: 1130 90bd f6cd 8dbe dc53 2bbe 5945 bbbe
000002c0: 2821 fabd 52ba 6cbe 4c29 4bbe 5590 43be
000002d0: 5eec c23e 06b6 ec3d 2fd7 d63e 21cf b83e
000002e0: 708c 4b3e 0471 f23d 02cb 853e a02b a13e
000002f0: 84eb 40be a2a6 13be 763f 43bd acae dfbe
00000300: f326 d63e a5a8 c53e f5cc 8fbd 116c 2fbd
00000310: c788 cbbe b3ad b7be d12a 02bf db45 6ebe
00000320: 160e 893e 548b da3e d80e 0a3f d802 a73e
00000330: 3a8b f9be 61e4 b4be b722 85be 9abc 10bf
00000340: e66f c93e e245 363d 8881 16be 2543 ed3d
00000350: 2e80 523e 6959 38bd 4bec 973e a14c 5e3e
00000360: f7e7 d83e 6207 e13e 9e68 cd3e 5de7 873e
00000370: 297c 9d3e 8770 5c3e 8785 373e 59b9 003f
00000380: 31e9 c7be 243c 0bbf 98bb 04bf e43d efbe
00000390: cc97 973e 1a93 ee3e 2614 003e 289b 8d3e
000003a0: f18b ecbd 7cb2 90be 70cc 0cbf 0e27 bdbe
000003b0: 4246 c43c 1efd 50bc 62a7 80bd f92d 84bd
000003c0: c9ef 4b3e 5dc1 913e 2f5e 173e 3a25 c03c
000003d0: 6982 67be 026d 83be 6ba0 8cbe ae47 07bf
000003e0: f3f5 923d a965 333e 7bd9 14be 029a 963e
000003f0: d73f dd3c 0dc4 c03e 9331 7dbd 048a 27bd

weight_hh_l2 f4 [64, 4]
-0.30572388 -0.50565135 0.58654255 -0.009723727 0.0046800915 -0.194283 0.49496725 -0.12742957
-0.05895058 -0.20094788 0.21866232 -0.0047379453 0.14124742 0.13153201 0.4194978 0.06953359
-0.12677453 -0.26084846 0.6407048 0.14832704 -0.33268476 0.082582116 0.0056204777 0.18953957
0.14217828 -0.18538336 0.25874355 -0.040018465 -0.17697212 -0.16802031 0.21325898 -0.06421268
-0.27610558 -0.37094685 -0.058436062 0.09086945 0.32876304 -0.056146678 0.27776 -0.3181423
0.03174489 -0.48895308 -0.12894614 0.12042883 0.14406529 0.023489341 0.27451542 0.2145144
-0.015609613 0.063253425 0.2356599 -0.18788348 -0.17949587 0.18897584 0.41375878 -0.2666236
0.14351647 -0.30922937 0.15616629 -0.10249129 -0.16453765 -0.54987663 0.43102884 -0.01902671
0.15614264 -0.30490977 -0.07807202 0.020563925 -0.21900764 0.07799846 -0.050128642 0.06109966
-0.08783273 -0.17816076 0.26587364 -0.28382984 0.13662577 0.30169997 0.016382739 0.14379649
0.24122223 -0.04663417 0.19684806 -0.24624833 0.024906447 -0.071434684 0.15764265 -0.165689
0.112799786 -0.2096001 0.3072691 -0.2966614 -0.043045513 -0.31387192 0.1798591 -0.093081415
-0.28221527 -0.03335035 -0.08694007 0.33586836 0.31323668 0.15040208 -0.068646826 -0.1565467
-0.025205996 -0.10289114 -0.053672936 -0.049086146 0.32937664 0.13776253 0.051421158 -0.11235906
-0.12647927 -0.097859286 0.03387529 -0.15600063 -0.18087755 0.1571736 0.062789 -0.060813725
0.35210398 -0.08398262 -0.102929264 -0.2517388 0.16677947 -0.022008885 -0.08056494 -0.15580726
0.072625324 0.11056896 -0.24951082 -0.024649858 0.08720445 0.30049402 0.12109481 -0.05783977
-0.285856 -0.2102914 0.044629462 -0.04074732 0.123679854 -0.06891601 0.22216626 -0.050028004
0.10716829 0.16405897 0.07046098 -0.19141282 0.34653103 0.08950583 -0.23387994 0.066986986
0.007165169 0.21311359 -0.06785178 -0.05776827 0.29979226 0.21120958 0.0044536805 0.15782541
-0.0994553 -0.23569413 0.18726443 0.12549685 -0.12936804 -0.042298682 0.04379578 -0.066315874
-0.024477359 -0.025894837 0.037264854 0.07748765 -0.118595146 -0.006132624 0.13058071 -0.32448208
0.058331385 0.19433208 -0.12753515 -0.25415528 -0.11896752 -0.17647819 -0.257336 -0.0034251008
0.03185679 -0.234086 -0.007831854 0.038234595 0.21608979 -0.029590359 -0.13105741 -0.13622512
-0.27846345 -0.49222207 0.6612488 -0.19992375 -0.03732095 -0.22320308 0.08472429 0.27345976
0.13664955 -0.3565408 0.42191315 -0.3048129 -0.033081353 -0.3925352 0.2514354 0.048898403
-0.32756633 -0.26775476 0.49115577 -0.10956292 0.20805898 -0.0023757806 0.52050954 -0.28058615
0.05145917 0.08338945 0.4017813 0.076820195 0.018238736 -0.20280041 0.5524277 -0.38593748
-0.24438083 -0.46287102 0.17559868 0.27568212 0.04615974 0.2332742 0.09952591 -0.1848752
-0.3112431 -0.23665015 0.10093031 0.55682915 -0.078533806 0.121674426 0.32025313 -0.2582295
0.207213 0.03765993 0.40235195 -0.2588595 -0.39262712 -0.061791047 0.461792 -0.103045516
0.10342031 -0.08816239 0.42311206 -0.23936757 0.04533851 -0.13277724 0.65719056 -0.24535833
00000000: d787 9cbe 5e72 01bf a727 163f 4450 1fbc
00000010: 745b 993b 1ff2 46be 596c fd3e e67c 02be
00000020: 2a76 71bd 48c5 4dbe 04e9 5f3e c440 9bbb
00000030: 2aa3 103e 54b0 063e 6ac8 d63e a067 8e3d
00000040: 2fd1 01be ee8d 85be 3b05 243f 0be3 173e
00000050: a855 aabe d020 a93d fc2b b83b a916 423e
00000060: 2f97 113e 23d5 3dbe 097a 843e 67ea 23bd
00000070: 2e38 35be 840d 2cbe 9060 5a3e f081 83bd
00000080: b65d 8dbe bfec bdbe a75a 6fbd c319 ba3d
00000090: a153 a83e 0ffa 65bd 8f36 8e3e 8ce3 a2be
000000a0: ee06 023d 0f58 fabe 750a 04be 64a3 f63d
000000b0: da85 133e b86c c03c 498d 8c3e aaa9 5b3e
000000c0: 76bf 7fbc 038b 813d d450 713e 8764 40be
000000d0: c4cd 37be e282 413e 31d8 d33e e382 88be
000000e0: fbf5 123e 5053 9ebe 0eea 1f3e f4e6 d1bd
000000f0: 8f7c 28be b7c4 0cbf d0af dc3e e7dd 9bbc
00000100: dbe3 1f3e 221d 9cbe 39e4 9fbd ad75 a83c
00000110: 8a43 60be a8bd 9f3d b153 4dbd a343 7a3d
00000120: a5e1 b3bd c66f 36be 9720 883e 2552 91be
00000130: a0e7 0b3e 6b78 9a3e 1835 863c 633f 133e
00000140: f602 773e 7903 3fbd 8a92 493e 8628 7cbe
00000150: 9b08 cc3c 594c 92bd 136d 213e 61aa 29be
00000160: 9303 e73d 69a1 56be 6052 9d3e 01e4 97be
00000170: 7e50 30bd d2b3 a0be fc2c 383e 78a1 bebd
00000180: 857e 90be 609a 08bd a30d b2bd f0f6 ab3e
00000190: 8f60 a03e 0103 1a3e b596 8cbd c74d 20be
000001a0: ce7c cebc 97b8 d2bd 27d8 5bbd 8e0e 49bd
000001b0: 0ea4 a83e 9f11 0d3e fe9e 523d 821c e6bd
000001c0: c883 01be 736a c8bd d1c0 0a3d a1be 1fbe
000001d0: f737 39be 1ef2 203e 8597 803d d017 79bd
000001e0: f946 b43e 14ff abbd 94cc d2bd e8e3 80be
000001f0: 3dc8 2a3e fa4b b4bc 3bff a4bd f08b 1fbe
00000200: 96bc 943d fb71 e23d c47f 7fbe 80ee c9bc
00000210: 3f98 b23d 5ada 993e 8e00 f83d 65e9 6cbd
00000220: b85b 92be a156 57be 62cd 363d a9e6 26bd
00000230: dd4b fd3d d623 8dbd 8d7f 633e 2aea 4cbd
00000240: 0c7b db3d 13ff 273e d94d 903d b901 44be
00000250: 846c b13e d54e b73d 397e 6fbe 7930 893d
00000260: cbc9 ea3b 733a 5a3e e0f5 8abd 6c9e 6cbd
00000270: 5f7e 993e 5347 583e 2ef0 913b fc9c 213e
00000280: 38af cbbd cd59 71be 3fc2 3f3e 3f82 003e
00000290: 0e79 04be 6241 2dbd 3463 333d 9ed0 87bd
000002a0: be84 c8bc 6921 d4bc 08a3 183d d8b1 9e3d
000002b0: 03e2 f2bd 2ef4 c8bb f3b6 053e 8422 a6be
000002c0: e4ec 6e3d fdfe 463e 9398 02be a420 82be
000002d0: 3ea5 f3bd b3b6 34be 8bc1 83be a877 60bb
000002e0: 447c 023d 3eb4 6fbe 2d51 00bc e19b 1c3d
000002f0: a446 5d3e 7b67 f2bc ea33 06be 997e 0bbe
00000300: c392 8ebe 8804 fcbe 9a47 293f d0b8 4cbe
00000310: dadd 18bd 598f 64be ee83 ad3d eb02 8c3e
00000320: dced 0b3e 848c b6be 0005 d83e 7010 9cbe
00000330: 5080 07bd 60fa c8be 24bc 803e b149 483d
00000340: c6b6 a7be 2717 89be c578 fb3e 8662 e0bd
00000350: 6a0d 553e fcb2 1bbb 1d40 053f fda8 8fbe
00000360: dac6 523d 17c8 aa3d 47b6 cd3e e853 9d3d
00000370: 6769 953c e9aa 4fbe e76b 0d3f 9999 c5be
00000380: f83e 7abe 6efd ecbe 24d0 333e 3526 8d3e
00000390: ff11 3d3d 6fdf 6e3e 3ed4 cb3d ed4f 3dbe
000003a0: 415b 9fbe 6b54 72be 8db4 ce3d 5b8c 0e3f
000003b0: 55d6 a0bd 7130 f93d 38f8 a33e a836 84be
000003c0: a52f 543e 4c41 1a3d 1301 ce3e 3b89 84be
000003d0: 6c06 c9be 9c18 7dbd 0070 ec3e 8709 d3bd
000003e0: 07ce d33d 7c8e b4bd 25a2 d83e c61c 75be
000003f0: e0b4 393d c2f6 07be a43d 283f 373f 7bbe

bias_ih_l2 f4 [64]
0.07051357 -0.086379305 0.0070769037 0.21622132 0.55114913 0.092340186 0.3050452 0.031197555
-0.005926365 -0.17643821 0.07590723 -0.08756185 0.114788905 0.051061545 -0.053718373 0.009282789
-0.17016567 -0.03207108 0.25109908 0.26900968 0.12488448 -0.09565113 -0.13559382 0.29620573
0.00087604503 -0.23301782 -0.081123665 -0.15379241 0.045876853 0.07502686 -0.21576701 0.044728544
0.07759283 0.1756834 -0.13296501 0.27923462 -0.27423447 -0.16370523 0.067044996 -0.047260363
0.112873316 -0.28923905 0.34434527 -0.10053422 -0.22775398 -0.087722324 -0.0017074461 0.14236152
0.07554651 0.27324948 0.13608211 0.0043715592 0.41865012 0.23694888 0.19050327 0.15719181
0.44890508 0.23511742 0.18255827 0.16162676 0.03439751 0.28384975 0.37830707 0.07623932
00000000: 6b69 903d a2e7 b0bd 5fe5 e73b 1f69 5d3e
00000010: 1c18 0d3f da1c bd3d e22e 9c3e 0492 ff3c
00000020: f431 c2bb 38ac 34be 4075 9b3d a153 b3bd
00000030: 7216 eb3d e925 513d cc07 5cbd d716 183c
00000040: e93f 2ebe f75c 03bd 0f90 803e a3bb 893e
00000050: 6fc3 ff3d bde4 c3bd 1bd9 0abe 47a8 973e
00000060: 63a6 653a 399c 6ebe 2a24 a6bd c27b 1dbe
00000070: 5ee9 3b3d afa7 993d 07f2 5cbe 4735 373d
00000080: fde8 9e3d 59e6 333e fb27 08be d7f7 8e3e
00000090: 7668 8cbe 58a2 27be e34e 893d 1594 41bd
000000a0: 202a e73d 2417 94be 064e b03e e3e4 cdbd
000000b0: 5738 69be c3a7 b3bd 62cc dfba 38c7 113e
000000c0: 21b8 9a3d 5be7 8b3e 1c59 0b3e 4c3f 8f3b
000000d0: 4f59 d63e baa2 723e 4a13 433e e4f6 203e
000000e0: e3d6 e53e 9fc2 703e 8ef0 3a3e 7c81 253e
000000f0: 67e4 0c3d c154 913e 77b1 c13e 5c23 9c3d

bias_hh_l2 f4 [64]
0.26869944 0.008894784 0.3829447 0.21799795 0.17042506 -0.034003522 0.29510736 0.15755399
-0.053797577 0.07686328 0.0964313 0.33035722 0.07056929 0.048643198 0.1767854 0.037246738
0.2596916 0.064681254 -0.075798936 0.21516886 -0.12372548 0.29278052 0.049902383 0.27921692
0.24492586 -0.09153646 0.33553687 -0.28328478 0.05162529 -0.017578397 -0.022389641 -0.21653426
-0.098982856 0.09331468 0.19378595 0.03293613 0.058004785 -0.2942295 -0.2233282 -0.114993155
0.39477775 -0.010152854 -0.08260209 -0.039659444 -0.16851373 -0.18261951 0.13017471 -0.25582236
0.2542908 0.23407538 -0.028252551 0.026697751 0.59464186 0.205423 0.10721165 0.16163932
0.054382157 0.20918047 0.13726768 0.36615327 0.04939793 0.39811155 0.36807194 0.22555512
00000000: f992 893e 6ebb 113c 5411 c43e db3a 5f3e
00000010: e883 2e3e 4747 0bbd 5018 973e d555 213e
00000020: d95a 5cbd 7f6a 9d3d c67d c53d 9524 a93e
00000030: a286 903d 173e 473d 3b07 353e 0990 183d
00000040: 4cf6 843e 9b77 843d 793c 9bbd 3a55 5c3e
00000050: c963 fdbd 54e7 953e 7166 4c3d 85f5 8e3e
00000060: d8cd 7a3e 7877 bbbd 7dcb ab3e b40a 91be
00000070: 0a75 533d 9200 90bc 7b6a b7bc 28bb 5dbe
00000080: 86b7 cabd c41b bf3d d36f 463e 09e8 063d
00000090: 6d96 6d3d 40a5 96be 26b0 64be 8881 ebbd
000000a0: 4f20 ca3e 2858 26bc 492b a9bd f171 22bd
000000b0: dd8e 2cbe 9c00 3bbe 854c 053e 26fb 82be
000000c0: 6732 823e 75b1 6f3e e571 e7bc 3eb5 da3c
000000d0: 733a 183f 685a 523e c891 db3d c784 253e
000000e0: d3bf 5e3d 6833 563e e68f 0c3e 7178 bb3e
000000f0: 7c55 4a3d 47d5 cb3e ed73 bc3e ecf7 663e
