saved_models/LSTM/ckpt__epoch100.ckpt (torch, 17513 bytes, 20 tensors)

weight_ih_l0 f4 [64, 8]
0	0xbe0a9993	-0.13535146
1	0x3e877778	0.26458335
2	0x3e8a64f8	0.27030158
3	0xbe96113a	-0.29310018
4	0xbe431250	-0.19049954
5	0xbc9c802f	-0.019104091
6	0x3d648453	0.055790257
7	0x3ca392ad	0.019967401
8	0x3c008351	0.007843808
9	0x3d6c32e0	0.057665706
10	0xbe88ab17	-0.2669303
11	0x3d38f456	0.045154892
12	0xbddf05a1	-0.108897455
13	0xbbd2f5e0	-0.006438002
14	0xbd763512	-0.060109206
15	0x3af856ea	0.0018946801
16	0x3db24452	0.08704437
17	0x3d87f49a	0.06638451
18	0x3dc8a8d7	0.09797829
19	0x3c8cda29	0.01719387
20	0xbb38d291	-0.002820168
21	0xbdb2d42b	-0.08731874
22	0xbe7dac4a	-0.24772754
23	0xbe165bfc	-0.14683527
24	0xbc7d274c	-0.015451264
25	0x3e367f41	0.17821981
26	0xbe439196	-0.19098505
27	0x3e165320	0.14680147
28	0x3d20841f	0.0391885
29	0x3db51b21	0.08843065
30	0x3e109671	0.14119889
31	0xbd0f5602	-0.034994133
32	0x3c15c559	0.00914129
33	0xbe41d862	-0.189302
34	0x3eaf1e48	0.3420279
35	0xbd544be6	-0.051830195
36	0x3d652a82	0.05594874
37	0x3de8e775	0.11372272
38	0xbe14d149	-0.14532961
39	0xbbf861c3	-0.0075800135
40	0xbd293696	-0.041311823
41	0xbe699735	-0.22811587
42	0x3e07f717	0.13277851
43	0xbe62e0af	-0.22156022
44	0x3c4328e2	0.011911603
45	0xbd2fba7d	-0.04290246
46	0x3d8fd460	0.07022929
47	0xbd3e25e2	-0.046422847
48	0x3c00a1d8	0.007851087
49	0x3e992f58	0.29918933
50	0x3db89b67	0.09014016
51	0xbe94942c	-0.29019296
52	0x3d9b2f61	0.07577396
53	0x3c69750e	0.014249099
54	0x3d62d499	0.05537853
55	0x3d6e3138	0.058152407
56	0x3bc24695	0.005928824
57	0xbe103799	-0.14083709
58	0xbe8f9208	-0.280411
59	0x3e3fac0a	0.18717971
60	0x3e323441	0.17402746
61	0xbe45b187	-0.19306003
62	0xbd81e7a0	-0.06343007
63	0xbd45016c	-0.04809706
64	0x3dbda3e0	0.09259772
65	0xbbd8fe2a	-0.0066220956
66	0x3de379a2	0.11107184
67	0xbd8c4264	-0.068486005
68	0xbc639c02	-0.013892176
69	0x3eaa5050	0.332644
70	0xbe0284be	-0.1274595
71	0xbdc70482	-0.09717657
72	0x3dac8afe	0.08424948
73	0x3e00c196	0.12573847
74	0x3d74fbce	0.059810452
75	0x3e276044	0.16345316
76	0x3ea0acf0	0.3138194
77	0x3d8afe0f	0.06786739
78	0xbde44454	-0.11145845
79	0x3d2c4b81	0.042064194
80	0xbb260b94	-0.002533649
81	0xbe52e1c9	-0.20593943
82	0x3de43d07	0.111444525
83	0xbd098e99	-0.033583257
84	0xbd7dd317	-0.06196889
85	0xbe4e118c	-0.20123881
86	0xbe2a7b89	-0.16648687
87	0x3c092f69	0.00837312
88	0xbd081c79	-0.03323028
89	0x3e2d4b4e	0.16923258
90	0xbdf1f882	-0.11814977
91	0xbd3f7ffd	-0.04675292
92	0xbd957174	-0.0729703
93	0x3e6f0ee5	0.23345526
94	0x3ea58f1a	0.3233574
95	0xbd8197ca	-0.063277796
96	0xbd08b397	-0.033374395
97	0x3d7bfdc5	0.06152131
98	0xbe428d06	-0.18999109
99	0x3d875e59	0.06609792
100	0xbdbc653e	-0.09198998
101	0xbd89dce7	-0.06731587
102	0x3da6e48b	0.0814906
103	0x3e3f78c5	0.18698414
104	0xbd4cad10	-0.049969733
105	0x3dbadab0	0.091237426
106	0xbea8ccd9	-0.32968786
107	0x3e873cca	0.26413566
108	0xbd280f66	-0.04103031
109	0xbcecde2b	-0.028914532
110	0x3d885b54	0.066580445
111	0xbc5f37d2	-0.013624148
112	0xbdb7cee5	-0.08975009
113	0x3ea4e12b	0.3220304
114	0xbe442702	-0.19155505
115	0xbdec09d6	-0.115253136
116	0x3b987338	0.004652407
117	0xbcef9250	-0.029244572
118	0xbd962721	-0.07331682
119	0x3c82b147	0.015953673
120	0x3e04e9a5	0.12979753
121	0xbc13d5a7	-0.009023107
122	0x3dc7f5ba	0.097636655
123	0x3ea0092f	0.31257007
124	0xbdcd885c	-0.10035774
125	0x3d9eb06a	0.07748492
126	0x3ec7ee33	0.3904892
127	0xbc5abbc7	-0.013350434
128	0x3d4713ac	0.048602745
129	0xbdd2eaa3	-0.1029866
130	0xbe10184b	-0.14071767
131	0xbcd773be	-0.026300307
132	0x3cb70dcc	0.022345446
133	0xbdd643a8	-0.10462123
134	0xbde87518	-0.11350459
135	0x3eb2b03e	0.34900087
136	0x3c4a3b19	0.012343192
137	0x3e4ed4fa	0.20198432
138	0xbd027577	-0.031850304
139	0xbe3b508d	-0.18292446
140	0xbdebc001	-0.11511231
141	0x3d945372	0.072424784
142	0x3d811538	0.06302875
143	0x3e3d130b	0.18464296
144	0xbbc97014	-0.006147394
145	0xbd86e095	-0.065858044
146	0xbdd3555a	-0.10319014
147	0xbe3156a5	-0.17318209
148	0x3c497058	0.012294851
149	0xbe470229	-0.19434418
150	0xbe1c4ab4	-0.15262872
151	0xbe14d67a	-0.14534941
152	0x3dd4b5e9	0.10386259
153	0xbe3b56bd	-0.18294807
154	0x3e60b92c	0.21945637
155	0xbdc22bba	-0.094809964
156	0x3d3a7fb0	0.04553193
157	0xbe00894b	-0.12552373
158	0x3b51984d	0.0031981647
159	0xbe230f8b	-0.15923898
160	0x3db94b3c	0.09047553
161	0xbe818f4f	-0.25304648
162	0x3d87bafa	0.0662746
163	0xbd18014c	-0.03711061
164	0x3c87ec0c	0.016592048
165	0x3e547a33	0.2074974
166	0x3dca8979	0.09889502
167	0xbdbc4fad	-0.091948844
168	0x3c91a61a	0.017779399
169	0x3e25b5ad	0.16182585
170	0xbe2a8d41	-0.16655447
171	0x3e6bef74	0.23040563
172	0x3d7590c4	0.059952512
173	0xbd88cdd2	-0.06679882
174	0xbe9aad74	-0.3021046
175	0xbc41adb7	-0.011821202
176	0x3ddb4954	0.107073456
177	0xbc07924c	-0.008274626
178	0xbe3596c5	-0.17733295
179	0x3e15f4ec	0.14644212
180	0xbd91c0b6	-0.07116835
181	0x3dfa5659	0.12223501
182	0x3e14dcfb	0.14537422
183	0x3ddf62c4	0.1090751
184	0xbd515ba0	-0.05111277
185	0x3e966217	0.29371712
186	0x3e82b118	0.25525737
187	0xbc691ea3	-0.014228496
188	0x3d87f3a7	0.0663827
189	0x3d5a8600	0.05335045
190	0xbdb1db58	-0.086844146
191	0xbe4fdc55	-0.20298894
192	0xbe6f587e	-0.23373601
193	0xbe436737	-0.19082342
194	0xbe216c62	-0.15764001
195	0x3dab7fce	0.08373986
196	0x3dc912f4	0.09818068
197	0xbe38649b	-0.18007128
198	0xba3e3d64	-0.0007257073
199	0xbd153e3b	-0.0364363
200	0x3d0a4d63	0.033765208
201	0xbd192f37	-0.037398543
202	0xbe18ec69	-0.14933933
203	0xbddd5340	-0.10806894
204	0x3e949ad6	0.2902438
205	0xbc8c602a	-0.017135698
206	0xbe5432ec	-0.2072255
207	0x3db564a3	0.088570856
208	0x3d91f64c	0.071270555
209	0xbe73542c	-0.23762578
210	0x3bf5af12	0.0074976766
211	0x3df44dd8	0.1192891
212	0xbdf5f60f	-0.120098226
213	0xbd2c91d8	-0.042131275
214	0xbda7e93b	-0.08198782
215	0x3cbb4634	0.022860624
216	0xbd7f8ee5	-0.062392134
217	0x3e41eb5d	0.1893744
218	0xbd745659	-0.05965266
219	0xbe526dc2	-0.20549682
220	0xbb97baab	-0.004630407
221	0x3aa587de	0.0012628993
222	0x3e21810f	0.15771888
223	0x3dc7b414	0.09751144
224	0x3d8ce3d1	0.0687939
225	0x3e18c953	0.14920549
226	0xbddde4f8	-0.10834688
227	0xbe096390	-0.13416886
228	0xbe043ff9	-0.12915029
229	0x3de28fc7	0.110625796
230	0xbda9efe1	-0.082977064
231	0x3b97649f	0.0046201493
232	0xbbc5a597	-0.0060317027
233	0x3d88f0f4	0.06686583
234	0x3d695bac	0.05697219
235	0xbd83eed4	-0.06442037
236	0xbbee152d	-0.007265708
237	0xbb59ca10	-0.003323201
238	0x3ea45ea1	0.32103446
239	0xbd5da60d	-0.054113436
240	0x3c171c8a	0.009223113
241	0xbde78fc1	-0.11306716
242	0xbd2c81c4	-0.04211594
243	0x3ccb0ae2	0.024785463
244	0xbcb76c13	-0.022390401
245	0x3c1ef1ab	0.009701173
246	0x3d23323e	0.039842837
247	0xbd59692f	-0.053078827
248	0xbdefe518	-0.11713618
249	0x3cff213f	0.031143783
250	0x3d76bace	0.060236745
251	0xbd3541dd	-0.044252265
252	0xbd047ca6	-0.032345437
253	0xbd06f502	-0.0329485
254	0x3e8240ee	0.25440162
255	0x3e2b9800	0.16757202

weight_hh_l0 f4 [64, 4]
0	0xbc78749b	-0.01516452
1	0xba72c4d9	-0.00092609
2	0xbd516bc5	-0.051128168
3	0x3df679e0	0.120349646
4	0x3df980ef	0.12182795
5	0xbe5cac15	-0.21550019
6	0x3ccbe436	0.024889093
7	0x3cbb8dab	0.022894701
8	0x3d0be5d1	0.034154717
9	0x3e9f6663	0.31132802
10	0xbdc67804	-0.0969086
11	0x3e83bad7	0.25728485
12	0x3e81aaef	0.25325724
13	0xbda499a7	-0.08037119
14	0xbd8d3386	-0.06894593
15	0xbdf9b071	-0.12191857
16	0x3d94fae3	0.07274415
17	0xbe4188ba	-0.18899813
18	0x3dc95072	0.09829797
19	0x3ddf87c9	0.10914571
20	0xbe660835	-0.22464068
21	0x3da2efdd	0.079559065
22	0xbea61729	-0.32439545
23	0x3df61b30	0.12016904
24	0xbde72bec	-0.11287674
25	0x3c846f20	0.01616627
26	0xbe43da47	-0.19126235
27	0xbd331db7	-0.04372951
28	0x3e2fd229	0.17170013
29	0xbcea6ed6	-0.028617304
30	0x3e926d45	0.2859899
31	0x3e49f341	0.197217
32	0x3e37c4a8	0.17946112
33	0xbe14a73a	-0.14516917
34	0x3ed70e9b	0.4200333
35	0xbf053fa5	-0.5205024
36	0x3c50759f	0.012723356
37	0x3c9d78db	0.019222667
38	0x3e5bbe60	0.21459341
39	0x3d88b0aa	0.06674321
40	0x3e21f56c	0.15816277
41	0xbe0dc915	-0.13846238
42	0x3db862eb	0.09003242
43	0x3eb9546e	0.36197227
44	0x3eb56b88	0.35433602
45	0xbd11255d	-0.035436023
46	0x3e960ba8	0.29305768
47	0x3e124452	0.14283875
48	0x3e9bded0	0.3044343
49	0x3def56a0	0.11686444
50	0x3c4b57ab	0.012411038
51	0xbe2ed1b7	-0.17072187
52	0x3ed42fa3	0.41442594
53	0x3c9e0f5f	0.019294439
54	0xbdeeef85	-0.116667785
55	0x3cf98a79	0.030461537
56	0x3d9e6cc0	0.07735586
57	0xbd93f541	-0.07224513
58	0x3cc5d804	0.024150856
59	0xbe8fa835	-0.2805802
60	0x3dcf7077	0.10128873
61	0x3e53eaa0	0.20694971
62	0x3dd36d40	0.10323572
63	0x3d1f4d1b	0.038891893
64	0x3e837ee2	0.2568274
65	0x3d030d44	0.031995073
66	0x3da82f54	0.08212152
67	0x3e1c291f	0.15250061
68	0xbe123ade	-0.14280269
69	0x3e510250	0.20411038
70	0xbcbedade	-0.023297723
71	0x3e493b0f	0.19651435
72	0xbce7f676	-0.028315764
73	0xbd0596d7	-0.032614555
74	0x3e7547b4	0.23953134
75	0x3c9c7158	0.019097015
76	0x3e3897ac	0.18026608
77	0x3e51eb86	0.20500001
78	0xbe692c3d	-0.22770782
79	0x3df0dde5	0.11761073
80	0xbd9a9bf3	-0.07549276
81	0x3e11e6ee	0.14248249
82	0xbe3a5050	-0.181947
83	0x3d9d9500	0.07694435
84	0x3e00c5f8	0.12575519
85	0xbe9667af	-0.2937598
86	0x3cb7b8b0	0.022426933
87	0xbe3cd3aa	-0.18440118
88	0x3e2afa16	0.16696963
89	0x3e0235c6	0.12715825
90	0x3e808536	0.25101632
91	0x3d215cf0	0.039395273
92	0xbe18ae6f	-0.14910291
93	0x3c86db52	0.016462002
94	0x3e7cdbdb	0.24693243
95	0x3d212c51	0.039348904
96	0xbeb1ac59	-0.34701803
97	0x3ea91e33	0.33030853
98	0xbded08d0	-0.115739465
99	0x3ebb0d6e	0.36533684
100	0xbdeeda33	-0.11662712
101	0xbe8d3e78	-0.27586722
102	0xbd44dfec	-0.04806511
103	0xbe45717a	-0.19281569
104	0x3e4475bb	0.19185536
105	0x3e80d81a	0.25164872
106	0xbdac9b28	-0.08428031
107	0x3e58f065	0.21185453
108	0xbd35d5c3	-0.044393312
109	0xbe35a265	-0.1773773
110	0x3d55cd90	0.052197993
111	0xbde8fa02	-0.1137581
112	0xbeb7f9e3	-0.35932836
113	0x3b8a4383	0.004219474
114	0xbe925697	-0.28581688
115	0x3e579dd0	0.21056294
116	0x3eb269d1	0.34846357
117	0xbe504a0d	-0.20340748
118	0x3ecbfd5f	0.39841744
119	0xbefbdccf	-0.491919
120	0x3df7a804	0.12092593
121	0xbe9a2306	-0.30104846
122	0x3e7b98a4	0.24569947
123	0xbe11f57f	-0.14253806
124	0x3eac7af7	0.33687565
125	0xbf158382	-0.5840379
126	0x3e9d8ae0	0.30770016
127	0xbead48fb	-0.33844742
128	0x3c267ac1	0.010161103
129	0x3e90da5d	0.28291598
130	0xbdc28bd8	-0.09499329
131	0x3d6a2df6	0.057172738
132	0x3e10b740	0.14132404
133	0xbeaf6c9d	-0.34262553
134	0x3da97c18	0.08275622
135	0xbed86dcd	-0.4227127
136	0xbe1170f9	-0.14203252
137	0x3d2a9fa6	0.04165616
138	0xbc6d31ea	-0.0144772325
139	0x3dd095aa	0.10184796
140	0x3ea68857	0.32525894
141	0xbe0249d5	-0.12723477
142	0x3f0c2a70	0.54752254
143	0xbedf6f1f	-0.43639466
144	0xbdd6d19f	-0.10489201
145	0xbe3b4f83	-0.1829205
146	0xbccf1b91	-0.0252817
147	0x3c33a7f9	0.010965341
148	0xbe582765	-0.21108778
149	0x3ec84a57	0.39119217
150	0xbde97e55	-0.11401049
151	0x3e533e48	0.20629227
152	0xbeab2ab6	-0.33431023
153	0x3e86de02	0.26341254
154	0xbedb9160	-0.4288435
155	0x3daa663b	0.0832028
156	0xbeb252d7	-0.34828827
157	0x3e445a31	0.1917503
158	0xbeb94872	-0.36188084
159	0x3ec5a6ba	0.38603765
160	0xbe9b14a2	-0.3028918
161	0x3e95e0d7	0.29273102
162	0xbea6d250	-0.3258233
163	0xbd563f83	-0.052306663
164	0x3d2018cb	0.039086144
165	0xbe2c4436	-0.16822895
166	0xbb9a131e	-0.004701986
167	0xbcbde4fb	-0.023180475
168	0x3de0eab9	0.1098227
169	0xbe31e020	-0.17370653
170	0x3eb5bf10	0.35497332
171	0xbd9af659	-0.07566518
172	0xbf06da9a	-0.5267731
173	0x3e31867b	0.17336456
174	0xbf16822d	-0.5879238
175	0x3d4cdb47	0.050013807
176	0xbeecf9b4	-0.46284258
177	0x3ed0518b	0.40687212
178	0xbe2313a8	-0.15925467
179	0x3e51b3c7	0.20478736
180	0xbc26eef7	-0.01018881
181	0xbe87c2c3	-0.2651578
182	0xbdece753	-0.11567559
183	0x3d2d0d59	0.042249057
184	0xbef94a4e	-0.48689502
185	0x3e5e6ad0	0.21720433
186	0xbf0c69eb	-0.5484912
187	0x3ef6d0eb	0.48206267
188	0xbee81a5b	-0.45332608
189	0x3da75fb6	0.08172552
190	0x3e29128b	0.1651098
191	0xbd6419c5	-0.05568864
192	0x3ed7c086	0.4213907
193	0xbf003f9b	-0.50097054
194	0x3e507fe8	0.20361292
195	0xbe8c3aaf	-0.27388522
196	0x3cd15d91	0.025557311
197	0x3e106604	0.14101416
198	0xbe52d324	-0.20588356
199	0xbe055594	-0.13020927
200	0xbe0e02be	-0.13868234
201	0x3da2cc9c	0.079491824
202	0x3deb78c4	0.114976436
203	0x3e31a341	0.17347433
204	0xbd849611	-0.064739354
205	0xbc0c99a0	-0.008581549
206	0xbebb27aa	-0.365537
207	0xbd04c53f	-0.03241467
208	0xbe1bb451	-0.15205504
209	0x3d0c048f	0.034184035
210	0xbd67d02a	-0.056595005
211	0xbdb060e0	-0.086122274
212	0x3edb69d3	0.42854175
213	0xbf26022e	-0.64847076
214	0xbe0e7bcd	-0.13914414
215	0xbe73d1e1	-0.23810531
216	0xbdbfcd1a	-0.09365292
217	0xbe12f07c	-0.1434955
218	0x3e30f91c	0.17282528
219	0xbeaee701	-0.34160617
220	0x3c93b528	0.018030718
221	0xbc003c7b	-0.00782692
222	0x3e00897d	0.12552448
223	0x3d96766e	0.073468074
224	0xbec7a438	-0.38992476
225	0x3ed77c23	0.42086896
226	0xbec2b863	-0.380313
227	0x3e24b431	0.16084363
228	0x3e6d1c5c	0.2315535
229	0xbd298729	-0.041388664
230	0xbe254676	-0.1614016
231	0xbe01f3ad	-0.12690611
232	0xbd0c1a1b	-0.034204584
233	0x3de43068	0.11142045
234	0xbe230b2e	-0.15922233
235	0xbd3d7102	-0.04625035
236	0xbe52b89b	-0.20578234
237	0xbeb47228	-0.35243344
238	0xbe90f250	-0.2830987
239	0xbe0b50cc	-0.1360504
240	0xbe4fe792	-0.20303181
241	0x3eb8545a	0.36001855
242	0xbf0aa1d8	-0.54153204
243	0x3e3e7637	0.18599783
244	0x3eb70df1	0.35752824
245	0xbed8493d	-0.42243376
246	0x3edac490	0.4272809
247	0xbdacaee3	-0.084317945
248	0x3de789ed	0.11305604
249	0xbeecf70f	-0.4628224
250	0x3e8dbfe9	0.27685478
251	0xbeb91f99	-0.3615692
252	0x3e9fe8ee	0.312324
253	0xbec671b3	-0.3875862
254	0xbe0c63c1	-0.13709928
255	0xbdcad932	-0.09904708

bias_ih_l0 f4 [64]
0	0x3e9fc453	0.3120447
1	0x3e241b8d	0.16026135
2	0xbdc93c72	-0.09825982
3	0x3e1162f6	0.14197907
4	0xbdd61343	-0.10452893
5	0xbd3c6ecf	-0.046004113
6	0xbc81dc5a	-0.015852142
7	0x3e2e2277	0.17005335
8	0x3e3764c0	0.17909527
9	0xbe644f89	-0.22295965
10	0xbebee4e7	-0.37284014
11	0x3d26680a	0.040626563
12	0x3c8e0ec3	0.017341023
13	0x3e9b574f	0.3034005
14	0x3e01c36f	0.12672208
15	0x3d9251a1	0.07144476
16	0xbd82d681	-0.063885696
17	0x3d3efecb	0.04662971
18	0x3ec63901	0.38715366
19	0x3eaad397	0.33364555
20	0x3d83f493	0.06443133
21	0x3e688b70	0.22709441
22	0x3e1a3b9f	0.15061806
23	0x3e18f1a2	0.14935926
24	0xbe02ada6	-0.12761554
25	0xbdbf1de5	-0.09331874
26	0x3eb3234c	0.34987867
27	0x3e5cadfb	0.21550743
28	0xbdb2df81	-0.08734036
29	0x3ee51d24	0.44748795
30	0x3f0b9761	0.5452786
31	0x3e00bf81	0.12573053
32	0x3c49f9c3	0.012327614
33	0x3dbd236c	0.09235272
34	0x3e558c62	0.20854333
35	0xbd1eb3d8	-0.03874573
36	0x3e8610dd	0.2618474
37	0xbc83a8a1	-0.01607162
38	0xbdb9324e	-0.09042798
39	0xbdffa4c9	-0.12482602
40	0xbc1d9625	-0.009618317
41	0x3e865f19	0.2624443
42	0x3e3566a7	0.1771494
43	0xbe7d9996	-0.2476562
44	0xbdea6207	-0.114444785
45	0x3e84df84	0.2595178
46	0xbe13ca38	-0.14432609
47	0x3e27ef98	0.16399992
48	0xbe479c7f	-0.19493292
49	0x3c1d2f95	0.009593864
50	0x3e41473a	0.18874827
51	0x3e6e80a6	0.23291263
52	0x3e26f1dd	0.16303201
53	0x3e6c9bda	0.23106328
54	0x3d042e9e	0.03227102
55	0x3e600d42	0.21880057
56	0xbe5b54fc	-0.21419138
57	0xbe1c911a	-0.15289727
58	0xbd974fe3	-0.07388284
59	0x3e043c0b	0.1291353
60	0x3cb75eef	0.022384135
61	0x3ebdaad5	0.37044397
62	0x3ca32259	0.01991384
63	0x3ea7fcc3	0.3281003

bias_hh_l0 f4 [64]
0	0x3d8ecedf	0.06973051
1	0xbcc2da13	-0.023785627
2	0xbee48c01	-0.44638065
3	0xbd81d2ec	-0.06339058
4	0x3dddae7f	0.10824298
5	0x3d89e32b	0.06732782
6	0xbe02abb4	-0.12760812
7	0x3d0eeb43	0.03489233
8	0xbb1c6bb1	-0.00238679
9	0x3cb3286f	0.021869866
10	0xbe656f31	-0.22405697
11	0xbdf37c0a	-0.11888893
12	0x3e976813	0.2957159
13	0x3dd4419b	0.10364076
14	0x3e755619	0.23958625
15	0x3dd2bb43	0.102896236
16	0xbe577def	-0.21044134
17	0xbe3130d8	-0.17303789
18	0x3db35366	0.08756141
19	0x3e0f9c92	0.1402457
20	0x3e1fc208	0.15601361
21	0x3e085ba8	0.13316214
22	0x3e1dae60	0.1539855
23	0x3ea105fb	0.31449875
24	0x3e948a67	0.29011843
25	0xbdff7796	-0.12473981
26	0x3daae4a6	0.083443925
27	0x3e4ebec3	0.20189957
28	0xbec481a3	-0.38380155
29	0x3dc4b4a2	0.096047655
30	0x3e29fd99	0.16600646
31	0x3e038690	0.128443
32	0x3c54417a	0.012955064
33	0xbdd3c153	-0.10339608
34	0x3c0acd34	0.008471776
35	0x3e9c446f	0.3052096
36	0x3e21d5a0	0.15804148
37	0xbe8a0268	-0.2695496
38	0xbd9a8806	-0.07545476
39	0xbe772bd6	-0.24137816
40	0xbdfd4e04	-0.12368396
41	0x3eae1bf0	0.3400569
42	0xbbd554f1	-0.00651037
43	0xbe87fc75	-0.26559797
44	0x3d5d83e7	0.05408087
45	0x3e9b340b	0.30313143
46	0xbe83e20d	-0.257584
47	0xbe76032e	-0.2402465
48	0xbdb606dd	-0.08888028
49	0xbc03bf1e	-0.008041171
50	0xbd0665e3	-0.03281201
51	0x38b6b9fc	8.7130786e-05
52	0x3e9c1f5a	0.3049267
53	0x3ed0ccbc	0.407812
54	0x3e2d5b3a	0.16929331
55	0x3c965bd3	0.018354332
56	0xbe801ff3	-0.25024375
57	0xbe06d105	-0.13165672
58	0xbd0869ee	-0.033304147
59	0x3ec651ed	0.3873438
60	0xbd45ecde	-0.048321597
61	0x3da15f9a	0.07879563
62	0x3eb7446b	0.35794386
63	0x3ea2c597	0.31791374

weight_hr_l0 f4 [4, 16]
0	0xbdfc8e4d	-0.12331829
1	0x3e98d1da	0.29847604
2	0x3e87d741	0.26531413
3	0x3eae773f	0.34075353
4	0x3ed4313b	0.4144381
5	0xbe5b61ea	-0.2142407
6	0xbe236cb0	-0.1595943
7	0xbcf524fe	-0.029924866
8	0xbdf21591	-0.1182052
9	0x3de5e474	0.112252146
10	0x3ec3103c	0.38098323
11	0xbde190e8	-0.11013967
12	0xbea02291	-0.31276372
13	0x3e969ca1	0.29416373
14	0xbea26807	-0.31719992
15	0xbedce284	-0.43141568
16	0x3e17b561	0.14815284
17	0xbcd44325	-0.025910923
18	0xbe64d6bc	-0.2234754
19	0x3df621c8	0.12018162
20	0xbe8c6109	-0.27417782
21	0x3d8847aa	0.06654294
22	0x3e971b78	0.29513144
23	0x3de74398	0.11292189
24	0x3e74f044	0.23919779
25	0xbe14879a	-0.14504853
26	0xbdf458a2	-0.11930968
27	0x3e90deaf	0.28294894
28	0xbd37c1a0	-0.04486239
29	0xbeec8def	-0.46202037
30	0x3dc05bc4	0.09392503
31	0x3e9c113c	0.304819
32	0xbe1b5116	-0.1516765
33	0x3ec56f8e	0.38561672
34	0x3eb7122a	0.35756046
35	0x3e8a94d6	0.27066678
36	0x37fea002	3.0353669e-05
37	0xbd52d76c	-0.051474974
38	0xbcfa2bc5	-0.030538449
39	0xbe147abf	-0.14499949
40	0xbe9846c2	-0.29741484
41	0x3c1c1962	0.009527536
42	0x3f0806e8	0.5313554
43	0xbed8cc00	-0.4234314
44	0xbeada8e0	-0.33917904
45	0xbe82c116	-0.25537938
46	0xbe8a8d91	-0.27061132
47	0x3dc1841d	0.09449027
48	0x3e0dfa5d	0.13865037
49	0xbe80852f	-0.2510161
50	0x3be6e4ba	0.0070463093
51	0xbe5a6aa1	-0.21329738
52	0xbe35d56b	-0.17757194
53	0x3e421421	0.18952991
54	0x3df91b75	0.1216344
55	0x3e9e55d0	0.30924845
56	0x3e664972	0.22488955
57	0xbe27310c	-0.16327304
58	0xbe359342	-0.17731956
59	0x3da79b81	0.08183957
60	0xbdf16367	-0.117865376
61	0xbe0c3bb7	-0.13694654
62	0x3e0fc51e	0.14040038
63	0x3d5ae23b	0.053438406

weight_ih_l1 f4 [64, 4]
0	0x3e1e34b4	0.15449792
1	0xbe9e763d	-0.30949584
2	0x3e626e3d	0.22112365
3	0xbe9d4163	-0.3071395
4	0xbd7d29e8	-0.061807543
5	0x3d93f9be	0.07225369
6	0xbd6a3850	-0.05718261
7	0x3e2a506d	0.16632243
8	0x3caa8ea7	0.020819975
9	0xbd80b36d	-0.06284223
10	0x3d9daacb	0.07698592
11	0xbe83565f	-0.25651833
12	0xbc31972f	-0.010839268
13	0x3d8ef298	0.06979865
14	0x3e39c4cb	0.18141477
15	0xbea6c23e	-0.3257007
16	0xbbb203aa	-0.0054325657
17	0xbd019018	-0.03163156
18	0xbe123486	-0.14277849
19	0xbe4de54c	-0.20107001
20	0x3de237ea	0.11045821
21	0xbda93327	-0.0826171
22	0xbe246f6e	-0.16058132
23	0xbe71e829	-0.23623718
24	0xbd91b212	-0.07114042
25	0xbe94a152	-0.29029328
26	0xbe249591	-0.1607268
27	0xbebe7366	-0.37197417
28	0xbefbc590	-0.49174166
29	0x3e5bdeb9	0.2147168
30	0xbe9283b6	-0.28616112
31	0x3e65b1ad	0.22431059
32	0x3e8167d2	0.2527452
33	0xbe940e02	-0.28916937
34	0xbe742d10	-0.23845315
35	0x3deaf368	0.11472207
36	0xbd644946	-0.05573394
37	0x3e270204	0.16309363
38	0xbebe5d2b	-0.37180457
39	0x3c9fca97	0.019505782
40	0xbe31f144	-0.17377192
41	0x3df846d6	0.12122886
42	0xbf128c8d	-0.57245713
43	0x3ecd6d2f	0.40122363
44	0x3e727fa6	0.23681507
45	0xbe4ce7b8	-0.20010269
46	0x3e15dc43	0.14634804
47	0xbd8ae33c	-0.06781623
48	0xbe8ccee7	-0.27501604
49	0xbd20b3b3	-0.039233875
50	0xbeba404a	-0.36377174
51	0x3e1564c2	0.14589217
52	0x3eb7793b	0.3583468
53	0xbdcde3bc	-0.100532025
54	0x3e97ce4b	0.29649577
55	0xbe8d2f4c	-0.27575147
56	0xbd14a4d9	-0.036290023
57	0xbe8faf61	-0.2806349
58	0x3e77f61e	0.2421498
59	0x3dc3d3a6	0.09561853
60	0xbe6d48af	-0.23172258
61	0x3e6e6c5b	0.23283522
62	0xbea3f34c	-0.32021558
63	0x3ea1aa13	0.3157507
64	0x3ec43efd	0.38329306
65	0xbeb84ee0	-0.35997677
66	0x3d806443	0.062691234
67	0xbe95869f	-0.2920427
68	0x3dd96552	0.106150284
69	0xbe4c1489	-0.19929709
70	0xbe91d23c	-0.2848071
71	0xbd17d246	-0.037065767
72	0x3ec55dd1	0.3854814
73	0xbf28165e	-0.6565913
74	0x3ec2101d	0.37902918
75	0xbe4e549c	-0.20149463
76	0x3ed64a0d	0.4185337
77	0xbea931a3	-0.33045682
78	0xbd5efdb3	-0.054441165
79	0x3dbf9be7	0.09355908
80	0x3e64a879	0.22329892
81	0xbe81d100	-0.25354767
82	0xbe2ec013	-0.17065458
83	0xbd26d377	-0.040729012
84	0xbd295e0c	-0.041349456
85	0xbea08a8d	-0.31355706
86	0xbd18449a	-0.0371748
87	0xbe50319e	-0.20331427
88	0x3e0d2253	0.13782625
89	0xbf18037c	-0.59380317
90	0x3e4d2f1c	0.20037502
91	0xbdf66667	-0.120312504
92	0xbebb923c	-0.36635005
93	0x3dec6459	0.11542577
94	0xbf1eba5b	-0.62003106
95	0x3ebc6eec	0.36803377
96	0x3cce020b	0.025147459
97	0x3b0a6ffe	0.0021123881
98	0x3e557f95	0.2084945
99	0xbde59b13	-0.11211219
100	0xbe24d108	-0.16095364
101	0xbe216ec9	-0.15764917
102	0xbca0b09c	-0.019615464
103	0xbe0065a3	-0.12538771
104	0xbe388b90	-0.18021989
105	0x3d3b8a09	0.045785937
106	0xbf172f17	-0.5905623
107	0x3d9eac5c	0.07747719
108	0x3e735c4c	0.23765677
109	0xbe915ea1	-0.2839251
110	0x3e17f277	0.14838587
111	0xbe26fef3	-0.16308193
112	0xbeb030ff	-0.3441238
113	0xbe83d84d	-0.25750962
114	0xbee3e214	-0.4450842
115	0xbe0bb173	-0.1364191
116	0x3e05ac7b	0.13054077
117	0xbe49ba34	-0.19699937
118	0x3c6e2557	0.01453527
119	0xbd5bbbd1	-0.053645913
120	0x3ccf49d3	0.025303757
121	0xbf04c8f3	-0.51869124
122	0x3e3c4a2f	0.18387674
123	0xbe99235e	-0.29909796
124	0xbe80dea3	-0.25169858
125	0x3eb3ac35	0.3509232
126	0xbf2c8023	-0.6738302
127	0x3e7c46c6	0.24636373
128	0xbe149930	-0.14511561
129	0x3ecfa427	0.40554926
130	0x3db40c96	0.08791463
131	0x3e89a7cc	0.2688583
132	0xbd6c3931	-0.05767173
133	0x3ea13e87	0.31493017
134	0xbe7ff122	-0.24994329
135	0x3e008946	0.12552366
136	0xbea5a1fe	-0.32350153
137	0x3e952c5d	0.2913541
138	0x3db25033	0.08706703
139	0x3c4b0ef8	0.012393706
140	0x3e098d34	0.13432771
141	0xbe3a489c	-0.18191761
142	0x3dea1da4	0.11431435
143	0xbe93b94d	-0.2885231
144	0x3ebd4a77	0.36970875
145	0xbdce3b08	-0.10069853
146	0x3ec55feb	0.38549742
147	0x3dbac47f	0.0911951
148	0xbe7ac4c9	-0.2448913
149	0x3df2b376	0.11850636
150	0xbdd4c244	-0.10388616
151	0x3e743788	0.23849308
152	0xbeaf0048	-0.34179902
153	0x3e9780ab	0.29590353
154	0x3dd5cb68	0.10439187
155	0x3d7a2818	0.061073393
156	0xbdce0d60	-0.10061145
157	0xbe4413ce	-0.1914818
158	0xbee74ec3	-0.45177278
159	0x3e8ae219	0.27125624
160	0x3e399540	0.1812334
161	0xbd74e43f	-0.059787985
162	0x3e2097ef	0.15682958
163	0xbe44c5ac	-0.19216031
164	0x3d380dec	0.044935152
165	0xbeb4ec31	-0.3533645
166	0x3e948973	0.29011115
167	0xbebab5e8	-0.36466908
168	0x3c94f649	0.018183844
169	0xbdaeb828	-0.08531219
170	0xbf15d61f	-0.5852985
171	0x3c2d3676	0.0105720665
172	0x3dd40416	0.10352342
173	0xbce3e54d	-0.0278193
174	0xbdc9340a	-0.09824379
175	0xbe1b7abc	-0.15183538
176	0xbe70c0f4	-0.23511106
177	0xbcb75ec3	-0.022384053
178	0xbe7a7efd	-0.24462505
179	0x3cef5308	0.029214397
180	0x3e814f57	0.25255844
181	0xbe87fd85	-0.26560608
182	0xbe0c969d	-0.1372933
183	0xbacc32a4	-0.0015579057
184	0x3e967919	0.29389265
185	0xbe1fac7e	-0.15593144
186	0x3c1c2e28	0.009532489
187	0x3c686584	0.014184359
188	0xbeca0727	-0.39458582
189	0xbd157379	-0.036487076
190	0xbe3fb8d5	-0.18722852
191	0x3d8df73b	0.06931921
192	0x3ed95107	0.4244463
193	0xbef90a15	-0.48640504
194	0x3e98e51f	0.29862306
195	0xbe82a218	-0.25514293
196	0xbe27baaf	-0.16379808
197	0xbe99cbf9	-0.3003843
198	0xbebf51df	-0.3736715
199	0x3e352d33	0.17693023
200	0x3e09983c	0.13436979
201	0xbe373a44	-0.1789332
202	0xbd597879	-0.053093407
203	0xbe518836	-0.20462117
204	0x3e9e72b2	0.3094688
205	0xbed906fa	-0.42388135
206	0x3e814608	0.25248742
207	0xbecb2e70	-0.39683867
208	0x3e363d61	0.17796852
209	0xbdb012b8	-0.0859732
210	0xbe0d1786	-0.13778505
211	0x3dc7e443	0.09760334
212	0x3c18a852	0.009317474
213	0xbe5f93a9	-0.21833672
214	0x3e54b89d	0.2077355
215	0xbe993988	-0.29926705
216	0x3e6cd4e4	0.23128086
217	0xbecbc30d	-0.3979725
218	0x3dceb5c8	0.10093266
219	0xbe115b2d	-0.14194937
220	0xbf11e944	-0.5699656
221	0x3f20f48e	0.6287316
222	0xbf23568a	-0.63803923
223	0x3ea07376	0.3133809
224	0xbad47137	-0.0016208057
225	0xbe5c1eb9	-0.21496095
226	0x3eb39b53	0.3507944
227	0xbebd2b8c	-0.36947286
228	0xbe2ecfa8	-0.17071402
229	0xbcf227fe	-0.029560085
230	0xbdeef401	-0.11667634
231	0xbea183e9	-0.31545952
232	0xbf38595d	-0.7201136
233	0x3ecb3c34	0.3969437
234	0xbf4a14a6	-0.78937757
235	0x3efdd350	0.4957528
236	0x3e4ca7e1	0.19985916
237	0xbe829755	-0.25506082
238	0x3e3b1814	0.18270904
239	0xbd2be001	-0.041961674
240	0xbe610321	-0.2197385
241	0x3ca958b2	0.020672176
242	0xbf1c4854	-0.61047864
243	0xbd4c1b78	-0.049830884
244	0x3ed80a96	0.42195576
245	0xbe6ea37e	-0.23304555
246	0x3e64f048	0.22357285
247	0xbe9daab8	-0.3079431
248	0x3ed424fc	0.41434467
249	0xbe632873	-0.22183399
250	0xbe087dbd	-0.13329215
251	0xbead16ff	-0.33806607
252	0xbebdb043	-0.3704854
253	0x3f17c25c	0.59280944
254	0xbf06b236	-0.5261568
255	0x3ed5b01b	0.4173592

weight_hh_l1 f4 [64, 4]
0	0xbf0a4f85	-0.5402759
1	0xbe84b93a	-0.25922567
2	0xbed88f22	-0.42296702
3	0x3e978f7b	0.29601654
4	0x3d48d2b6	0.049029075
5	0xbe89ef99	-0.2694061
6	0xbe5201bc	-0.20508474
7	0x3d304a49	0.043039594
8	0xbf1ad0ea	-0.6047503
9	0xbe834321	-0.25637153
10	0xbf0dfdf3	-0.5546562
11	0x3e43ad21	0.19109012
12	0xbe7335d1	-0.23750998
13	0xbe46e921	-0.19424869
14	0xbd65e354	-0.056125
15	0xbe611250	-0.21979642
16	0x3c469b5f	0.012122004
17	0xbdef2862	-0.11677624
18	0x3dd9b273	0.106297396
19	0xbe48d241	-0.19611456
20	0xbeb5201a	-0.35376054
21	0x3e2f820d	0.17139454
22	0xbe5edae7	-0.21763192
23	0x3dce5fe8	0.100768864
24	0xbe8b1ec7	-0.2717192
25	0xbf19906e	-0.5998601
26	0xbec3a412	-0.38211113
27	0x3ee5b911	0.44867757
28	0xbe1272ca	-0.14301601
29	0xbeb0f392	-0.3456083
30	0xbdd40f38	-0.10354465
31	0x3d56b1e4	0.052415743
32	0xbd695042	-0.056961305
33	0x3d519c4d	0.05117445
34	0xbe176602	-0.14785007
35	0xbdd4259c	-0.10358736
36	0xbed93c73	-0.42428932
37	0xbda0dde3	-0.078548215
38	0xbe7c18f1	-0.2461889
39	0xbc9f441d	-0.019441659
40	0xbe99ad1f	-0.30014893
41	0xbd6619b5	-0.05617686
42	0x3e4d23f5	0.20033248
43	0x3d713786	0.058890842
44	0xbe512dfa	-0.20427695
45	0xbe3d3efa	-0.18481055
46	0x3e51ce92	0.20488957
47	0xbdefe5d9	-0.11713762
48	0xbdaed0ca	-0.08535917
49	0xbe9e7e0c	-0.3095554
50	0x3d81a4fa	0.06330295
51	0x3d37bb5d	0.044856418
52	0xbd94b472	-0.0726098
53	0xbe815a8b	-0.2526439
54	0xbdd919e8	-0.10600644
55	0x3e03666e	0.12832043
56	0xbea62319	-0.32448652
57	0xbe036d0f	-0.12834571
58	0xbdca18de	-0.09868024
59	0xbdf51712	-0.11967291
60	0xbd976059	-0.07391424
61	0xbe107e58	-0.14110696
62	0xbeb84b95	-0.35995165
63	0x3ced461b	0.028964093
64	0x3d17e025	0.037078995
65	0xbdf240fc	-0.11828801
66	0x3d44e289	0.048067603
67	0xbdffba20	-0.124866724
68	0xbd971460	-0.07376933
69	0x3c5aac72	0.013346778
70	0x3e3b7fd8	0.18310487
71	0x3cbf596c	0.02335807
72	0xbb177fe9	-0.0023117012
73	0xbe1ab51f	-0.15108155
74	0xbe86f1a2	-0.26356226
75	0x3e3dbd51	0.1852925
76	0x3e433ec0	0.19066906
77	0xbde804e3	-0.11329057
78	0xbe6e4898	-0.2326988
79	0x3e1383e9	0.14405788
80	0xbe4a8d40	-0.19780445
81	0x3dd5d21f	0.10440468
82	0x3d9740f0	0.07385433
83	0xbea554d4	-0.3229128
84	0xbe5557b8	-0.20834243
85	0x3de3c3fd	0.11121366
86	0xbd74533e	-0.0596497
87	0xbd8ada3e	-0.06779908
88	0xbe26e890	-0.16299653
89	0x3bbc0563	0.005737947
90	0xbe96231d	-0.29323664
91	0x3e9dabdd	0.30795184
92	0xbcf26e43	-0.029593593
93	0x3e0a6a8f	0.13517211
94	0xbddbf1c6	-0.10739474
95	0xbe5b961d	-0.21443982
96	0x3e53e765	0.20693739
97	0xbe42d036	-0.19024739
98	0xbe2f5806	-0.17123422
99	0x3e13b591	0.14424731
100	0x3e832483	0.25613794
101	0x3e8c2b82	0.27376944
102	0xbcd236c2	-0.025660876
103	0xbe8484b2	-0.25882488
104	0xbca5852c	-0.020205103
105	0x3e2d9d26	0.16954479
106	0x3ec8433d	0.391138
107	0xbd982303	-0.07428553
108	0x3dbbd434	0.09171334
109	0x3e0ad094	0.13556129
110	0x3d668be0	0.05628574
111	0xbe047bc3	-0.12937836
112	0xbd712357	-0.058871593
113	0x3d5853b7	0.05281421
114	0x3dd5a213	0.10431304
115	0xbda0b0f8	-0.07846254
116	0x3d4292e3	0.047503363
117	0xbc9fc8c2	-0.019504908
118	0x3e54f79c	0.2079758
119	0x3e31bada	0.17356434
120	0x3bc4b79a	0.0060033323
121	0xbd5bceb3	-0.05366392
122	0xbd834969	-0.06410486
123	0xbc76a25f	-0.015053361
124	0x3e434208	0.19068158
125	0x3c9fdc05	0.019514093
126	0x3e160e91	0.14653994
127	0xbd3369f6	-0.043802224
128	0x3dfb7b37	0.12279361
129	0xbe6b57e7	-0.22982751
130	0x3b8f0b2c	0.0043653455
131	0x3e8a8f40	0.27062416
132	0x3e04f6d5	0.12984784
133	0xbe2dcb01	-0.16971971
134	0x3e0fc982	0.14041713
135	0xbd1a64e5	-0.037693877
136	0x3d9e1528	0.07718879
137	0xbe3f85be	-0.18703362
138	0xbb99075d	-0.004670067
139	0x3e8ee810	0.27911425
140	0x3c032e2d	0.008006615
141	0x3e5f514e	0.21808359
142	0x3cc0d0aa	0.023536999
143	0xbdb37eb6	-0.087644026
144	0x3db91d87	0.09038835
145	0x3e2e491a	0.17020074
146	0xbe0181d3	-0.1264718
147	0xbb52ad53	-0.0032146766
148	0x3c3570ed	0.011074287
149	0x3dde4ea2	0.10854842
150	0xbe7a5684	-0.24447066
151	0xbdaf36d5	-0.0855538
152	0x3d7e73d8	0.062122196
153	0x3e46a844	0.19400126
154	0xbe71f104	-0.23627096
155	0x3e89621c	0.26832664
156	0x3db76fcd	0.08956871
157	0xbe5883e0	-0.21144056
158	0xbe7ed37b	-0.24885361
159	0x3e660b83	0.22465329
160	0x3d78fe52	0.060789414
161	0x3e1c0724	0.15237099
162	0xbe596a25	-0.21231897
163	0xbe420ef3	-0.18951015
164	0x3d831688	0.06400782
165	0x3cebcd09	0.028784292
166	0xbcb14217	-0.02163796
167	0xbdef1a13	-0.11674895
168	0xbeac2e81	-0.3362923
169	0xbeafa50b	-0.34305605
170	0x3da03eef	0.07824504
171	0xbe09257f	-0.1339321
172	0x3d332384	0.043735042
173	0x3da5b4cf	0.08091127
174	0xbd96806d	-0.07348714
175	0x3e0f89a6	0.14017352
176	0x3ba33dda	0.0049817385
177	0x3d7e0298	0.062014192
178	0x3dd78f39	0.105253644
179	0x3c4f7ef7	0.012664548
180	0x3c44ce00	0.012012005
181	0x3c82da5e	0.015973266
182	0x3dc00b16	0.093771145
183	0xbe9b4083	-0.30322656
184	0x3e47616a	0.19470754
185	0x3dd2871e	0.10279678
186	0xbd900e51	-0.07033981
187	0x3e2de5f7	0.16982256
188	0xbe94144d	-0.28921738
189	0xbd560855	-0.05225404
190	0xbd6b331b	-0.057421785
191	0x3e8d5815	0.27606264
192	0xbe6182ae	-0.22022507
193	0xbe56a62e	-0.2096183
194	0xbef1d013	-0.4722906
195	0x3da5d743	0.080976985
196	0xbe448780	-0.19192314
197	0x3d7643e9	0.060123358
198	0xbe942938	-0.28937697
199	0x3e89a767	0.2688553
200	0xbee6d480	-0.45084
201	0xbf12c38e	-0.5732964
202	0xbebf06c5	-0.37309852
203	0x3ec1a732	0.37822872
204	0x3d59fd5c	0.053220138
205	0xbdf4e7b8	-0.11958259
206	0xbe01863d	-0.12648864
207	0xbd14df5f	-0.036345836
208	0xbeaef77b	-0.34173188
209	0xbde7a63e	-0.11311005
210	0x3e19ea87	0.15030871
211	0xbe37eddf	-0.17961834
212	0xbe8b2e33	-0.27183685
213	0xbe0ea497	-0.13929974
214	0xbe4ee36f	-0.20203947
215	0xbe0494f3	-0.12947445
216	0xbf103f49	-0.56346565
217	0xbf143532	-0.5789367
218	0xbe3636f2	-0.17794397
219	0x3e63e58b	0.22255532
220	0x3d9bc865	0.076065816
221	0x3e008d14	0.12553817
222	0xbe1105f8	-0.14162433
223	0xbdc77d19	-0.09740657
224	0xbebc48ba	-0.36774236
225	0xbc8dd340	-0.017312646
226	0x3ddd80b2	0.10815562
227	0xbe0e42b0	-0.13892627
228	0xbeb10158	-0.34571338
229	0x3e18eab8	0.14933288
230	0xbd18fb1c	-0.03734885
231	0x3cf2b72a	0.029628355
232	0x3e2621f8	0.16223896
233	0x3d055183	0.03254844
234	0x3eaa3a11	0.33247426
235	0x3bdf53ed	0.0068154247
236	0xbe480eb8	-0.19536865
237	0xbe84da39	-0.2594774
238	0x3d8e5400	0.069496155
239	0x3e0e80c1	0.13916303
240	0xbe2ecd39	-0.17070474
241	0xbdbcc568	-0.0921734
242	0xbdf852af	-0.12125146
243	0xbd809fed	-0.062805034
244	0xbe7cca56	-0.2468656
245	0xbe4fd755	-0.20296986
246	0xbcc5bbcb	-0.024137398
247	0x3e888803	0.2666627
248	0xbea4efb6	-0.32214135
249	0x3dfe5d9c	0.12420198
250	0xbe95d0b0	-0.29260778
251	0x3d8ad4fa	0.06778903
252	0x3d00b298	0.03142032
253	0xbd061d78	-0.032742947
254	0x3e71b6a4	0.23604828
255	0xbbfd1061	-0.0077229

bias_ih_l1 f4 [64]
0	0x3e42a76b	0.19009177
1	0x3e8ad4fd	0.27115622
2	0x3e013894	0.12619239
3	0x3e786ef8	0.24261081
4	0x3db61732	0.08891143
5	0x3d9f10df	0.0776689
6	0xbd9a97ce	-0.07548486
7	0x3ebeb388	0.37246346
8	0x3e9eb848	0.3099997
9	0x3e6b4b7b	0.22978012
10	0x3eb00379	0.3437765
11	0x3dbffabb	0.09373995
12	0x3e128988	0.14310277
13	0x3e2691a9	0.16266502
14	0x3b934393	0.0044941395
15	0x3d8215fe	0.06351851
16	0xbcb2d24e	-0.021828797
17	0xbd11e592	-0.035619326
18	0x3e17b518	0.14815176
19	0xbc08ce95	-0.008350034
20	0x3d4c9e17	0.049955454
21	0xbd9523d7	-0.072822265
22	0xbe58975a	-0.21151486
23	0x3d863631	0.06553305
24	0x3df37348	0.118872225
25	0x3e3b8d8e	0.18315718
26	0xbe10afa6	-0.14129505
27	0x3e09e184	0.13464934
28	0xbdbe6aaa	-0.09297688
29	0x3da7ca0d	0.08192835
30	0xbe2a52fb	-0.16633217
31	0x3de45a12	0.11149992
32	0x3e4dfcbc	0.20115942
33	0x3db79aad	0.08965049
34	0x3e83db5c	0.25753295
35	0x3e1182fc	0.14210123
36	0xbd79fe83	-0.061033737
37	0x3e48ccdb	0.19609396
38	0x3e3d3cf8	0.18480289
39	0x3de7d636	0.11320154
40	0x3cfb25bc	0.030657642
41	0xbc58e583	-0.013238314
42	0x3d41c88d	0.0473104
43	0x3e215049	0.15753283
44	0xbd65935d	-0.05604874
45	0x3e5059bc	0.20346731
46	0xbce6e8da	-0.028187204
47	0x3e1bb806	0.15206918
48	0x3d58302b	0.05278031
49	0x3e90d8e5	0.28290477
50	0x3ed2bad5	0.41158167
51	0x3cb21dec	0.021742783
52	0x3e91b55c	0.2845868
53	0x3ea679f0	0.32514906
54	0x3e837666	0.25676268
55	0xbd888d3e	-0.06667565
56	0x3eacb571	0.3373218
57	0x3ee1f97d	0.44135657
58	0xbde8330b	-0.11337861
59	0x3e1d24e8	0.1534611
60	0x3e88171b	0.26580128
61	0x3e5baf91	0.21453692
62	0xbe01dd0f	-0.12681983
63	0xbd86202b	-0.06549104

bias_hh_l1 f4 [64]
0	0x3da34b30	0.07973325
1	0xbda5c89b	-0.08094903
2	0x3da4c4a3	0.08045318
3	0x3e032c83	0.12809949
4	0x3ed41309	0.41420773
5	0x3d6f603c	0.058441386
6	0x3e290850	0.16507077
7	0x3df1de6b	0.11810001
8	0x3dd4a1d0	0.10382426
9	0x3ea5e5ba	0.3240183
10	0x3c1a5fd4	0.009422261
11	0x3e3bbfa1	0.1833482
12	0x3d102e4a	0.035200395
13	0xbe36c7e6	-0.17849693
14	0xbd33bf09	-0.043883357
15	0xbdb9ce20	-0.09072518
16	0xbe1cfe56	-0.15331396
17	0x3db9f158	0.09079236
18	0x3d78d51f	0.060750123
19	0x3cfdbc2f	0.030973522
20	0xbe40b965	-0.18820722
21	0x3d1651a2	0.036698945
22	0x3e1cfbd2	0.15330437
23	0xbdb2a46d	-0.08722768
24	0xbe2ac03e	-0.16674897
25	0xbe561c22	-0.2090917
26	0x3ea6cb28	0.3257687
27	0xbe2d586e	-0.16928264
28	0xbd8c4f82	-0.068511024
29	0x3d8e240f	0.069404714
30	0x3bf57206	0.0074903993
31	0x3c7ec490	0.015549794
32	0xbe2f65ab	-0.17128627
33	0x3d5704e4	0.0524949
34	0xbe4184f3	-0.18898372
35	0x3de72d83	0.112879775
36	0x3e2078af	0.15671037
37	0xbe579c47	-0.21055709
38	0xbdce1373	-0.100623034
39	0x3e3736fd	0.1789207
40	0x3e2349b6	0.15946087
41	0xbd8c4b0a	-0.0685025
42	0x3e05b652	0.13057831
43	0x3e5e0ee5	0.2168537
44	0x3e5fb2e3	0.21845584
45	0x3d84e53f	0.06489038
46	0x3e535b5a	0.20640317
47	0x3e37acb5	0.17936976
48	0x3eaa9088	0.33313394
49	0x3dd281b7	0.102786474
50	0x3e10bdfa	0.1413497
51	0xbdc9af7f	-0.09847926
52	0x3e847c03	0.25875863
53	0x3e563fdb	0.20922796
54	0x3da008b9	0.07814164
55	0xbd6ec8ff	-0.058297154
56	0x3dbda6be	0.09260319
57	0x3e72fd93	0.23729543
58	0xbbfabc83	-0.007651867
59	0x3e1a4f1a	0.15069237
60	0x3d82ad38	0.06380695
61	0x3e9ec807	0.31011984
62	0xbe0827b8	-0.13296402
63	0x3d0f0b95	0.034923155

weight_hr_l1 f4 [4, 16]
0	0x3e373fd8	0.17895448
1	0x3d43981d	0.04775249
2	0x3eee24c7	0.46512434
3	0xbda5ae21	-0.08089853
4	0xbe5142d9	-0.20435657
5	0x3e77cff2	0.24200419
6	0x3ef8261f	0.48466584
7	0x3ec73cff	0.38913724
8	0xbe8b6db6	-0.2723214
9	0x3d85b251	0.06528152
10	0xbcf573ce	-0.029962447
11	0xbd87d409	-0.06632239
12	0x3dc1b66c	0.09458622
13	0xbebc0128	-0.36719632
14	0xbe990a79	-0.29890803
15	0x3ca26e5f	0.01982802
16	0x3ee82522	0.4534083
17	0x3e9e2494	0.30887282
18	0x3ed3f6f1	0.4139934
19	0xbd993058	-0.07479924
20	0xbdec169c	-0.1152775
21	0xbaf7fd33	-0.0018920064
22	0x3e904a65	0.2818176
23	0x3ee45935	0.4459931
24	0xbe2b9b72	-0.16758516
25	0xbe9a34dc	-0.30118454
26	0x3e32a9df	0.17447613
27	0xbd18c9e3	-0.03730191
28	0x3c9ee5d7	0.019396706
29	0xbe965d32	-0.29367977
30	0xbebfe7e3	-0.37481603
31	0x3ec98757	0.3936107
32	0x3e95d174	0.29261363
33	0x3c7d128b	0.0154463155
34	0x3e33f92d	0.17575522
35	0xbe374e2a	-0.17900911
36	0xbedeeaaf	-0.43538424
37	0x3e6c93e9	0.23103298
38	0x3ef47260	0.4774351
39	0x3ea298a5	0.31757084
40	0xbe50fc86	-0.2040883
41	0xbe29c131	-0.16577603
42	0x3ea20acf	0.3164887
43	0xbe7f7981	-0.24948694
44	0x3e14a17f	0.14514731
45	0xbe6a9393	-0.22907858
46	0xbe9d5d05	-0.3073503
47	0x3eb146e1	0.3462439
48	0xbec59792	-0.385922
49	0xbe680465	-0.22657926
50	0xbe0bfcc7	-0.13670646
51	0x3eb69d4a	0.35666877
52	0x3f0ee7ef	0.5582265
53	0xbd799b1e	-0.060938947
54	0xbeea2d81	-0.45737842
55	0xbf0b3975	-0.5438455
56	0x3eaa5400	0.33267212
57	0x3ed66ded	0.41880742
58	0xbea40de4	-0.32041848
59	0xbd1cc9e0	-0.03827846
60	0xbe546b46	-0.20744047
61	0x3de72304	0.112859756
62	0x3e96c0b5	0.294439
63	0xbefd47b4	-0.49468768

weight_ih_l2 f4 [64, 4]
0	0xbe774175	-0.24146064
1	0x3dd99d97	0.10625761
2	0xbeab16c1	-0.33415797
3	0xbe23595d	-0.15952058
4	0x3d83c942	0.06434871
5	0xbdb37865	-0.08763198
6	0x3be232af	0.0069030146
7	0xbd5833d1	-0.05278379
8	0x3e4434db	0.19160788
9	0xbe1b5eac	-0.15172833
10	0xbd907e3a	-0.07055326
11	0xbe866695	-0.2625014
12	0x3d86c58e	0.06580649
13	0xbd16417e	-0.036683552
14	0x3ea7a7e5	0.3274528
15	0xbe1b3adb	-0.1515917
16	0x3dd90bdd	0.10597966
17	0x3e590ba9	0.21195854
18	0xbe5a73f9	-0.21333303
19	0x3cf9f087	0.0305102
20	0xbe6fe886	-0.23428544
21	0x3d7dd697	0.061972227
22	0x3e5afad9	0.21384753
23	0xbe604c0b	-0.21904008
24	0x3e3686de	0.17824885
25	0x3e2b949a	0.16755906
26	0x3e54ba7c	0.20774263
27	0xbe374c4f	-0.17900203
28	0x3e69ff77	0.22851358
29	0x3e6dde2f	0.23229288
30	0x3c89b31f	0.016809044
31	0xbdb10969	-0.08644373
32	0x3bffebee	0.0078101074
33	0xbd8f5ff7	-0.07000726
34	0xbcda38da	-0.026638437
35	0xbe4e4144	-0.20142084
36	0xbea53e5d	-0.32274142
37	0xbe62e4ff	-0.22157668
38	0xbe957a1e	-0.2919473
39	0xbcb73cc0	-0.022367835
40	0xbe2a1244	-0.1660853
41	0x3e7e1937	0.24814306
42	0x3e5d5649	0.21614946
43	0xbce30993	-0.027714526
44	0x3eb889a2	0.36042506
45	0x3e3cb42d	0.18428107
46	0x3ed5e3b9	0.417753
47	0xbeaa0a64	-0.33211052
48	0xbdfa50b5	-0.12222425
49	0x3db6b2b5	0.089208044
50	0xbe0a3e89	-0.13500418
51	0x3dc114ba	0.094277814
52	0xbd793a80	-0.060846806
53	0x3df4499d	0.11928103
54	0xbe3b8063	-0.18310694
55	0x3e3a7690	0.1820929
56	0xbe3154c7	-0.17317496
57	0x3e3b97f9	0.18319692
58	0x3e79cc7c	0.24394411
59	0xbe05e3c1	-0.13075162
60	0xbe794cfc	-0.24345773
61	0xbdff8699	-0.12476844
62	0xbc56c03c	-0.013107356
63	0x3c9acf9d	0.018897826
64	0xbe7065cd	-0.23476334
65	0xbe655c58	-0.22398508
66	0xbe8b10a6	-0.2716114
67	0x3e6dff37	0.23241888
68	0xbef828fa	-0.48468763
69	0xbef8f29b	-0.48622593
70	0xbea4a5da	-0.32157785
71	0x3edd626c	0.43239152
72	0xbebf4d98	-0.37363887
73	0xbde77d6e	-0.11303221
74	0xbe3554db	-0.17708151
75	0x3c8d572e	0.017253485
76	0x3e4ed829	0.20199646
77	0x3ec9f10d	0.3944172
78	0x3db41a50	0.08794081
79	0x3c344a7b	0.011004086
80	0xbd97b361	-0.07407261
81	0xbe217976	-0.1576899
82	0xbde22ddf	-0.110439055
83	0x3e45fe56	0.19335303
84	0xbd5bb86e	-0.053642683
85	0xbdccb4ad	-0.09995399
86	0xbe1c6288	-0.15271962
87	0xbd3f3d22	-0.04668916
88	0xbec94a87	-0.39314672
89	0xbee445a3	-0.4458438
90	0xbef21724	-0.4728328
91	0x3ef290c3	0.4737607
92	0xbd2fc1fd	-0.04290961
93	0x3e9ff3d4	0.31240714
94	0x3d1ee04c	0.038788125
95	0xbedc806a	-0.43066722
96	0xbe954391	-0.29153112
97	0x3db7581d	0.08952353
98	0xbe87caff	-0.2652206
99	0x3df0594d	0.11735783
100	0xbe96b3b7	-0.29433987
101	0xbe615b40	-0.22007465
102	0xbc8659a6	-0.01640017
103	0x3e06e77f	0.13174246
104	0xbe3cb43a	-0.18428126
105	0xbee042f8	-0.43801093
106	0xbe07a9be	-0.13248345
107	0x3e6b4918	0.22977102
108	0x3e1961f2	0.1497877
109	0x3f01dc96	0.5072721
110	0x3ea41bf8	0.32052588
111	0xbf0f0fa1	-0.5588322
112	0x3d39e502	0.045384414
113	0xbe80e7e7	-0.25176927
114	0x3b0090f9	0.001961766
115	0x3dd6a927	0.10481482
116	0x3d63a950	0.05558139
117	0xbe965337	-0.29360363
118	0xbd0d54f6	-0.034504853
119	0x3ee59dfb	0.44847092
120	0x3eb91a3d	0.3615283
121	0x3f182852	0.59436524
122	0x3f14b694	0.5809109
123	0xbe2e9b32	-0.1705139
124	0xbea4b9c5	-0.3217298
125	0x3b9aad77	0.0047203857
126	0x3d356588	0.04428628
127	0x3cffab6c	0.03120967
128	0x3e935727	0.2877743
129	0x3d692d00	0.05692768
130	0x3ec6aa70	0.38801908
131	0xbe1d6d3f	-0.15373705
132	0x3e43d988	0.1912595
133	0xbe428087	-0.18994342
134	0x3ea653cd	0.3248581
135	0xbea9b61e	-0.33146757
136	0x3e5f416a	0.21802297
137	0x3e993cec	0.29929292
138	0x3de88d43	0.113550685
139	0xbed7d9ca	-0.42158347
140	0x3e6d4149	0.23169436
141	0x3e6954cc	0.22786254
142	0x3b3a0e6e	0.0028389948
143	0x3c2f5050	0.0107003
144	0xbd007a5f	-0.031366702
145	0xbe88a3d6	-0.26687497
146	0xbe9a8d30	-0.30185843
147	0x3eb6071c	0.355523
148	0x3eedc7a8	0.46441388
149	0x3de12047	0.109924845
150	0x3e5841b3	0.21118812
151	0xbebc035d	-0.36721316
152	0xbe8f7d1b	-0.28025135
153	0xbed3b3d0	-0.41348124
154	0xbed9c3e1	-0.42532256
155	0x3d8bcf83	0.06826689
156	0x3e3bd6d8	0.18343675
157	0x3ca3abf8	0.019979462
158	0x3dde72e3	0.10861757
159	0xbdf4ebc5	-0.11959032
160	0xbeb30dc5	-0.34971443
161	0xbe63fa0d	-0.22263356
162	0xbec111c7	-0.37708876
163	0x3eb7f135	0.35926214
164	0x3e8c9122	0.27454478
165	0x3d8f1f94	0.06988445
166	0x3cf02665	0.029315183
167	0xbe3619bc	-0.17783254
168	0x3dafe462	0.085884824
169	0x3e9679d9	0.29389837
170	0x3efa4b39	0.48885515
171	0xbeabdcda	-0.33566934
172	0xbdee0731	-0.116224654
173	0xbd1df7b6	-0.038566314
174	0xbeb98826	-0.36236686
175	0x3e1b5c83	0.15172009
176	0xbe986dce	-0.29771274
177	0xbe1038bf	-0.14084147
178	0xbe63bdcc	-0.2224037
179	0x3e2da533	0.1695755
180	0xbe857c45	-0.26071373
181	0xbddf8226	-0.10913496
182	0xbec7b951	-0.39008573
183	0x3e8c8b98	0.27450252
184	0x3e46913f	0.19391344
185	0x3edb4c36	0.42831582
186	0x3e29eeba	0.16594973
187	0xbe124cc2	-0.14287093
188	0x3eb1886b	0.3467439
189	0x3ec95eb1	0.39330056
190	0x3ea7fc5f	0.3280973
191	0xbea9949e	-0.33121198
192	0xbeb687a2	-0.35650355
193	0xbeea8ea0	-0.4581194
194	0xbf025c96	-0.50922525
195	0x3e047bf6	0.12937912
196	0xbe96692a	-0.2937711
197	0xbf0ea91d	-0.55726796
198	0xbe6a8c60	-0.22905111
199	0x3e1cad18	0.15300405
200	0xb8958517	-7.1296636e-05
201	0xbdd7969d	-0.10526774
202	0xbc991aa0	-0.018689454
203	0xbe822022	-0.2541514
204	0x3d89e398	0.06732863
205	0x3f170628	0.5899377
206	0x3e2f1471	0.17097642
207	0xbe913da8	-0.28367352
208	0xbe837e49	-0.25682285
209	0x3b1249e9	0.0022321886
210	0xbe1d6296	-0.15369639
211	0xbe19922a	-0.14997163
212	0xbd0d5e2b	-0.034513634
213	0xbe42ed87	-0.19035922
214	0x3e336e8a	0.17522636
215	0xbe635a45	-0.22202404
216	0xbee6f25b	-0.45106778
217	0xbf02c099	-0.5107513
218	0xbe9bb978	-0.3041494
219	0x3e717840	0.23581028
220	0x3e7e28d7	0.24820267
221	0x3ef814b3	0.48453292
222	0x3e8f539f	0.27993485
223	0xbefec6c2	-0.49761015
224	0xbecce47b	-0.40018067
225	0x3e68e443	0.22743325
226	0x3c1c6a3a	0.009546811
227	0xbe881c10	-0.2658391
228	0xbdf70773	-0.12061968
229	0xbef3bc7f	-0.4760475
230	0xbe4e8418	-0.20167577
231	0x3ea344f8	0.31888556
232	0xbeae819c	-0.3408326
233	0x3ceb5086	0.02872492
234	0xbd35445a	-0.04425464
235	0xbd73bf1f	-0.05950844
236	0x3e7443bd	0.23853965
237	0x3eef3a12	0.46723992
238	0x3ef38d47	0.47568724
239	0xbec4c305	-0.38430038
240	0xbd178307	-0.03699019
241	0xbefe3e35	-0.49656835
242	0xbed2cbf3	-0.41171226
243	0x3deba579	0.11506171
244	0xbebeaffa	-0.37243634
245	0xbe9c5139	-0.30530718
246	0xbcce8af6	-0.025212746
247	0x3e895fd7	0.26830932
248	0x3de2a4c2	0.11066581
249	0xbd51c2a0	-0.051211
250	0x3e8a11ea	0.26966792
251	0xbed004b8	-0.406286
252	0xbea2a648	-0.31767488
253	0x3e908eb1	0.28233865
254	0xbda932ba	-0.082616284
255	0xbd94adab	-0.07259687

weight_hh_l2 f4 [64, 4]
0	0xbee0b7d9	-0.43890265
1	0xbd1e7296	-0.038683496
2	0x3e3ade93	0.18248968
3	0x3cb28416	0.0217915
4	0xbb431402	-0.0029766564
5	0x3ef7826c	0.48341691
6	0x3d7021d7	0.058626022
7	0x3e9900f2	0.29883534
8	0x3c9cea76	0.019154768
9	0x3f0d3944	0.55165505
10	0xbe8f0664	-0.27934563
11	0x3dc8b30a	0.09799774
12	0xbec0ea37	-0.37678692
13	0x3e539087	0.20660602
14	0x3e8ce9eb	0.27522215
15	0x3ea8ba0a	0.32954437
16	0xbe465d38	-0.19371498
17	0x3ddf3bd2	0.10900082
18	0xbe86be1b	-0.26316914
19	0x3de5dcfb	0.11223789
20	0xbe032a28	-0.1280905
21	0x3e845da1	0.25852683
22	0xbe88f14a	-0.2674659
23	0x3ebefc3b	0.37301812
24	0xbe29bc4e	-0.16575739
25	0x3ed9b736	0.4252259
26	0x3e0877bc	0.13326925
27	0xbd301846	-0.0429919
28	0xbebb649d	-0.366002
29	0x3ec9d5a6	0.39420813
30	0xbdcbd9de	-0.09953664
31	0xbdfb62d0	-0.12274706
32	0x3e2c9998	0.16855466
33	0x3ef05e6e	0.46947044
34	0xbe314dd5	-0.17314847
35	0x3ece1430	0.40249777
36	0xbd84b125	-0.064791
37	0x3e0df208	0.13861859
38	0xbe5e2bf3	-0.21696453
39	0xbcd9ce51	-0.026587637
40	0xbea81a88	-0.32832742
41	0x3e6acd6c	0.22929925
42	0x3db645e5	0.0890005
43	0x3da58709	0.080823965
44	0xbd56bad6	-0.052424274
45	0x3c8e6cb6	0.017385822
46	0x3d218211	0.03943068
47	0xbd49e271	-0.049288217
48	0xbb50c90f	-0.0031858122
49	0x3d859441	0.06522418
50	0xbe1bb030	-0.15203929
51	0x3e2b3f70	0.16723418
52	0xbbee25ce	-0.0072676903
53	0x3dbe6f60	0.09298587
54	0xbe7994c8	-0.24373162
55	0x3e436421	0.19081165
56	0xbe9c90ff	-0.30579373
57	0x3f025ece	0.5092591
58	0x3e093de1	0.13402511
59	0x3edda342	0.43288618
60	0x3dbd338d	0.09238348
61	0x3e7607e7	0.24026452
62	0xbea14462	-0.31497484
63	0x3e7d5d70	0.24742675
64	0xbe8bbea4	-0.27293885
65	0x3e2919bf	0.16513728
66	0xbe888dcc	-0.26670682
67	0xbe094e10	-0.13408685
68	0x3ddb027d	0.10693834
69	0x3e5d2a25	0.21598108
70	0xbdafd5b0	-0.085856795
71	0xbe7ea8a1	-0.24869014
72	0x3d66d063	0.056351077
73	0x3dbaa9d7	0.09114426
74	0x3e4642dc	0.19361442
75	0x3d4fef4b	0.050765317
76	0xbebedab8	-0.37276244
77	0x3c5d827c	0.013519879
78	0x3d8667e0	0.06562781
79	0x3dc46ba2	0.09590842
80	0x3db97389	0.0905524
81	0x3d91a9b9	0.0711245
82	0x3ddbc143	0.10730221
83	0x3e1c778f	0.15279983
84	0x3e3ac1ab	0.18237941
85	0xbe03c5cd	-0.12868424
86	0x3e8922d4	0.26784384
87	0x3bea18d7	0.0071440744
88	0xbeac80f8	-0.33692145
89	0x3deb50b3	0.114900015
90	0x3ec7876c	0.38970506
91	0xbdf07b79	-0.117423005
92	0xbd8121e7	-0.063052945
93	0x3e927833	0.2860733
94	0x3eb2e5b4	0.34940875
95	0xbc53a1a7	-0.012916959
96	0x3d353806	0.04424288
97	0x3bcb425a	0.006202978
98	0xbda9aee7	-0.08285313
99	0x3ddaf3f2	0.1069106
100	0x3e74869c	0.23879474
101	0x3df668bf	0.120316975
102	0xbe68e9c7	-0.22745429
103	0x3e2c0478	0.1679858
104	0xbe061f73	-0.13097934
105	0xbdd06aa6	-0.101765916
106	0x3db30637	0.0874142
107	0xbd638bec	-0.05555336
108	0xbe536f08	-0.20647824
109	0xbdc49bd1	-0.09600032
110	0x3dc2d958	0.09514111
111	0xbe18b293	-0.1491187
112	0xbe9d464d	-0.30717698
113	0x3e1ed4ad	0.15510817
114	0x3c5b9e06	0.013404375
115	0x3d8a01b3	0.06738605
116	0x3d3f9495	0.04677256
117	0x3e4ae536	0.19814
118	0xbe3c001c	-0.18359417
119	0x3e1b2bd7	0.15153442
120	0xbe3031a6	-0.1720644
121	0xbe8c2029	-0.27368286
122	0x3eb1c3a5	0.34719577
123	0xbebf16c2	-0.3732205
124	0x3e458c3a	0.19291773
125	0xbe2f87ab	-0.17141597
126	0xbea743a1	-0.32668784
127	0xba9f77cf	-0.0012166443
128	0x3e2ccbd1	0.16874625
129	0xbd59aa41	-0.053140882
130	0x3e2e8278	0.17041957
131	0xbe34894a	-0.17630497
132	0x3e35e640	0.17763615
133	0xbbc73214	-0.006078968
134	0xbdb9e0a3	-0.09076049
135	0xbdb6db7b	-0.08928581
136	0x3e57cf1a	0.21075097
137	0x3da20c74	0.079125315
138	0xbe114dad	-0.14189787
139	0x3c91e63d	0.017809981
140	0xbe6fd180	-0.23419762
141	0x3e2b0cf7	0.16704164
142	0x3df309c7	0.11867099
143	0x3e88cdf8	0.26719642
144	0x3d87d20d	0.06631861
145	0x3e67323c	0.22577757
146	0xbd160a47	-0.036630895
147	0xbeaccead	-0.3375143
148	0x3e8374be	0.25675005
149	0xbe85100d	-0.25988808
150	0xbcf50ae9	-0.029912429
151	0x3e8519eb	0.25996336
152	0xbe1faea1	-0.1559396
153	0xbd99481b	-0.07484456
154	0x3dd009ea	0.10158141
155	0x3e162a39	0.14664544
156	0xbe24a6a6	-0.16079196
157	0x3e30dc59	0.17271556
158	0xbd9a55b1	-0.075358756
159	0x3d57e583	0.052709114
160	0xbdb42b39	-0.087973066
161	0xbd48689c	-0.04892789
162	0x3e4e8246	0.20166883
163	0xbe317b9f	-0.17332314
164	0x3e6ad7c8	0.22933877
165	0x3d63d3ee	0.055622034
166	0x3e6302b9	0.22169007
167	0x3d2452e3	0.04011811
168	0xbded8f72	-0.11599626
169	0xbe73c652	-0.23806122
170	0xbe06548f	-0.13118194
171	0x3e820a49	0.25398472
172	0x3dbf3a9b	0.0933735
173	0xbe7d2c40	-0.24723911
174	0x3dd48b6b	0.10378154
175	0xbe6a9dbd	-0.22911735
176	0xbe874265	-0.26417843
177	0xbdd60741	-0.10450602
178	0x3d31475a	0.043280937
179	0xbcece224	-0.028916426
180	0x3dbf7dc4	0.0935016
181	0x3d4c06b9	0.0498111
182	0xbe107490	-0.14106965
183	0x3d8925fb	0.06696697
184	0x3d484c6a	0.048901
185	0xbdc4223d	-0.09576843
186	0xbd81222f	-0.06305348
187	0x3e27a412	0.16371182
188	0xbcb52a1e	-0.02211481
189	0x3dc94dd5	0.098292984
190	0x3e231fd0	0.15930104
191	0x3ea89006	0.3292238
192	0x3d17df11	0.037077967
193	0x3e899fb4	0.26879656
194	0xbc08d8e7	-0.008352495
195	0xbc5854df	-0.013203829
196	0x3dc2c0fb	0.09509464
197	0x3e9b99c3	0.30390748
198	0xbed8f96f	-0.42377803
199	0x3e36cee3	0.17852359
200	0xbe6cf2fd	-0.23139568
201	0x3eea6976	0.45783585
202	0xbe997902	-0.29975134
203	0x3ec32791	0.38116124
204	0xbe026f18	-0.12737691
205	0x3e8a8adb	0.27059063
206	0x3deb4db4	0.1148943
207	0xbe3d86a0	-0.18508387
208	0x3dcf11e2	0.10110833
209	0x3e8897ce	0.26678318
210	0xbc85ccd6	-0.016333025
211	0x3eb35a1c	0.35029685
212	0xbc1d6321	-0.009606154
213	0x3eaed4a5	0.3414661
214	0xbe513ceb	-0.20433395
215	0x3ec3722a	0.38173038
216	0xbe8308cb	-0.25592646
217	0x3e7a505a	0.24444714
218	0xbd47e678	-0.048803777
219	0x3d22e24d	0.0397666
220	0xbf0c3b8c	-0.5477836
221	0x3eb9f2b6	0.36317986
222	0x3ed09a3a	0.40742666
223	0xbcee94ff	-0.029123781
224	0x3d1c4125	0.038148064
225	0x3f1929fd	0.59829694
226	0xbd6692c0	-0.056292295
227	0x3ec90529	0.3926175
228	0x3d88b6ec	0.066755146
229	0x3d5a988a	0.05336813
230	0xbe10184c	-0.14071769
231	0x3ec7098e	0.38874477
232	0xbe8ef3af	-0.2792029
233	0x3ef72b79	0.48275355
234	0x3ddd9b79	0.1082067
235	0x3e3a8436	0.18214497
236	0xbe480b92	-0.19535664
237	0x3eb99e89	0.36253765
238	0x3ec4469e	0.38335127
239	0x3e4090ae	0.18805191
240	0xbda765fb	-0.08173748
241	0x3e7e1265	0.24811704
242	0xbe706a06	-0.23477945
243	0x3dde5d64	0.108576566
244	0x3e59bcff	0.21263503
245	0x3e89820c	0.2685703
246	0xbe72f3c7	-0.23725806
247	0x3e1acbf8	0.1511687
248	0xbe387831	-0.180146
249	0x3f28ce29	0.65939575
250	0x3e615a16	0.22007021
251	0x3e0b2d63	0.13591532
252	0x3d342340	0.04397893
253	0x3ee9c62e	0.45659012
254	0xbe867bed	-0.26266423
255	0x3ec1e330	0.37868643
