saved_models/LSTM/ckpt__epoch100.ckpt (torch, 17513 bytes, 20 tensors)

weight_ih_l0 f4 [64, 8]
-0.16814175 -0.040856265 -0.22890878 -0.035451155 0.042167254 -0.08255159 -0.3562637 0.11996527
-0.049183447 0.2225848 -0.15261248 0.039730888 -0.065301284 -0.113482304 -0.032260723 -0.049698934
0.048388474 -0.36081976 0.12824517 -0.027125534 0.039734945 -0.110601015 0.10505838 -0.017889284
0.17573535 -0.29682893 -0.07884002 0.120527305 0.011189501 -0.067790784 0.15178728 -0.111773856
0.012796307 -0.14237748 0.020520115 0.14180574 -0.031462528 0.31993985 0.21185389 0.043172207
-0.027650964 -0.16020621 -0.02684773 -0.24787931 0.10598191 -0.11439316 -0.2384496 0.011915171
0.063579395 -0.042392503 0.022061931 0.23642191 -0.1666431 0.03137618 0.068105765 -0.107859
0.06720309 -0.16929059 -0.1550955 0.06787235 -0.020218745 0.060796514 0.06299717 0.045788504
0.07278872 0.019161379 -0.23138496 -0.1942816 0.1727177 0.20622408 0.15770912 0.124987304
0.20943263 0.16787417 0.1853281 0.18120119 -0.041836426 0.084994525 0.14989549 0.023908585
-0.029159483 -0.116299935 0.2165007 -0.001184383 0.011588037 0.25040472 -0.18961857 0.028515227
0.102598846 -0.06475039 -0.17555648 0.16283715 0.093827635 -0.34113058 -0.01461996 -0.16209885
0.09060786 0.10312019 -0.07133418 -0.013451266 -0.025978718 -0.13280044 -0.014146379 -0.13349731
-0.013637106 0.14374284 0.040201955 -0.086050026 -0.14187609 0.054575305 0.47691783 -0.0061272904
0.04546151 -0.084258355 0.15016897 -0.22448559 0.12711091 -0.015175811 -0.22961813 -0.06747231
-0.14635067 0.31200475 -0.14203878 0.09411163 -0.035427794 -0.0732184 0.19393675 -0.022069331
0.13778064 -0.038719706 -0.20913655 -0.06056532 -0.074990824 -0.21468909 0.0024812242 0.18541972
0.021762287 -0.15719981 0.03027984 -0.13837239 -0.2066256 -0.1314452 0.12688442 -0.1575277
0.004738291 0.08550013 0.03546292 -0.044597022 0.047820233 0.003183712 0.0058276216 0.03467693
0.07484996 -0.24968721 0.14882201 -0.21001418 0.07324206 0.08125106 -0.000808683 -0.031728674
-0.22832832 -0.3156536 0.0057087857 0.18422829 -0.041012987 -0.10389147 -0.19163032 0.22771232
0.060676668 0.21618168 -0.01958907 0.19662206 0.099945486 -0.014638863 -0.16110256 -0.051309295
-0.13760117 0.19860338 -0.028597284 0.1730219 -0.046349753 0.33272263 -0.03685716 -0.16515307
-0.16499224 -0.15429145 0.34017637 0.18874083 -0.22733362 -0.047195658 -0.13550518 0.22303131
-0.03107922 0.23663026 -0.11856308 0.11661727 -0.015185789 -0.10947962 -0.051900815 -0.0443635
0.044659514 0.018356621 -0.19290121 0.16504326 0.010536962 0.17191626 -0.1186202 0.0487613
-0.018403891 -0.2276032 -0.070678644 0.118748724 -0.09109926 0.20554909 0.039515894 0.047932353
-0.02766009 0.31513664 -0.01063791 0.14280641 0.11791235 -0.014009204 -0.07344431 0.016890759
0.13544779 -0.24335101 0.08227453 -0.11668107 -0.053428452 -0.21299483 -0.14357041 0.17060399
-0.03550886 -0.06457122 0.120129466 0.14014699 -0.30108988 0.020975154 -0.09034621 0.17281693
-0.001907161 0.0031606017 -0.36414525 0.002965569 0.021508573 -0.08492677 0.033396456 -0.03450365
-0.02594138 0.17720161 -0.07470959 -0.16829884 0.04134778 -0.029047986 0.25623968 -0.08310962
00000000: 5a2d 2cbe e658 27bd 1067 6abe 3b35 11bd
00000010: 92b7 2c3d cf10 a9bd 3268 b6be 5ab0 f53d
00000020: 9574 49bd 45ed 633e 7246 1cbe dbbc 223d
00000030: aebc 85bd 6969 e8bd d223 04bd 1c91 4bbd
00000040: fe32 463d 5ebd b8be b452 033e 5e36 debc
00000050: 1cc1 223d c982 e2bd d928 d73d 8c8c 92bc
00000060: f8f3 333e f6f9 97be e076 a1bd 05d7 f63d
00000070: 2b54 373c e5d5 8abd 206e 1b3e b1e9 e4bd
00000080: 9aa7 513c 67cb 11be cd19 a83c 8635 113e
00000090: dade 00bd 28cf a33e 3af0 583e 57d5 303d
000000a0: 4684 e2bc 190d 24be c5ef dbbc 13d4 7dbe
000000b0: 0b0d d93d f646 eabd 222c 74be d937 433c
000000c0: ea35 823d c3a3 2dbd 39bb b43c 9618 723e
000000d0: 7da4 2abe 4f84 003d 097b 8b3d 2ee5 dcbd
000000e0: c6a1 893d 835a 2dbe 5bd1 1ebe a900 8b3d
000000f0: c8a1 a5bc c405 793d a904 813d ba8c 3b3d
00000100: 4112 953d 53f8 9c3c 2ef0 6cbe c1f1 46be
00000110: e9dc 303e 682c 533e 807e 213e 58f9 ff3d
00000120: 8275 563e 35e7 2b3e a6c6 3d3e ce8c 393e
00000130: ac5c 2bbd 9c11 ae3d 347e 193e f0db c33c
00000140: dedf eebc a92e eebd 5cb2 5d3e 4d3d 9bba
00000150: c0db 3d3c 0c35 803e 5f2b 42be c498 e93c
00000160: 581f d23d da9b 84bd 14c5 33be c8be 263e
00000170: b428 c03d aba8 aebe 8f88 6fbc 3efd 25be
00000180: 9d90 b93d ae30 d33d a817 92bd b362 5cbc
00000190: 52d1 d4bc d7fc 07be 37c6 67bc 85b3 08be
000001a0: 2b6e 5fbc 5331 133e ceaa 243d ff3a b0bd
000001b0: f747 11be 5b8a 5f3d 932e f43e 70c7 c8bb
000001c0: d935 3a3d a58f acbd e5c5 193e 8ddf 65be
000001d0: 5d29 023e f7a3 78bc 0421 6bbe ec2e 8abd
000001e0: f3dc 15be 16bf 9f3e 9d72 11be 99bd c03d
000001f0: bc1c 11bd 87f3 95bd 5b97 463e beca b4bc
00000200: 5e16 0d3e 8e98 1ebd e427 56be 5713 78bd
00000210: ca94 99bd 75d7 5bbe 099c 223b abde 3d3e
00000220: d346 b23c fdf8 20be 6d0d f83c 7eb1 0dbe
00000230: a995 53be 9299 06be fded 013e f14e 21be
00000240: aa43 9b3b b11a af3d 9141 113d 5eab 36bd
00000250: 26df 433d d3a5 503b a2f5 be3b 6609 0e3d
00000260: f04a 993d 01ae 7fbe cc64 183e f50d 57be
00000270: efff 953d f566 a63d ccfd 53ba edf5 01bd
00000280: e6ce 69be 599d a1be c410 bb3b 57a6 3c3e
00000290: 3cfd 27bd 0dc5 d4bd bd3a 44be 6b2d 693e
000002a0: 1988 783d bb5e 5d3e 4279 a0bc 4b57 493e
000002b0: 38b0 cc3d d7d7 6fbc 12f8 24be b229 52bd
000002c0: 52e7 0cbe af5e 4b3e da44 eabc a72c 313e
000002d0: 3dd9 3dbd 9f5a aa3e 89f7 16bd e31d 29be
000002e0: baf3 28be 94fe 1dbe 992b ae3e 4745 413e
000002f0: 25ca 68be 3c50 41bd dfc1 0abe 5262 643e
00000300: d999 febc 344f 723e 33d1 f2bd 09d5 ee3d
00000310: d1cd 78bc da36 e0bd f395 54bd 80b6 35bd
00000320: e5ec 363d a060 963c e587 45be 1a01 293e
00000330: 39a3 2c3c d10a 303e 26ef f2bd eeb9 473d
00000340: c2c3 96bc d010 69be f7bf 90bd 8832 f33d
00000350: 4092 babd 767b 523e 6bdb 213d b754 443d
00000360: 6a97 e2bc 9759 a13e a14a 2ebc d83b 123e
00000370: 087c f13d dc86 65bc f869 96bd 7d5e 8a3c
00000380: d3b2 0a3e 0231 79be 8c7f a83d 7cf6 eebd
00000390: cbd7 5abd 511b 5abe 1f04 13be d0b2 2e3e
000003a0: bd71 11bd ea3d 84bd 7006 f63d b182 0f3e
000003b0: 7428 9abe 16d4 ab3c 6f07 b9bd ecf6 303e
000003c0: b4f9 f9ba 1922 4f3b 3f71 babe fe59 423b
000003d0: bf32 b03c 16ee adbd b9ca 083d b353 0dbd
000003e0: 0483 d4bc 5774 353e 5701 99bd 8856 2cbe
000003f0: 4a5c 293d 0bf6 edbc d931 833e 6035 aabd

weight_hh_l0 f4 [64, 4]
-0.27147108 0.23548262 0.30541474 0.06348868 0.25178924 0.27646223 0.24759252 0.29887637
-0.16527028 0.0052304654 -0.3049117 -0.22878768 -0.18638785 0.22614023 0.21493112 -0.15434267
-0.3178137 -0.22020215 0.0067197937 -0.08899084 -0.29593575 0.18613434 0.12030244 0.040718645
-0.060774706 -0.31033263 -0.22389951 -0.055080626 -0.42891163 -0.12223483 -0.32348222 -0.47940493
-0.21542317 -0.1994876 -0.084317185 -0.2721647 0.16670296 0.52413553 0.23350032 -0.005629714
0.20526898 0.010734079 -0.108792886 -0.06751723 0.048370965 -0.3393114 -0.11157903 -0.2539728
0.026807804 0.24364528 0.048983898 -0.13555099 0.4714203 0.3125207 0.13688852 0.022679308
-0.08327471 -0.19489795 -0.023689365 -0.031153824 -0.15830408 -0.15367067 0.120582335 -0.100049414
-0.22285229 -0.19480237 -0.1565215 0.0053272634 -0.02128633 0.0005787398 -0.19944581 0.019260563
0.14721154 0.11370116 -0.22604947 -0.1178695 -0.0026172868 -0.4000968 -0.25491655 -0.49833658
-0.1867621 0.14972702 -0.10980803 0.22195557 -0.014267731 -0.21682864 -0.17774388 -0.20794925
0.17784111 -0.10816769 0.11884054 -0.10597885 0.24454688 -0.09067551 0.33475134 0.46344665
0.060456105 -0.41552055 -0.2125764 -0.10473887 -0.12608536 -0.52526605 -0.4747017 -0.45343915
0.3804534 0.07028346 -0.2485913 -0.06885151 0.38503113 -0.016994072 -0.25169936 0.16860363
-0.3107571 -0.2909342 -0.38664037 -0.30433643 0.20500419 0.4967416 0.18795165 0.21376686
0.23472984 -0.14058332 -0.15971392 -0.08476959 -0.35237506 -0.07119734 -0.2582278 -0.2521852
0.14036639 0.15815203 0.2162261 0.06368217 -0.13369673 -0.17063309 -0.10903497 0.03321466
0.19654204 0.3174542 0.47386393 0.5790756 -0.045167275 0.053068537 0.12941557 0.17961554
-0.029487114 -0.35249496 -0.09734465 0.044573188 -0.24725924 0.0813806 -0.13444482 0.13307141
0.21056563 0.07410448 -0.040820982 -0.07475077 -0.08023449 -0.09910301 0.3338781 0.0752529
-0.0024419837 0.23351763 0.19295347 0.29694113 -0.00933332 -0.2594576 -0.14925794 -0.23642543
0.38951382 0.099576175 0.07929815 0.45100322 -0.44792256 0.019339811 -0.33859524 -0.15252358
0.08108109 -0.103775494 -0.5026352 -0.11138373 -0.44878024 -0.012895923 -0.037684612 -0.3068023
-0.042001225 -0.009642159 -0.15904953 0.08849499 -0.12749504 0.106005825 0.046646267 -0.07010039
-0.5074047 -0.32679516 -0.7125433 -0.65253544 0.14944258 0.46731925 -0.016317833 0.16978665
0.3073446 -0.05548624 -0.001754447 -0.36737058 -0.04629636 -0.23529981 -0.38913247 -0.47436625
0.11616937 -0.22782424 0.034781817 0.19687667 0.02581219 0.09342147 -0.28810695 0.15127145
0.09135669 -0.021551762 0.028335538 -0.15155077 0.044589754 0.1649052 0.012479802 0.070743844
0.38255355 -0.173144 0.015746472 -0.18332154 -0.38007477 -0.47180754 -0.34769583 -0.08173663
0.2560877 0.12179019 0.17606393 0.25662482 0.7430932 0.35438454 0.064685196 0.01008609
-0.3292456 -0.32757956 -0.48698482 -0.19098912 0.30371642 0.59284896 0.32166034 0.4138657
0.2918687 0.053975042 0.07865902 0.09279735 -0.14047663 -0.49406198 -0.40075627 -0.26064876
00000000: 42fe 8abe 5b22 713e 525f 9c3e 5a06 823d
00000010: 85ea 803e 758c 8d3e e588 7d3e 5306 993e
00000020: 9d3c 29be 5364 ab3b 631d 9cbe 5147 6abe
00000030: 75dc 3ebe 4e91 673e e716 5c3e 010c 1ebe
00000040: 7ab8 a2be ac7c 61be b731 dc3b d440 b6bd
00000050: e484 97be 009a 3e3e 2061 f63d 98c8 263d
00000060: e6ee 78bd ebe3 9ebe ea45 65be 399c 61bd
00000070: 4e9a dbbe 4156 fabd 769f a5be 9074 f5be
00000080: e497 5cbe 7a46 4cbe 7dae acbd 2c59 8bbe
00000090: 2eb4 2a3e bf2d 063f b51a 6f3e 7779 b8bb
000000a0: 0832 523e fedd 2f3c cece debd 7946 8abd
000000b0: a220 463d 39ba adbe 8c83 e4bd b908 82be
000000c0: 0a9c db3c 267e 793e 57a3 483d e1cd 0abe
000000d0: 005e f13e b702 a03e 812c 0c3e f5c9 b93c
000000e0: ee8b aabd 5493 47be 3310 c2bc 4e36 ffbc
000000f0: 771a 22be d85b 1dbe dff3 f63d b5e6 ccbd
00000100: 6433 64be 467a 47be 2c47 20be 5390 ae3b
00000110: ab60 aebc 92b6 173a 863b 4cbe 54c8 9d3c
00000120: 9fbe 163e 27dc e83d 8379 67be 9065 f1bd
00000130: c986 2bbb 7dd9 ccbe 6c84 82be f925 ffbe
00000140: 903e 3fbe 0a52 193e 08e3 e0bd 5248 633e
00000150: 34c3 69bc 5408 5ebe 7e02 36be a6f0 54be
00000160: fb1b 363e 0687 ddbd ab62 f33d 700b d9bd
00000170: 7f6a 7a3e 15b4 b9bd 8764 ab3e e148 ed3e
00000180: d2a0 773d 1cbf d4be a1ad 59be 5581 d6bd
00000190: 851c 01be d677 06bf 1a0c f3be 2d29 e8be
000001a0: caca c23e c6f0 8f3d b88e 7ebe 0502 8dbd
000001b0: cd22 c53e 2737 8bbc bdde 80be 6ea6 2c3e
000001c0: 8e1b 9fbe 54f5 94be baf5 c5be fcd1 9bbe
000001d0: 9eec 513e ea54 fe3e 6676 403e b3e5 5a3e
000001e0: 055d 703e 13f5 0fbe 0c8c 23be ae9b adbd
000001f0: 816a b4be e9cf 91bd 6f36 84be 6b1e 81be
00000200: 35bc 0f3e 9bf2 213e 606a 5d3e cc6b 823d
00000210: cce7 08be 71ba 2ebe ba4d dfbd 180c 083d
00000220: 5142 493e 5b89 a23e 4b9e f23e 4c3e 143f
00000230: 5201 39bd 655e 593d 8485 043e 23ed 373e
00000240: f68e f1bc 387a b4be a25c c7bd 6092 363d
00000250: 8731 7dbe dfaa a63d e7ab 09be df43 083e
00000260: 849e 573e 17c4 973d e733 27bd ef16 99bd
00000270: fb51 a4bd 85f6 cabd 12f2 aa3e 311e 9a3d
00000280: b009 20bb 3f1f 6f3e 9895 453e ab08 983e
00000290: c8ea 18bc a0d7 84be 13d7 18be 8219 72be
000002a0: 5b6e c73e 98ee cb3d 1267 a23d e5e9 e63e
000002b0: 1b56 e5be 866e 9e3c 5b5c adbe 242f 1cbe
000002c0: d80d a63d 3f88 d4bd b3ac 00bf 271d e4bd
000002d0: 86c6 e5be 6c49 53bc 2e5b 1abd 3115 9dbe
000002e0: 7a09 2cbd 25fa 1dbc e1dd 22be dc3c b53d
000002f0: 0f8e 02be 9519 d93d 2810 3f3d cb90 8fbd
00000300: 46e5 01bf b251 a7be 3d69 36bf 900c 27bf
00000310: 7a07 193e 7844 ef3e faac 85bc 8ddc 2d3e
00000320: 455c 9d3e 8a45 63bd 79f5 e5ba ff17 bcbe
00000330: 41a1 3dbd 6ff2 70be 5f3c c7be 22e0 f2be
00000340: 35ea ed3d c24a 69be 6177 0e3d 0a9a 493e
00000350: 1674 d33c c153 bf3d c182 93be e7e6 1a3e
00000360: 3719 bb3d 528d b0bc ee1f e83c 2030 1bbe
00000370: bfa3 363d e9dc 283e 1578 4c3c 26e2 903d
00000380: 0fde c33e a94c 31be bffe 803c a4b8 3bbe
00000390: 2999 c2be c290 f1be 3005 b2be 8965 a7bd
000003a0: ed1d 833e 236d f93d 1a4a 343e 5464 833e
000003b0: 5b3b 3e3f e471 b53e ac79 843d 2140 253c
000003c0: e192 a8be 82b8 a7be 1356 f9be a792 43be
000003d0: b880 9b3e f3c4 173f aab0 a43e 34e6 d33e
000003e0: d06f 953e ef14 5d3d fb17 a13d 890c be3d
000003f0: 1bd9 0fbe b1f5 fcbe ed2f cdbe c173 85be

bias_ih_l0 f4 [64]
-0.19639584 0.31926975 0.10566427 -0.12765983 0.1947236 -0.31072018 0.28821015 -0.21563242
-0.33111998 -0.2074451 0.07694926 -0.19297305 0.19682303 -0.1598793 -0.06516077 -0.20457558
0.021146672 -0.047106724 0.560888 0.38914666 -0.07720903 0.06438456 -0.0498744 -0.1733249
0.4669619 0.19165407 0.4739086 0.10504121 0.08814081 0.2280031 0.22418448 0.23626484
-0.17914575 0.07463676 -0.24769615 0.32995108 0.13607554 0.18192399 0.35624346 0.18699451
-0.32343605 -0.16158915 -0.0973648 0.112413004 0.14446327 -0.01754248 0.06690566 0.21116352
-0.08752666 -0.12560835 0.24385223 0.21058364 0.2984637 0.06644848 -0.03732629 -0.1432075
0.06928968 0.19657706 0.25279367 -0.14727227 0.2431762 -0.3033957 -0.072795436 0.32372978
00000000: fe1b 49be 5377 a33e 8266 d83d 42b9 02be
00000010: a065 473e b716 9fbe 4890 933e bfce 5cbe
00000020: 8f88 a9be 7d6c 54be 9397 9d3d ba9a 45be
00000030: fa8b 493e 66b7 23be 0373 85bd 437c 51be
00000040: c93b ad3c fbf2 40bd 5b96 0f3f 3b3e c73e
00000050: c51f 9ebd 0ddc 833d 1949 4cbd 157c 31be
00000060: a115 ef3e f740 443e 26a4 f23e d91f d73d
00000070: 2b83 b43d a579 693e 9e90 653e 69ef 713e
00000080: fc71 37be 28db 983d 0fa4 7dbe 59ef a83e
00000090: 6357 0b3e 484a 3a3e 8b65 b63e 7d7b 3f3e
000000a0: 6999 a5be a077 25be 3267 c7bd ca38 e63d
000000b0: 2eee 133e 3fb5 8fbc d605 893d 403b 583e
000000c0: 2d41 b3bd 7a9f 00be 66b4 793e 3da3 573e
000000d0: 3cd0 983e 2416 883d 74e3 18bd fda4 12be
000000e0: bfe7 8d3d 7f4b 493e 2c6e 813e 8bce 16be
000000f0: 2f03 793e ae56 9bbe c615 95bd e9bf a53e

bias_hh_l0 f4 [64]
-0.27141222 -0.057948206 0.32752898 -0.2148465 0.23508608 -0.028820526 0.5364372 0.13324663
-0.098304 -0.16353968 -0.19273368 -0.08769432 -0.0213844 0.19615926 0.0667353 -0.22119863
0.23589836 0.28742686 0.23521903 0.16776061 0.040534694 0.2989011 0.19540231 -0.055714775
0.21109934 0.247808 0.2010385 0.27905974 0.32409754 0.14876331 0.5027546 0.09832035
-0.061119474 -0.04073659 -0.2563374 0.025908181 0.31090233 0.05247837 0.29143736 -0.020556059
-0.023996327 0.057135906 -0.13776186 -0.024432776 -0.09571251 -0.07288027 0.2560556 -0.112644315
0.39725217 -0.04784291 0.12099666 0.21505316 0.24598666 0.36748734 0.26946616 -0.29580495
0.48437515 -0.058372904 0.34872383 0.3093574 0.21120356 -0.054614842 0.22457649 0.14160644
00000000: 8bf6 8abe 195b 6dbd e1b1 a73e b900 5cbe
00000010: 68ba 703e 0619 ecbc f353 093f ce71 083e
00000020: 9c53 c9bd f276 27be fa5b 45be 1499 b3bd
00000030: 562e afbc f9dd 483e 84ac 883d e581 62be
00000040: 578f 713e 9d29 933e 42dd 703e 70c9 2b3e
00000050: b507 263d 9109 993e 8b17 483e 2d35 64bd
00000060: 6d2a 583e 61c1 7d3e 09dd 4d3e ebe0 8e3e
00000070: 1df0 a53e 6955 183e 87b4 003f 2e5c c93d
00000080: 6a58 7abd 69db 26bd a83e 83be 653d d43c
00000090: 972e 9f3e 8ff3 563d 4737 953e 2e65 a8bc
000000a0: f293 c4bc 5707 6a3d 7211 0dbe 3f27 c8bc
000000b0: ec04 c4bd 4042 95bd b819 833e 10b2 e6bd
000000c0: a364 cb3e edf6 43bd 19cd f73d e536 5c3e
000000d0: ede3 7b3e 4d27 bc3e 78f7 893e bf73 97be
000000e0: 0500 f83e 6d18 6fbd ee8b b23e 1864 9e3e
000000f0: bf45 583e d0b3 5fbd 61f7 653e 4701 113e

weight_hr_l0 f4 [4, 16]
0.052808147 0.24930152 0.21552864 0.017055059 -0.15282163 -0.46916237 0.09917561 0.14003775
0.09545675 0.12146762 0.40453124 -0.07130635 -0.106871076 -0.4108881 -0.23461111 0.22362219
0.4008051 -0.067915805 0.32266277 -0.2165934 -0.049873628 -0.18796657 -0.31881642 0.11542968
0.41941872 -0.28816622 0.2595517 -0.10652318 -0.023198161 0.0882564 -0.17431962 -0.30323333
0.21540563 -0.5079727 0.46145943 -0.26467657 -0.17749937 -0.12923695 -0.08655782 0.15528212
0.20730366 -0.18708034 -0.025057647 -0.13532792 -0.31846368 -0.2172183 -0.080268756 -0.44798577
0.3609357 -0.100307316 0.29469016 -0.065924674 -0.20465116 0.029335614 -0.09535538 0.0613586
0.029888373 -0.14766522 0.46332377 -0.3744318 -0.12377842 -0.10216354 -0.4423907 -0.28393343
00000000: 5b4d 583d e648 7f3e 8ab3 5c3e 0db7 8b3c
00000010: 467d 1cbe 0d36 f0be 951c cb3d 0e66 0f3e
00000020: d47e c33d 04c4 f83d b81e cf3e 1009 92bd
00000030: 39df dabd ed5f d2be e53d 70be 37fd 643e
00000040: 5336 cd3e 7117 8bbd 0e34 a53e a9ca 5dbe
00000050: 4a48 4cbd 4f7a 40be e83b a3be 6566 ec3d
00000060: 0dbe d63e 868a 93be f6e3 843e d328 dabd
00000070: 120a bebc c5bf b43d d880 32be 6641 9bbe
00000080: 4b93 5c3e 800a 02bf 6944 ec3e b083 87be
00000090: 65c2 35be b156 04be 3a45 b1bd 4702 1f3e
000000a0: 6947 543e fd91 3fbe b245 cdbc 6793 0abe
000000b0: ac0d a3be 796e 5ebe f263 a4bd 645e e5be
000000c0: 90cc b83e ec6d cdbd a1e1 963e 8403 87bd
000000d0: 1390 51be 3e51 f03c ae49 c3bd 2853 7b3d
000000e0: 76d8 f43c 8d35 17be c638 ed3e 86b5 bfbe
000000f0: 8a7f fdbd 1e3b d1bd 0981 e2be b95f 91be

weight_ih_l1 f4 [64, 4]
0.21058193 -0.16710319 -0.12072054 -0.096758634 0.4335938 0.15030777 -0.3759276 -0.14711553
0.2642846 0.041951846 -0.06477899 -0.20907414 0.21694866 -0.06930249 0.04508329 0.115222186
0.5696455 0.1699666 -0.04284939 -0.12408269 0.6772561 0.21108003 -0.18432423 0.27275357
0.21777809 0.022222472 -0.04092002 -0.109961435 0.0979273 0.21950729 0.029902989 0.12953992
0.21811588 -0.04733793 -0.17055455 -0.19529392 0.489913 -0.08606269 0.038895335 0.22550021
0.30658862 -0.20616083 -0.467733 0.025215514 0.48519048 -0.13992566 -0.4397733 -0.01890173
0.33087865 0.10767452 -0.017736988 0.18421386 0.1458436 -0.1312071 -0.15402046 0.26236457
0.3347506 -0.23925473 0.027515309 0.14081238 -0.03994981 0.056607474 -0.13924024 -0.09867395
0.13712437 -0.423664 -0.106057264 -0.022381537 -0.1391314 -0.43462515 -0.16255337 -0.19353932
0.04712856 -0.4927684 -0.15055479 -0.2607647 -0.0068858103 -0.07506622 -0.35184166 -0.40931186
0.39904672 -0.096837066 -0.24227007 0.087277725 0.5337431 -0.0155878 -0.092174836 0.4136519
-0.29238796 -0.35297582 -0.43833983 -0.10095722 0.07284443 -0.44702166 -0.31530032 -0.19089912
-0.07694471 -0.4591579 -0.17659679 -0.18074362 0.446078 0.07781239 0.049729154 0.064965464
0.17106393 -0.5024463 -0.25646627 -0.35659504 0.27480307 -0.12740609 -0.20706838 -0.17001337
0.4517855 -0.3528148 -0.44456473 0.16524073 -0.008017824 -0.11067719 -0.09794401 -0.05998511
-0.49225804 -0.18723017 -0.29750267 -0.33635226 -0.24366768 -0.19698861 -0.51538116 -0.23036519
0.20588829 0.022452673 0.19358714 0.40255162 -0.12085834 -0.24398887 -0.20033763 -0.1694341
-0.05869814 -0.32637757 -0.37177625 0.07485 -0.22214693 -0.062290464 -0.16255395 -0.28471753
0.22831781 0.20575371 -0.073209055 0.35520718 0.09816683 0.31868258 0.054968152 0.23405793
0.19302575 0.08947724 -0.028157772 0.24461395 0.15599659 0.3474667 -0.0039925654 0.2749676
0.24924073 0.2858903 0.25543845 -0.051968493 -0.32711968 -0.11185633 0.10602917 -0.22449908
0.0734363 -0.080909476 -0.3372831 -0.4667117 -0.21396133 -0.36701024 -0.17890888 -0.25062785
0.04068863 -0.19868766 -0.35296866 -0.3654467 0.34241727 0.10104708 0.23076524 0.15185793
-0.29969424 -0.28749713 -0.15078688 -0.10702403 0.10410966 0.1356496 0.11494569 0.10604943
0.15156254 -0.10874968 -0.39415374 -0.02198734 0.18571596 -0.04273463 -0.3792483 -0.027311485
0.08162649 -0.17893182 -0.545188 -0.42957982 0.061887316 -0.22869194 -0.13861407 -0.03507938
0.4662091 0.006821817 -0.11109718 -0.090210706 0.605546 0.1055225 0.09541165 0.3457872
-0.19356267 -0.29648742 -0.011047174 -0.22918092 0.2932043 -0.1016886 -0.28396356 0.10459053
-0.23046774 -0.27393365 -0.24580765 -0.4448329 0.24522936 0.44119704 0.3183285 0.27942196
0.2671273 -0.4808812 -0.51340866 -0.07769398 0.49692738 -0.0012806377 -0.40164438 -0.09622652
0.5671284 -0.26465157 -0.35089514 -0.16669245 0.29536813 -0.14524227 -0.11159093 0.20235516
0.089969136 -0.2553059 -0.3916226 -0.1309084 0.09778292 -0.40679342 -0.37088135 -0.38261443
00000000: caa2 573e 191d 2bbe 553c f7bd 6429 c6bd
00000010: 0200 de3e 48ea 193e 9579 c0be 74a5 16be
00000020: 5050 873e b3d5 2b3d d9aa 84bd 8817 56be
00000030: ca27 5e3e 77ee 8dbd 42a9 383d 9cf9 eb3d
00000040: 4ad4 113f b90b 2e3e d882 2fbd 111f febd
00000050: a860 2d3f 5d25 583e 7ebf 3cbe 5ba6 8b3e
00000060: 3801 5f3e e70b b63c c09b 27bd 7633 e1bd
00000070: 1c8e c83d 85c6 603e 1df7 f43c 1da6 043e
00000080: c559 5f3e 6be5 41bd daa5 2ebe 21fb 47be
00000090: e0d5 fa3e a341 b0bd b750 1f3d 87e9 663e
000000a0: 2ff9 9c3e d31b 53be b37a efbe c490 ce3c
000000b0: e36a f83e ac48 0fbe f729 e1be cdd7 9abc
000000c0: ed68 a93e 7584 dc3d 294d 91bc 8fa2 3c3e
000000d0: 0658 153e 275b 06be 8ab7 1dbe a654 863e
000000e0: 6e64 ab3e 31ff 74be c967 e13c 1f31 103e
000000f0: 69a2 23bd 3ddd 673d fe94 0ebe 9115 cabd
00000100: 556a 0c3e 7dea d8be 8d34 d9bd 7c59 b7bc
00000110: 7678 0ebe 3087 debe 6474 26be 2c2f 46be
00000120: e009 413d 244c fcbe 092b 1abe f382 85be
00000130: 5da2 e1bb 51bc 99bd 9724 b4be 5391 d1be
00000140: da4f cc3e 8352 c6bd a515 78be aabe b23d
00000150: 63a3 083f f963 7fbc 29c6 bcbd 2fca d33e
00000160: e0b3 95be 3fb9 b4be 146e e0be a9c2 cebd
00000170: 762f 953d 06e0 e4be 0b6f a1be 0f7b 43be
00000180: 3095 9dbd bf16 ebbe cad5 34be db14 39be
00000190: 5664 e43e 1a5c 9f3d ccb0 4b3d 9d0c 853d
000001a0: 622b 2f3e 52a0 00bf 8c4f 83be a093 b6be
000001b0: fdb2 8c3e be76 02be bc09 54be fc17 2ebe
000001c0: 6e50 e73e 24a4 b4be fd9d e3be de34 293e
000001d0: 315d 03bc b9aa e2bd de96 c8bd f2b2 75bd
000001e0: 3f09 fcbe 44b9 3fbe 4552 98be 5d36 acbe
000001f0: 0584 79be 62b7 49be 05f0 03bf dae4 6bbe
00000200: 61d4 523e abee b73c b53b 463e 3f1b ce3e
00000210: 9484 f7bd 38d8 79be 4f25 4dbe 2280 2dbe
00000220: 766d 70bd f61a a7be 7559 bebe f54a 993d
00000230: 7c7a 63be 4924 7fbd 8b74 26be 7fc6 91be
00000240: 25cc 693e 1ab1 523e a1ee 95bd b7dd b53e
00000250: b10b c93d 5d2a a33e 4926 613d e2ac 6f3e
00000260: 8ba8 453e d83f b73d 21ab e6bc 147c 7a3e
00000270: 92bd 1f3e 28e7 b13e 11d4 82bb 8ec8 8c3e
00000280: f638 7f3e 3760 923e d4c8 823e eadc 54bd
00000290: 3b7c a7be ee14 e5bd d225 d93d 16e3 65be
000002a0: c565 963d deb3 a5bd 5fb0 acbe d6f4 eebe
000002b0: ae18 5bbe c4e8 bbbe e433 37be 4b52 80be
000002c0: 1fa9 263d c774 4bbe 4fb8 b4be d41b bbbe
000002d0: 5151 af3e c5f1 ce3d b94d 6c3e a580 1b3e
000002e0: 8671 99be d332 93be e067 1abe 6a2f dbbd
000002f0: 7237 d53d bbe7 0a3e a568 eb3d 7230 d93d
00000300: 3633 1b3e 27b8 debd 85ce c9be cb1e b4bc
00000310: 532c 3e3e 820a 2fbd d52c c2be 56bc dfbc
00000320: ca2b a73d e739 37be 7191 0bbf e3f1 dbbe
00000330: 8e7d 7d3d 382e 6abe d9f0 0dbe 65af 0fbd
00000340: f6b2 ee3e 8c89 df3b eb86 e3bd 64c0 b8bd
00000350: 1005 1b3f 2e1c d83d 2f67 c33d 050b b13e
00000360: 4b35 46be 33cd 97be 35ff 34bc 67ae 6abe
00000370: e01e 963e 1d42 d0bd ac63 91be 8f33 d63d
00000380: bcff 6bbe 0841 8cbe 00b5 7bbe 23c1 e3be
00000390: 681d 7b3e 94e4 e13e f4fb a23e 6510 8f3e
000003a0: e9c4 883e 1036 f6be c06e 03bf 051e 9fbd
000003b0: 446d fe3e 12db a7ba 55a4 cdbe 6912 c5bd
000003c0: 542f 113f 6980 87be 87a8 b3be 6db1 2abe
000003d0: 7e3a 973e 64ba 14be c989 e4bd 3136 4f3e
000003e0: bd41 b83d 74b7 82be c282 c8be da0c 06be
000003f0: 6942 c83d 3a47 d0be 29e4 bdbe 0ae6 c3be

weight_hh_l1 f4 [64, 4]
0.035401646 0.25314513 -0.14474654 -0.0666227 -0.013999746 -0.2404538 -0.24877232 0.1624067
0.029822055 -0.21653964 -0.37036443 0.0028004358 -0.4900383 -0.020166546 -0.03921201 0.16041854
-0.15493733 -0.0017518261 0.11636837 0.1671597 -0.3266944 -0.47185022 -0.51514155 0.6105106
0.17172046 0.104633346 -0.27636892 -0.19296908 -0.044424612 -0.060419846 -0.2280116 0.018238194
-0.05072193 -0.22233415 0.038599323 0.272907 -0.06855665 -0.03693484 -0.10945251 0.29176405
0.26337507 -0.1934835 -0.16177116 -0.13322006 0.036273893 -0.19275002 -0.015192683 -0.12849762
-0.21306448 -0.3835377 0.04611475 -0.20407474 -0.3543397 -0.16047059 -0.14996333 0.18574943
-0.28824964 -0.38062194 -0.20051776 0.2523439 0.069617786 -0.29374778 -0.12350036 -0.1899285
0.10820652 0.038186643 -0.0671698 -0.035559643 -0.09306046 0.04767328 -0.23728439 -0.21978718
0.019973349 0.060151827 -0.04688843 -0.14978714 -0.10268612 0.03018022 -0.20775421 0.08031685
-0.032774147 0.18558618 0.019711673 -0.091950655 -0.20980535 -0.36010703 0.0074153356 0.24952313
0.12813942 0.15843451 0.22014242 0.038714603 -0.070297554 0.11739498 -0.11506269 -0.121223055
0.22345771 -0.14360616 -0.15121439 -0.012074962 -0.033741973 0.18221031 0.1674815 0.080332644
0.061760426 0.033535447 0.057801716 -0.12419546 0.15210818 -0.06676555 0.10635395 -0.19887784
-0.08938628 -0.22252873 -0.12549834 -0.26978493 0.0848709 -0.12024046 -0.19031964 -0.069254786
-0.1015211 -0.09185737 -0.1392125 0.35240087 0.04867097 0.047072418 0.11714103 -0.13288692
-0.104022406 -0.09200643 0.19318211 -0.09446859 -0.100785784 -0.01209214 0.1799807 -0.17093578
-0.12302408 -0.13753897 -0.089600325 -0.117998034 0.25328657 0.07237671 -0.10203172 -0.108684614
-0.042960387 -0.04846552 0.0072585195 -0.070724756 -0.053159628 0.17413187 -0.25315264 -0.052368596
-0.025637615 -0.1615567 0.13305953 -0.04641182 -0.14846155 0.039502956 -0.16639052 0.11109725
-0.1661493 -0.19087805 -0.012137632 -0.061327785 0.20229928 0.27030176 -0.116119154 -0.28979215
-0.17353086 -0.09298403 -0.20213984 0.20259999 0.3431064 -0.18812709 -0.1873807 -0.15016657
-0.011840927 -0.17783225 -0.058038805 0.172117 -0.07873376 -0.18384153 0.11129395 0.22685549
0.21783881 0.0105915535 0.058522224 -0.13054404 -0.032457646 0.23336741 -0.027610429 0.3020558
0.012947821 -0.07840306 -0.15450878 -0.08714927 -0.18276455 -0.2373618 -0.085681446 0.32700515
-0.10114972 -0.025952335 -0.24017854 0.059616398 -0.17609192 -0.18862323 -0.1919022 0.34372684
-0.034800533 -0.26173288 -0.16347285 -0.0048846 -0.25234753 -0.3075643 -0.5070778 0.49677455
0.08284684 -0.26375857 -0.008677352 -0.21127424 -0.16820064 -0.10824101 -0.044172745 0.2584455
0.056706026 -0.23912491 -0.22533824 0.21622497 0.13845089 0.13733107 -0.011901 -0.14563765
0.07682464 -0.12546428 0.08730541 0.03263239 -0.18204014 -0.23504792 -0.015971469 0.2417897
0.13135827 -0.20228954 -0.047222547 0.13202724 -0.24641095 -0.29880595 -0.121848285 0.2761933
-0.32227367 -0.22065951 -0.08392551 0.2183613 -0.18914542 -0.021384124 -0.23351459 0.037430216
00000000: 5101 113d 3d9c 813e 7038 14be 7b71 88bd
00000010: 315f 65bc 8539 76be 2cbe 7ebe f14d 263e
00000020: 624d f43c 91bc 5dbe 68a0 bdbe 8487 373b
00000030: 4de6 fabe 5034 a5bc c69c 20bd c244 243e
00000040: e4a7 1ebe 889d e5ba 8a52 ee3d ea2b 2b3e
00000050: 7d44 a7be 5a96 f1be 51e0 03bf 6c4a 1c3f
00000060: 7dd7 2f3e 024a d63d 3a80 8dbe b099 45be
00000070: 95f6 35bd cd7a 77bd df7b 69be 4468 953c
00000080: ccc1 4fbd 90ab 63be 531a 1e3d 77ba 8b3e
00000090: 6e67 8cbd fd48 17bd a328 e0bd 1962 953e
000000a0: 19d9 863e 8a20 46be 57a7 25be d76a 08be
000000b0: ef93 143d 4360 45be bbea 78bc e194 03be
000000c0: 932d 5abe 0e5f c4be d2e2 3c3d f8f8 50be
000000d0: 036c b5be 6752 24be fd8f 19be 1935 3e3e
000000e0: 7595 93be e1e0 c2be 8754 4dbe 3833 813e
000000f0: c593 8e3d 1c66 96be c2ed fcbd 9e7c 42be
00000100: 619b dd3d 9969 1c3d 5290 89bd fda6 11bd
00000110: 7c96 bebd 0f45 433d aefa 72be e40f 61be
00000120: 269f a33c c361 763d 150e 40bd cd61 19be
00000130: 1a4d d2bd 823c f73c 85bd 54be 297d a43d
00000140: 2f3e 06bd 4e0a 3e3e 607a a13c a050 bcbd
00000150: 37d7 56be f35f b8be 58fc f23b fe82 7f3e
00000160: fb36 033e a83c 223e 046d 613e 3493 1e3d
00000170: 2af8 8fbd c76c f03d fda5 ebbd cb43 f8bd
00000180: 19d2 643e 7e0d 13be f2d7 1abe 10d6 45bc
00000190: 0635 0abd 5795 3a3e 4580 2b3e 7185 a43d
000001a0: 80f8 7c3d 775c 093d 7ec1 6c3d 305a febd
000001b0: 3fc2 1b3e 60bc 88bd 1ad0 d93d a2a6 4bbe
000001c0: 2710 b7bd 92de 63be a382 00be 4021 8abe
000001d0: cbd0 ad3d a140 f6bd 27e3 42be 74d5 8dbd
000001e0: 4bea cfbd b81f bcbd b98d 0ebe e36d b43e
000001f0: 365b 473d 02cf 403d a3e7 ef3d 8213 08be
00000200: b309 d5bd de6d bcbd 88d1 453e c078 c1bd
00000210: c768 cebd 1c1e 46bc dc4c 383e ca09 2fbe
00000220: 0df4 fbbd 04d7 0cbe 6080 b7bd f4a8 f1bd
00000230: c7ae 813e 3e3a 943d 02f6 d0bd 0a96 debd
00000240: 3bf7 2fbd c883 46bd e0d8 ed3b 24d8 90bd
00000250: e9bd 59bd a04f 323e 399d 81be 7480 56bd
00000260: fa05 d2bc 1f6f 25be c240 083e 521a 3ebd
00000270: 4e06 18be dacd 213d 4762 2abe f486 e33d
00000280: 0b23 2abe 8975 43be ebdc 46bc d832 7bbd
00000290: 8b27 4f3e fe64 8a3e e1cf edbd a35f 94be
000002a0: 13b2 31be 696e bebd bffd 4ebe 5f76 4f3e
000002b0: a4ab af3e 63a4 40be bae0 3fbe 44c5 19be
000002c0: 7300 42bc a819 36be 19ba 6dbd 703f 303e
000002d0: 2a3f a1bd f440 3cbe 15ee e33d ce4c 683e
000002e0: 2311 5f3e 3288 2d3c 00b5 6f3d 56ad 05be
000002f0: 4ff2 04bd def7 6e3e 442f e2bc 0fa7 9a3e
00000300: 1923 543c c991 a0bd 8d37 1ebe 517b b2bd
00000310: a126 3bbe f90e 73be c179 afbd 386d a73e
00000320: 9627 cfbd fe99 d4bc 5df1 75be 5330 743d
00000330: 7151 34be 7326 41be 0382 44be f7fc af3e
00000340: 018b 0ebd da01 86be 6d65 27be ff0e a0bb
00000350: b233 81be 1179 9dbe dacf 01bf 3c59 fe3e
00000360: 9bab a93d 5d0b 87be 742b 0ebc 4658 58be
00000370: ca3c 2cbe 76ad ddbd 7bee 34bd f852 843e
00000380: 9444 683d 29dd 74be 11bf 66be 146a 5d3e
00000390: 12c6 0d3e 84a0 0c3e 69fc 42bc 0922 15be
000003a0: 3d56 9d3d b579 00be 2ecd b23d 8aa9 053d
000003b0: bb68 3abe 67b0 70be 99d6 82bc b897 773e
000003c0: c882 063e fd24 4fbe 6e6c 41bd 2632 073e
000003d0: 2753 7cbe 18fd 98be 988b f9bd 3569 8d3e
000003e0: 0e01 a5be 91f4 61be 23e1 abbd 1b9a 5f3e
000003f0: 56af 41be c22d afbc 731e 6fbe 6d50 193d

bias_ih_l1 f4 [64]
0.24227992 -0.024831526 0.20909257 0.057128277 0.3092664 0.1997214 0.34734523 0.06028339
0.08937544 -0.0784092 0.07075014 0.0449619 -0.025626231 0.2377911 0.18068667 0.35153866
0.1041561 0.07372006 -0.16787693 -0.07967184 0.11181317 -0.10558615 -0.114014134 0.09959368
-0.017987408 0.017630955 -0.08253831 -0.17761566 0.04141444 -0.13201694 0.09056799 0.3010932
-0.12096511 -0.09786533 -0.046626832 -0.12236141 0.050796628 0.14197756 -0.24124168 -0.028363341
-0.14112334 -0.08385515 -0.1072902 0.1489377 -0.085861646 -0.2352305 -0.0367897 -0.007347338
0.12022984 0.11234491 -0.10240863 0.13671015 0.11827912 0.31647658 0.26166147 -0.053274296
0.150757 -0.14827089 -0.12541762 0.20819978 0.27698857 0.22803386 0.2724661 -0.12545237
00000000: 3a18 783e 7c6b cbbc 5d1c 563e 57ff 693d
00000010: 2a58 9e3e c483 4c3e 3cd7 b13e b7eb 763d
00000020: 780a b73d 0195 a0bd 73e5 903d f829 383d
00000030: 1aee d1bc 837f 733e ed05 393e e0fc b33e
00000040: cb4f d53d 8bfa 963d eee7 2bbe fd2a a3bd
00000050: 4efe e43d 8d3d d8bd 3e80 e9bd c5f7 cb3d
00000060: 545a 93bc cb6e 903c d809 a9bd e1e0 35be
00000070: 30a2 293d 732f 07be b67b b93d e328 9a3e
00000080: 8ebc f7bd 9e6d c8bd c7fb 3ebd 9e98 fabd
00000090: 2010 503d 9162 113e 0f08 77be 3d5a e8bc
000000a0: a382 10be 40bc abbd f7ba dbbd 2083 183e
000000b0: 3bd8 afbd 44e0 70be ccb0 16bd f0c1 f0bb
000000c0: 103b f63d 1715 e63d 9ebb d1bd bffd 0b3e
000000d0: 533c f23d 3809 a23e 7ef8 853e 2636 5abd
000000e0: 0b60 1a3e 53d4 17be 7a6d 00be 5332 553e
000000f0: 72d1 8d3e b581 693e ad80 8b3e 9676 00be

bias_hh_l1 f4 [64]
0.15945187 0.29979822 0.031943776 0.37618148 0.19593763 -0.066973224 0.28089315 0.30802944
0.24619667 -0.044084705 0.13630094 0.005570066 0.018843591 0.09259631 0.24236532 0.29685843
-0.085772984 0.0397589 0.17306416 -0.10581446 0.1252722 -0.15871248 0.009967962 -0.083671995
0.09441657 0.16297194 0.16676207 0.14688486 0.28899524 0.18251225 -0.29309312 -0.042467915
-0.13002726 0.1334257 0.027543161 0.2694158 -0.22370008 0.108322196 -0.058994435 -0.20676377
-0.07184764 -0.12234038 0.1619381 -0.11744795 0.048776645 0.16148654 0.11997766 -0.24571368
0.2518461 0.0047535836 0.16082397 0.33202353 0.19607688 -0.09500986 0.20649485 -0.068937376
0.15125948 0.17281125 0.09741613 0.3717955 -0.059215646 0.30831385 0.16296774 -0.09197088
00000000: 5a47 233e 277f 993e 7ad7 023d dc9a c03e
00000010: e0a3 483e 4229 89bd 3ad1 8f3e 09b6 9d3e
00000020: fb1a 7c3e 2a92 34bd 7992 0b3e 1a85 b63b
00000030: e05d 9a3c 22a3 bd3d 9d2e 783e d4fd 973e
00000040: bfa9 afbd 3ada 223d bb37 313e 40b5 d8bd
00000050: 5b47 003e 8685 22be aa50 233c 395c abbd
00000060: 7a5d c13d 1ee2 263e adc3 2a3e fc68 163e
00000070: 2ff7 933e 7ee4 3a3e 4d10 96be d6f2 2dbd
00000080: de25 05be bfa0 083e 32a2 e13c def0 893e
00000090: a211 65be 07d8 dd3d 26a4 71bd e2b9 53be
000000a0: db24 93bd 988d fabd 1ad3 253e 8d88 f0bd
000000b0: 05ca 473d ba5c 253e d9b6 f53d 5e9c 7bbe
000000c0: f9f1 803e f3c3 9b3b 0aaf 243e fdfe a93e
000000d0: 61c8 483e 8894 c2bd 6373 533e 0a2f 8dbd
000000e0: c4e3 1a3e 6ff5 303e 1c82 c73d fb5b be3e
000000f0: 1b8c 72bd 50db 9d3e 04e1 263e 3b5b bcbd

weight_hr_l1 f4 [4, 16]
0.3577273 -0.16355842 -0.26630473 -0.33649412 0.48996845 0.4049097 0.09343563 0.19953969
0.32172704 -0.19733797 -0.19000071 -0.34235045 -0.05328299 0.18248473 -0.30878058 0.18760921
0.2796221 -0.21096954 -0.29913253 -0.4093879 -0.023068521 0.27237034 0.15538815 0.4327359
0.35789037 -0.05146498 -0.038525328 -0.40077215 -0.08467073 0.37969378 -0.27402085 0.10156027
0.24321407 -0.29015443 -0.16626829 0.042444143 0.3657411 0.40533262 0.15230875 0.09944408
0.24444923 -0.08221443 -0.37903523 -0.40416765 -0.32452878 0.15539159 -0.16216038 0.20535491
0.07786186 0.08798949 0.2246054 0.4508217 -0.074327506 -0.07314412 -0.18883188 -0.098953456
-0.36819237 0.11731349 0.1607016 0.36720824 0.04919927 -0.2382909 0.2634905 -0.22929981
00000000: 0828 b73e dc7b 27be 1859 88be f548 acbe
00000010: 25dd fa3e 5350 cf3e 2e5b bf3d 2254 4c3e
00000020: 68b9 a43e f712 4abe 8c8f 42be 8f48 afbe
00000030: 443f 5abd 47dd 3a3e 7d18 9ebe a11c 403e
00000040: a12a 8f3e 6608 58be e627 99be 4a9b d1be
00000050: 32fa bcbc 2074 8b3e 121e 1f3e 8f8f dd3e
00000060: 683d b73e f1cc 52bd bccc 1dbd 0232 cdbe
00000070: d967 adbd 3967 c23e 764c 8cbe d5fe cf3d
00000080: 1c0d 793e 1f8f 94be 3c42 2abe e9d9 2d3d
00000090: 6b42 bb3e c287 cf3e d3f6 1b3e 56a9 cb3d
000000a0: e650 7a3e 0a60 a8bd e810 c2be 10ef cebe
000000b0: a328 a6be f91e 1f3e 5f0d 26be 8f48 523e
000000c0: 0a76 9f3d d533 b43d f5fe 653e 1ad2 e63e
000000d0: 0539 98bd 96cc 95bd 255d 41be 1ca8 cabd
000000e0: b683 bcbe 0e42 f03d f68e 243e b802 bc3e
000000f0: 2c85 493d 8802 74be 3ae8 863e 92cd 6abe

weight_ih_l2 f4 [64, 4]
-0.17215842 -0.06503602 -0.18529314 -0.11675544 -0.0057355226 0.03638433 0.13560478 0.21297225
-0.018217081 -0.29180154 -0.3722051 0.38311714 -0.17068732 0.16189675 -0.15496044 0.27580208
-0.13657403 -0.2890844 0.17261098 0.21593362 -0.07588732 -0.25027823 -0.23184605 0.074119374
0.0755231 -0.3677002 -0.29465586 -0.02607545 -0.17199546 -0.21284701 -0.25863296 0.019230235
0.3773963 0.12221888 0.6500876 -0.30368295 -0.014584259 0.21973829 0.018104635 -0.22371526
0.39676145 0.42225024 0.24372813 -0.38069442 0.06215177 0.39639384 0.06894992 -0.22968718
-0.30401918 -0.24354804 0.012710369 -0.08522324 0.6014865 0.38708052 0.27879208 -0.5033358
-0.06659953 0.00480026 -0.26663017 0.16180035 -0.3045915 -0.23401771 -0.25169653 0.26963696
-0.34226543 -0.23380858 -0.06619561 0.001022173 0.20487332 0.29946116 0.1209274 -0.24425924
-0.3277407 -0.1383498 -0.15766719 0.043325253 -0.15894136 0.025737258 0.07206886 0.22313353
-0.3217553 -0.22974482 -0.018280856 0.1788018 -0.20090313 -0.14077541 -0.2592543 0.12569503
-0.2991128 -0.10337697 -0.34410986 0.2717362 -0.05994825 -0.0133609595 -0.055483524 0.093707144
0.6555099 0.40540275 0.2730047 -0.5958445 0.27954847 0.07170261 0.08289965 -0.19104649
0.56278926 0.13471282 0.5191586 -0.15186606 0.4438462 0.50736713 0.5035614 -0.2505563
-0.3260887 -0.49890572 -0.18501925 0.16437262 0.22610451 0.55995524 0.36237925 -0.20152062
-0.29672965 -0.19265127 0.02021547 0.45564872 -0.24975419 -0.45182616 -0.4241147 0.12381337
0.1840029 0.33654806 0.2087856 -0.28015423 0.38470012 0.2561963 0.23406203 -0.4045462
0.25548145 0.11808022 0.24089296 -0.18642214 0.22777405 0.1515733 0.25606856 -0.2568267
0.034494873 0.29947427 0.43567142 0.0015505116 0.18699324 0.29441714 0.24360362 -0.3343315
0.14316265 0.035853676 0.1917791 -0.17723311 -0.25808895 -0.13356136 -0.3712436 0.12493874
0.19651487 0.37014017 0.31005642 0.023674725 -0.4083629 -0.3021066 -0.40407175 0.3076685
-0.3256188 -0.016887784 -0.42572865 0.111152865 -0.0506952 -0.31291786 -0.099597186 0.04066315
-0.37819138 -0.4414433 -0.48270518 -0.009892667 0.1345972 0.20799667 0.25877795 -0.089684494
-0.06098012 -0.3836601 -0.104435176 0.18843481 -0.33793262 -0.34384054 -0.1511745 0.31656423
-0.36655584 -0.27928594 -0.24506281 -0.016958944 -0.04545195 -0.04285465 0.17044638 0.3140222
-0.12062891 -0.506178 -0.07736766 0.426753 -0.072506994 -0.181234 -0.2348446 0.030488763
-0.3222863 -0.23684537 0.10428443 0.0843769 0.014273893 -0.22427584 -0.09578951 0.1777591
-0.42066342 -0.3544321 -0.19506867 0.17526749 -0.31099933 -0.018012006 -0.40405667 0.24427421
0.57139605 0.43959925 0.4863852 -0.3165941 0.029288005 0.24382341 0.043644723 0.052637804
0.72769934 0.48641005 0.71535486 -0.26817903 0.17229486 0.10507746 0.4457735 -0.5242978
-0.5002129 -0.30069694 -0.49312034 0.54181975 0.32425165 0.6371966 0.7830116 -0.31435138
-0.1503215 -0.4332522 -0.1642569 0.48677173 -0.08231364 -0.24766618 -0.32392573 0.12362614
00000000: 4c4a 30be 9b31 85bd 7cbd 3dbe 7a1d efbd
00000010: 0df1 bbbb bc07 153d fbdb 0a3e 6615 5a3e
00000020: fd3b 95bc 0367 95be ab91 bebe ee27 c43e
00000030: a8c8 2ebe 43c8 253e f3ad 1ebe ee35 8d3e
00000040: 10da 0bbe df02 94be efc0 303e b41d 5d3e
00000050: d06a 9bbd 7824 80be 0d69 6dbe e6cb 973d
00000060: dbab 9a3d 3343 bcbe 22dd 96be 2f9c d5bc
00000070: 941f 30be 91f4 59be 8a6b 84be ba88 9d3c
00000080: 163a c13e e44d fa3d 246c 263f 557c 9bbe
00000090: d1f2 6ebc 1303 613e 2c50 943c 9d15 65be
000000a0: 5124 cb3e 2f31 d83e de93 793e 61ea c2be
000000b0: db92 7e3d 22f4 ca3e 9e35 8d3d 1e33 6bbe
000000c0: 67a8 9bbe a864 79be 273f 503c 8689 aebd
000000d0: 05fb 193f 6b2f c63e d6bd 8e3e 9dda 00bf
000000e0: 5665 88bd 804b 9d3b c083 88be feae 253e
000000f0: 6bf3 9bbe 57a2 6fbe 5ede 80be db0d 8a3e
00000100: 6a3d afbe 846b 6fbe 9091 87bd 6ffa 853a
00000110: 50ca 513e f952 993e c9a8 f73d 181f 7abe
00000120: a1cd a7be 92ab 0dbe 8273 21be d275 313d
00000130: 86c1 22be f1d6 d23c d798 933d 1e7d 643e
00000140: 1cbd a4be 3a42 6bbe bcc1 95bc d217 373e
00000150: 8db9 4dbe 6e27 10be fbbc 84be 33b6 003e
00000160: 5025 99be 4eb7 d3bd 2b2f b0be 0221 8b3e
00000170: 4c8c 75bd ede7 5abc b142 63bd 88e9 bf3d
00000180: 7fcf 273f f390 cf3e 46c7 8b3e 4489 18bf
00000190: fa20 8f3e d1d8 923d 4bc7 a93d b1a1 43be
000001a0: f512 103f 28f2 093e 94e7 043f c782 1bbe
000001b0: cf3f e33e d0e2 013f 66e9 003f ea48 80be
000001c0: 19f5 a6be 9270 ffbe b075 3dbe 4c51 283e
000001d0: f187 673e 3a59 0f3f c689 b93e 6c5b 4ebe
000001e0: f3ec 97be 6046 45be ea9a a53c ca4a e93e
000001f0: 90bf 7fbe c255 e7be 9025 d9be dd91 fd3d
00000200: 426b 3c3e 0750 ac3e e4cb 553e 6070 8fbe
00000210: 6af7 c43e 292c 833e f5ad 6f3e ae20 cfbe
00000220: 77ce 823e 0bd4 f13d a5ac 763e 72e5 3ebe
00000230: 9a3d 693e 0836 1b3e 6b1b 833e ca7e 83be
00000240: 7f4a 0d3d b154 993e 5310 df3e 893a cb3a
00000250: 287b 3f3e d8bd 963e 3a73 793e 802d abbe
00000260: 3b99 123e 4edb 123d be61 443e 997c 35be
00000270: 3c24 84be 4fc4 08be a413 bebe e2df ff3d
00000280: 323b 493e 0383 bd3e b7bf 9e3e 7ff1 c13c
00000290: f114 d1be b7ad 9abe 7ee2 cebe ba86 9d3e
000002a0: 82b7 a6be 4058 8abc 1bf9 d9be 1da4 e33d
000002b0: c5a5 4fbd c536 a0be 9cf9 cbbd 678e 263d
000002c0: 4da2 c1be db04 e2be 2225 f7be da14 22bc
000002d0: d9d3 093e 14fd 543e 8b7e 843e 81ac b7bd
000002e0: 4ac6 79bd 196f c4be 1ce2 d5bd 0ef5 403e
000002f0: 8105 adbe de0b b0be 7dcd 1abe b514 a23e
00000300: 35ad bbbe 91fe 8ebe bff1 7abe 7ced 8abc
00000310: d32b 3abd 5c88 2fbd 7f89 2e3e 85c7 a03e
00000320: 4a0c f7bd e294 01bf f072 9ebd 5f7f da3e
00000330: 8c7e 94bd 6895 39be 1a7b 70be 92c3 f93c
00000340: b602 a5be 9887 72be 1393 d53d cccd ac3d
00000350: 0cdd 693c 91a8 65be 4a2d c4bd 7b06 363e
00000360: 3261 d7be 2078 b5be 15c0 47be 5279 333e
00000370: 4e3b 9fbe ea8d 93bc 84e0 cebe 0523 7a3e
00000380: 0347 123f 2713 e13e 7b07 f93e 9f18 a2be
00000390: 66ed ef3c d8ac 793e cfc4 323d bd9a 573d
000003a0: 814a 3a3f bd0a f93e 7f21 373f c34e 89be
000003b0: 106e 303e da32 d73d 6d3c e43e 6138 06bf
000003c0: f40d 00bf f3f4 99be 457a fcbe b3b4 0a3f
000003d0: 5004 a63e 511f 233f 7373 483f aaf2 a0be
000003e0: e1ed 19be 3bd3 ddbe f632 28be 253a f93e
000003f0: 0e94 a8bd 349c 7dbe 98d9 a5be b42f fd3d

weight_hh_l2 f4 [64, 4]
0.114118144 0.17680834 0.023151863 0.15231495 0.057326563 0.3469032 0.2156829 0.105778694
-0.020557309 0.18771507 -0.03614173 0.19621694 0.1815549 0.33747628 0.311264 0.3765555
-0.045617398 0.62484133 -0.13646287 -0.0047617266 -0.18350622 0.2270895 -0.3608351 -0.37523592
-0.068687536 0.2593537 0.09766104 0.104023315 -0.34446692 0.2841598 -0.29861167 -0.27899832
-0.325901 -0.13307446 -0.36798918 0.012724431 -0.13512944 0.11831914 -0.28389844 -0.29953927
-0.053382277 0.20798858 0.10761652 -0.30925238 0.2145754 0.2804493 -0.00055695407 -0.0681865
0.08772418 0.701063 -0.07291095 0.01930356 -0.37186915 -0.2867277 0.038778502 -0.13016383
0.06647171 0.1010425 0.16574919 -0.07370793 0.008850195 0.5127806 0.1396826 0.2373655
-0.136501 0.04105477 -0.070829585 -0.16056353 -0.23352411 -0.1262555 0.003272477 -0.349526
-0.15697841 0.33901381 -0.055935174 -0.108552516 0.12592557 0.3090451 -0.10614747 0.31058615
0.055145774 0.12321346 -0.14602974 0.044003602 -0.39030182 -0.10091544 -0.1353622 -0.10452278
0.12702487 -0.026397904 -0.14962402 -0.061736822 0.04913527 0.08709585 -0.30993336 -0.27254215
-0.34782416 -0.03905381 -0.11798833 0.030924927 -0.30115816 0.030934831 -0.3286225 -0.18176149
-0.09674242 -0.43087217 -0.03629828 -0.14157356 0.04949609 -0.07737359 -0.08876181 -0.25558305
-0.1253377 -0.17078747 -0.11572427 -0.21242069 -0.03783887 -0.347465 0.004694327 -0.2881379
0.1278026 -0.02154542 -0.11703925 -0.22422472 0.121084034 0.030081347 -0.16221714 0.062785506
0.068480596 0.15042262 0.010918942 0.4028525 0.1397805 0.04893324 0.10376369 0.29952487
0.1103325 0.020975271 0.25219128 0.12993678 0.22960289 0.15075113 -0.08400526 0.13269666
0.23652513 0.03436702 -0.003352963 0.078577235 0.2443443 -0.1448002 0.10578899 0.030750569
0.21634051 0.12619622 -0.022878157 -0.12352401 0.10369765 -0.13944 -0.040498357 -0.09711282
-0.060159028 0.049834196 -0.100263886 -0.1821948 0.058229536 -0.20463051 -0.032488603 -0.043122996
-0.025292562 0.15545861 -0.2274394 -0.022135984 -0.035557136 -0.33000064 -0.2227834 0.20972592
-0.062953174 0.1563485 -0.4506407 -0.39911994 -0.14098193 -0.15517853 0.04329928 0.026607221
-0.15546718 0.0698896 -0.082097486 -0.20652445 -0.22338754 -0.2246191 -0.25805873 0.06509131
-0.06152204 0.46773204 0.003911103 -0.07070802 0.11585512 0.12763244 0.06300709 -0.19052306
0.22915642 0.3212871 -0.032561783 0.2110792 0.25653765 0.63422906 -0.09027869 -0.09129915
0.123100415 0.3754364 -0.1445623 0.06659963 -0.048585918 0.27307546 -0.03482693 -0.20683174
-0.13783441 0.32081106 0.052236002 0.15250711 0.008009661 -0.0037427924 -0.3065203 -0.108527854
-0.54762787 -0.09738404 -0.43391418 -0.49246618 -0.39875618 -0.0062724003 -0.5061822 -0.29924715
-0.21973829 -0.36329556 -0.19952428 0.039048716 -0.29694372 0.27122155 -0.2061273 -0.18873456
0.15272985 0.2859035 0.13109787 -0.27699083 -0.070639856 -0.64847726 -0.36272463 -0.23604172
0.22714344 0.037348166 0.18195783 -0.22054464 0.41208908 0.24133407 0.45997816 -0.030897189
00000000: c6b6 e93d 3f0d 353e faa8 bd3c 73f8 1b3e
00000010: 42cf 6a3d 4c9d b13e fadb 5c3e 80a2 d83d
00000020: cd67 a8bc 6138 403e 5a09 14bd 18ed 483e
00000030: 87e9 393e b1c9 ac3e ff5d 9f3e e2cb c03e
00000040: 4fd9 3abd 9af5 1f3f ecbc 0bbe 4208 9cbb
00000050: 0ee9 3bbe 268a 683e 61bf b8be ec1e c0be
00000060: 0dac 8cbd 02ca 843e 8302 c83d 2d0a d53d
00000070: f85d b0be 657d 913e a1e3 98be ded8 8ebe
00000080: 7fdc a6be ac44 08be 1469 bcbe 227a 503c
00000090: 5f5f 0abe 4e51 f23d 235b 91be 365d 99be
000000a0: 60a7 5abd f5fa 543e 0d66 dc3d 5456 9ebe
000000b0: a7b9 5b3e 0d97 8f3e 8e00 12ba 5da5 8bbd
000000c0: bca8 b33d dd78 333f 5652 95bd 8022 9e3c
000000d0: a265 bebe f9cd 92be 35d6 1e3d ab49 05be
000000e0: 5222 883d 5fef ce3d 28ba 293e 2ff4 96bd
000000f0: 6900 113c 9745 033f f508 0f3e f10f 733e
00000100: ebc6 0bbe 0c29 283d 1a0f 91bd c46a 24be
00000110: f220 6fbe 1f49 01be 0e77 563b 12f5 b2be
00000120: f3be 20be 3893 ad3e 481c 65bd c850 debd
00000130: a2f2 003e 293b 9e3e d863 d9bd 2605 9f3e
00000140: 89e0 613d 5757 fc3d d288 15be 1f3d 343d
00000150: a4d5 c7be c1ac cebd 639c 0abe 0a10 d6bd
00000160: cf12 023e 6b40 d8bc 0a37 19be c0df 7cbd
00000170: 1142 493d 4f5f b23d 96af 9ebe a58a 8bbe
00000180: 0216 b2be e3f6 1fbd dea3 f1bd 4656 fd3c
00000190: 6731 9abe 0b6b fd3c 3541 a8be af1f 3abe
000001a0: e420 c6bd 479b dcbe 81ad 14bd a9f8 10be
000001b0: 69bc 4a3d 0b76 9ebd c0c8 b5bd c8db 82be
000001c0: 8758 00be e9e2 2ebe d900 edbd cf84 59be
000001d0: eefc 1abd efe6 b1be ded2 993b d086 93be
000001e0: afde 023e 0580 b0bc 46b2 efbd 2a9b 65be
000001f0: e8fa f73d 286d f63c 401c 26be b095 803d
00000200: 8e3f 8c3d 6308 1a3e 5de5 323c af42 ce3e
00000210: 9f22 0f3e 396e 483d 0f82 d43d 535b 993e
00000220: 01f6 e13d 55d4 ab3c 371f 813e 260e 053e
00000230: 051d 6b3e 815e 1a3e f30a acbd a2e1 073e
00000240: a533 723e 6fc4 0c3d 62bd 5bbb 1aed a03d
00000250: 6435 7a3e 8146 14be e6a7 d83d 9ee8 fb3c
00000260: 5e88 5d3e 9539 013e f96a bbbc 28fa fcbd
00000270: 6f5f d43d 5cc9 0ebe 9be1 25bd 16e3 c6bd
00000280: 5069 76bd f11e 4c3d 2757 cdbd 4691 3abe
00000290: 1882 6e3d a98a 51be c512 05bd bda1 30bd
000002a0: 5932 cfbc 8b30 1f3e e0e5 68be 8656 b5bc
000002b0: 5ca4 11bd d8f5 a8be 5521 64be 64c2 563e
000002c0: 98ed 80bd d219 203e 61ba e6be 7359 ccbe
000002d0: 915d 10be 1fe7 1ebe 965a 313d 63f7 d93c
000002e0: ca32 1fbe 4722 8f3d ba22 a8bd 257b 53be
000002f0: b4bf 64be 8d02 66be 4620 84be 984e 853d
00000300: 89fe 7bbd 937a ef3e b628 803b 5ecf 90bd
00000310: 7345 ed3d 14b2 023e dc09 813d 7a18 43be
00000320: fba7 6a3e be7f a43e 815f 05bd 2525 583e
00000330: e758 833e d65c 223f 09e4 b8bd 0cfb babd
00000340: 121c fc3d 3339 c03e 2408 14be 6365 883d
00000350: 0702 47bd 8cd0 8b3e afa6 0ebd b3cb 53be
00000360: 7724 0dbe 5941 a43e 6bf5 553d d32a 1c3e
00000370: f43a 033c a349 75bb 3bf0 9cbe da43 debd
00000380: 5731 0cbf 4971 c7bd 002a debe 8724 fcbe
00000390: c529 ccbe b588 cdbb 2895 01bf ec36 99be
000003a0: 1303 61be e001 babe 1850 4cbe 8cf1 1f3d
000003b0: 0209 98be 8ddd 8a3e 0913 53be a243 41be
000003c0: 3765 1c3e f261 923e 853e 063e bed1 8dbe
000003d0: a1ab 90bd 9b02 26bf 0bb7 b9be ecb4 71be
000003e0: 4a98 683e 64fa 183d 2753 3a3e 74d6 61be
000003f0: 57fd d23e 4720 773e 4282 eb3e 1a1c fdbc

bias_ih_l2 f4 [64]
0.49325976 0.2595071 0.04884987 0.29492164 0.3784058 0.5828487 -0.09458995 0.37347987
0.3515607 -0.04033144 0.25561672 0.1728242 0.13519855 0.25651556 -0.010989436 0.32568008
0.08109155 0.079134166 0.28053278 0.059980687 -0.13224436 0.14187022 -0.25372258 0.03462002
-0.15616654 0.2305801 -0.09820733 0.069977894 0.19703826 -0.045931228 -0.011831358 -0.2333407
0.06278852 0.08822396 0.012071489 0.09888739 0.14133866 0.24651168 -0.024058122 -0.14084493
0.31569722 -0.034552682 -0.25567004 -0.3675958 0.078892805 0.30709612 -0.06340227 0.12932196
0.23896624 0.20509546 0.18146907 0.49894097 0.3680681 0.26738164 -0.062224854 0.37170017
0.25728527 0.21022089 0.15281932 0.20305493 0.16539542 0.065529905 0.18454377 0.33260697
00000000: 8b8c fc3e 1dde 843e cd16 483d f8ff 963e
00000010: 68be c13e 9335 153f 60b8 c1bd c138 bf3e
00000020: c4ff b33e 9432 25bd 32e0 823e d4f8 303e
00000030: 7d71 0a3e 0256 833e 090d 34bc 8abf a63e
00000040: 5413 a63d 1811 a23d fea1 8f3e 4fae 753d
00000050: 116b 07be 6d46 113e ede7 81be b9cd 0d3d
00000060: 1fea 1fbe 311d 6c3e ed20 c9bd 9250 8f3d
00000070: 66c4 493e 6222 3cbd 50d8 41bc ddf0 6ebe
00000080: 4497 803d c3ae b43d 7fc7 453c 7985 ca3d
00000090: 15bb 103e 8f6d 7c3e 8a15 c5bc a739 10be
000000a0: 11a3 a13e 1d87 0dbd 2fe7 82be 8435 bcbe
000000b0: 8d92 a13d b43b 9d3e 0dd9 81bd fa6c 043e
000000c0: 91b3 743e 8b04 523e 07d3 393e 3175 ff3e
000000d0: 6c73 bc3e 3fe6 883e 7ddf 7ebd 7c4f be3e
000000e0: e5ba 833e 2544 573e ab7c 1c3e a2ed 4f3e
000000f0: 6b5d 293e 8b34 863d 0bf9 3c3e 764b aa3e

bias_hh_l2 f4 [64]
0.4686464 0.506238 0.09496186 0.027500328 0.5196726 0.34948748 0.051347323 0.47678864
0.21140954 0.13313761 -0.1178974 0.20607986 0.37125173 -0.033434484 0.119286165 0.08818011
0.03671952 0.2105948 -0.1349547 0.07989457 -0.11174015 0.04309066 0.05376877 -0.020439196
0.12852985 -0.111480385 -0.0991618 0.103823006 0.14827478 -0.026875898 0.2814683 -0.25698322
-0.12743297 0.17654261 -0.1250702 0.038279306 0.028297111 -0.17869972 -0.114604875 0.2499608
0.21016794 0.008132143 -0.1815136 -0.3192454 0.096738316 0.11361103 0.06707368 -0.21158561
0.46822408 0.22800893 0.28350335 0.42052075 0.55821294 0.5800917 -0.03089684 0.26655316
0.05299446 0.1758967 0.019779056 0.3106744 0.15293108 -0.055874683 0.455359 0.5090661
00000000: 6cf2 ef3e d098 013f 5d7b c23d 5e48 e13c
00000010: 4309 053f 06f0 b23e 9251 523d a41d f43e
00000020: be7b 583e 3a55 083e 3174 f1bd 9906 533e
00000030: b514 be3e 99f2 08bd 4e4c f43d c697 b43d
00000040: 3567 163d 2aa6 573e 9131 0abe c49f a33d
00000050: 05d8 e4bd d57f 303d a43c 5c3d 1a70 a7bc
00000060: 549d 033e d44f e4bd 5815 cbbd 28a1 d43d
00000070: 58d5 173e d82a dcbc 9d1c 903e 4e93 83be
00000080: ca7d 02be 96c7 343e 6712 00be c3ca 1c3d
00000090: 58cf e73c 0ffd 36be f6b5 eabd b9f5 7f3e
000000a0: 4436 573e ae3c 053c b3de 39be 2274 a3be
000000b0: bd1e c63d e6ac e83d ed5d 893d e6a9 58be
000000c0: 11bb ef3e 2c7b 693e 5a27 913e 7f4e d73e
000000d0: 0be7 0e3f e480 143f 5f1b fdbc a879 883e
000000e0: b810 593d 441e 343e b007 a23c b710 9f3e
000000f0: f799 1c3e dadc 64bd d124 e93e 2852 023f
