saved_models/LSTM/ckpt__epoch100.ckpt (torch, 17513 bytes, 20 tensors)

weight_ih_l0 f4 [64, 8]
0	0x3da8e07b	0.08245941
1	0xbe28d0b0	-0.16485858
2	0xbe89ce75	-0.26915327
3	0x3dd00966	0.101580426
4	0xbd32b679	-0.04363105
5	0xbd7e307c	-0.062057957
6	0xbead4bfb	-0.3384703
7	0x3e0a7c84	0.13524061
8	0xbc3bfdac	-0.011474054
9	0x3eb6ca46	0.35701197
10	0xbe951661	-0.29118636
11	0x3daa6ff3	0.08322134
12	0xbe479b87	-0.19492923
13	0x3d0da87b	0.034584504
14	0xbdd12c2f	-0.102135055
15	0x3d002b1c	0.031291112
16	0x3cba2e39	0.022727119
17	0x3e3c3062	0.18377832
18	0xbe46716a	-0.19379202
19	0xbddbe28c	-0.1073657
20	0xbe5aacd4	-0.21354991
21	0xbe3b9c11	-0.18321253
22	0xbe15e6e9	-0.14638866
23	0x3c88cc30	0.016698927
24	0xbcf1b8f7	-0.029507143
25	0x3bb6b71d	0.005576028
26	0xbe89fe31	-0.26951745
27	0x3e49fef4	0.19726163
28	0xbdb17259	-0.08664388
29	0xbe1dca5a	-0.15409222
30	0xbd78b3ba	-0.060718276
31	0xbd549cc1	-0.051907305
32	0xbdc9da56	-0.098560974
33	0x3c189f13	0.00931527
34	0x3e6a5a29	0.22885956
35	0x3e5d3fa4	0.21606308
36	0x3e4c4571	0.19948365
37	0x3ebe99fc	0.37226856
38	0xbd49a1d9	-0.049226616
39	0x3b13b7a3	0.0022539876
40	0x3d92163b	0.071331464
41	0xbd938c9f	-0.07204556
42	0x3e6344fe	0.22194287
43	0x3e269927	0.1626936
44	0x3deda9ed	0.116046764
45	0xbe90a72a	-0.28252536
46	0x3e5aada4	0.21355301
47	0x3c940190	0.018067151
48	0xbe3a28d4	-0.18179637
49	0x3d9463bf	0.072455876
50	0x3e2045d9	0.15651645
51	0x3f023496	0.5086149
52	0xbdbbb06e	-0.09164511
53	0x3e36e8f6	0.17862305
54	0xbe8483a8	-0.25881696
55	0xbcee643e	-0.029100534
56	0xbd3a9b42	-0.04555822
57	0xbe6215d1	-0.22078635
58	0xbd8e0b8c	-0.06935796
59	0x3db937b5	0.090438284
60	0x3da93a7c	0.08263108
61	0xbe8a7e02	-0.2704926
62	0x3cdb4063	0.0267641
63	0xbda6c282	-0.08142568
64	0x3d901a10	0.07036221
65	0x3dda32df	0.10654234
66	0x3ebeee06	0.37290972
67	0xbd76c1b0	-0.06024331
68	0xbe0a00b6	-0.13476834
69	0xbead9ef8	-0.33910346
70	0x3d5591fd	0.05214118
71	0x3e54f7a9	0.207976
72	0x3ccb1a86	0.02479292
73	0x3e1b95c0	0.15193844
74	0x3e7cbd1a	0.24681512
75	0xbcab63e1	-0.02092165
76	0x3d0c277e	0.03421735
77	0x3e06b26a	0.13153997
78	0x3e865d04	0.2624284
79	0x3db90777	0.09034627
80	0xbb8a282a	-0.0042162137
81	0xba1e09c8	-0.0006028679
82	0x3ccd4553	0.02505747
83	0x3e11e1fe	0.14246365
84	0xbe3a21de	-0.18176982
85	0xbc1d963e	-0.00961834
86	0x3e30f233	0.17279892
87	0xbd827345	-0.06369642
88	0xbdd3ca93	-0.10341372
89	0xbc60b5e3	-0.01371524
90	0xbc757bf3	-0.014983165
91	0xbe8d7883	-0.27631006
92	0x3cd6bc96	0.026212972
93	0xbcd9d372	-0.026590083
94	0xbea626e8	-0.32451558
95	0x3dbe863b	0.09302946
96	0xbd45ae29	-0.048261795
97	0xbda2cb35	-0.07948915
98	0x3df2571d	0.11833022
99	0xbcb22029	-0.02174385
100	0x3e4e1e96	0.20128855
101	0xbe18a676	-0.1490725
102	0xbeb52013	-0.35376033
103	0x3d4443dc	0.04791628
104	0x3c6bc6fe	0.014390705
105	0x3d0bf39f	0.034167882
106	0xbc8eae6d	-0.017417157
107	0x3dab41ab	0.083621345
108	0x3bb1a264	0.00542097
109	0x3e55c13b	0.20874493
110	0xbe4d5d26	-0.20055065
111	0x3dceea86	0.101033255
112	0xbd905497	-0.07047384
113	0xbde1a1f0	-0.11017215
114	0xbe91e4d6	-0.284949
115	0xbdd4b026	-0.1038516
116	0x3dd9bba4	0.10631493
117	0xbdd3e3bd	-0.10346172
118	0x3e0ce3de	0.137588
119	0xbd45d18f	-0.048295554
120	0x3d49c9ed	0.049264837
121	0xbcaeffec	-0.021362267
122	0x3e8c01e8	0.27345204
123	0xbe1a91a2	-0.15094617
124	0xbb73d154	-0.0037203627
125	0xbe713315	-0.23554642
126	0xbe8e08fe	-0.27741235
127	0x3db8b848	0.09019524
128	0xbe021e0b	-0.12706773
129	0xbe2141fa	-0.15747824
130	0xbe523889	-0.20529379
131	0xbe4a3fda	-0.1975092
132	0xbd4e5e7f	-0.050383087
133	0x3daac7b3	0.08338871
134	0x3c984b3b	0.01859056
135	0x3e0fad97	0.14031063
136	0xbd7314ed	-0.05934613
137	0x3daf1bd2	0.08550228
138	0x3d7350bf	0.059403177
139	0xbe23b871	-0.15988328
140	0x3e197b40	0.14988422
141	0xbe4bd463	-0.19905238
142	0xbb19434f	-0.0023386066
143	0xbd139622	-0.03603185
144	0x3e0a2a88	0.13492787
145	0xbdd733b1	-0.10507906
146	0xbe292980	-0.16519737
147	0x3e7ef1a4	0.24896866
148	0x3e62416d	0.2209527
149	0x3d13aa15	0.036050875
150	0x3d1cf36b	0.03831808
151	0x3dc431e7	0.095798306
152	0xbd9bc74e	-0.07606374
153	0x3dd8c34f	0.10584127
154	0xbe1a4a1a	-0.1506733
155	0xbad18093	-0.0015983753
156	0x3b98705b	0.0046520657
157	0x3d6d43d3	0.05792601
158	0x3d94c9b4	0.07265034
159	0xbc52bbd5	-0.012862165
160	0x3e0c322c	0.13691014
161	0x3e6c73b9	0.2309102
162	0x3e649c2f	0.22325204
163	0xbbb2f91b	-0.0054618246
164	0xbe354796	-0.17703089
165	0xbdfcf07d	-0.12350557
166	0x3d1f765f	0.038931247
167	0xbdf88ec0	-0.121366024
168	0x3c971b26	0.018445563
169	0xbe33be2d	-0.17553015
170	0xbddf83ca	-0.10913809
171	0x3cac9a02	0.02106953
172	0x3c6be220	0.014397174
173	0xbc99ff1c	-0.018798403
174	0x3dac9c25	0.0842822
175	0xbceb0661	-0.028689565
176	0x3cc55416	0.024087947
177	0xbdb09e09	-0.08623893
178	0xbe0b9900	-0.13632584
179	0x3e2647aa	0.16238275
180	0xbd95618a	-0.07293995
181	0x3ddeb3b1	0.10874117
182	0xbe5562e2	-0.20838502
183	0x3d9b3b8a	0.075797155
184	0x3dbd2e8e	0.09237395
185	0xbe5d2e97	-0.21599804
186	0xbd941a40	-0.07231569
187	0xbe482ad3	-0.19547586
188	0xbd911735	-0.070845045
189	0xbd45bca2	-0.048275597
190	0xbd4adc67	-0.0495266
191	0xbd227978	-0.039666623
192	0xbd63c110	-0.05560404
193	0x3e4e0030	0.20117259
194	0xbe0e58a6	-0.13901004
195	0x3e5cb9d0	0.21555257
196	0xbcd2c5c3	-0.025729066
197	0x3dc9df87	0.098570876
198	0x3d5d8c5a	0.054088928
199	0x3d3c6008	0.04599002
200	0xbbfd8c3c	-0.0077376645
201	0x3d804c29	0.062645264
202	0x3df117b0	0.11772096
203	0xbd2e9f7c	-0.042632565
204	0xbda9cc0d	-0.08290873
205	0x3ddbc103	0.107301734
206	0x3de9f13e	0.114229664
207	0x3c6e3a55	0.014540275
208	0xbd810391	-0.06299508
209	0x3e275f41	0.1634493
210	0x3e91f879	0.28509882
211	0xbd773e7e	-0.06036233
212	0x3c4de781	0.012567402
213	0x3c859119	0.01630454
214	0xbd1995c6	-0.03749635
215	0xbe8597b9	-0.26092318
216	0xbda7175b	-0.081587516
217	0xbd42a6d9	-0.0475224
218	0x3cf7304b	0.030174395
219	0xbd5a46b6	-0.05329009
220	0x3d747af1	0.05968756
221	0xbd162e08	-0.036664993
222	0xbd56d826	-0.05245223
223	0x3c51bd20	0.012801439
224	0xbe001a88	-0.12510121
225	0xbd59cbf2	-0.053173013
226	0xbd5ba41d	-0.053623307
227	0x3deec002	0.11657716
228	0x3e80a78e	0.25127834
229	0xbcc37cc5	-0.023863206
230	0x3dc7b92a	0.09752114
231	0xbdfe569c	-0.12418863
232	0xbe09facb	-0.13474576
233	0x3e1cb39d	0.15302892
234	0xbc1f335c	-0.009716835
235	0x3d62e900	0.055397987
236	0xbc85ba66	-0.016324233
237	0xbdc0f7b4	-0.094222456
238	0x3d477593	0.048696112
239	0x3c89bdeb	0.016814193
240	0x3ce86eb5	0.028373102
241	0xbe651bce	-0.22373888
242	0xbea98b78	-0.3311422
243	0xbb33783b	-0.0027384895
244	0xbd8671bc	-0.06564662
245	0x3e71651f	0.23573731
246	0xbdb83e67	-0.08996277
247	0x3d55faad	0.052241016
248	0x3c67b06f	0.014141186
249	0xbeaaf535	-0.33390203
250	0xbe6efef7	-0.23339449
251	0x3e23235d	0.15931459
252	0xbba45851	-0.005015411
253	0x3d639bca	0.055568494
254	0x3dea7131	0.11447371
255	0x3d7c8f8b	0.06166033

weight_hh_l0 f4 [64, 4]
0	0x3ecb88bb	0.39752755
1	0x3e4bb0fe	0.19891736
2	0xbe2a902f	-0.16656564
3	0x3e21ce3b	0.15801327
4	0x3e1dcd63	0.1541038
5	0x3dc4dc01	0.09612275
6	0xbdba97e5	-0.09111003
7	0x3e730580	0.23732567
8	0x3db2cced	0.08730493
9	0xbd49a30b	-0.049227756
10	0x3e077b40	0.1323061
11	0xbe133d33	-0.14378814
12	0xbe9a2c19	-0.3011177
13	0xbe80866a	-0.2510255
14	0x3e6548b5	0.22391017
15	0xbe4d99f1	-0.20078255
16	0x3e6a1059	0.22857799
17	0xbe3df4d8	-0.18550432
18	0x3d93ad73	0.07210817
19	0x3e3ca7a9	0.18423332
20	0xbf022689	-0.5084005
21	0xbecf0599	-0.40433958
22	0x3e77b8e4	0.24191624
23	0xbdcc536d	-0.0997685
24	0xbdcf6e76	-0.101284906
25	0xbdbf84eb	-0.09351524
26	0xbe8b0aa1	-0.27156547
27	0xbd9d66fa	-0.07685657
28	0x3de05205	0.10953144
29	0xbe39e5c3	-0.18154053
30	0x3d206c89	0.039166007
31	0x3ea775e9	0.32707146
32	0xbea73230	-0.32655478
33	0xbd888d25	-0.06667546
34	0x3ec78872	0.38971287
35	0xbea9452c	-0.33060586
36	0xbe65fa9e	-0.22458884
37	0xbec7481b	-0.389222
38	0x3e5c6a06	0.2152482
39	0xbdc81cbd	-0.097711064
40	0x3eafef17	0.343621
41	0x3eb57a12	0.35444695
42	0xbea63ba2	-0.3246737
43	0x3e3835ff	0.17989348
44	0x3d6c8dda	0.057752468
45	0x3e378728	0.17922652
46	0xbe4082ca	-0.18799892
47	0x3e74e151	0.23914076
48	0xbe749bb8	-0.23887527
49	0xbe05801f	-0.13037156
50	0x3d21b483	0.03947879
51	0xbde057b8	-0.10954231
52	0xbe1da649	-0.15395464
53	0xbe0bfb9a	-0.13670197
54	0x3e732365	0.2374397
55	0xbe469c2a	-0.1939551
56	0x3e4b760b	0.19869249
57	0xbded415e	-0.115847334
58	0xbe4bdabd	-0.19907661
59	0x3bb7b97c	0.0056068283
60	0xbed2a7b3	-0.4114357
61	0x3d8011cf	0.06253397
62	0x3db61497	0.08890646
63	0xbeb60968	-0.3555405
64	0x3b0a0dbc	0.0021065315
65	0xbc3524f3	-0.011056173
66	0xbe0a9894	-0.13534766
67	0xbe59d4d4	-0.21272594
68	0xbeabc5ec	-0.3354944
69	0x3e336c85	0.17521866
70	0x3e0d56da	0.13802662
71	0xbd9d8bae	-0.076926574
72	0x3de8bf1c	0.11364576
73	0xbea9be66	-0.33153075
74	0x3e800887	0.25006506
75	0xbeab093c	-0.33405483
76	0x3eac96ba	0.33708745
77	0x3ec21af4	0.3791119
78	0xbe9ce464	-0.30642998
79	0xbd09da14	-0.03365524
80	0xbd9a0a0e	-0.07521449
81	0xbec57910	-0.38568926
82	0x3e683135	0.22675021
83	0xbbec40b7	-0.007209863
84	0xbcfc6065	-0.030807683
85	0xbe4a43ed	-0.19752474
86	0x3efce531	0.4939361
87	0xbe60cd62	-0.21953347
88	0xbe8c1310	-0.27358294
89	0xbec64641	-0.38725474
90	0x3ec8383a	0.39105397
91	0xbee7809d	-0.45215312
92	0x3e67aca5	0.22624452
93	0xbd47bcc7	-0.048764016
94	0x3d0ce2ef	0.03439611
95	0x3e313973	0.17307071
96	0x3ea74c8a	0.32675582
97	0x3eb60728	0.35552335
98	0x3e2ed2a8	0.17072546
99	0x3d387bd8	0.04503998
100	0xbeb38179	-0.35059717
101	0x3d955c3a	0.072929814
102	0x3cb7fc3d	0.022459144
103	0xbe02e5d8	-0.12782991
104	0xbdeb196c	-0.11479458
105	0x3dfb869c	0.12281534
106	0x3dd2f04d	0.1029974
107	0xbe7ad385	-0.24494751
108	0x3d9f6968	0.077837765
109	0xbd22e1e1	-0.039766196
110	0xbd3e331b	-0.046435457
111	0xbe16325f	-0.14667653
112	0x3eb774f1	0.35831407
113	0x3daf7ca4	0.08568695
114	0x3b9da5d0	0.004811026
115	0xbdfe4f50	-0.124174714
116	0x3ea832ff	0.32851407
117	0x3d98abdc	0.074546546
118	0xbb957aba	-0.0045617493
119	0x3e790d55	0.24321492
120	0xbea65f17	-0.32494423
121	0xbe7411c1	-0.23834898
122	0x3da2e5fc	0.07954022
123	0xbea1a744	-0.31572926
124	0xbe3f40d9	-0.18677081
125	0xbdae9aa6	-0.085255906
126	0x3e2d703a	0.16937342
127	0xbd856be4	-0.06514719
128	0x3d462b52	0.048381157
129	0xbe4b1920	-0.19833803
130	0x3e934a31	0.2876754
131	0xbec75be6	-0.389373
132	0x3da0b7e5	0.07847575
133	0xbe91e72a	-0.28496677
134	0xbaa7bafc	-0.0012796815
135	0xbe786733	-0.24258117
136	0xbe839f60	-0.2570753
137	0xbeb9d7eb	-0.36297545
138	0x3edcf365	0.43154445
139	0xbdfed5c9	-0.1244312
140	0x3eb66bf2	0.3562923
141	0x3ce4007a	0.027832258
142	0xbe870532	-0.2637115
143	0x3e7eff21	0.24902011
144	0xbd4ba96a	-0.049722113
145	0x3ed8d6c4	0.42351353
146	0xbec4ce44	-0.38438618
147	0x3dc6f9b6	0.09715597
148	0x3ea9b8a3	0.3314868
149	0x3e3bcf28	0.18340743
150	0xbead27ca	-0.3381942
151	0xbcc4444a	-0.023958344
152	0x3e659d39	0.22423257
153	0xbc7a8033	-0.015289354
154	0xbe983d27	-0.29734156
155	0x3e0cc6d5	0.13747723
156	0xbe5b1a66	-0.21396789
157	0xbeb7561b	-0.3580788
158	0x3ccb2d6e	0.024801936
159	0xbda11846	-0.07865958
160	0xbe1da9b6	-0.15396771
161	0xbe0de9ee	-0.13858768
162	0xbc60e8ac	-0.013727348
163	0xbe624188	-0.2209531
164	0x3dc63c3b	0.09679457
165	0x3ebe43f6	0.37161225
166	0xbe3bd609	-0.18343367
167	0x3e91ef22	0.28502756
168	0x3ca97d09	0.020689504
169	0xbd068bad	-0.03284805
170	0xbc9cebe6	-0.019155454
171	0xbe311a3c	-0.17295164
172	0xbdacb378	-0.084326684
173	0xbd5a7f2f	-0.053343948
174	0xbc96f9b6	-0.018429618
175	0xbeca0962	-0.39460284
176	0x3da69e2a	0.08135636
177	0x3e8d73ca	0.27627403
178	0xbe71be72	-0.23607805
179	0x3eb5ce28	0.35508847
180	0x3e9189d2	0.2842546
181	0x3dd6591b	0.10466214
182	0xbe9ea803	-0.30987558
183	0xbc829200	-0.015938759
184	0xbe052966	-0.13004074
185	0x3e05f1f4	0.13080579
186	0x3eab89a7	0.33503458
187	0xbe9fcacc	-0.3120941
188	0xbe85d7d6	-0.26141232
189	0xbe8ff1ff	-0.28114316
190	0x3ee96dab	0.45591483
191	0xbe61eec7	-0.22063743
192	0xbe34bd5a	-0.17650357
193	0xbe651a1e	-0.22373244
194	0x3f0bce52	0.54611695
195	0xbeedfb8f	-0.46480986
196	0xbec03c4c	-0.37546003
197	0xbdca9545	-0.09891752
198	0x3e504f21	0.20342685
199	0xbe89c8b0	-0.26910925
200	0xbde50498	-0.11182517
201	0xbed73cad	-0.4203848
202	0x3b8e4776	0.004342015
203	0xbed83ce3	-0.42233953
204	0x3d7b603e	0.06137108
205	0x3df78d41	0.12087489
206	0x3cd2670f	0.025683908
207	0xbd7d864c	-0.061895654
208	0xbdadf063	-0.08493116
209	0xbe6a133a	-0.22858897
210	0x3e17f432	0.14839247
211	0xbb6567c2	-0.0035004471
212	0xbeca6a60	-0.39534283
213	0xbf02d862	-0.51111424
214	0x3e22c4e6	0.15895423
215	0xbe1bcca2	-0.1521478
216	0xbe85347a	-0.260166
217	0xbf0f3beb	-0.559508
218	0x3e8c9402	0.2745667
219	0xbe88ad0d	-0.26694527
220	0x3e2031be	0.15643975
221	0x3e305fe3	0.17224078
222	0xbe9b59c9	-0.30341938
223	0x3e921fed	0.28539982
224	0xbbbf1f0c	-0.0058325585
225	0xbe8035f3	-0.2504116
226	0xbdb723fa	-0.08942409
227	0x3e218a65	0.1577545
228	0xbd9de200	-0.07709122
229	0xbdffdc0b	-0.12493142
230	0x3e741a49	0.23838152
231	0xbef4eaa2	-0.4783526
232	0xbe1b3799	-0.15157928
233	0xbd3d1dbb	-0.04617093
234	0x3e8b3fdc	0.27197158
235	0xbe9125b8	-0.2834909
236	0xbed1e5f0	-0.4099574
237	0xbc74c170	-0.014938697
238	0x3e9104fe	0.2832412
239	0xbe3fa996	-0.18717036
240	0xbeb95574	-0.36198008
241	0x3d9d8526	0.07691412
242	0xbbabc08d	-0.0052414597
243	0xbeb9e5cc	-0.36308134
244	0x3e00805e	0.12548968
245	0xbdffd74d	-0.12492237
246	0xbdb9ac10	-0.090660214
247	0x3cd6ad59	0.026205705
248	0xbd1b8121	-0.037964944
249	0x3c825080	0.015907526
250	0xbcc9ba51	-0.024624975
251	0xbe447310	-0.19184518
252	0xbdec4e5b	-0.115383826
253	0xbd92e034	-0.071716696
254	0x3ef2de73	0.4743534
255	0xbea31c76	-0.3185765

bias_ih_l0 f4 [64]
0	0xbc69daf7	-0.014273397
1	0xbead9153	-0.33899936
2	0xbd3e8e8e	-0.04652267
3	0xbe299e7c	-0.16564363
4	0x3d588020	0.052856565
5	0xbdaeeff7	-0.085418634
6	0xbe50e5fe	-0.20400235
7	0xbe66042a	-0.22462526
8	0x3d275eb7	0.04086181
9	0x3e40a968	0.18814623
10	0xbda05a1c	-0.07829687
11	0xbe74d84c	-0.23910636
12	0xbe3bcb85	-0.18339355
13	0x3cda2b52	0.026631985
14	0xbe990cf6	-0.298927
15	0xbeb0ab18	-0.34505534
16	0x3e8e15e9	0.2775109
17	0x3d8fe15a	0.07025404
18	0xbd6432c1	-0.055712465
19	0xbe2b9d07	-0.1675912
20	0xbda75199	-0.081698604
21	0x3e904e8c	0.28184927
22	0x3e81d8dd	0.25360766
23	0xbe0e4ce3	-0.13896517
24	0xbcf659b7	-0.030072076
25	0x3eb423df	0.35183617
26	0x3ca1cb32	0.019750211
27	0x3e6fff8e	0.2343733
28	0x3e86e6fd	0.26348105
29	0xbc07aa31	-0.008280323
30	0x3e4f1c0e	0.20225546
31	0x3d00d881	0.031456474
32	0x3e8bbffd	0.27294913
33	0xbc5ecb79	-0.013598316
34	0x3de7b9f9	0.11314768
35	0xbe07770b	-0.13229005
36	0xbeb242c8	-0.34816575
37	0xbcabe414	-0.02098278
38	0x3dd25e30	0.10271871
39	0x3ce1cbcf	0.027563004
40	0x3d12b607	0.035818126
41	0xbe58a7d5	-0.21157773
42	0x3d958fb6	0.07302801
43	0xbd474991	-0.048654143
44	0xbe7d8497	-0.2475761
45	0xbe50c4dc	-0.20387596
46	0x3e9cf7c0	0.30657768
47	0x3ef87153	0.4852396
48	0x3edae068	0.42749333
49	0x3ddab600	0.10679245
50	0x3e4f1626	0.20223293
51	0xbeb3e1f7	-0.35133335
52	0x3e1d536d	0.15363856
53	0x3ed19d39	0.40940264
54	0xbcc08bd1	-0.02350417
55	0x3d9a7b3f	0.075430386
56	0xbe3aaee1	-0.18230774
57	0x3e579f21	0.21056797
58	0x3d93469a	0.071912006
59	0x3e851ba6	0.25997657
60	0x3d1cc25a	0.038271286
61	0x3d35a711	0.04434878
62	0x3cb84ce3	0.0224976
63	0x3ec8d641	0.39225963

bias_hh_l0 f4 [64]
0	0xbd84f89b	-0.0649273
1	0xbe0c0d7e	-0.13677022
2	0xbe440ec1	-0.19146253
3	0x3d32e2dc	0.04367338
4	0xbdf75778	-0.1207723
5	0x3e0fe518	0.14052236
6	0xbd3c31cb	-0.045945924
7	0xbed6b58d	-0.41935387
8	0x3d85f3e8	0.06540662
9	0x3e41cbb8	0.18925369
10	0xbea5b96f	-0.32368037
11	0xbb9a24ac	-0.0047040787
12	0x3de3a275	0.111149706
13	0xbd1da801	-0.0384903
14	0xbcf07a93	-0.029355323
15	0x3d8d4fb3	0.06899967
16	0xbde374e3	-0.11106279
17	0x3e52bbb9	0.20579423
18	0xbcae8d45	-0.021307597
19	0xbe84e6cb	-0.2595733
20	0x3ea63b9e	0.3246736
21	0x3f1367e4	0.575804
22	0x3d4c7131	0.049912635
23	0x3e877e67	0.26463625
24	0x3c495947	0.012289352
25	0x3cb64bbc	0.02225291
26	0x3ea2084d	0.31646958
27	0xbd65182f	-0.055931266
28	0x3da62baf	0.08113801
29	0xbe2f9554	-0.17146808
30	0x3e88c0a2	0.26709467
31	0x3ed62d30	0.4183135
32	0x3ccea5b5	0.0252255
33	0xbdaf9aa9	-0.08574421
34	0x3ed8c146	0.42334956
35	0xbd177103	-0.03697301
36	0xbddeef4f	-0.10885488
37	0xbeab236c	-0.33425462
38	0x3dada89e	0.08479427
39	0x3e2caf26	0.16863689
40	0xbe5984d3	-0.21242075
41	0xbe1a3fe8	-0.15063441
42	0x3e30709a	0.17230454
43	0x3ed85dad	0.4225897
44	0xbec0c3c6	-0.37649363
45	0xbeae11d7	-0.33997986
46	0x3dda98a3	0.106736444
47	0x3ed349df	0.41267297
48	0x3da4c0bd	0.080445744
49	0x3dcb3d6d	0.099238254
50	0xbd396970	-0.04526657
51	0x3de9a5f6	0.11408608
52	0x3da95891	0.08268846
53	0x3e02066d	0.12697764
54	0x3eb28208	0.3486483
55	0xbcc3b92e	-0.023892011
56	0xbd819be5	-0.06328563
57	0x3ed858d9	0.42255285
58	0xbe2c37dd	-0.16818185
59	0x3e330a19	0.1748432
60	0x3ea494b1	0.32144693
61	0x3eb017ed	0.34393254
62	0x3d5ae7a3	0.053443562
63	0x3e0a2e3d	0.13494201

weight_hr_l0 f4 [4, 16]
0	0xbeb5d34a	-0.35512763
1	0xbd801734	-0.06254426
2	0xbdebdd6e	-0.11516844
3	0x3e3de636	0.1854485
4	0xbd85bf6c	-0.065306515
5	0x3e360be4	0.17777973
6	0x3ea9a52c	0.3313383
7	0xbe12220b	-0.14270799
8	0x3d857240	0.06515932
9	0x3e7dc168	0.2478081
10	0xbe330356	-0.17481741
11	0xbe59c7df	-0.21267651
12	0x3e4e3649	0.20137896
13	0x3e91f6b8	0.28508544
14	0xbed019bc	-0.40644634
15	0xbd05dbf5	-0.03268047
16	0xbe7b0951	-0.24515273
17	0xbe7c58ac	-0.246432
18	0xbe3c1ae7	-0.18369637
19	0x3d0c6a66	0.034281157
20	0x3e8209cf	0.25398108
21	0x3cd7aafe	0.026326653
22	0xbd6994c4	-0.05702664
23	0xbe540850	-0.20706296
24	0xbd2e0c1d	-0.04249202
25	0x3f15b6a9	0.5848184
26	0xbe1dbbf9	-0.15403737
27	0xbeaad0c0	-0.3336239
28	0x3e2c5318	0.16828573
29	0x3edee640	0.43535042
30	0x3d8a2fe0	0.06747413
31	0xbe3c3c92	-0.1838248
32	0xbdf44566	-0.11927299
33	0x3edac680	0.42729568
34	0xbcdfc3b6	-0.027315002
35	0xbd329caa	-0.043606438
36	0xbe8037e5	-0.25042644
37	0xbe70176d	-0.23446436
38	0xbd44b648	-0.0480254
39	0x3e7c122e	0.2461631
40	0x3e9d3b1c	0.3070916
41	0xbe9ce852	-0.30645996
42	0x3dd01496	0.101601765
43	0x3e36c7e5	0.17849691
44	0xbe44a2cf	-0.19202732
45	0xbeeeaff3	-0.46618614
46	0x3c93682e	0.017994013
47	0x3ec7ae8f	0.39000365
48	0xbe078f9b	-0.13238375
49	0xbe923915	-0.28559175
50	0xbd49de19	-0.049284074
51	0x3e879554	0.26481116
52	0x3e996487	0.2995951
53	0x3eba93ae	0.36440796
54	0x3eac727f	0.33681104
55	0x3c4360fb	0.011924977
56	0xbc2591df	-0.010105579
57	0x3e9d0638	0.30668807
58	0xbdaa3a72	-0.08311929
59	0xbe653a11	-0.22385432
60	0xbd08a1e0	-0.0333575
61	0x3ec30e1d	0.38096705
62	0xbe6680ed	-0.22510119
63	0xbe9090d3	-0.28235492

weight_ih_l1 f4 [64, 4]
0	0xbe184ec5	-0.14873798
1	0xbd04b0f7	-0.03239533
2	0x3da9609d	0.08270381
3	0xbe858fbd	-0.26086226
4	0x3de64f92	0.112456456
5	0x3e57fd2e	0.21092674
6	0xbeb5d638	-0.35514998
7	0x3e452129	0.19250931
8	0xbbe6fd49	-0.007049237
9	0xbc914959	-0.01773517
10	0xbdc9b57d	-0.09849069
11	0x3d4847ac	0.048896477
12	0xbe4cc044	-0.19995219
13	0xbe79d0ca	-0.24396053
14	0x3b3f2807	0.0029168145
15	0x3d5a06c1	0.053229097
16	0xbe605bc4	-0.21910006
17	0xbc749004	-0.014926914
18	0xbe4fc982	-0.20291713
19	0xbe9f80b9	-0.31152895
20	0xbe0d7414	-0.13813812
21	0xbe8f0b58	-0.27938342
22	0x3dddafe5	0.10824565
23	0xbef34a48	-0.4751761
24	0x3dab2e91	0.08358491
25	0x3e636d45	0.22209652
26	0x3d96b87f	0.073594086
27	0xbd4144cc	-0.04718475
28	0xbe365f48	-0.17809784
29	0x3eacfd1e	0.33786863
30	0xbe897d19	-0.26853254
31	0x3de69b84	0.11260131
32	0xbee4a4a9	-0.44656876
33	0xbe011b01	-0.12607957
34	0x3ed5f76d	0.41790333
35	0xbe9dd980	-0.30830002
36	0x3ee04c53	0.4380823
37	0x3e656df3	0.22405224
38	0xbe025db8	-0.12731063
39	0x3f0eede7	0.5583176
40	0x3ef0fcc9	0.4706786
41	0x3ee00deb	0.4376062
42	0xbd4b1a5b	-0.04958568
43	0xbdc76381	-0.09735776
44	0x3e087cf2	0.13328913
45	0xbbf35f9c	-0.007427169
46	0x3e0f5766	0.13998184
47	0x3dc61cf7	0.09673493
48	0x3eab473c	0.33452785
49	0x3e65acec	0.22429246
50	0xbd5915e3	-0.05299939
51	0x3e639b96	0.2222732
52	0x3cc26414	0.023729362
53	0x3c3cf05f	0.011531918
54	0x3ea30108	0.31836724
55	0xbe942b79	-0.28939417
56	0x3c17ce2e	0.009265466
57	0xbe15a710	-0.1461451
58	0xbc504f4f	-0.012714221
59	0x3d45fc11	0.048336092
60	0xbc1d2bdd	-0.009592977
61	0xbe100fcc	-0.14068526
62	0x3ea8ea63	0.32991323
63	0xbe8500e8	-0.25977254
64	0xbe5a90de	-0.21344325
65	0xbd445d5a	-0.04794059
66	0x3e7cd3c7	0.24690162
67	0xbee545a1	-0.44779685
68	0xbd967b26	-0.073477075
69	0x3ed0fce0	0.40817928
70	0xbe0f14e2	-0.1397281
71	0x3d558a17	0.052133646
72	0xbd674417	-0.05646142
73	0x3e7efcea	0.24901167
74	0xbe5bd7dd	-0.21469064
75	0x3e8c2f2a	0.27379733
76	0xbe903a51	-0.28169492
77	0xbe7bf026	-0.24603328
78	0xbe238e82	-0.15972331
79	0x3d4d3300	0.050097466
80	0xbe8653e8	-0.2623589
81	0x3e1593c6	0.14607152
82	0xbec0f392	-0.3768583
83	0xbe037fd5	-0.12841733
84	0xbdbd59bc	-0.09245631
85	0xbc58b8b8	-0.013227634
86	0x3edb214a	0.42798835
87	0xbee47650	-0.44621515
88	0x3e6dbe6a	0.23217168
89	0x3e86272b	0.26201758
90	0xbeb7223d	-0.3576831
91	0x3e850837	0.2598283
92	0x3e96c51b	0.29447255
93	0x3f1e2cb7	0.6178698
94	0xbed61ff5	-0.41821256
95	0x3dba47da	0.09095736
96	0xbe999a90	-0.30000734
97	0xbe89f866	-0.26947325
98	0x3ef7d902	0.4840775
99	0xbf0a3a61	-0.5399533
100	0x3ed80c6a	0.4219697
101	0x3ecdbbef	0.40182444
102	0xbde917bb	-0.11381479
103	0x3ed09920	0.40741825
104	0x3f18e7ae	0.59728515
105	0x3e7c5c6c	0.24644631
106	0xbec3a7aa	-0.38213855
107	0x3e1dc68e	0.15407774
108	0x3dad883d	0.08473251
109	0x3e7872ca	0.24262539
110	0xbe30fa51	-0.17282988
111	0x3da262c5	0.07928995
112	0x3ec26d29	0.37973908
113	0x3ebc5f28	0.36791348
114	0xbe9927f4	-0.29913294
115	0x3e36782f	0.17819284
116	0xbe83f64c	-0.25773847
117	0xbe613712	-0.21993664
118	0xbe10e74b	-0.14150731
119	0xbdbbe42a	-0.09174378
120	0x3d4ef3d0	0.050525486
121	0x3d662483	0.056187164
122	0x3cdeb902	0.027187828
123	0xbe8ba5e8	-0.27275014
124	0xbe22ec7b	-0.15910523
125	0xbef07d23	-0.46970472
126	0x3e7fcc1f	0.2498021
127	0xbee79a60	-0.45234966
128	0xbed1d978	-0.40986228
129	0xbe00fed0	-0.12597203
130	0x3e42214d	0.18958016
131	0xbe172b84	-0.14762694
132	0x3e2fbb45	0.17161281
133	0x3d1756dc	0.03694807
134	0x3d0fd362	0.0351137
135	0xbe3f3ff6	-0.18676743
136	0xbc595863	-0.013265702
137	0xbca75093	-0.020424163
138	0xbdd85947	-0.10563903
139	0x3e420c03	0.18949895
140	0x3e4a3278	0.19745815
141	0x3ea58ccc	0.32333982
142	0xbd79bb22	-0.06096948
143	0x3d9d636e	0.0768498
144	0x3caa8100	0.020813465
145	0x3d377b3c	0.04479526
146	0xbe616075	-0.22009452
147	0xbd6dd9c9	-0.058069024
148	0xbeb5a01e	-0.35473722
149	0xbe809bb6	-0.25118798
150	0xbd1032b5	-0.035204608
151	0xbe2706e5	-0.16311224
152	0x3cf304b8	0.029665336
153	0xbe911dc2	-0.28343016
154	0x3e4d9737	0.20077215
155	0xbe891bfe	-0.2677917
156	0xbd3c72b0	-0.046007812
157	0x3dd95817	0.10612505
158	0x3eb35bd2	0.3503099
159	0xbe9c0a3c	-0.30476558
160	0xbe3b9973	-0.18320255
161	0xbe692052	-0.22766235
162	0x3e568214	0.20948058
163	0xbe19d83c	-0.15023893
164	0x3ea7887b	0.32721314
165	0x3eb99d6a	0.3625291
166	0xbd9ad641	-0.07560397
167	0xbdda7678	-0.10667127
168	0xbdb881ad	-0.09009109
169	0xbec5f902	-0.3866654
170	0x3eb643f2	0.35598713
171	0xbadc1a3d	-0.0016792488
172	0x3e8e51cc	0.2779678
173	0x3e854863	0.2603179
174	0xbeae72c3	-0.3407193
175	0x3ddb239e	0.10700153
176	0xbcfdc617	-0.030978246
177	0xbe0d337b	-0.1378917
178	0x3ee3b8cc	0.44476926
179	0xbe2d8407	-0.16944896
180	0x3e7a78a0	0.24460077
181	0x3bf0a260	0.0073435754
182	0xbd18cf1d	-0.037306894
183	0x3e38d581	0.18050195
184	0xbe3a459d	-0.18190618
185	0xbe53196f	-0.20615171
186	0x3e887973	0.26655158
187	0xbe6847d3	-0.22683649
188	0xbe23733c	-0.15961927
189	0xbed1b5f9	-0.40959147
190	0x3e4269c0	0.18985653
191	0xbe6316cf	-0.2217667
192	0xbefdb5c4	-0.4955274
193	0xbf33d88b	-0.70252293
194	0x3ed10a8e	0.40828365
195	0xbea0af82	-0.31383902
196	0x3e942086	0.28931063
197	0x3e844591	0.25834325
198	0xbda83f73	-0.08215227
199	0x3ecf4ff2	0.4049068
200	0x3e13d066	0.14434966
201	0x3e9cea16	0.30647343
202	0xbe6c35e5	-0.23067434
203	0x3ecec8cc	0.4038757
204	0xbd7573bc	-0.059924826
205	0x3cbb3080	0.022850275
206	0xbd8cbbb5	-0.0687174
207	0xbece0e2b	-0.40245184
208	0xbd65bfeb	-0.05609123
209	0xbe404a47	-0.18778335
210	0xbd198fc4	-0.03749062
211	0x3e5c6112	0.21521404
212	0xbead26e3	-0.3381873
213	0xbf0c1dd2	-0.54733
214	0x3e78cbc4	0.2429648
215	0xbf05eaf2	-0.52311623
216	0x3c068c86	0.008212214
217	0x3b8ba2fe	0.0042613735
218	0xbc765125	-0.015033995
219	0x3dfef235	0.12448541
220	0xbcfd0624	-0.030886717
221	0x3ef02652	0.46904236
222	0xbe0c03f2	-0.1367338
223	0x3e8a9bc8	0.27071977
224	0xbebc64c1	-0.3679562
225	0xbeda01c5	-0.42579475
226	0x3ec77ca3	0.38962278
227	0xbf2dbda8	-0.6786752
228	0x3ec10ea8	0.37706494
229	0x3ea69a1b	0.32539448
230	0xbf009b65	-0.50237113
231	0x3e43fa4f	0.19138454
232	0x3e0a6dd6	0.13518462
233	0x3edb3841	0.42816356
234	0xbe3831f8	-0.17987812
235	0x3e62c236	0.22144398
236	0x3e397253	0.18110017
237	0x3db29a04	0.087207824
238	0x3e4d77f6	0.20065293
239	0x3e147f05	0.14501579
240	0x3e8bf320	0.27333927
241	0x3e5477d9	0.20748843
242	0xbdc03d9f	-0.09386753
243	0x3edfa833	0.43683013
244	0xbe92b98e	-0.28657192
245	0xbec70fe1	-0.38879302
246	0x3e174fe0	0.14776564
247	0xbe39b336	-0.1813477
248	0xbe25ff6d	-0.16210718
249	0x3e2e6a59	0.17032756
250	0x3d496ca4	0.049175873
251	0xbdde2850	-0.10847533
252	0xbe9ad67d	-0.30241767
253	0xbf06a42f	-0.52594274
254	0x3ebe54e8	0.37174153
255	0xbe798821	-0.24368335

weight_hh_l1 f4 [64, 4]
0	0x3ea8abbd	0.32943526
1	0xbe5c2617	-0.21498905
2	0xbeb80dfa	-0.35948163
3	0x3de6a9be	0.112628445
4	0x3e8b4ef8	0.27208686
5	0xbd1a9ab7	-0.037745204
6	0xbe3b75bd	-0.18306632
7	0xbdd703cf	-0.10498773
8	0x3ea5d233	0.32386932
9	0x3e3ded28	0.18547499
10	0xbea05756	-0.31316632
11	0xbe1df6ac	-0.15426129
12	0x3f0c9a80	0.5492325
13	0xbed0df2c	-0.40795267
14	0x3ca71bac	0.020398937
15	0xbe8b4f1d	-0.27208796
16	0x3eb97765	0.36223903
17	0xbe830286	-0.25587863
18	0xbec6cbd7	-0.38827392
19	0x3d8874fd	0.06662939
20	0xbd4c323d	-0.0498526
21	0xbd46e72f	-0.048560318
22	0x3da3db26	0.080007836
23	0x3dfa37f3	0.12217703
24	0x3e7b626d	0.24549265
25	0xbc544264	-0.012955282
26	0xbe213028	-0.15741026
27	0xbdac00fd	-0.08398626
28	0x3e259c0c	0.16172808
29	0x3e113591	0.1418059
30	0xbe2725cc	-0.16323012
31	0xbc3943fe	-0.0113077145
32	0xbd72d0a3	-0.059281003
33	0xbe3bc6c7	-0.18337546
34	0x3e95ebd6	0.2928149
35	0xbe8a805b	-0.27051052
36	0xbdb472fa	-0.088109925
37	0x3e523ebb	0.20531742
38	0xbcc3adb6	-0.023886543
39	0x3d2abcc6	0.041683935
40	0xbd8f78a6	-0.07005434
41	0x3e53d812	0.20687893
42	0xbe725664	-0.23665768
43	0x3eb73b53	0.35787448
44	0x3f257c9b	0.6464326
45	0x3ddb0aad	0.106953956
46	0xbf286a56	-0.65787256
47	0xbeae479b	-0.34039006
48	0xbd5c174b	-0.05373315
49	0x3e3906b0	0.18068957
50	0xbead78ec	-0.3388132
51	0x3e774a40	0.24149418
52	0x3e2256fa	0.15853491
53	0x3cb9d6a9	0.022685366
54	0xbec33cbd	-0.38132277
55	0x3eaf8d47	0.34287474
56	0x3ee44dd9	0.44590643
57	0x3ccab0fb	0.024742594
58	0xbea8c4a8	-0.32962537
59	0xbc591c3b	-0.01325136
60	0x3e8c809a	0.27441865
61	0x3d7081f5	0.058717687
62	0xbe7bf59d	-0.24605413
63	0x3e15c818	0.14627111
64	0x3cb82b62	0.022481624
65	0xbe836ce6	-0.2566902
66	0xbd58bb72	-0.052913137
67	0x3d35cdc2	0.04438568
68	0x3e31fb45	0.17381008
69	0xbe2ee884	-0.17080885
70	0x3d059c9e	0.032620065
71	0xbdec1595	-0.11527554
72	0x3d92d96a	0.07170375
73	0x3dd792bc	0.10526034
74	0xbe9e9447	-0.30972502
75	0xbdec8f17	-0.1155073
76	0x3ed17308	0.40908074
77	0xbed492e2	-0.41518313
78	0xbe28109f	-0.1641259
79	0xbd8c33aa	-0.06845792
80	0x3e49b8a0	0.19699335
81	0x3e2d4582	0.16921046
82	0x3c11f81b	0.008909251
83	0xbc6e4543	-0.0145428805
84	0x3dd20662	0.10255124
85	0xbdb14f5f	-0.08657717
86	0x3e6f41fa	0.23365012
87	0x3e903c3d	0.28170958
88	0x3dc98742	0.098402515
89	0xbd68f267	-0.056871798
90	0xbc718043	-0.014740053
91	0x3ec4e3cd	0.38455048
92	0x3decc016	0.11560075
93	0x3c6d4129	0.014480867
94	0x3dcf2432	0.101143256
95	0x3b2aecff	0.0026081202
96	0x3e6d8c84	0.23198134
97	0xbd19ca57	-0.037546482
98	0x3d1417ce	0.036155514
99	0xbcdc4248	-0.026887074
100	0xbda997b2	-0.08280887
101	0x3e9e81d1	0.30958417
102	0xbe8e9238	-0.2784593
103	0x3d85302a	0.06503327
104	0x3e14ba6e	0.14524242
105	0x3c15d0d4	0.009144027
106	0x3d8848d2	0.06654514
107	0x3e9eea6b	0.31038222
108	0x3e1f8f9a	0.15582123
109	0x3dc9f7c6	0.09861712
110	0xbe70b7d8	-0.23507631
111	0xbdc635b2	-0.0967821
112	0x3da098e2	0.0784166
113	0x3e2f00a4	0.17090088
114	0x3c1c7a2e	0.009550614
115	0x3e9bdcbf	0.30441853
116	0xbda92502	-0.08259012
117	0xbe129d1e	-0.14317748
118	0xbd800b13	-0.06252112
119	0xbe2ad380	-0.16682243
120	0xbd091031	-0.033462707
121	0xbddf1c33	-0.108940504
122	0xbe451582	-0.19246486
123	0x3e11828e	0.14209959
124	0xbe286b18	-0.16447103
125	0xbe121e0c	-0.14269274
126	0xbd5e865f	-0.054327365
127	0x3e870de0	0.26377773
128	0xbdf1bc3c	-0.11803481
129	0xbdf1f533	-0.11814346
130	0xbd79a94e	-0.060952477
131	0xbbcc4d9a	-0.0062348368
132	0xbe185a33	-0.14878158
133	0xbcf337f1	-0.02968976
134	0x3eaa259e	0.33231825
135	0xbda66770	-0.08125198
136	0x3ea58765	0.3232986
137	0xbe8e7c45	-0.27829185
138	0xbdf4b72d	-0.119490005
139	0x3db1f28e	0.08688842
140	0xbe061e50	-0.13097501
141	0xbd9caba2	-0.07649924
142	0xbe585a97	-0.21128307
143	0xbdd01b45	-0.10161451
144	0x3eff9a26	0.49922293
145	0xbe0fd14c	-0.14044684
146	0xbe8c7238	-0.27430892
147	0xbe8cce86	-0.27501315
148	0xbdafc81f	-0.08583092
149	0xbc48250b	-0.012215863
150	0xbd72cec4	-0.05927922
151	0x3e941a5e	0.28926367
152	0x3d46c32a	0.048525967
153	0x3dd7de35	0.105404295
154	0x3d9089e8	0.070575535
155	0x3d57e051	0.05270416
156	0xbd31c599	-0.043401334
157	0x3e0c644a	0.13710132
158	0x3e7f5f2b	0.24938647
159	0x3d9c37d9	0.076278396
160	0x3d742a2e	0.05961054
161	0x3e3cc303	0.18433766
162	0x3d9ad526	0.07560186
163	0xbc9560ea	-0.018234689
164	0x3dcff28b	0.10153683
165	0x3e89fccf	0.2695069
166	0x3d646abf	0.055765864
167	0x3e0a285f	0.13491963
168	0x3ce492dd	0.027902061
169	0x3dcbe2e4	0.09955385
170	0x3d71a3fb	0.058994275
171	0xbdf72425	-0.12067441
172	0x3cadc228	0.021210745
173	0xbe882f88	-0.26598763
174	0xbead6542	-0.33866316
175	0xbe52e3c0	-0.20594692
176	0x3db48081	0.08813573
177	0x3db0dd2f	0.086359374
178	0x3e4a17b9	0.19735612
179	0xbd612a07	-0.05497172
180	0xbd124ef0	-0.035719812
181	0xbdbfc2d5	-0.09363333
182	0xbe98b69f	-0.2982683
183	0xbde08fc1	-0.10964919
184	0xbe6bfb88	-0.2304517
185	0xbd12d5a1	-0.035848264
186	0x3cdf39db	0.027249267
187	0x3ea008e4	0.31256783
188	0x3e311ff6	0.17297348
189	0x3d357e6c	0.04431002
190	0x3df7bae6	0.12096195
191	0x3e28a232	0.16468123
192	0x3e2d89d0	0.16947103
193	0x3db0424b	0.086063944
194	0x3e287596	0.16451105
195	0xbe9dab8d	-0.30794945
196	0xbc9d4d89	-0.01920201
197	0x3c39e44b	0.011345933
198	0xbe24ca30	-0.16092753
199	0xbe06908a	-0.13141075
200	0x3e4c7cf5	0.19969542
201	0xbd21a13a	-0.0394604
202	0xbe299166	-0.16559371
203	0xbcf9dfe6	-0.03050227
204	0x3e8a1f59	0.2697704
205	0xbec8e061	-0.39233688
206	0xbef6d55f	-0.48209664
207	0xbe940a0f	-0.28913924
208	0x3dfab6a3	0.122418664
209	0x3dff5ff0	0.124694705
210	0xbee6f70c	-0.45110357
211	0x3cdfbd83	0.027312046
212	0x3ec1f379	0.37881067
213	0xbe7a3928	-0.24435866
214	0x3e4cc86b	0.19998328
215	0xbd18efda	-0.037338115
216	0x3e60d71a	0.21957055
217	0x3d560aa9	0.05225626
218	0xbd37a9ba	-0.0448396
219	0x3e9209b0	0.28523016
220	0x3e3323ad	0.17494078
221	0x3e281d9b	0.16417544
222	0xbef1d181	-0.4723015
223	0x3db216b8	0.086957395
224	0x3df3e3ea	0.119087055
225	0xbebdbd1f	-0.3705835
226	0x3c07d751	0.0082910815
227	0xbe5d9e44	-0.21642405
228	0x3e36fc13	0.17869596
229	0x3ea4fb8b	0.32223162
230	0xbe98dd84	-0.29856503
231	0x3e5b1a6b	0.21396796
232	0x3dd4ca5c	0.103901595
233	0x3ef3d6f9	0.4762495
234	0xbe7628a7	-0.24038945
235	0x3e147f83	0.14501767
236	0x3f415a27	0.75528187
237	0x3c61cea7	0.01378218
238	0xbe869146	-0.2628271
239	0xbe320933	-0.17386322
240	0x3d5d3086	0.054001354
241	0x3e4504fe	0.19240186
242	0xbeae07b2	-0.33990246
243	0x3ea69c9a	0.32541353
244	0x3d4a0935	0.049325187
245	0xbdeb965b	-0.115032874
246	0xbeaf7ed3	-0.34276447
247	0xbca55750	-0.020183235
248	0x3e94a308	0.29030633
249	0x3dce7d58	0.10082501
250	0xbd8db718	-0.06919688
251	0xbe5bd514	-0.21468002
252	0x3e84c31a	0.259301
253	0xbe3a5ad0	-0.18198705
254	0xbe12b936	-0.14328465
255	0xbe21925c	-0.15778488

bias_ih_l1 f4 [64]
0	0x3d8ce44b	0.06879481
1	0xbe48ef7d	-0.19622608
2	0x3d8fd4a0	0.07022977
3	0x3df75b10	0.12077916
4	0xbc94e1e6	-0.018174123
5	0x3c221c6f	0.009894474
6	0x3e2018f8	0.15634525
7	0x3e8d7a59	0.27632406
8	0x3e3209df	0.17386578
9	0xbd1efc0b	-0.038814586
10	0xbe2f3e0b	-0.17113511
11	0x3e602a1e	0.21891066
12	0x3e1d37b8	0.15353286
13	0x3e0f4ace	0.1399338
14	0x3d3eecbd	0.04661249
15	0x3c19fc06	0.009398466
16	0xbd9a2f9b	-0.07528611
17	0xbcd7afd2	-0.026328955
18	0x3e3f3b81	0.18675043
19	0xbc7d01c2	-0.015442314
20	0xbda8d505	-0.08243755
21	0x3e68acd7	0.22722183
22	0x3c28bad8	0.010298453
23	0xbdee8db8	-0.116481245
24	0xbe813f08	-0.25243402
25	0xbd1817d3	-0.037132096
26	0x3d4ef784	0.050529018
27	0xbe3b8509	-0.18312468
28	0x3cdc3ba3	0.026883906
29	0xbd8611b4	-0.06546345
30	0x3e2d8632	0.16945723
31	0xbe7820dd	-0.24231286
32	0x3e3264b4	0.17421228
33	0xbe59d2b6	-0.21271786
34	0x3e980dcf	0.29698035
35	0x3e2cecd8	0.16887224
36	0x3dc31be8	0.09526807
37	0x3e7c9edd	0.24669977
38	0xbe6fe238	-0.2342614
39	0xbe134e25	-0.14385279
40	0x3e69ab95	0.2281936
41	0x3e8ec60c	0.27885473
42	0xbe4909ac	-0.19632596
43	0x3e7621a4	0.2403627
44	0x3c72888d	0.014803064
45	0x3ca903db	0.020631721
46	0xbdf6e024	-0.1205447
47	0x3d469f90	0.048492014
48	0xbca591a0	-0.020211041
49	0x3e7a8844	0.24466044
50	0x3e9d0085	0.3066446
51	0x3e279d15	0.16368516
52	0x3ec16c7d	0.37778082
53	0xbc3e2a67	-0.011606789
54	0x3e3727d4	0.17886287
55	0x3e88851c	0.26664054
56	0xbdc54766	-0.09632759
57	0x3ea5156d	0.3224291
58	0x3e8318d4	0.2560488
59	0x3ea23de1	0.31687835
60	0xbd3d8b1b	-0.04627524
61	0x3e455669	0.19271244
62	0x3ee4b9c3	0.44672975
63	0x3eb11a08	0.34590173

bias_hh_l1 f4 [64]
0	0x3e90ce46	0.28282374
1	0x3d15b8b7	0.03655311
2	0xbdc057d8	-0.09391755
3	0x3e337904	0.17526633
4	0x3e8039ed	0.25044194
5	0xbd8a3e80	-0.06750202
6	0xbdb39d25	-0.08770207
7	0x3e92f3ef	0.28701732
8	0x3e426dc8	0.1898719
9	0xbd72c604	-0.059270874
10	0x3d15372d	0.036429573
11	0x3d6aa18f	0.05728298
12	0xbe399ee3	-0.18127017
13	0x3e8b7532	0.2723785
14	0x3d30c0bf	0.043152567
15	0xbd4451cc	-0.04792957
16	0x3da2cc67	0.07949143
17	0x3db65f8e	0.08904944
18	0x3e58f3ae	0.21186706
19	0x3ca36221	0.019944252
20	0x3ea84cac	0.32870996
21	0x3d5d7f4d	0.05407648
22	0x3d6cb06d	0.05778544
23	0x3e24f5b7	0.16109358
24	0x3d80425f	0.06262659
25	0x3eb522e8	0.35378194
26	0xbd6f679a	-0.05844841
27	0x3d801e49	0.062557764
28	0xbe83464d	-0.25639573
29	0x3d9253ec	0.07144913
30	0xbd41103b	-0.04713462
31	0x3deed9c8	0.11662632
32	0x3e50a8b6	0.20376858
33	0xbdffd38e	-0.12491523
34	0x3d4efd89	0.05053476
35	0x3e23ed80	0.16008568
36	0x3e6e5545	0.23274715
37	0x3e5ae1f1	0.21375252
38	0x3cc3dd8c	0.023909353
39	0xbe1b653f	-0.15175341
40	0xbe2d1e3c	-0.16906065
41	0xbe1d41bc	-0.15357107
42	0x3e3c171d	0.18368192
43	0xbd2e8825	-0.042610306
44	0xbe433151	-0.19061781
45	0xbe19262e	-0.1495597
46	0xbd28b3eb	-0.04118721
47	0x3e890256	0.26759595
48	0x3e7a8519	0.24464835
49	0x3e2c8a17	0.16849552
50	0xbda38cc8	-0.07985836
51	0x3ea54469	0.32278755
52	0x3e3bbb6b	0.18333213
53	0xbdc50d50	-0.0962168
54	0x3e72607a	0.23669615
55	0xbccb0f9a	-0.024787713
56	0xbd6f145b	-0.058369022
57	0x3ea7acce	0.32749027
58	0xbd1ee884	-0.038795963
59	0x3ecf61a9	0.40504196
60	0x3e467aa1	0.19382717
61	0xbdca54de	-0.098794684
62	0x3e8bab07	0.2727892
63	0x3dcdb966	0.100451276

weight_hr_l1 f4 [4, 16]
0	0x3e3aaebe	0.18230721
1	0xbd1fbaf4	-0.03899665
2	0x3ea07658	0.3134029
3	0xbf0b0d86	-0.5431751
4	0x3e8da217	0.27662727
5	0x3ef32f6b	0.47497115
6	0x3d239c7a	0.03994415
7	0xbe66e6bb	-0.22548954
8	0x3f038189	0.5136953
9	0x3f0035df	0.500822
10	0xbe80b53b	-0.25138268
11	0xbeb371b3	-0.35047683
12	0xbeccebee	-0.4002375
13	0xbe8ea6d1	-0.27861646
14	0x3ef4c319	0.47805098
15	0x3e368a65	0.17826231
16	0xbe8247c0	-0.25445366
17	0xbeb6706c	-0.35632646
18	0x3ed453d3	0.41470203
19	0x3ee0686b	0.43829665
20	0x3e9ba327	0.30397913
21	0xbe880a0e	-0.2657017
22	0xbeb6d506	-0.357094
23	0xbec5b252	-0.3861261
24	0xbe4086c1	-0.18801405
25	0x3c9b0e7e	0.018927809
26	0xbe7a361a	-0.244347
27	0x3f154561	0.5830899
28	0xbec063f2	-0.37576252
29	0x3eb8b4a6	0.36075324
30	0xbe006f95	-0.12542565
31	0xbe8d846e	-0.27640098
32	0xbe7bfac7	-0.24607383
33	0x3e11091b	0.1416363
34	0xbea69c73	-0.32541236
35	0xbdf208a8	-0.11818057
36	0xbe87dd6c	-0.2653612
37	0xbe74d74e	-0.23910257
38	0x3cf8aa19	0.030354546
39	0x3e49db6f	0.19712614
40	0xbe377ecf	-0.17919467
41	0x3ddd4ca7	0.10805636
42	0x3dd8e24a	0.10590036
43	0xbdf1f7bc	-0.1181483
44	0x3d9adf01	0.07562066
45	0xbe27097d	-0.16312213
46	0x3ea9a4e8	0.33133626
47	0xbe8246bf	-0.254446
48	0xbe2c2eaf	-0.16814683
49	0xbe13f547	-0.14449035
50	0x3e408e92	0.18804386
51	0x3e3c62bf	0.18397044
52	0xbd85d00b	-0.06533822
53	0xbe584645	-0.21120556
54	0xbeb30c8f	-0.3497052
55	0xbe6c2b94	-0.23063499
56	0xbdb1af0e	-0.08675967
57	0x3e82db7c	0.25558078
58	0xbeb1f0ea	-0.34754115
59	0x3f14db2d	0.58146936
60	0xbea71963	-0.32636556
61	0x3e83042b	0.25589117
62	0xbed85628	-0.42253232
63	0xbe3c2574	-0.18373662

weight_ih_l2 f4 [64, 4]
0	0x3efec9d8	0.4976337
1	0x3cefb010	0.029258758
2	0xbdff76c0	-0.12473822
3	0x3e79d9d0	0.24399495
4	0x3ee1861a	0.44047624
5	0xbdf3a17e	-0.118960366
6	0xbd214533	-0.039372634
7	0xbece1bf8	-0.40255713
8	0x3f0b7849	0.54480416
9	0xbde2531e	-0.110510096
10	0xbe49e42b	-0.19715945
11	0xbae411b0	-0.0017400291
12	0x3eac0ab1	0.33601907
13	0x3e2e59c5	0.17026432
14	0xbdb0b710	-0.086286664
15	0xbe258d06	-0.16167077
16	0x3f151bee	0.5824574
17	0x3d83906f	0.06424033
18	0xbecdd86d	-0.40204182
19	0x3db74ee3	0.08950593
20	0x3f25d303	0.64775103
21	0x3e497d57	0.1967672
22	0xbebcfe2b	-0.36912665
23	0xbdeec112	-0.11657919
24	0x3eee3a15	0.46528688
25	0xbe207aed	-0.15671892
26	0xbc006661	-0.007836909
27	0xbe17a32c	-0.14808339
28	0x3f1208c1	0.5704461
29	0xbe432c7b	-0.19059937
30	0xbee79338	-0.45229506
31	0x3e2ba118	0.16760671
32	0xbcd0b98e	-0.025479104
33	0x3b6f5a2d	0.0036522255
34	0xbe192d74	-0.14958745
35	0x3d996e5b	0.07491752
36	0x3ea95617	0.33073494
37	0xbe42b5fe	-0.19014737
38	0xbe33f97b	-0.17575638
39	0x3db9c81a	0.090713695
40	0x3eb05583	0.3444024
41	0x3e7fe22b	0.2498862
42	0xbea8d7d0	-0.32977152
43	0x3e151747	0.14559661
44	0x3e0d2854	0.13784915
45	0xbedd4b89	-0.4322169
46	0x3e190090	0.14941621
47	0xbeefd408	-0.46841455
48	0x3eaf596d	0.34247914
49	0x3e588fbb	0.21148579
50	0xbeede412	-0.46463066
51	0x3e913e1b	0.28367695
52	0x3db55b5f	0.08855318
53	0x3ea3291e	0.31867307
54	0xbeb1a5fa	-0.34696943
55	0x3dfe11cd	0.12405739
56	0x3e9d920b	0.30775484
57	0x3e7e3213	0.2482379
58	0xbe774d3c	-0.24150556
59	0x3db2a3a6	0.0872262
60	0x3e42c294	0.19019538
61	0x3e0fc007	0.14038096
62	0xbc9709bf	-0.018437264
63	0xbda7a9d2	-0.081866875
64	0x3eb1c8dc	0.34723556
65	0xbe50507a	-0.203432
66	0xbe6f0ff0	-0.23345923
67	0x3dfb77d0	0.12278712
68	0x3e3daa74	0.18522054
69	0xbcb57ac8	-0.022153273
70	0x3de325e7	0.11091214
71	0xbbb59600	-0.005541563
72	0x3d98e6d3	0.07465901
73	0x3c352e89	0.011058458
74	0xbe9ab99f	-0.30219743
75	0xbdd5a34f	-0.10431539
76	0x3e3ccb4c	0.18436927
77	0x3e84a981	0.2591057
78	0xbe5ccd05	-0.21562584
79	0xbc6423d9	-0.013924562
80	0x3d946578	0.07245916
81	0x3e0ea4ca	0.1393005
82	0xbe8b1410	-0.27163744
83	0x3eaecc63	0.3414031
84	0x3d1bc554	0.038029984
85	0x3e51dc72	0.2049425
86	0xbd95a885	-0.07307533
87	0x3e04bae9	0.12961926
88	0x3d77565f	0.060385104
89	0xbea2e5c3	-0.3181592
90	0x3dcfc24b	0.1014448
91	0xbee73f30	-0.45165396
92	0x3eb536d4	0.35393393
93	0xbe35a08d	-0.17737027
94	0xbe43bb5d	-0.19114442
95	0xbbcac007	-0.006187442
96	0xbd0fb4a3	-0.035084378
97	0x3cfea677	0.031085236
98	0xbec8bd12	-0.3920675
99	0x3e9592d1	0.29213575
100	0x3e7ee300	0.24891281
101	0xbea2aa9e	-0.31770796
102	0xbd55a833	-0.05216236
103	0xbf00898a	-0.5020987
104	0xbcfd5df7	-0.030928595
105	0x3eba3257	0.3636653
106	0x3d11c3e0	0.03558719
107	0x3e8242e8	0.2544167
108	0x3e376de2	0.1791301
109	0xbec983bd	-0.3935832
110	0x3eafb098	0.34314418
111	0xbf00faec	-0.50382876
112	0x3e8eda2f	0.27900836
113	0xbd32cca7	-0.043652203
114	0x3c892468	0.016740993
115	0x3db970ab	0.09054693
116	0x3d18b4aa	0.03728167
117	0x3e8a48b7	0.27008602
118	0xbec3dbc9	-0.3825362
119	0x3eba0281	0.36330035
120	0x3ecbbb8f	0.39791533
121	0x3e18464e	0.14870569
122	0xba929b2d	-0.0011185162
123	0x3db376fd	0.087629296
124	0x3dc7795a	0.09739943
125	0x3eb3cf25	0.35118976
126	0xbeb946f2	-0.3618694
127	0x3e91a041	0.28442577
128	0xbd922c2f	-0.071373336
129	0x3eb17284	0.3465768
130	0xbe04188c	-0.12899989
131	0x3eb35d10	0.3503194
132	0xbe6d837c	-0.23194689
133	0x3de3e3c9	0.11127431
134	0x3bc1d51f	0.0059152986
135	0x3e7c4c59	0.246385
136	0xbc2444ea	-0.010026196
137	0xbec70e48	-0.38878083
138	0x3ccb9693	0.024852073
139	0x3cd689f7	0.026188834
140	0xba5ce300	-0.00084261596
141	0x3e911d18	0.2834251
142	0x3da29507	0.07938581
143	0x3e486a28	0.19571745
144	0xbe6571da	-0.22406712
145	0x3eb3f814	0.35150206
146	0xbebe66c8	-0.3718779
147	0x3e605395	0.21906884
148	0xbe24d7e6	-0.16097984
149	0x3ebb6f4b	0.36608347
150	0xbedb782c	-0.4286512
151	0x3ebf7a5f	0.3739805
152	0x3e513562	0.2043052
153	0xbd1f680a	-0.03891758
154	0x3df55155	0.119784035
155	0xbed58f16	-0.41710728
156	0x3e554fa4	0.20831162
157	0xbe74faa9	-0.23923744
158	0x3e3ee82a	0.18643251
159	0xbe7cfd4d	-0.24706002
160	0xbdb65b95	-0.08904187
161	0xbeb2b4cf	-0.3490357
162	0x3ea901e1	0.33009246
163	0xbdfe7a65	-0.12425689
164	0xbe831f74	-0.25609934
165	0x3edbcd05	0.42929855
166	0xbea7bbfd	-0.3276061
167	0x3e3088f3	0.17239742
168	0x3cee8f28	0.029120997
169	0xbde7f1d5	-0.11325423
170	0x3e988cd8	0.29794955
171	0xbde32c18	-0.110923946
172	0xbeb484d9	-0.35257605
173	0x3d813737	0.063093595
174	0xbe8712c9	-0.2638152
175	0x3e0230dd	0.12713952
176	0xbd90e943	-0.07075741
177	0x3e93cb2b	0.28865942
178	0x3d93cc9e	0.07216762
179	0x3e82cc99	0.2554672
180	0x3e7912d8	0.24323595
181	0x3cdd1c6e	0.026991095
182	0xbe617ae8	-0.22019541
183	0xbdf997c8	-0.12187153
184	0x3e258d97	0.16167293
185	0xbeb7b856	-0.35882825
186	0x3e47ebf8	0.19523609
187	0xbe8876c8	-0.26653123
188	0xba9ee51d	-0.0012122724
189	0xbe814a18	-0.25251842
190	0x3e9605f6	0.29301423
191	0xbeaee4f0	-0.3415904
192	0x3eb0ffd8	0.34570193
193	0x3c672431	0.01410775
194	0xbec566c7	-0.38554975
195	0x3d1dfdda	0.03857217
196	0x3e4a8201	0.19776155
197	0xbece7ad6	-0.4032809
198	0x3e560d08	0.20903409
199	0xbea6112b	-0.32434973
200	0x3ecc1bd4	0.3986498
201	0x3d5cdb3d	0.05392002
202	0xbdc517d5	-0.09623686
203	0xbdf8519c	-0.12124941
204	0x3eb37ed0	0.35057688
205	0xbc9d07b0	-0.019168705
206	0xbee7734d	-0.45205155
207	0x3dfbc4a3	0.12293365
208	0x3f178cd5	0.5919927
209	0x3e085be1	0.13316299
210	0xbe927b96	-0.28609914
211	0x3e095c79	0.13414182
212	0x3ecc3658	0.3988521
213	0x3ebb3633	0.36564788
214	0xbe437c63	-0.19090419
215	0x3e4a3aaa	0.19748941
216	0x3ef3830a	0.47560912
217	0xbeb8c13f	-0.36084935
218	0x3e584367	0.21119462
219	0xbec71351	-0.38881925
220	0x3f32a2da	0.6977974
221	0xbd0f4f34	-0.034987643
222	0xbee660e0	-0.44995785
223	0x3e3b80e3	0.18310885
224	0x3e30688c	0.17227381
225	0x3f051c8d	0.5199669
226	0xbdcacf94	-0.09902874
227	0x3ec30a65	0.38093868
228	0x3ee58cd1	0.44833997
229	0xbd376299	-0.044771764
230	0xbe259596	-0.16170344
231	0xbe19f4c1	-0.15034772
232	0x3e28b7f3	0.16476421
233	0xbd4236db	-0.047415596
234	0xbe84c5c2	-0.25932127
235	0xbd1ec32c	-0.03876035
236	0x3e60d954	0.21957904
237	0xbe99b113	-0.3001791
238	0x3c8699dd	0.01643079
239	0xbf33789b	-0.70105904
240	0x3f07728f	0.5290918
241	0xbe20b417	-0.15693699
242	0xbb1316e9	-0.0022444075
243	0xbe152993	-0.1456664
244	0x3e34d581	0.1765957
245	0x3e8f4f9f	0.27990434
246	0xbf10725a	-0.56424487
247	0x3e304579	0.17214002
248	0x3eb916c6	0.36150187
249	0x3d9601da	0.07324572
250	0xbefd4cfd	-0.494728
251	0x3eb72bc2	0.35775572
252	0x3eb36e0e	0.35044903
253	0x3ee3efc8	0.44518876
254	0xbe740854	-0.23831302
255	0x3e8a5355	0.27016702

weight_hh_l2 f4 [64, 4]
0	0x3d88dd92	0.06682886
1	0xbe0245c8	-0.12721932
2	0x3e93b73f	0.28850743
3	0x3e99d59d	0.30045786
4	0x3df01f5e	0.11724733
5	0x3c8bb349	0.017053263
6	0x3e68f9c6	0.22751531
7	0x3ad7acb9	0.0016454674
8	0x3e263c42	0.16233924
9	0xbd519982	-0.051171787
10	0xbe017d6a	-0.12645498
11	0xbd444a23	-0.047922265
12	0xbe38e4da	-0.1805605
13	0xbda96a48	-0.08272225
14	0x3e864df2	0.26231343
15	0xbd7e90d9	-0.062149856
16	0xbd40fb1e	-0.047114484
17	0xbe9e9646	-0.30974025
18	0xbd8bf1e6	-0.06833248
19	0x3f0c9379	0.54912525
20	0xbddb92ea	-0.10721381
21	0xbe9918aa	-0.2990163
22	0xbe13b797	-0.14425503
23	0x3e2ca511	0.16859843
24	0x3dbb0bfe	0.09133147
25	0xbe4dfed7	-0.20116745
26	0x3df165f7	0.117870264
27	0xbd649564	-0.055806533
28	0x3df9bf0b	0.12194642
29	0xbedf1feb	-0.4357904
30	0x3e770e72	0.24126604
31	0xbe1b9224	-0.15192467
32	0x3e18bed3	0.14916544
33	0xbdc1ddf8	-0.09466165
34	0xbc7dc1ae	-0.015488071
35	0xbe02a45c	-0.1275801
36	0xbd73e24e	-0.059541993
37	0xbb93f5ee	-0.004515401
38	0x3eeca326	0.46218222
39	0x3e423835	0.18966754
40	0x3da137fa	0.07872005
41	0xbeb0119d	-0.34388438
42	0xbc55b13b	-0.013042743
43	0x3ea20d5c	0.31650817
44	0xbe3161ba	-0.17322436
45	0xbe136cd6	-0.14396986
46	0xbea1293a	-0.31476766
47	0x3cba1b9e	0.022718247
48	0x3c54f35b	0.012997474
49	0xbe4c63d4	-0.19959956
50	0x3e7d2060	0.24719381
51	0xbcf432be	-0.029809352
52	0xbe7babd8	-0.24577272
53	0xbe81ba8a	-0.2533763
54	0x3e2e2793	0.17007284
55	0xbdd497bf	-0.10380506
56	0xbe95a67e	-0.29228586
57	0xbec2641c	-0.37967002
58	0x3e121423	0.14265494
59	0x3de22106	0.11041455
60	0xbda26b04	-0.07930568
61	0xbf0982eb	-0.5371539
62	0x3acae05e	0.0015478244
63	0x3dc239e1	0.09483696
64	0x3e7b9a1a	0.24570504
65	0x3c840aad	0.016118372
66	0x3dd86eb3	0.10567989
67	0x3d9f8280	0.07788563
68	0xbe81b6c0	-0.2533474
69	0xbe82d6e5	-0.25554577
70	0xbe54dbff	-0.20787047
71	0x3db02ec5	0.086026706
72	0x3dfae892	0.122513905
73	0xbd8140b3	-0.063111685
74	0x3e296d29	0.16545548
75	0xbd9ca751	-0.076491006
76	0x3e72e37c	0.23719591
77	0x3cd60d34	0.026129343
78	0xbc8acb0d	-0.016942525
79	0x3dc92eed	0.098234035
80	0xbc4e9290	-0.012608185
81	0xbcb25c71	-0.021772595
82	0xbe808f20	-0.25109196
83	0x3e9970e6	0.29968947
84	0xbe76acd0	-0.2408936
85	0x3d783816	0.060600363
86	0x3d2203de	0.03955447
87	0x3d0d7ce3	0.03454293
88	0xbd9f736a	-0.07785685
89	0xbd38a085	-0.04507496
90	0xbe42dad2	-0.19028786
91	0xbb2c5775	-0.0026297246
92	0x3e266bc3	0.16252045
93	0xbc47f1c5	-0.012203638
94	0xbdaf48bd	-0.085587956
95	0xbe84d80f	-0.2594609
96	0x3e1d22bd	0.15345283
97	0x3e1ff480	0.15620613
98	0x3e1390e8	0.14410746
99	0x3ce1393e	0.027493116
100	0xbcbfc15d	-0.023407632
101	0x3ca74dd9	0.020422863
102	0x3e85893a	0.26081258
103	0x3e1a9b36	0.15098271
104	0xbce0f6f4	-0.027461506
105	0xbcc93683	-0.024562126
106	0xbc90335e	-0.017602619
107	0xbe6d1afa	-0.23154822
108	0xbd52527a	-0.051348187
109	0xbee72914	-0.45148528
110	0xbe4244bb	-0.18971531
111	0x3de82ba7	0.11336451
112	0x3d745021	0.05964673
113	0x3b9dbe6a	0.004813959
114	0x3ec51b75	0.3849751
115	0x3d819afe	0.063283905
116	0x3da18a24	0.07887676
117	0xbdf87db6	-0.121333525
118	0x3c1a61ad	0.009422702
119	0xb92c2106	-0.000164155
120	0x3dade17e	0.08490275
121	0xbe357bdf	-0.17723034
122	0x3ccb983e	0.024852868
123	0x3d94d11b	0.07266446
124	0xbe1a2fc5	-0.15057285
125	0xbdc004a9	-0.09375889
126	0x3bd88f6d	0.0066088946
127	0x3ce3e1a6	0.027817558
128	0xbe0084a4	-0.12550598
129	0xbde9ca05	-0.11415485
130	0xbe566f20	-0.20940828
131	0xbd26ccd5	-0.040722687
132	0xbded2fb3	-0.115813635
133	0xbcbbd0df	-0.022926746
134	0xbe0c2a47	-0.13688003
135	0x3e1c5687	0.15267383
136	0xbe1f6993	-0.15567617
137	0xbd72c8f1	-0.059273664
138	0x3df5968a	0.11991604
139	0x3dab16be	0.08353947
140	0xbdf4d9d9	-0.11955614
141	0xbc429409	-0.011876115
142	0x3c58aa4a	0.013224194
143	0xbd5c7fb6	-0.053832732
144	0xbd892e09	-0.06698234
145	0x3cf86022	0.030319277
146	0xbcb4d454	-0.022073902
147	0x3e62a4d9	0.22133197
148	0x3bb105f5	0.0054023215
149	0xbd1dd699	-0.038534734
150	0x3cace118	0.021103427
151	0xbd57321a	-0.052538015
152	0x3e413a06	0.1886979
153	0xbd252385	-0.040317077
154	0x3e7e5276	0.24836144
155	0xbdb8417c	-0.08996865
156	0x3dba2883	0.09089758
157	0x3e37baa5	0.17942293
158	0x3cdbe2e0	0.02684158
159	0xbbe1ead5	-0.0068944492
160	0x3e06f0b6	0.13177761
161	0x3d268a74	0.040659383
162	0x3da9fe10	0.08300412
163	0xbe114cd7	-0.14189468
164	0xbe553439	-0.20820703
165	0xbd0d0caa	-0.034435906
166	0xbe809efd	-0.25121298
167	0x3ddb8a19	0.107196994
168	0xbd78c96f	-0.060738977
169	0xbd148699	-0.036261175
170	0xbe23ef78	-0.16009319
171	0xbdd11416	-0.10208909
172	0xbd523996	-0.05132445
173	0x3dad68d6	0.084672615
174	0xbe536e85	-0.20647629
175	0xbd2819da	-0.04104028
176	0x3b034525	0.0020030227
177	0x3da84960	0.0821712
178	0xbe1ec207	-0.15503703
179	0xbd970752	-0.07374443
180	0x3e0a0a61	0.13480522
181	0x3c94e1fb	0.018174162
182	0x3e808fbc	0.2510966
183	0x3e6619d2	0.22470787
184	0x3e4f60b0	0.20251727
185	0x3e7e1186	0.24811372
186	0xbd807006	-0.06271367
187	0x3d827d15	0.06371514
188	0x3da86219	0.08221836
189	0x3d94d7ce	0.07267724
190	0xbe20e795	-0.15713342
191	0xbd874739	-0.066053815
192	0xbe33caf6	-0.17557892
193	0xbe1dea1e	-0.1542134
194	0x3edad928	0.42743802
195	0xbd45eef0	-0.04832357
196	0xbea67c3d	-0.3251666
197	0xbe12376b	-0.14278953
198	0x3c987662	0.018611137
199	0x3e6e1193	0.23248892
200	0xbd8bfd83	-0.06835463
201	0xbdae63c9	-0.08515126
202	0x3ddabbc0	0.10680342
203	0xbe9e80e9	-0.30957726
204	0xbcf6a89f	-0.030109702
205	0xbd5a9a3a	-0.05336974
206	0x3de41119	0.111360736
207	0xbe6e2a68	-0.23258364
208	0xbe5138c1	-0.20431806
209	0xbe76e034	-0.24108964
210	0x3e5569a4	0.2084108
211	0x3cf2bbf8	0.029630646
212	0x3d9e26f5	0.07722274
213	0xbee56161	-0.44800857
214	0xbc9c6ae9	-0.019093947
215	0x3e08d56b	0.13362662
216	0xbe2be35e	-0.16785952
217	0xbe92c855	-0.28668466
218	0xbd7dce3a	-0.06196425
219	0xbc4e6df2	-0.012599455
220	0xbdbfd771	-0.09367264
221	0xbe866237	-0.26246807
222	0x3ebedb2e	0.37276596
223	0x3e57c3c3	0.21070771
224	0x3e30fe14	0.17284423
225	0x3da82f07	0.08212095
226	0x3e550973	0.20804386
227	0xbe2dc0a8	-0.16968024
228	0xbec95b94	-0.3932768
229	0xbef3a04d	-0.47583237
230	0x3ed1bbb8	0.4096353
231	0xbb883c19	-0.004157555
232	0x3dd4aea6	0.10384874
233	0x3dda10c9	0.10647733
234	0x3eba7cc1	0.36423305
235	0xbdbe7437	-0.0929951
236	0xbeba74c1	-0.364172
237	0xbe514fbb	-0.20440571
238	0xbe472858	-0.19448984
239	0x3e27eae4	0.16398197
240	0xbd08932f	-0.03334349
241	0x3e4fac8a	0.20280662
242	0x3f03b30e	0.5144509
243	0xbe7c0504	-0.24611288
244	0x3e22e9e9	0.15909542
245	0x3da16c1b	0.078819476
246	0x3e7c7216	0.24652895
247	0xbd5eeec3	-0.05442692
248	0xbdbf1b90	-0.09331429
249	0xbe8c21e6	-0.27369612
250	0x3c43efdf	0.011959045
251	0xbd72a0b4	-0.05923529
252	0xbe723313	-0.23652296
253	0xbe8291d7	-0.25501892
254	0x3e92f638	0.28703475
255	0xbb55a128	-0.0032597277
