saved_models/LSTM/ckpt__epoch100.ckpt (torch, 17513 bytes, 20 tensors)

weight_ih_l0 f4 [64, 8]
0	0xbd2d436e	-0.042300634
1	0x3e148132	0.14502409
2	0x3ec799cb	0.38984522
3	0x3e7a38fe	0.24435803
4	0xbdc62639	-0.09675259
5	0x3dcae11f	0.0990622
6	0xbe0d46c2	-0.13796523
7	0xbd1418ee	-0.036156587
8	0x3ccda4cf	0.025103
9	0x3d7cd684	0.061728016
10	0xbe8b566c	-0.27214372
11	0x3e9828f9	0.2971876
12	0xbc355190	-0.011066809
13	0xbee4aadb	-0.44661602
14	0xbd8d0a80	-0.06886768
15	0xbe24810c	-0.16064852
16	0x3db220df	0.08697676
17	0x3eb435e3	0.35197362
18	0x3dc523aa	0.09625943
19	0xbd104d03	-0.035229694
20	0x3d3aa2b4	0.045565322
21	0x3e956fe2	0.29186922
22	0x3dd03e3d	0.10168121
23	0x3e8eb24f	0.27870414
24	0x3d0c9a94	0.034327105
25	0xbe8ad82b	-0.27118048
26	0xbd09a2e0	-0.033602595
27	0x3e04ce50	0.12969327
28	0x3c00b57e	0.007855771
29	0xbd6dd5c8	-0.058065206
30	0xbda97ff8	-0.08276361
31	0x3d4f30fe	0.050583832
32	0x3cff6e56	0.031180542
33	0xbea74cff	-0.3267593
34	0x3e063e62	0.13109735
35	0xbd362be1	-0.04447544
36	0x3b9a3ff6	0.004707332
37	0xbda10545	-0.07862333
38	0x3daef2dc	0.085424155
39	0xb9cc2823	-0.00038939816
40	0x3b809a18	0.0039246194
41	0x3dae8caa	0.08522923
42	0xbd971513	-0.073770665
43	0x3ca6f11a	0.020378638
44	0xbe8ad200	-0.27113342
45	0xbe42d1fa	-0.19025412
46	0xbe8fd42a	-0.28091556
47	0x3d3b3860	0.04570806
48	0xbe6a75c6	-0.2289649
49	0x3e01f886	0.1269246
50	0xbd3cfed9	-0.04614148
51	0xbec971a9	-0.39344528
52	0x3d75b43b	0.059986334
53	0xbd793ba5	-0.060847897
54	0xbe7d15b3	-0.24715309
55	0x3ceafe64	0.028685756
56	0x3d31337f	0.043262
57	0x3c87224f	0.016495852
58	0x3df3102c	0.11868319
59	0x3d427e96	0.047484003
60	0x3d2b3c18	0.041805357
61	0x3ea57982	0.32319266
62	0xbe80ebea	-0.25179988
63	0x3dd7bebf	0.10534429
64	0xbe08150c	-0.13289279
65	0xbe1f7f31	-0.15575863
66	0xbdc2b749	-0.09507615
67	0x3e103f02	0.14086536
68	0xbde30b10	-0.110860944
69	0xbe8b9a87	-0.27266333
70	0xbd07d7fa	-0.033164956
71	0xbd90336d	-0.07041059
72	0x3d68e084	0.05685474
73	0xbda12c48	-0.07869774
74	0xbd185978	-0.0371947
75	0xbd045a8b	-0.03231291
76	0x3e14bb64	0.14524609
77	0x3e2ad915	0.16684373
78	0x3defb5d1	0.117046006
79	0x3d126dbc	0.035749182
80	0x3cbc461a	0.022982646
81	0x3eb0fa65	0.34566036
82	0x3e93d059	0.28869894
83	0xbdb41c5c	-0.087944716
84	0xbde607db	-0.11231967
85	0xbd19c8f6	-0.037545167
86	0xbdf89413	-0.12137618
87	0x3d5f514f	0.0545209
88	0x3caf79f0	0.021420449
89	0x3e2069ed	0.15665407
90	0xbdbb532c	-0.09146723
91	0xbe56533e	-0.20930192
92	0x3e484589	0.19557776
93	0xbe2cd43f	-0.1687784
94	0x3e92b587	0.2865412
95	0x3d292b34	0.041300967
96	0xbe9a5c75	-0.30148664
97	0xbe5de48c	-0.21669215
98	0x3ec5039a	0.3847931
99	0x3db4982c	0.08818087
100	0x3c28cfa4	0.010303412
101	0xbd520b90	-0.051280558
102	0x3b4eb489	0.0031540713
103	0xbe37aa1d	-0.17935987
104	0xbce567fb	-0.028003683
105	0x3ea694db	0.32535443
106	0x3e890547	0.2676184
107	0x3dbc0450	0.0918051
108	0xbe18d312	-0.14924267
109	0x3de476fd	0.11155508
110	0xbdb9a4d8	-0.090646446
111	0x3ddfe873	0.10933008
112	0xbd5542bd	-0.0520656
113	0xbe67e9a8	-0.22647727
114	0xbe4062b3	-0.18787651
115	0x3bcb97bb	0.006213156
116	0xbd61ed8c	-0.055158183
117	0x3de00b37	0.10939639
118	0xbde4736c	-0.111548275
119	0x3ba5a84a	0.005055462
120	0x3e19726e	0.14985058
121	0x3dcb0960	0.099138975
122	0xbc0916b5	-0.00836723
123	0xbde3fe02	-0.111324325
124	0x3e3712bd	0.17878242
125	0x3e911371	0.28335145
126	0x3e92dc06	0.2868349
127	0xbe5df249	-0.21674456
128	0xbe29e075	-0.1658953
129	0x3af727c9	0.0018856461
130	0xbe5376a2	-0.20650724
131	0xbc99fe58	-0.018798038
132	0xbda09c63	-0.078423284
133	0x3dc92486	0.098214194
134	0x3ddf3a16	0.10899751
135	0x3a5ea793	0.00084935984
136	0xbc1f2976	-0.009714475
137	0xbe8b83a4	-0.2724887
138	0x3dd93d32	0.10607375
139	0xbdc1d8da	-0.09465189
140	0x3cbdd0db	0.02317088
141	0x3e083836	0.13302693
142	0x3d45e432	0.048313327
143	0xbe482e6f	-0.19548963
144	0xbdd321bd	-0.103091694
145	0x3e1731de	0.14765117
146	0x3d78f310	0.060778677
147	0x3d1c4c9d	0.038159
148	0x3e29414f	0.1652882
149	0xbe88a55f	-0.26688668
150	0x3e641e2f	0.22277139
151	0xbd0cc9c9	-0.034372125
152	0x3e8822cf	0.26589057
153	0x3e09b4d1	0.13447882
154	0x3de96e60	0.113980055
155	0x3a6f0091	0.0009117211
156	0xbdff106d	-0.12454305
157	0x3cd04ca8	0.025427178
158	0xbc24a8cd	-0.010050011
159	0xbd98ca66	-0.074604794
160	0xbbd09128	-0.00636496
161	0x3d9288e0	0.07155013
162	0x3c5762e8	0.01314614
163	0xbda87bd3	-0.082267426
164	0x3c41365e	0.011792747
165	0x3b17a3ac	0.0023138328
166	0x3d9e29e3	0.07722833
167	0x3df986e2	0.1218393
168	0x3d357965	0.044305224
169	0xbdd817f8	-0.10551447
170	0x3d6141b7	0.05499431
171	0x3e3d797c	0.18503374
172	0x3e8e9d66	0.2785446
173	0xbdf5898d	-0.11989126
174	0xbe0d3cb8	-0.13792694
175	0xbd7f5746	-0.06233909
176	0x3c9a23e1	0.018815937
177	0xbe168c70	-0.1470201
178	0x3d8ad815	0.067794956
179	0x3e0ce275	0.13758262
180	0xbc33ca92	-0.0109735895
181	0x3c89a3a0	0.016801655
182	0x3e2580da	0.16162434
183	0x3c30a1d2	0.0107807685
184	0x3d01200a	0.031524695
185	0xbe642b96	-0.22282252
186	0xbe0d1a95	-0.13779671
187	0x3d422ddf	0.047407027
188	0x3c9d621b	0.01921182
189	0xbdb8ae54	-0.090176255
190	0x3c3af9bc	0.01141208
191	0xbd80c153	-0.06286874
192	0x3e0305ca	0.12795177
193	0xbd11f204	-0.035631195
194	0x3d75066a	0.05982057
195	0x3da6a702	0.08137323
196	0xbd965567	-0.07340508
197	0xbc839320	-0.016061366
198	0xbdb0aede	-0.08627103
199	0xbe0d8669	-0.13820805
200	0x3ccc383a	0.024929155
201	0xbe239bc5	-0.1597739
202	0xbe45e305	-0.19324882
203	0xbe5717a2	-0.21005109
204	0x3d84d977	0.064867906
205	0xbd591321	-0.05299676
206	0xbe7316f9	-0.23739232
207	0x3d48c3fb	0.049015027
208	0x3c2425fa	0.01001882
209	0xbe037ad1	-0.1283982
210	0x3e43bdf0	0.19115424
211	0xbbb485af	-0.0055091004
212	0xbdccb1df	-0.09994864
213	0xbe4f2c95	-0.2023185
214	0x3da81729	0.082075424
215	0x3db1d7df	0.08683752
216	0x3d69c1ee	0.05706971
217	0xbd88a8bf	-0.06672811
218	0x3e713c98	0.23558271
219	0xbd6ef076	-0.05833479
220	0xbd8e7ade	-0.06957029
221	0xbd92d3f8	-0.07169336
222	0xbcd6fa55	-0.026242414
223	0xbe7145d3	-0.23561792
224	0x3d1fcbf9	0.039012883
225	0x3e529a48	0.20566666
226	0xbe79244d	-0.24330254
227	0xbe0d7f60	-0.13818121
228	0x3db0fdc2	0.086421505
229	0xbdca7d2d	-0.09887157
230	0xbe909067	-0.2823517
231	0xba8fd417	-0.0010973242
232	0xbdd216be	-0.10258244
233	0xbde7d9ce	-0.1132084
234	0x3e37a08b	0.17932336
235	0x3e7e038a	0.24806038
236	0xbe1e78ca	-0.15475765
237	0xbd4f4df7	-0.050611462
238	0xbcbc9620	-0.023020804
239	0xbcd1b872	-0.025600646
240	0x3e36346c	0.17793435
241	0x3c83fc60	0.016111553
242	0xbdf55760	-0.11979556
243	0x3db28845	0.087173976
244	0x3e0b6785	0.13613708
245	0x3e0218e5	0.12704809
246	0xbd2978e9	-0.041375075
247	0xbd7151a2	-0.05891574
248	0xbe31bbfd	-0.17356868
249	0xbe89d2bd	-0.26918593
250	0x3d9b771b	0.07591077
251	0xbd2048af	-0.039131816
252	0x3da4ca69	0.08046419
253	0x3da1ab55	0.07894007
254	0xbdbebaf1	-0.09313
255	0x3dd3513e	0.1031823

weight_hh_l0 f4 [64, 4]
0	0x3d429a93	0.047510695
1	0x3e6c9454	0.23103458
2	0x3ce4475d	0.02786606
3	0xbdfafb51	-0.12254966
4	0x3b835507	0.004007939
5	0xbe460541	-0.19337942
6	0xbd847721	-0.064680345
7	0xbe32e6a1	-0.1747079
8	0xbda59c85	-0.08086494
9	0xbe5b0071	-0.21386887
10	0xbe417414	-0.18891937
11	0xbe808677	-0.2510259
12	0xbdde90a5	-0.108674325
13	0x3e6154b7	0.22004972
14	0x3e808a14	0.25105345
15	0x3c7e368a	0.015515933
16	0xbeb31696	-0.3497817
17	0xbcbb3055	-0.022850195
18	0x3e5d5457	0.21614204
19	0xbd25b0df	-0.04045188
20	0xbd06bfe1	-0.032897834
21	0xbe549f31	-0.20763852
22	0x3e5f4dcc	0.21807021
23	0x3e6dd341	0.23225118
24	0x3ec9e528	0.39432645
25	0xbd9ac469	-0.075569935
26	0xbe2c5674	-0.16829854
27	0xbe1f4ac8	-0.1555587
28	0x3e3c6995	0.18399651
29	0xbe2c06f4	-0.16799527
30	0x3e7b1cbe	0.24522683
31	0xbe8c89da	-0.27448922
32	0x3d365a8b	0.044519942
33	0xbe379d45	-0.17931087
34	0xbe0f5acd	-0.13999481
35	0x3d1472cd	0.036242295
36	0xbdbed036	-0.09317057
37	0x3db14cc1	0.08657218
38	0xbdcc76c7	-0.099835925
39	0xbe4034f4	-0.187702
40	0x3ed1618d	0.40894738
41	0xbee68f0c	-0.4503101
42	0xbea6a8d6	-0.32550687
43	0xbe842535	-0.25809637
44	0xbeabb707	-0.33538076
45	0x3e1913ed	0.14949007
46	0x3c9ca08d	0.019119525
47	0xbe69cbef	-0.228317
48	0x3ed36813	0.4129034
49	0x3cfc2f3c	0.030784242
50	0xbdc20549	-0.09473664
51	0xbe814793	-0.2524992
52	0x3eb16103	0.34644327
53	0x3e3c2266	0.18372497
54	0xbe245079	-0.16046323
55	0x3e03788b	0.12838952
56	0x3d0b3310	0.033984244
57	0x3d609e4c	0.054838464
58	0xbd2f28ae	-0.042763405
59	0x3d63aef2	0.055586763
60	0x3e1f25fa	0.1554183
61	0x3da38161	0.079836614
62	0xbdb6f91a	-0.08934231
63	0x3d2e87f9	0.042610142
64	0xbc2f8921	-0.010713846
65	0xbdac2ef4	-0.08407393
66	0x3d706728	0.058692127
67	0xbe9c4290	-0.30519533
68	0x3d9d5023	0.076813005
69	0x3d645621	0.0557462
70	0x3decf283	0.11569693
71	0x3cc9313f	0.024559615
72	0xbe1a9308	-0.1509515
73	0x3e0fe7a4	0.14053208
74	0xbe181bd8	-0.14854372
75	0xbe8d647d	-0.2761573
76	0x3e1a3585	0.15059479
77	0x3d124143	0.03570677
78	0x3da0412a	0.07824929
79	0x3d890c5b	0.0669181
80	0xbebd804e	-0.3701195
81	0x3e528439	0.20558251
82	0x3ed95746	0.42449397
83	0x3eb05dd1	0.34446576
84	0x3dcebdca	0.10094793
85	0x3e837822	0.25677592
86	0x3d55fe3b	0.052244406
87	0x3e1148c1	0.1418791
88	0xbece16e3	-0.40251836
89	0x3f1020c6	0.5630001
90	0x3ef272fd	0.47353354
91	0x3f078e18	0.5295119
92	0xbea17b31	-0.315393
93	0x3e05784f	0.13034175
94	0xbd8f7d67	-0.070063405
95	0x3db69dcc	0.08916816
96	0x3e73cf3a	0.2380952
97	0x3e0d3f29	0.13793625
98	0xbe94134b	-0.2892097
99	0x3e21bc2c	0.15794438
100	0xbee7f762	-0.45305926
101	0x3ef8dde2	0.48606783
102	0x3e862131	0.26197198
103	0x3d8615a5	0.06547097
104	0x3eba885d	0.36432162
105	0x3cd68aba	0.026189197
106	0x3d6d9447	0.058002736
107	0xbe174bbc	-0.14774984
108	0xbe2c1b8f	-0.16807388
109	0x3cc191bc	0.023629062
110	0xbd2cb9e6	-0.042169474
111	0xbe50ca6a	-0.20389715
112	0xbe15e75a	-0.14639035
113	0x3e26d839	0.1629342
114	0x3e47d308	0.19514096
115	0x3ea06222	0.3132487
116	0x3e552b28	0.20817244
117	0x3c5f3a33	0.013624716
118	0xbe6edc54	-0.23326236
119	0x3cc2b833	0.023769474
120	0x3d7605c3	0.06006409
121	0xbe22bc19	-0.15892066
122	0x3e56e9c4	0.20987612
123	0xbd1f3a76	-0.038874112
124	0x3d9b17b1	0.07572878
125	0xbda2f7a1	-0.07957388
126	0x3b4d7522	0.0031350334
127	0x3dcab866	0.098984525
128	0x3e59fae7	0.21287118
129	0xbecfe993	-0.4060789
130	0x3d4764cb	0.048680108
131	0xbe4a2565	-0.19740827
132	0x3d77d2d8	0.06050381
133	0xbe7bbf89	-0.24584784
134	0xbdd7f011	-0.10543836
135	0xbeca934c	-0.39565504
136	0xbd81a738	-0.063307226
137	0x3e49ee5b	0.19719832
138	0x3e05c5ad	0.13063689
139	0x3dbaef80	0.09127712
140	0x3ec645ec	0.3872522
141	0xbe38e673	-0.1805666
142	0xbe2b8f96	-0.16753992
143	0x3baccd82	0.005273522
144	0x3d9207d7	0.071304016
145	0xbe9afb1d	-0.3026971
146	0xbf09a24a	-0.5376326
147	0xbd0c63bf	-0.034274813
148	0x3ebfb87f	0.37445447
149	0xbd92ee0b	-0.07174309
150	0xbe2f89e4	-0.17142445
151	0xbe8c83b1	-0.27444223
152	0xbce656e8	-0.028117612
153	0xbdccf149	-0.10006959
154	0xbe2867b9	-0.16445817
155	0x3ea9a0ad	0.33130398
156	0xbef0afbd	-0.47009078
157	0x3e1cdc9f	0.15318535
158	0x3e8ac974	0.27106822
159	0x3eab98cf	0.3351502
160	0xbe3aa7e7	-0.18228112
161	0xbdefc66b	-0.11707767
162	0xbda5c4af	-0.08094155
163	0x3dd86f91	0.105681546
164	0x3e7f4ade	0.24930903
165	0xbc9f8763	-0.019473737
166	0xbe61858e	-0.22023603
167	0xbe348d7e	-0.176321
168	0x3e249cc6	0.1607543
169	0xbe92e644	-0.28691304
170	0xbcd77720	-0.02630192
171	0x3c20d542	0.00981647
172	0xbdb29c88	-0.08721262
173	0x3ceab91c	0.02865272
174	0x3d119369	0.035540972
175	0xbd33880e	-0.043830924
176	0x3d601ab7	0.054712977
177	0xbe8ab51e	-0.27091306
178	0xbdc5745c	-0.096413344
179	0xbea3b7a5	-0.31976047
180	0x3e70cad3	0.23514871
181	0xbe6f5131	-0.23370816
182	0x3e10ebbb	0.14152424
183	0xbe0f7510	-0.140095
184	0xbeb7204b	-0.35766825
185	0xbc1fc70e	-0.009752048
186	0xbe075169	-0.1321465
187	0x3e8b462c	0.27201974
188	0x3daf1a02	0.085498825
189	0x3ea1ce81	0.31602862
190	0x3e1ca12a	0.15295854
191	0x3c7ff4b2	0.015622305
192	0xbe8c1105	-0.27356735
193	0x3ecb3f7d	0.39696875
194	0x3c3eebd1	0.011652903
195	0x3e6de39e	0.2323136
196	0xbd8df5bb	-0.06931635
197	0x3d33ceb3	0.043898296
198	0x3dfe3b20	0.12413621
199	0xbdbeb664	-0.09312132
200	0x3ccab9d1	0.024746807
201	0x3d8541e0	0.06506705
202	0x3e5df565	0.21675642
203	0x3e23282c	0.15933293
204	0xbddef38b	-0.10886296
205	0x3e98ca2c	0.29841745
206	0xbd949dc6	-0.072566554
207	0x3db91c1f	0.09038567
208	0xbedb44fb	-0.42826065
209	0x3efdfff1	0.4960933
210	0x3e80c582	0.25150687
211	0x3e9f783d	0.31146422
212	0xbd9b482e	-0.075821266
213	0x3dcb9fd6	0.09942596
214	0x3eab7905	0.33490768
215	0x3ea751db	0.32679638
216	0xbe8da79f	-0.27666947
217	0x3e8561ba	0.26051122
218	0x3ec4231e	0.38308042
219	0x3e3bc315	0.18336137
220	0xbea260e1	-0.31714538
221	0x3cea8ce1	0.02863163
222	0xbca1d5d0	-0.019755274
223	0x3e3347ca	0.17507854
224	0x3ef454a8	0.47720838
225	0xbe53adab	-0.20671718
226	0xbe968e86	-0.29405612
227	0xbe7dcc55	-0.24784978
228	0xbeda235c	-0.42605102
229	0x3e0bffc9	0.13671793
230	0x3e1456f1	0.1448629
231	0x3d9a45af	0.07532822
232	0x3e5889c1	0.21146299
233	0x3eb1ba7f	0.34712598
234	0x3e0a8a11	0.1352923
235	0x3e602905	0.21890648
236	0xbe6c7141	-0.23090078
237	0x3dd51980	0.10405254
238	0x3ec9a060	0.3938017
239	0xbdcae5d1	-0.09907115
240	0xbecb4b4e	-0.3970589
241	0x3e1edc68	0.15513766
242	0x3e275aad	0.16343184
243	0x3e30f990	0.172827
244	0xbe4e0bfc	-0.20121759
245	0x3ec30ef5	0.3809735
246	0x3ea5469c	0.32280433
247	0xbc1758c1	-0.009237469
248	0xbddb5492	-0.1070949
249	0x3ea7db8c	0.32784688
250	0x3e98241f	0.29715058
251	0x3ee91ba0	0.4552889
252	0xbdc91e51	-0.098202355
253	0x3eab432e	0.33449692
254	0x3eb4bc6b	0.35300002
255	0x3e9bb88f	0.30414245

bias_ih_l0 f4 [64]
0	0x3df17545	0.117899455
1	0x3e0eb990	0.13937974
2	0xbe1379bd	-0.14401908
3	0xbe37a82d	-0.17935248
4	0x3d687ad1	0.05675775
5	0xbe8ac1dd	-0.2710103
6	0xbe999b6a	-0.30001384
7	0xbe9bf2a8	-0.3045857
8	0x3cd8d2cb	0.026467701
9	0x3e30b102	0.17255023
10	0x3e00a36f	0.12562345
11	0x3eb128c4	0.34601414
12	0xbe763491	-0.2404349
13	0xbe7c3e1f	-0.24633072
14	0xbe2cb053	-0.16864137
15	0x3e2497b3	0.16073494
16	0x3e0d736e	0.13813564
17	0x3ea97095	0.33093706
18	0xbac15bd8	-0.0014752103
19	0xbdf22231	-0.11822928
20	0x3e9bd706	0.30437487
21	0xbc4f9ce5	-0.012671684
22	0x3ec74748	0.3892157
23	0x3e5df2ec	0.21674699
24	0x3e9a78f1	0.30170396
25	0x3edbba2a	0.4291547
26	0xbe0ccdeb	-0.13750426
27	0xbdd093c7	-0.10184436
28	0x3dc0715b	0.09396621
29	0x3e5795ad	0.2105319
30	0xbe1482fc	-0.14503092
31	0xbe2473b6	-0.16059765
32	0x3d26dfaf	0.040740665
33	0xbd1f1734	-0.038840488
34	0x3e70d0bb	0.23517124
35	0xbe823449	-0.25430515
36	0xbe107b1f	-0.14109467
37	0xbe65b21f	-0.22431229
38	0xbde7ddad	-0.11321578
39	0x3d2f0d63	0.042737376
40	0xbd617bb6	-0.05504962
41	0xbdd655e6	-0.104656026
42	0xbd7bda18	-0.061487287
43	0x3eb660d4	0.3562075
44	0x3c464225	0.012100731
45	0xbe617a9f	-0.22019432
46	0x3ea838e7	0.32855913
47	0x3ddaf4fc	0.10691258
48	0x3eadcde8	0.33946157
49	0xbe2248ac	-0.15848035
50	0xbdf08006	-0.117431685
51	0x3ec74363	0.389186
52	0x3de21990	0.11040032
53	0x3e4a3e4b	0.19750325
54	0x3e8f6174	0.28004038
55	0x3dc71d74	0.097224146
56	0x3e2a6ed7	0.16643845
57	0x3ed9b5ea	0.42521602
58	0xbe2ead09	-0.17058195
59	0x3e6c0940	0.23050404
60	0x3dfd9a8c	0.12382993
61	0xbd6d785c	-0.05797611
62	0x3dae1036	0.08499186
63	0xbdc8988b	-0.0979472

bias_hh_l0 f4 [64]
0	0x3dca40be	0.0987563
1	0xbc0f9967	-0.008764601
2	0x3d96463c	0.07337615
3	0xbe2403f8	-0.16017139
4	0x3e853765	0.26018825
5	0x3e481f5f	0.19543217
6	0x3d1e50a1	0.038651112
7	0xbdb37e16	-0.08764283
8	0xbe63610f	-0.22204994
9	0xbe3277e9	-0.17428555
10	0xbe4a348b	-0.19746606
11	0x3e4e2257	0.20130287
12	0xbe36f371	-0.17866303
13	0xbea1594e	-0.31513447
14	0x3e10c2c9	0.14136805
15	0x3d24f8bd	0.040276278
16	0x3e09fc0a	0.13475052
17	0x3e86c90a	0.26325256
18	0x3e94e424	0.29080307
19	0x3e853e04	0.26023877
20	0x3e547033	0.20745926
21	0x3e9ed320	0.3102045
22	0x3e207045	0.15667827
23	0x3edd9f06	0.43285388
24	0x3e51f26f	0.20502637
25	0x3e435e80	0.19079018
26	0x3c3eb15d	0.011638966
27	0x3e57d3cf	0.21076892
28	0x3d628c86	0.055309795
29	0xbd9873eb	-0.074439846
30	0xbe2b9eba	-0.16759768
31	0x3d36a6c5	0.044592638
32	0xbdc24e91	-0.094876416
33	0x3c8f5039	0.017494308
34	0xbd4657ca	-0.048423566
35	0xbe811551	-0.25211576
36	0xbe986cb6	-0.2977044
37	0xbd45a64e	-0.048254304
38	0x3e25f5c5	0.16207035
39	0xbbfcbb2b	-0.007712742
40	0x3e010cec	0.12602586
41	0xbc5a3ec7	-0.013320631
42	0xbe0db243	-0.13837533
43	0x3dda34c2	0.10654594
44	0xbe5b232d	-0.21400137
45	0xbe74f915	-0.23923142
46	0xbcbf725d	-0.023369962
47	0x3eb34785	0.35015503
48	0x3e4f8bbe	0.20268151
49	0xbe250d1f	-0.16118287
50	0x3e941929	0.28925446
51	0xbc9928ed	-0.018696273
52	0x3edf4b03	0.43611917
53	0x3e442f65	0.19158705
54	0x3e46db19	0.19419517
55	0xbc9a831f	-0.018861352
56	0x3e967ba5	0.29391208
57	0x3ed8ed8a	0.42368728
58	0x3e8641fc	0.26222217
59	0xbdc39cfa	-0.09551425
60	0x3c0dd3ab	0.008656423
61	0x3e2d7b5d	0.1694159
62	0xbd1692a8	-0.036760956
63	0x3e132e3e	0.14373109

weight_hr_l0 f4 [4, 16]
0	0x3deb9ebd	0.11504886
1	0xbd8be6b5	-0.06831113
2	0xbe93dc3f	-0.28878972
3	0x3ecf7739	0.40520647
4	0x3edbf17e	0.4295768
5	0x3e83821d	0.25685206
6	0x3edf2003	0.4357911
7	0xbe5e0e34	-0.21685106
8	0xbe6a1375	-0.22858985
9	0x3e78f48d	0.24312039
10	0x3e4189ab	0.18900172
11	0xbec998e0	-0.39374447
12	0x3ddd8039	0.10815472
13	0x3e986033	0.29760894
14	0xbe9f3c3a	-0.31100637
15	0xbe6c1dc6	-0.23058233
16	0xbed86e24	-0.4227153
17	0xbeb68b54	-0.35653174
18	0x3e81035e	0.2519788
19	0xbedd8b4c	-0.43270338
20	0xbefa13fe	-0.48843378
21	0xbe34c216	-0.17652163
22	0x3cfa3d73	0.03054688
23	0x3ee13f68	0.43993688
24	0x3e464182	0.19360927
25	0xbe84252e	-0.25809616
26	0xbda4a704	-0.08039668
27	0xbcac8069	-0.021057324
28	0xbe31363a	-0.17305842
29	0xbdc52eb6	-0.0962805
30	0x3dba10cb	0.09085234
31	0x3e89c9a6	0.26911658
32	0xbebeb9f7	-0.37251255
33	0xbe6dd6ae	-0.23226425
34	0x3e18a13a	0.14905253
35	0xbd500a75	-0.050791223
36	0xbeb952f7	-0.3619611
37	0xbe12c4f3	-0.14332943
38	0xbe91966c	-0.28435075
39	0x3ecd0d2a	0.40049106
40	0xbccbdf24	-0.024886675
41	0xbebdeb86	-0.37093753
42	0xbe9f63d6	-0.31130856
43	0x3e83c9a4	0.25739777
44	0xbe9e1ae6	-0.30879897
45	0xbe21eef4	-0.1581381
46	0x3c977cae	0.01849207
47	0x3d970281	0.073735245
48	0xbd7d33de	-0.061817043
49	0xbd8e8011	-0.069580205
50	0x3d6e3177	0.058152642
51	0xbd4f3077	-0.05058333
52	0xbea1d82a	-0.31610233
53	0xbe30b71a	-0.17257348
54	0x3dcc0405	0.09961704
55	0x3cbdb65c	0.023158245
56	0x3b6c04c7	0.003601359
57	0x3dbb4301	0.09143639
58	0xbeb80356	-0.35940045
59	0x3e6444d9	0.22291888
60	0xbe2cad03	-0.16862874
61	0xbddd606c	-0.10809407
62	0x3ea1b558	0.31583667
63	0x3e2be513	0.16786604

weight_ih_l1 f4 [64, 4]
0	0xbe335220	-0.17511797
1	0xbeb006bd	-0.3438014
2	0xbe796ac8	-0.2435714
3	0x3e098f24	0.1343351
4	0x3cc0ed11	0.023550542
5	0xbd95c822	-0.07313563
6	0xbd13f174	-0.03611894
7	0x3bc1d746	0.005915555
8	0xbe0c99cd	-0.13730545
9	0x3da28a5c	0.07936546
10	0x3e86d509	0.26334408
11	0x3e5803b4	0.21095163
12	0x3d785f66	0.060637854
13	0x3d66dd08	0.056363136
14	0xbede3ebb	-0.43407235
15	0xbea596d9	-0.3234165
16	0xbe26de79	-0.16295804
17	0x3e3eb333	0.18623047
18	0xbd09d963	-0.03365458
19	0x3e08abfd	0.13346858
20	0xbb45651e	-0.0030120085
21	0x3e768166	0.24072799
22	0x3df95a97	0.12175482
23	0x3e78a5bb	0.24281971
24	0xbe25d5b1	-0.16194798
25	0x3e94ab69	0.29037026
26	0xbdf8dcad	-0.121514656
27	0x3cdcf5ff	0.026972769
28	0x3dc7146f	0.09720694
29	0x3e20abb8	0.15690506
30	0x3dfda0e6	0.123842046
31	0xbe03a9bf	-0.12857722
32	0xbe4da437	-0.20082174
33	0xbb4b5d78	-0.0031031054
34	0xbb2a9ce0	-0.0026033446
35	0x3ea3f60b	0.32023653
36	0x3dedda62	0.11613919
37	0x3d4232ef	0.047411855
38	0xbdb7a1d2	-0.08966412
39	0xbd1230a9	-0.035690937
40	0x3e96da6a	0.29463512
41	0xbeac93e8	-0.33706594
42	0xbe23d878	-0.16000545
43	0xbdef7a2f	-0.116932265
44	0xbd59d285	-0.053179283
45	0x3e07d79f	0.13265847
46	0x3d52b4ea	0.051442064
47	0x3dae51d8	0.08511704
48	0xbd5fdff0	-0.054656923
49	0xbe03ecd5	-0.12883313
50	0xbe24217a	-0.16028395
51	0xbe79fd1f	-0.24412964
52	0xbd7d4cf4	-0.061840966
53	0x3e629ae5	0.221294
54	0x3d4f8abd	0.05066942
55	0x3c08dd24	0.008353505
56	0x3bc10aae	0.0058911657
57	0x3e75dbbf	0.24009608
58	0xbdb5eba8	-0.088828385
59	0x3e10d2ec	0.1414296
60	0xbdab6115	-0.08368126
61	0x3d110d62	0.035413153
62	0xbe4d88bc	-0.20071691
63	0x3d982c5d	0.074303366
64	0xbde29a86	-0.11064629
65	0xbedd66cb	-0.43242487
66	0xbe51a048	-0.20471299
67	0xbe6f61cc	-0.2337715
68	0xbeb008ed	-0.3438181
69	0x3c30014c	0.010742497
70	0x3d6836df	0.056692954
71	0x3e6dfe5e	0.23241565
72	0xbe7c7f76	-0.24657997
73	0x3e9d84eb	0.3076547
74	0x3e825e6c	0.25462663
75	0xbe4a20eb	-0.1973912
76	0x3e9932d0	0.2992158
77	0xbefc9706	-0.49333972
78	0xbe235ef6	-0.15954193
79	0xbcc7ee70	-0.024405688
80	0x3bbbf200	0.0057356358
81	0x3ec612b8	0.38686156
82	0xbc961ba2	-0.018323723
83	0x3e402dc3	0.18767457
84	0xbe48bb91	-0.19602801
85	0x3e2d6359	0.1693243
86	0x3d053d66	0.032529257
87	0x3e8ea8b2	0.2786308
88	0xbd5f7f0d	-0.054564524
89	0x3f12e05a	0.57373583
90	0x3e0c9c4f	0.13731502
91	0x3eed6b1d	0.46370783
92	0xbe03c551	-0.12868239
93	0x3d4bee57	0.049787845
94	0x3edd1954	0.43183386
95	0x3caf108c	0.021370195
96	0xbe5b522f	-0.2141807
97	0x3d42b4e6	0.0475358
98	0x3f0543b0	0.5205641
99	0x3e8e6afe	0.27816004
100	0x3db0abb6	0.08626501
101	0x3eae4ca1	0.34042838
102	0x3b3d5083	0.00288871
103	0x3ea241ac	0.3169073
104	0xbdfe9d6c	-0.124323696
105	0xbead8d06	-0.33896655
106	0xbe3a8bb1	-0.1821735
107	0xbe3a8fb5	-0.18218882
108	0xbdafbcd3	-0.08580937
109	0x3ead3742	0.3383122
110	0x3ed60876	0.4180333
111	0x3c742cbf	0.014903246
112	0x3da10c21	0.078636415
113	0xbe36c8e4	-0.17850071
114	0x3e5d2538	0.21596229
115	0xbda0910f	-0.07840168
116	0xbdc1d681	-0.094647415
117	0x3e3d858f	0.1850798
118	0x3ea0c0d4	0.31397116
119	0x3e8719d9	0.26386908
120	0xbe63495a	-0.2219595
121	0xbd23f9d5	-0.04003318
122	0x3e8db373	0.2767597
123	0x3df3ec7c	0.1191034
124	0xbe85c7a2	-0.2612887
125	0x3e6ce398	0.23133695
126	0x3e007dcf	0.12547992
127	0x3e25b70c	0.16183108
128	0xbe636524	-0.22206551
129	0x3d111e5c	0.035429344
130	0x3eb3fc4f	0.35153434
131	0xbd643ded	-0.05572312
132	0x3cf7f0d3	0.030266201
133	0x3eb51efd	0.35375205
134	0x3ea04e29	0.3130963
135	0x3ea0e284	0.31422818
136	0xbe1fc816	-0.1560367
137	0x3ea4cfc9	0.32189777
138	0xbd89a950	-0.06721747
139	0x3d0afe4b	0.03393392
140	0xbd3546a2	-0.044256814
141	0x3ea4bf17	0.3217704
142	0x3c0ff2bd	0.008785901
143	0x3e95be1e	0.2924661
144	0xbdf14b87	-0.11781984
145	0x3e1f87bf	0.15579127
146	0x3def39a0	0.11680913
147	0x3e19f8be	0.15036294
148	0x3d2b2bb2	0.041789718
149	0xbeab7fce	-0.33495945
150	0xbe67ad08	-0.226246
151	0xbcabe87d	-0.020984882
152	0x3d797c79	0.060909722
153	0x3f00721f	0.50174135
154	0xbdc9c194	-0.09851375
155	0x3eb03753	0.3441721
156	0x3d9f6165	0.077822484
157	0xbe91b8af	-0.28461215
158	0xbdbabfb6	-0.09118597
159	0xbe9ead27	-0.3099148
160	0x3e29f67c	0.16597933
161	0xbe0af55b	-0.13570158
162	0xbe4e4f65	-0.20147474
163	0xbd2fabce	-0.042888455
164	0x3d7d97be	0.06191229
165	0xbe521057	-0.20514046
166	0xbe8a4686	-0.2700693
167	0xbea6ae1c	-0.3255471
168	0x3de3a32a	0.111151055
169	0xbe49be76	-0.19701561
170	0xbe1c2636	-0.15248951
171	0x3d7b2fbc	0.06132482
172	0xbeca26d3	-0.39482746
173	0x3d16fec5	0.03686406
174	0x3e6eb5a5	0.2331148
175	0x3deb2f5c	0.114836425
176	0xbe5d2d21	-0.21599247
177	0x3f02dbea	0.5111681
178	0x3d1e05fc	0.038579926
179	0x3e88266d	0.26591817
180	0x3e027c45	0.12742718
181	0xbeaf18f2	-0.3419872
182	0xbe96cd6d	-0.29453602
183	0xbe9cccbd	-0.30624953
184	0xbddd37a4	-0.10801628
185	0x3e8acd2a	0.27109653
186	0x3e4e1dc0	0.20128536
187	0x3dbfde6d	0.09368596
188	0xbe861eae	-0.26195282
189	0x3ebd5607	0.36979696
190	0x3d6f38b9	0.058403704
191	0x3ea34bfd	0.31893912
192	0xbc954ad7	-0.018224163
193	0xbdcd17a7	-0.10014277
194	0x3e245324	0.1604734
195	0xbe6fc113	-0.23413496
196	0xbe49dbc5	-0.19712742
197	0x3e153882	0.14572337
198	0xbe21350c	-0.15742892
199	0x3eb4ce5d	0.35313693
200	0xbee8073f	-0.45318028
201	0x3e230ac4	0.15922076
202	0x3e8467aa	0.2586034
203	0x3dd6c300	0.10486412
204	0x3ed716c5	0.4200956
205	0xbef0e660	-0.47050762
206	0xbe4f15a7	-0.20223103
207	0xbe815ff5	-0.25268522
208	0xbe90b45e	-0.2826261
209	0x3ebd6a43	0.36995134
210	0x3ddd363c	0.1080136
211	0x3eba603b	0.36401543
212	0xbeef2822	-0.46710306
213	0x3e78a4f1	0.2428167
214	0x3e7bc18c	0.24585551
215	0x3ed2b32c	0.41152322
216	0xbea573ed	-0.32315007
217	0x3ec47184	0.38367856
218	0x3e630a22	0.22171834
219	0x3eeb213b	0.4592379
220	0xbebeac29	-0.37240723
221	0x3edbf70b	0.42961916
222	0x3e19c016	0.15014681
223	0x3e308855	0.17239507
224	0xbeb0cb2e	-0.34530014
225	0x3ef03a25	0.4691936
226	0x3e8e38b1	0.27777627
227	0x3e97d9e3	0.29658422
228	0xbd2b54d1	-0.041828934
229	0x3d91229f	0.070866816
230	0xbe10f23c	-0.14154905
231	0x3dda6de2	0.1066549
232	0x3ec82010	0.39086962
233	0xbee4ef68	-0.44713902
234	0xbe7f5994	-0.24936515
235	0xbed8d14d	-0.42347184
236	0xbbb1793e	-0.0054160645
237	0xbe35f6db	-0.17769949
238	0x3e2bb36a	0.1676766
239	0x3eafc7aa	0.3433202
240	0xbd4460b2	-0.04794378
241	0xbdfb6696	-0.12275426
242	0xbdea8bc7	-0.11452442
243	0xbdd0e71a	-0.10200329
244	0xbea3cf56	-0.31994122
245	0x3e9a16fa	0.30095655
246	0x3e688c4b	0.22709768
247	0x3e2653e3	0.16242938
248	0xbdb6b5eb	-0.08921417
249	0x3aec6264	0.0018034694
250	0x3ea9fa52	0.33198792
251	0x3dcc25ce	0.09968148
252	0xbe2338e2	-0.15939668
253	0x3e318ee1	0.1733966
254	0xbe490884	-0.19632155
255	0x3e6a28dc	0.22867149

weight_hh_l1 f4 [64, 4]
0	0x3df209b4	0.11818257
1	0x3e96a501	0.29422763
2	0xbe58c80b	-0.2117006
3	0x3e27552d	0.16341086
4	0x3eb9429c	0.3618363
5	0x3d713367	0.05888691
6	0xbe8aa676	-0.27080125
7	0x3ea69657	0.32536575
8	0x3d1c92e3	0.03822602
9	0x3e19c8ba	0.15017977
10	0x3d7205da	0.05908761
11	0xbaea6f8d	-0.0017886028
12	0x3ed21163	0.4102889
13	0xbc7ff555	-0.015622457
14	0xbdf874b8	-0.12131637
15	0x3eb9ed4e	0.36313862
16	0x3e67efb9	0.2265004
17	0xbc39beff	-0.011337041
18	0x3e1384bc	0.14406103
19	0xbd8f57b9	-0.06999154
20	0x3d1c1cc2	0.038113363
21	0x3e21f78d	0.1581709
22	0xbb2402af	-0.0025026014
23	0xbdf24cb9	-0.1183104
24	0x3e8fc876	0.28082627
25	0x3e6ceda2	0.23137525
26	0x3dfea37e	0.124335274
27	0xbdda7baf	-0.10668122
28	0x3e878876	0.264713
29	0x3cdf20e9	0.027237372
30	0x3e36cbfc	0.17851251
31	0xbd94ad77	-0.07259648
32	0x3d015a28	0.03158012
33	0x3dd4573b	0.103682004
34	0xbd540810	-0.0517655
35	0x3d97d890	0.07414353
36	0x3db513e0	0.088416815
37	0x3d862aab	0.06551107
38	0xbdf5dde4	-0.12005213
39	0x3e7b9f22	0.24572423
40	0x3e650254	0.2236417
41	0x3e423660	0.18966055
42	0xbe4db1ac	-0.20087308
43	0xbdfd3c47	-0.123650126
44	0x3f172a08	0.5904851
45	0x3ee60de0	0.4493246
46	0xbe66c420	-0.22535753
47	0x3f090555	0.5352376
48	0x3eb1017e	0.3457145
49	0x3efcbef2	0.4936443
50	0xbed352a6	-0.41273993
51	0x3ee399b3	0.444532
52	0xbcba51c5	-0.022744069
53	0xbe22888d	-0.15872402
54	0xbe1ee131	-0.15515591
55	0x3b8f245f	0.0043683494
56	0x3e2abb29	0.16672958
57	0x3b036396	0.0020048372
58	0xbe632cfd	-0.2218513
59	0x3ead0fb4	0.33801043
60	0x3f09146a	0.53546774
61	0x3d93c635	0.07215539
62	0xbe636d11	-0.22209574
63	0x3ef7b2d0	0.4837861
64	0xbea081ce	-0.31349033
65	0xbe62fd5d	-0.22166963
66	0x3eb919ca	0.36152488
67	0xbed11bb8	-0.4084146
68	0x3dda66e0	0.10664153
69	0xbe510bf3	-0.20414715
70	0x3dbdbc39	0.09264416
71	0x3e4af2cd	0.19819184
72	0xbe7e6b19	-0.24845542
73	0x3dbb23ee	0.091377124
74	0x3ca3878c	0.019962095
75	0x3db9d606	0.09074025
76	0xbd3fd871	-0.046837274
77	0xbe8cb431	-0.27481225
78	0xbd95e011	-0.07318128
79	0xbd964b6c	-0.07338604
80	0x3e6d8e09	0.23198713
81	0xbe560f2b	-0.20904224
82	0x3e10d62b	0.14144199
83	0x3dce7364	0.10080603
84	0xbe5f4202	-0.21802524
85	0xbc1686cd	-0.009187412
86	0x392f20c0	0.00016701501
87	0x3d33cce3	0.043896567
88	0x3e53d396	0.20686182
89	0xbd3196c5	-0.043356676
90	0x3c9bdfee	0.019027676
91	0x3ddef348	0.10886246
92	0xbe1eedc7	-0.15520392
93	0xbd9c3752	-0.07627739
94	0x3df4c4ef	0.119516246
95	0xbd471ae4	-0.04860963
96	0xbd80d32f	-0.0629028
97	0xbdc7636d	-0.09735761
98	0x3e4ccf7d	0.20001025
99	0x3d1d0f7a	0.038344838
100	0x3e3d89df	0.18509625
101	0xbe61d6ab	-0.22054546
102	0xbe3f8fa4	-0.18707138
103	0x3e0cda80	0.13755226
104	0xbe0d7e48	-0.13817704
105	0x3d2a2adb	0.041544776
106	0x3e7418cd	0.23837586
107	0x3dfc5314	0.123205334
108	0xbb95a642	-0.0045669386
109	0x3e9d1c23	0.3068553
110	0x3d8fcaee	0.07021128
111	0x3e2f1caa	0.17100778
112	0xbeb43faf	-0.35204837
113	0x3df510a5	0.11966065
114	0x3e427750	0.18990827
115	0x3bb39d12	0.0054813707
116	0xbd150c81	-0.036388878
117	0xbd9cfac6	-0.07665019
118	0xbe05ee33	-0.13079147
119	0xbd8805c9	-0.066417284
120	0x3e24894b	0.16067998
121	0xbdb15fa2	-0.08660819
122	0x3e3ce93a	0.18448344
123	0xbbb24ebe	-0.0054415157
124	0x3e1473ba	0.14497271
125	0xbe48c4fa	-0.1960639
126	0xbd511f3b	-0.051055174
127	0xbdfc1f34	-0.12310639
128	0xbe07eef3	-0.13274746
129	0xbd83013d	-0.063967206
130	0xbd816672	-0.06318368
131	0x3d291e37	0.04128858
132	0xbe5a94b5	-0.2134579
133	0xbe97a0e2	-0.2961493
134	0x3cb8a553	0.02253977
135	0x3c0e2b09	0.008677253
136	0x3d85459b	0.06507417
137	0xbe083f03	-0.13305287
138	0x3e26cd91	0.16289355
139	0x3e044ddf	0.1292033
140	0xbe47be2b	-0.19506137
141	0xbe496200	-0.1966629
142	0x3bebf2a7	0.0072005573
143	0xbdbdc178	-0.09265417
144	0x3df800a5	0.12109498
145	0x3dab0f41	0.08352519
146	0x3d82145f	0.06351542
147	0xbdb187ec	-0.08668503
148	0xbdf5af98	-0.119963825
149	0x3e0b9d53	0.13634233
150	0x3d567efe	0.052367203
151	0x3e4115ab	0.18855922
152	0x3ddcbb6a	0.10777934
153	0xbdbbda4b	-0.091724955
154	0x3e6ff793	0.23434286
155	0x3dd13ec4	0.1021705
156	0xbd287b9a	-0.0411335
157	0x3e8e3c06	0.2778017
158	0x3c8631c4	0.016381152
159	0xbdf7d6a1	-0.12101484
160	0xbca3a3f3	-0.019975638
161	0x3e86d724	0.26336014
162	0xbd91609c	-0.07098505
163	0x3e02951a	0.1275219
164	0x3e63df0c	0.22253054
165	0xbdcd68ba	-0.10029741
166	0x3a8658ac	0.0010249815
167	0x3e5aef5a	0.21380368
168	0x3e8a6eae	0.27037567
169	0xbc23d5f3	-0.00999974
170	0xbe0a90b4	-0.13531762
171	0x3e7aa469	0.2447678
172	0x3e10f821	0.14157154
173	0xbe4e919a	-0.2017273
174	0x3e88b04c	0.26697004
175	0xbe66382c	-0.22482365
176	0x3b1ddbd0	0.0024087317
177	0xbea0b623	-0.3138896
178	0xbb422a88	-0.0029627401
179	0xbcb77cb9	-0.02239834
180	0x3ddf3014	0.10897842
181	0x3ebb5757	0.36590073
182	0xbddcc508	-0.10779768
183	0xbd99965e	-0.074993834
184	0x3e104038	0.14086998
185	0xbe565ed2	-0.20934609
186	0x3ea70b63	0.32625875
187	0x3c4f643e	0.012658177
188	0xbe52b4ed	-0.2057683
189	0xbe4aaa7b	-0.19791596
190	0x3d6cb21f	0.057787057
191	0xbda3223a	-0.079655126
192	0x3e7ce6f1	0.24697472
193	0x3d3dde1b	0.046354394
194	0x3e4e9930	0.20175624
195	0xbc563b85	-0.013075714
196	0x3e38e70d	0.18056889
197	0x3ee55f8a	0.44799453
198	0xbe6b60a9	-0.22986092
199	0x3e85cd9b	0.26133427
200	0x3db1a8e9	0.08674795
201	0x3e8c8e28	0.27452207
202	0x3d169db0	0.036771476
203	0x3d102b3b	0.035197478
204	0x3d7e48ce	0.06208115
205	0x3e07c2af	0.1325786
206	0xbe39d9d4	-0.18149501
207	0x3d50097c	0.050790295
208	0xbe0f8edd	-0.14019342
209	0xbcfccb99	-0.030858802
210	0xbdd82cc8	-0.10555416
211	0x3e704577	0.23463999
212	0xbbb0d08a	-0.0053959535
213	0x3de3601d	0.111023165
214	0x3e2bcf18	0.16778219
215	0xbe05130b	-0.12995546
216	0x3ea1eb78	0.3162496
217	0xbcc3b132	-0.023888204
218	0xbe8c556b	-0.2740892
219	0x3e065640	0.1311884
220	0xbd93e62b	-0.072216354
221	0x3d7f13b0	0.062274635
222	0x3d658e1a	0.05604372
223	0x3e43ff79	0.19140424
224	0x3e8f19cf	0.27949378
225	0xbe7f8d1b	-0.24956171
226	0xbdae63aa	-0.08515103
227	0x3e82583f	0.2545795
228	0x3ec41fa2	0.38305384
229	0x3e5a88b4	0.2134121
230	0xbea46aea	-0.3211282
231	0x3e8593b8	0.26089263
232	0x3b87b26c	0.0041411426
233	0xbd0f9422	-0.03505338
234	0xbe677f70	-0.22607207
235	0x3b071024	0.0020608986
236	0x3f11fa86	0.57022893
237	0x3e8fcb06	0.28084582
238	0xbefdefda	-0.49597055
239	0x3f140647	0.5782208
240	0x3e6d02f6	0.23145661
241	0x3e46e9a8	0.1942507
242	0xbe584afd	-0.21122356
243	0x3f159822	0.5843526
244	0x3e648515	0.22316392
245	0x3dbfd017	0.09365862
246	0x3c8e3170	0.017357558
247	0x3d973971	0.07384003
248	0x3e2c9908	0.16855252
249	0x3e7d515a	0.24738064
250	0xbd878bb4	-0.06618443
251	0x3d9b3112	0.07577719
252	0x3e20acb3	0.1569088
253	0x3f06cf35	0.5265992
254	0xbe883e21	-0.266099
255	0x3f07c037	0.5302767

bias_ih_l1 f4 [64]
0	0x3e39135f	0.18073796
1	0x3ec81465	0.3907806
2	0xbe1e1a92	-0.15439823
3	0xbe36f06f	-0.17865156
4	0xbddd21a2	-0.107974306
5	0xbd7dc6bb	-0.061957102
6	0x3d0d1070	0.034439504
7	0x3db0eac0	0.08638525
8	0x3d25ba2e	0.040460758
9	0xbc54c699	-0.0129868025
10	0xbcc68c67	-0.02423687
11	0x3ddc724a	0.107639864
12	0x3e8a6dbb	0.27036843
13	0x3dae470c	0.08509645
14	0xbdba17f9	-0.09086604
15	0x3e997f89	0.29980114
16	0xbd865897	-0.06559866
17	0xbe5b83b2	-0.21436957
18	0x3d7cc301	0.061709408
19	0xbe5a211d	-0.21301694
20	0xbb7ee365	-0.0038892862
21	0xbda281ac	-0.07934889
22	0xbd2c134a	-0.042010583
23	0x3df53273	0.11972513
24	0xbc9417d0	-0.018077761
25	0x3e354243	0.17701058
26	0xbdcd0d78	-0.100123346
27	0xbe07e7a1	-0.13271953
28	0xbe351bb5	-0.1768635
29	0xbd86032c	-0.06543574
30	0x3dabf641	0.083965786
31	0xbe0c0867	-0.1367508
32	0xbe81e186	-0.25367373
33	0x3e3aa720	0.18227816
34	0xbdef0381	-0.1167059
35	0xbd60eacc	-0.05491142
36	0xbce01d3e	-0.027357694
37	0xbe6edbe3	-0.23326068
38	0xbde48e8f	-0.111600034
39	0xbe0ee36b	-0.1395394
40	0xbe753831	-0.23947217
41	0xbe37e8ba	-0.17959872
42	0x3e59e4c1	0.21278669
43	0xbe07a121	-0.1324506
44	0xbe3603b9	-0.17774858
45	0xbe621a18	-0.22080266
46	0x3cbca75a	0.023029018
47	0x3e0578ac	0.13034314
48	0x3eba2c17	0.36361763
49	0x3f08ed6f	0.53487295
50	0x3da3ef91	0.08004678
51	0x3ea93403	0.33047494
52	0x3dd9a9aa	0.10628064
53	0x3bffe47d	0.0078092203
54	0x3e82fe46	0.2558462
55	0x3d759db3	0.059964847
56	0x3e9e72d9	0.30946997
57	0x3ea2ff6a	0.3183549
58	0x3e2e38c0	0.17013836
59	0x3e6a7786	0.22897157
60	0x3e2a5b27	0.16636334
61	0x3e351fbf	0.17687891
62	0x3ed05939	0.4069307
63	0x3e904cb4	0.2818352

bias_hh_l1 f4 [64]
0	0xbb571f25	-0.003282496
1	0x3e92d869	0.28680733
2	0xbd083431	-0.0332529
3	0x3e9f8024	0.3115245
4	0xbdd8aaaf	-0.1057943
5	0xbd8ddc64	-0.06926802
6	0x3e88a274	0.26686442
7	0xbdb8436b	-0.08997234
8	0x3ecea547	0.40360472
9	0x3e722682	0.23647502
10	0x3e1391a7	0.1441103
11	0x3e52b30c	0.20576113
12	0x38120a06	3.4818448e-05
13	0x3e423549	0.18965639
14	0x3cc5256f	0.024065701
15	0x3e826e2d	0.25474682
16	0xbe30a1a7	-0.17249165
17	0x3e73b3b5	0.23799022
18	0x3db50ccb	0.08840331
19	0x3df3f2f5	0.11911575
20	0x3e0717d1	0.13192679
21	0x3e1df5f9	0.15425862
22	0xbd5e66f0	-0.054297388
23	0x3de75000	0.11294556
24	0x3e34dd3d	0.1766252
25	0xbe81b78a	-0.25335342
26	0x3e29161e	0.16512343
27	0x3e423864	0.18966824
28	0x3e0a49d1	0.13504721
29	0xbdf07f12	-0.11742987
30	0xbe6ec211	-0.23316218
31	0x3e24374b	0.16036718
32	0xbd0be5e0	-0.034154773
33	0xbd4dffde	-0.050292842
34	0x3e678786	0.22610292
35	0xbdddb9d9	-0.10826463
36	0x3e222a19	0.15836371
37	0xbe1a6475	-0.15077384
38	0x3dd8fdf7	0.10595315
39	0xbe595997	-0.21225582
40	0xbcbe4ee1	-0.023230972
41	0x3de550cf	0.11197054
42	0x3e39211c	0.18079036
43	0x3dc61ee1	0.096738584
44	0xbb031e8c	-0.002000722
45	0xbd999f1a	-0.07501049
46	0xbceef1d1	-0.029168041
47	0xbcda6e6f	-0.026663987
48	0x3e94f4b9	0.2909296
49	0x3ede1d1f	0.43381593
50	0x3c159e44	0.009131972
51	0x3bbdc32e	0.0057910895
52	0x3e5d37ec	0.21603364
53	0xbda381a9	-0.07983715
54	0x3e01f111	0.12689616
55	0x3e73cba0	0.23808146
56	0xbd815f22	-0.06316973
57	0x3ecd1ac9	0.40059498
58	0x3d5ccc59	0.05390582
59	0x3df3f5a2	0.11912085
60	0x3dc3a24b	0.09552439
61	0x3e1c7dfe	0.15282437
62	0x3e594283	0.21216778
63	0x3f195b49	0.59904915

weight_hr_l1 f4 [4, 16]
0	0x3e582bf3	0.21110515
1	0x3e134fb7	0.14385878
2	0x3e97ccad	0.29648343
3	0xbca46ffa	-0.020072926
4	0x3eb52c3b	0.35385308
5	0xbeb4f78e	-0.3534512
6	0xbd22f308	-0.039782554
7	0xbe71c356	-0.23609671
8	0xbec832b3	-0.3910118
9	0xbeb7e91b	-0.35920033
10	0xbeab38b1	-0.3344169
11	0x3e87b32d	0.26503888
12	0x3d4c0b2a	0.049815334
13	0xbe7160b7	-0.2357205
14	0x3ea98fc6	0.33117503
15	0x3e6e8308	0.23292172
16	0x3cb30956	0.021855038
17	0x3edce63f	0.43144414
18	0x3e821464	0.25406182
19	0x3e13a121	0.14416935
20	0x3e9c1379	0.30483606
21	0xbe62a2a4	-0.22132355
22	0x3eab603e	0.33471864
23	0xbe183020	-0.14862108
24	0xbdba205f	-0.090882055
25	0xbee88d76	-0.45420426
26	0xbdea7bf6	-0.11449425
27	0x3eb5b3dc	0.35488784
28	0x3edbac8f	0.4290509
29	0xbeda6998	-0.42658687
30	0x3e473886	0.19455156
31	0x3f0c83cc	0.54888606
32	0xbeb4a16e	-0.3527941
33	0xbeaf734f	-0.3426766
34	0xbe1dd3b8	-0.15412796
35	0xbeae96a0	-0.34099293
36	0xbe0ae848	-0.13565171
37	0x3ec26ff7	0.37976047
38	0xbcd9290e	-0.026508834
39	0x3e1b1502	0.15144733
40	0x3ec701a7	0.38868448
41	0x3cf8ccec	0.030371152
42	0x3e614a6f	0.2200105
43	0xbe3c0fa8	-0.18365347
44	0xbebc8e06	-0.36827105
45	0xbd5d30d4	-0.054001644
46	0xbe63f1bd	-0.22260185
47	0xbe84dd5f	-0.25950143
48	0x3e0d9de4	0.13829762
49	0x3ec40902	0.38288122
50	0x3ec0ffc6	0.3769514
51	0x3e3c709c	0.18402332
52	0x3eab8bb6	0.33505028
53	0xbdb84e2b	-0.08999284
54	0x3e6ce272	0.23133257
55	0xbe81838d	-0.25295678
56	0xbed76e5c	-0.42076385
57	0xbebd4a46	-0.3697073
58	0xbe3e95e5	-0.18611868
59	0x3f1a7efe	0.60350025
60	0x3bdedc55	0.006801168
61	0xbe930da9	-0.2872136
62	0x3ec01ed3	0.37523517
63	0x3e8a9eab	0.2707418

weight_ih_l2 f4 [64, 4]
0	0x3e5607f5	0.20901473
1	0x3e7be63b	0.24599545
2	0xbe0e0f27	-0.13872968
3	0x3e517b94	0.20457298
4	0xbdf6569a	-0.12028237
5	0x3e251132	0.1611984
6	0x3e4fd031	0.20294262
7	0xbe8946f8	-0.26811957
8	0xbbaf6d1b	-0.0053535826
9	0xbc67ed7f	-0.014155745
10	0xbe0c63da	-0.13709965
11	0x3e8de60e	0.2771458
12	0x3de55421	0.11197687
13	0x3ead0e0d	0.33799782
14	0x3d11977b	0.035544854
15	0x3e9f5b03	0.31124124
16	0xbd8a936a	-0.06766398
17	0x3e9a5766	0.30144805
18	0x3e387962	0.18015054
19	0xbc9c3d14	-0.019072093
20	0x3e05bffb	0.13061516
21	0x3ea4eb57	0.322108
22	0xbe861918	-0.2619102
23	0x3d52b0bc	0.05143808
24	0x3e1a68db	0.15079062
25	0xbdcfe7dc	-0.101516455
26	0xbeb3dcb1	-0.35129312
27	0x3e23c575	0.15993293
28	0x3e4e6926	0.20157298
29	0xbd8668f7	-0.06562989
30	0xbd689538	-0.05678293
31	0xbd03a0f0	-0.032135904
32	0x3e8af44c	0.2713951
33	0x3e0121d3	0.12610559
34	0x3b9e73ad	0.004835567
35	0x3e055dd7	0.13024078
36	0x3dbc3edb	0.09191676
37	0x3ef420b9	0.47681215
38	0xbce24d14	-0.027624644
39	0x3ed2ca8e	0.41170162
40	0xbd4fac79	-0.050701592
41	0x3e31cdc5	0.17363651
42	0xbe56d974	-0.2098139
43	0x3e57107a	0.21002379
44	0x3e3d4695	0.18483956
45	0x3deb7c09	0.11498267
46	0x3d2c6bcb	0.042094987
47	0x3e24f612	0.16109493
48	0xbeb2131a	-0.34780198
49	0xbe1f3241	-0.15546514
50	0x3d0345b4	0.032048896
51	0x3d0945a0	0.033513665
52	0xbe865fef	-0.26245067
53	0xbe438dd7	-0.19097076
54	0x3e7483c5	0.23878391
55	0xbe4a0969	-0.19730152
56	0x3eb23fc7	0.34814283
57	0x3ebe9545	0.3722326
58	0x3e50d7cb	0.20394818
59	0x3e5ad646	0.21370801
60	0x3ea02c86	0.3128397
61	0x3aa40b9a	0.0012515665
62	0xbdb01627	-0.08597975
63	0x3e499f19	0.19689597
64	0x3f277485	0.6541217
65	0x3f36fc8e	0.7147912
66	0xbebe01ed	-0.37110844
67	0x3f3c9694	0.73667264
68	0x3d63e8ff	0.055642124
69	0x3dda2693	0.10651889
70	0x3ede2de9	0.43394402
71	0xbebe95e5	-0.37223735
72	0xbca0412c	-0.019562326
73	0x3dd33b2c	0.103140205
74	0xbe399241	-0.18122198
75	0x3e6c36ec	0.23067826
76	0x3f108369	0.56450516
77	0x3f474dde	0.7785319
78	0xbe751467	-0.23933564
79	0x3f0310fa	0.5119778
80	0x3e35e94f	0.17764781
81	0x3e0ed21e	0.13947341
82	0xbeab5545	-0.33463493
83	0x3ec3b85b	0.3822659
84	0x3de3a7b2	0.1111597
85	0x3dd84437	0.10559886
86	0x3e748224	0.2387777
87	0x3ea20293	0.3164259
88	0x3ef459f8	0.4772489
89	0x3f01c601	0.50692755
90	0xbdf57a0d	-0.1198617
91	0x3ec4e1dc	0.38453567
92	0x3e1eca02	0.15506747
93	0x3f145b17	0.5795149
94	0xbe9918c8	-0.2990172
95	0x3e458ce5	0.19292028
96	0x3f21919c	0.6311281
97	0x3ece851e	0.40335935
98	0xbea012a1	-0.31264213
99	0x3eded750	0.43523645
100	0x3ec6ca17	0.38826057
101	0x3eb4546e	0.35220665
102	0x3c591ec2	0.013251962
103	0x3e0bee79	0.13665189
104	0xbee5e0b8	-0.4489801
105	0xbea0b078	-0.31384635
106	0x3eeccdf5	0.46250883
107	0xbee640f8	-0.44971442
108	0x3e7feabd	0.2499189
109	0x3d5b39ba	0.05352185
110	0xbde03062	-0.10946728
111	0x3ec82418	0.39090037
112	0xbd93ca2c	-0.072162956
113	0xbd00955e	-0.031392448
114	0x3e5867ee	0.21133396
115	0xbe510d22	-0.20415166
116	0xbea3f6f3	-0.32024345
117	0xbd146721	-0.036231164
118	0x3eeb176c	0.45916307
119	0xbd84c5d1	-0.06483043
120	0x3ee1ea8c	0.44124258
121	0x3f154d0d	0.58320695
122	0xbe65f61d	-0.22457166
123	0x3f103e2a	0.56344855
124	0x3d595991	0.053063933
125	0x3da801f7	0.082035
126	0xbe841d84	-0.2580377
127	0x3e47261f	0.19448136
128	0xbf135792	-0.57555497
129	0xbe05aef2	-0.13055018
130	0x3e915000	0.28381348
131	0xbe3a9e09	-0.18224348
132	0xbe8579f6	-0.2606961
133	0xbd593ef1	-0.05303854
134	0x3d5c7302	0.053820617
135	0xbedb0b53	-0.42782077
136	0xbeaa2328	-0.33229947
137	0xbcf9bdbc	-0.03048598
138	0x3ead8b2f	0.3389525
139	0xbe7936b2	-0.24337271
140	0x3ed78e7d	0.42100897
141	0x3eecfda9	0.46287277
142	0xbe0842d5	-0.13306744
143	0x3ecdf277	0.40224048
144	0xbe739e9b	-0.23790972
145	0xbe8cb0ca	-0.2747863
146	0x3ea3e439	0.32010058
147	0xbebf5726	-0.37371176
148	0xbe963108	-0.29334283
149	0x3d16f458	0.036854118
150	0x3eb73fa4	0.3579074
151	0xbe749c91	-0.2388785
152	0xbe6a4b32	-0.22880247
153	0xbefd0de4	-0.4942466
154	0x3e8c3fce	0.2739243
155	0xbe491e34	-0.19640428
156	0x3ec34722	0.38140208
157	0x3eb74690	0.35796022
158	0xbe3b4ec8	-0.18291771
159	0x3e837ef7	0.25682804
160	0xbf11ad60	-0.56905174
161	0xbe91b062	-0.28454882
162	0x3eaa1294	0.332173
163	0xbeb2755f	-0.34855172
164	0xbd821b67	-0.06352883
165	0xbe06447a	-0.13112059
166	0x3cd82ac4	0.02638758
167	0xbed91a0b	-0.42402682
168	0x3dc66d6c	0.09688839
169	0x3e9791ea	0.2960351
170	0xbd8e1904	-0.06938365
171	0x3e87b26f	0.26503322
172	0xbeafe11d	-0.34351435
173	0xbea2a937	-0.31769726
174	0x3e68addb	0.2272257
175	0xbdb94100	-0.09045601
176	0xbc19d482	-0.009389045
177	0xbeb5aca9	-0.35483292
178	0x3ec9c674	0.3940922
179	0x3d88cee1	0.06680084
180	0xbd9e90d3	-0.07742467
181	0x3e542235	0.20716174
182	0xbed41edd	-0.41429797
183	0x3eb80b44	0.35946095
184	0xbefecc43	-0.49765214
185	0xbcba254e	-0.022722866
186	0x3e1711e2	0.14752916
187	0xbe22f2f5	-0.15912993
188	0xbd83c809	-0.06434638
189	0x3ea585a0	0.3232851
190	0xbe4107d5	-0.18850644
191	0x3ea61e9d	0.3244523
192	0x3ea7f2bf	0.32802388
193	0x3eee2c70	0.46518278
194	0xbe927c4d	-0.2861046
195	0x3ef096bd	0.46990004
196	0xbe8bcf28	-0.27306485
197	0x3d5d4283	0.05401851
198	0xbd4f7dd3	-0.050657105
199	0x3de46930	0.111528754
200	0xbde6b0b5	-0.11264173
201	0x3e1fe530	0.15614772
202	0xbc53b90d	-0.0129225375
203	0x3e9cd583	0.30631647
204	0x3d6e08f8	0.058114022
205	0x3eeeb368	0.4662125
206	0xbe41618e	-0.1888487
207	0x3eb01384	0.3438989
208	0x3f04134d	0.5159195
209	0x3ef3d1fb	0.4762114
210	0xbe2d0c78	-0.16899288
211	0x3f01a325	0.50639564
212	0xbda9af2b	-0.08285364
213	0x3e9303ad	0.28713742
214	0x3e4aa3fd	0.19789119
215	0x3cd48c07	0.025945676
216	0x3eee2909	0.46515682
217	0x3f147cde	0.5800303
218	0xbec6b880	-0.38812637
219	0x3f11aa42	0.5690042
220	0x3e5dda16	0.21665224
221	0x3f2acdca	0.6672026
222	0xbefeb8a0	-0.49750233
223	0x3e758f6d	0.23980494
224	0x3e282847	0.16421615
225	0x3eeb4400	0.45950317
226	0xbd2ea557	-0.04263815
227	0x3e8aa5bf	0.2707958
228	0x3eb79be0	0.3586111
229	0x3f162a39	0.58658177
230	0xbe6ea8fc	-0.2330665
231	0x3eceff99	0.4042938
232	0xbe2c6ea1	-0.16839077
233	0x3e1686fb	0.14699928
234	0x3c02f682	0.007993342
235	0x3e8bd4e4	0.2731086
236	0x3df81e93	0.121152066
237	0x3d67ec49	0.056621823
238	0xbeb22bf5	-0.34799162
239	0xbcafd6fe	-0.021464821
240	0xbed5799c	-0.41694343
241	0xbe209440	-0.15681553
242	0x3e90e079	0.2829626
243	0xbedd2f0b	-0.43199953
244	0xbe99880a	-0.29986602
245	0xbec57e55	-0.38572946
246	0x3e24de94	0.16100532
247	0xbea59ccb	-0.32346186
248	0x3e5184fc	0.20460886
249	0x3e23aa13	0.15982847
250	0xbd332946	-0.043740533
251	0x3e651b0e	0.22373602
252	0x3e9073e0	0.28213406
253	0x3e917625	0.2841045
254	0x3e4036f0	0.18770957
255	0x3e53b438	0.20674217

weight_hh_l2 f4 [64, 4]
0	0x3ddf8ee3	0.10915925
1	0xbe105935	-0.1409653
2	0x3ead4073	0.33838233
3	0xbf0174da	-0.50568926
4	0x3eafe415	0.343537
5	0xbe1e49f2	-0.15457895
6	0x3eeca5c2	0.46220213
7	0xbedae48e	-0.42752498
8	0x3ea0ef5f	0.31432626
9	0xbe317596	-0.17330012
10	0x3f1dfec5	0.6171687
11	0xbe646b32	-0.22306517
12	0x3ebdc2a9	0.37062576
13	0xbebedde4	-0.37278664
14	0x3eddd737	0.43328258
15	0xbe923c67	-0.28561708
16	0x3df83b47	0.12120681
17	0x3e31c80b	0.17361467
18	0x3e916b7f	0.28402326
19	0xbe59f5b4	-0.21285135
20	0x3ceb58ef	0.02872893
21	0xbe6e2053	-0.23254518
22	0x3e4ea08e	0.20178434
23	0x3c04d285	0.008106832
24	0xbddd2d46	-0.10799651
25	0xbb1a5089	-0.0023546538
26	0x3eff34b2	0.4984489
27	0x3db942f5	0.09045974
28	0x3d9af3c2	0.07566024
29	0xbe9e357a	-0.30900174
30	0x3ed94b3b	0.4244021
31	0xbe82d8eb	-0.2555612
32	0x3e1c76d0	0.15279698
33	0xbe3278ab	-0.17428844
34	0x3ea4d442	0.3219319
35	0xbdaef669	-0.08543093
36	0x3d825056	0.06362979
37	0xbe83720b	-0.25672945
38	0x3ed38124	0.41309464
39	0x3dd9f168	0.10641748
40	0x3d79a3fb	0.0609474
41	0x3d2e1162	0.042497046
42	0x3ea66246	0.32496852
43	0xbd9d1e5b	-0.076718055
44	0x3e721e07	0.23644267
45	0xbe247305	-0.16059501
46	0x3f0fe8d2	0.5621463
47	0xbe04077e	-0.12893483
48	0x3ca86cfa	0.020559777
49	0xbe4120e2	-0.188602
50	0x3ef52572	0.4788013
51	0xbe894a9e	-0.2681474
52	0x3e4db8f3	0.20090084
53	0xbcc7d683	-0.02439428
54	0x3ecb661b	0.39726338
55	0xbe601d5e	-0.21886203
56	0x3eb3e298	0.35133815
57	0xbeb8a2a6	-0.3606159
58	0x3ce081dd	0.027405674
59	0xbea3db25	-0.32003132
60	0x3b01058c	0.0019687144
61	0x3c25a09f	0.010109096
62	0x3dc5cd9f	0.0965836
63	0xbdfb0e89	-0.12258632
64	0x3e3c14f9	0.18367375
65	0xbdb446f8	-0.08802599
66	0xbe0c7763	-0.13717417
67	0xbe05bb5c	-0.13059753
68	0x3bdfdf9c	0.0068320762
69	0x3d58db1e	0.05294334
70	0x3de74396	0.11292188
71	0xbe47e347	-0.19520293
72	0x3e60263c	0.21889585
73	0x3d5fce47	0.05464008
74	0x3d0a7ab4	0.033808425
75	0xbe9ed98f	-0.3102536
76	0x3e33f2ae	0.17573044
77	0x3e3f7420	0.18696642
78	0xbcd66e24	-0.026175566
79	0x3cfa0a1d	0.0305224
80	0xbdf260bf	-0.11834859
81	0xbe2bd3d3	-0.16780023
82	0x3e22dc7f	0.15904425
83	0xbdfad383	-0.12247374
84	0xbbd473d2	-0.0064835334
85	0xbdcf049f	-0.10108303
86	0x3e2eed65	0.17082746
87	0xbdacdb09	-0.08440215
88	0xbcb783ba	-0.02240168
89	0x3e4fb842	0.20285133
90	0x3dff982f	0.124801986
91	0xbdeee9bd	-0.11665676
92	0x3e1cd474	0.1531542
93	0x3e450591	0.19240405
94	0x3e556095	0.20837624
95	0x3d59a28e	0.05313354
96	0xbde1b783	-0.1102133
97	0xbc1cdb7a	-0.009573812
98	0xbdaa20be	-0.08307026
99	0x3d00f662	0.03148497
100	0x3c7d321e	0.015453843
101	0x3cacb555	0.02108256
102	0x3f0e101a	0.5549332
103	0xbe8a7510	-0.27042437
104	0xbea30ebd	-0.31847182
105	0x3e7fdeca	0.24987331
106	0x3e7ecd2f	0.24882959
107	0x3e23f0dd	0.16009851
108	0xbdcc7470	-0.09983146
109	0x3e75da38	0.24009025
110	0x3dd9cc3d	0.106346585
111	0x3e2f1a5e	0.17099902
112	0xbdab5be8	-0.08367139
113	0xbd2b622f	-0.041841682
114	0x3e88b5da	0.26701242
115	0x3d207fa8	0.039184242
116	0xbd83d865	-0.06437758
117	0x3d7cdbbc	0.061732993
118	0x3dd7f64b	0.105450235
119	0xbe3591ed	-0.17731448
120	0xbd77cf3b	-0.060500365
121	0x3e1ba60b	0.15200059
122	0xbe439760	-0.19100714
123	0xbe2e8985	-0.17044647
124	0xbdfb19fe	-0.12260817
125	0x3d5e5389	0.054278884
126	0x3b97e98c	0.0046359953
127	0x3e295402	0.16535953
128	0x3e13618b	0.14392678
129	0x3e2da3f0	0.16957068
130	0xbc55c09d	-0.013046411
131	0x3e029a58	0.1275419
132	0x3e0c9a41	0.13730718
133	0x3d999052	0.0749823
134	0x3e3ad844	0.18246561
135	0xbda6c281	-0.081425674
136	0x3e62b2da	0.22138539
137	0xbd09714b	-0.03355531
138	0xbde18814	-0.11012283
139	0xbe4c41c6	-0.19946966
140	0xbd4c9ec0	-0.049956083
141	0x3e5001f5	0.20313247
142	0x3d042312	0.03226001
143	0xbc831236	-0.015999895
144	0xbe80e0c5	-0.25171486
145	0x3e4a1fa8	0.19738638
146	0x3c2f01b7	0.010681561
147	0xbba13bc4	-0.0049204547
148	0x3e85ccdc	0.26132858
149	0xbde89c14	-0.113578945
150	0xbdcd7059	-0.10031194
151	0x3d2b46f8	0.041815728
152	0xbbae5bb0	-0.0053209886
153	0xbadf2b25	-0.0017026408
154	0xbe1e9c77	-0.15489374
155	0x3e03f1e5	0.12885244
156	0x3e253dc6	0.16136846
157	0xbdf0d22a	-0.117588356
158	0x3e764d95	0.24053033
159	0x3e8b5b82	0.27218252
160	0xbdc677d1	-0.09690822
161	0x3e4a2c00	0.19743347
162	0x3d99adbb	0.075038396
163	0x3dffefd7	0.12496918
164	0xbcf14411	-0.029451402
165	0x3e40d2e3	0.18830447
166	0xbed00dea	-0.40635616
167	0xbe328826	-0.17434749
168	0x3a580413	0.0008240353
169	0xbc236171	-0.009971962
170	0xbdf1dc19	-0.118095584
171	0x3e566ae3	0.20939212
172	0xbd378801	-0.044807438
173	0xbe5eaf6c	-0.21746606
174	0xbcf54b12	-0.029943023
175	0xbe872987	-0.2639887
176	0x3d827f21	0.06371904
177	0xbbd2a856	-0.0064287586
178	0x3e07ff06	0.13280877
179	0xbea8b01f	-0.3294687
180	0xbe821187	-0.25403997
181	0xbd146e60	-0.036238074
182	0xbe844c66	-0.25839537
183	0x3d8e7b97	0.06957167
184	0xbe3eb190	-0.18622422
185	0xbdc0fbe5	-0.09423045
186	0xbdc72e14	-0.097255856
187	0xbe2cb63a	-0.16866389
188	0x3dde0d79	0.108424135
189	0x3e4840da	0.19555989
190	0x3df3b5d3	0.118999146
191	0x3e88608f	0.26636168
192	0x3ec7a947	0.38996336
193	0xbf01abe7	-0.5065293
194	0x3e6265ca	0.22109142
195	0xbe54a058	-0.20764291
196	0x3ec4a02c	0.3840345
197	0x3e1b87de	0.15188548
198	0x3f056975	0.5211404
199	0xbdb30af6	-0.08742325
200	0x3e8a777a	0.27044278
201	0xbe75bf7d	-0.23998828
202	0x3ed428cd	0.4143738
203	0xbeebed40	-0.46079445
204	0x3f29310a	0.6609045
205	0xbeaa35bc	-0.3324412
206	0x3ef42202	0.47682196
207	0xbe93962e	-0.28825516
208	0x3db2298c	0.08699331
209	0xbe85751e	-0.26065916
210	0xbd757e08	-0.059934646
211	0xbdde9079	-0.108674
212	0x3e5f5eb3	0.21813469
213	0xbeaf4219	-0.34230116
214	0x3f19731f	0.59941286
215	0x3d26ac18	0.040691465
216	0x3d8cdb0e	0.06877719
217	0x3d6c4e78	0.05769202
218	0x3e8df659	0.2772701
219	0xbe33c8ae	-0.17557022
220	0x3ea7e3e1	0.32791045
221	0xbeabcfa9	-0.3355687
222	0x3e8d2763	0.27569112
223	0xbe7c8570	-0.24660277
224	0x3e55c0ac	0.2087428
225	0xbece47e4	-0.40289223
226	0x3eb982c1	0.3623257
227	0xbdfadbf5	-0.12248985
228	0x3ec34f59	0.38146475
229	0xbe6e033d	-0.23243423
230	0x3f192002	0.59814465
231	0xbec45fec	-0.38354433
232	0x3e15f0db	0.1464266
233	0x3cbc90f6	0.023018342
234	0x3e5ea5ac	0.21742886
235	0x3e32de71	0.17467667
236	0x3f11644b	0.5679366
237	0xbe873f90	-0.26415682
238	0x3ea23426	0.3168041
239	0xbe2f54e6	-0.1712223
240	0x3e1b70b2	0.15179709
241	0x3e57ed10	0.21086526
242	0x3e6166e2	0.22011903
243	0xbe0d68c7	-0.138095
244	0xbcf50146	-0.029907834
245	0x3e391be0	0.1807704
246	0x3ec95eb0	0.39330053
247	0xbea14e67	-0.3150513
248	0x3ea1e274	0.31618083
249	0xbee9cb65	-0.4566299
250	0x3ef1efb0	0.4725318
251	0xbe2fbfbc	-0.17162985
252	0xbc57cf2a	-0.01317195
253	0xbe5b5db7	-0.21422468
254	0x3ea4954d	0.32145157
255	0xbe1f16d4	-0.15536052
