saved_models/LSTM/ckpt__epoch100.ckpt (torch, 14635 bytes, 20 tensors)

weight_ih_l0 f4 [64, 8]
000000 a3 da 38 be 06 69 a0 3e 53 22 1e be 92 62 88 bc
       -0.18052153 0.31330127 -0.15442781 -0.016648564
000010 18 cf 7d bc 5f ef b3 bd 70 ef 8d bd 8e 44 95 bd
       -0.0154912695 -0.08785891 -0.06930435 -0.072884664
000020 9e f3 7d 3d 87 2d 9d 3d b2 f1 a9 3d a2 b2 82 3d
       0.06199991 0.07674699 0.08298053 0.06381728
000030 c1 58 d9 bb b7 ed 9f 3e 2f f7 8a 3e fa b3 65 3d
       -0.0066328947 0.3123605 0.2714171 0.056079842
000040 5f c0 4e 3d af f5 8c 3c c9 6f 38 3c b5 19 b4 3d
       0.050476428 0.017206995 0.01125712 0.08793966
000050 44 f0 96 bb fd 61 41 be 85 b9 91 be ef a0 22 3e
       -0.0046062786 -0.18885036 -0.28461853 0.15881704
000060 ef 5f e6 bd f4 29 a7 bd bd 64 8d 3e 27 7e 37 bd
       -0.11248767 -0.08162299 0.2761592 -0.044798043
000070 4a 6e 1a 3d c6 56 74 3d e5 ab 10 3e 0b 0d 04 3e
       0.037702836 0.059653066 0.14128073 0.128956
000080 4b 22 34 3d 06 76 0f 3d ba 8a 94 3d 0d 56 e0 bc
       0.043978017 0.035024665 0.072530225 -0.027384782
000090 c1 48 24 3e 56 1c a2 3e 2c 1f 84 3e bc 38 5f be
       0.16043378 0.31662244 0.25805032 -0.21798986
0000a0 04 3c 32 3d be 8e 82 be 96 79 bb 3e fe 4a 9e 3c
       0.043514267 -0.2549953 0.366162 0.019322868
0000b0 3f df 6f bd 64 10 28 3d 88 c1 f9 3b 51 06 ff bc
       -0.058562513 0.041031256 0.0076219477 -0.031130942
0000c0 02 f0 3b be 64 5f 89 3d 4f 1b 04 be 08 fb bb be
       -0.18353274 0.067076474 -0.12901042 -0.3671496
0000d0 81 07 52 3d eb 3c 0a be 6d f9 c6 bd 87 6a a3 bd
       0.051276688 -0.13499801 -0.09715543 -0.07979303
0000e0 0a 4c ef 3d b6 57 24 3e 4c 01 c5 3e 54 49 4a 3c
       0.11684425 0.16049084 0.38477552 0.012346584
0000f0 a0 00 8c 3d df 1c 93 3d 07 31 96 3e b0 e9 f3 bc
       0.06836057 0.07183241 0.2933428 -0.029774517
000100 76 43 51 3e bc df 7a bc f0 84 18 3c a5 f0 df 3d
       0.2043589 -0.0153121315 0.0093090385 0.10934571
000110 44 68 7e 3d 0a 29 03 be ba 45 61 be b2 6e b8 bd
       0.062111154 -0.12808624 -0.21999255 -0.090054885
000120 6c f8 47 bc a3 e9 0e 3e b0 dd 1a 3e 4b 96 c5 bd
       -0.0122052245 0.13956313 0.1512363 -0.09647807
000130 8d 05 25 3d 2e 09 fe bd 7b 12 0a be 1e 87 2b bc
       0.040288497 -0.12404095 -0.13483612 -0.010469226
000140 da de 09 3c 7d 53 b2 3d 19 ed 59 3e ca e5 81 bd
       0.008414948 0.087073304 0.21281852 -0.06342657
000150 e7 eb 1b be 4a 40 60 3e a6 f0 95 be 00 98 f9 bd
       -0.15226708 0.21899524 -0.29285163 -0.12187195
000160 9a b2 94 bc 1a 28 25 3e c9 a5 74 3c 52 e0 df be
       -0.01815157 0.16128579 0.014932104 -0.4372583
000170 8d 2b d0 3d 20 7e 98 bd 24 b7 86 bd bb 44 84 3c
       0.10164557 -0.074459314 -0.065779 0.016146054
000180 07 54 30 3d b8 da 97 be 00 27 48 be d7 ac c0 3d
       0.043048885 -0.29659057 -0.19546127 0.094079666
000190 91 48 db bd 09 1c 3b bd 04 a9 11 be 85 1c 84 3d
       -0.107072 -0.045681033 -0.1422463 0.06450752
0001a0 b0 1b 6f be c5 a0 47 be e6 3d 8a 3b 18 c4 62 3d
       -0.23350406 -0.19494922 0.0042188047 0.05536279
0001b0 51 c2 21 be 22 bd ed 3d 89 63 18 be 3c 9f d0 bb
       -0.15796782 0.1160834 -0.1488172 -0.0063666385
0001c0 6b ee 1c bd 27 ef 0b 3e 39 73 ac 3e 90 89 8e 3d
       -0.03831331 0.13665448 0.33681658 0.06959832
0001d0 90 de c1 bd fd 10 44 3d d5 5a d1 bd 13 c2 92 3d
       -0.094662786 0.047867764 -0.10222403 0.07165923
0001e0 49 e1 3a be d9 f4 3f be 7a 1c 16 bd d4 af d4 be
       -0.18250002 -0.18745746 -0.03664825 -0.41540396
0001f0 f1 4f fd 3d 3a b7 a3 bd 97 af b0 be 98 ca e9 3d
       0.12368763 -0.07993932 -0.34508964 0.11415595
000200 fe 0e 89 bd 51 8e 17 be ca 96 99 bd 34 2d 07 bd
       -0.06692313 -0.14800383 -0.07499464 -0.033002093
000210 37 de 18 bd 2a 39 db 3c 22 59 f3 3b b5 5a 5d bd
       -0.037321296 0.026760656 0.007426397 -0.054041583
000220 0e b6 2c be 47 f0 b1 3d 70 14 21 bd 32 11 ab bd
       -0.16866323 0.086884074 -0.03932613 -0.08352889
000230 e0 1d c2 bd e4 56 2d 3e 7f f7 f1 bd 0f a0 5e 3d
       -0.094783545 0.16927677 -0.11814784 0.054351863
000240 5c dc cc bd 3b d1 37 be 8a e7 7c be 56 b4 69 3d
       -0.10002968 -0.17950909 -0.246977 0.057056747
000250 18 12 df bb 1c ce e3 bc 7f 4c c0 3c c7 81 4c 3d
       -0.006807577 -0.027808242 0.023473976 0.049928453
000260 29 4f 33 be d9 d4 86 be c4 e7 7b bd a0 f7 00 3e
       -0.17510666 -0.26334265 -0.061500326 0.12594461
000270 b7 5a 39 3e f9 68 2b bd b5 53 ee bd 3d 8a 39 be
       0.18101011 -0.041848157 -0.116370596 -0.1811914
000280 28 b7 6b be 5e 56 7f 3c d3 ff 71 be e0 02 ce 3d
       -0.23019087 0.015584556 -0.23632745 0.10059142
000290 e2 27 2f 3e d4 51 60 3d f3 70 d7 3d 0c 65 a2 bd
       0.17105058 0.054765537 0.1051959 -0.079294294
0002a0 a6 2b e6 3b 25 ba a1 3d 03 d5 52 3d 32 a0 23 3e
       0.0070242463 0.078968324 0.051472675 0.15979078
0002b0 09 8d 31 bd 07 76 1f 3e cd 6a b6 bd 40 f8 ad 3d
       -0.043347392 0.15572368 -0.089070894 0.084946156
0002c0 ec f0 ab bc 9b 36 5c 3e fe ee a8 3d 3b 96 7a 3d
       -0.020988904 0.21505205 0.08248709 0.061178427
0002d0 cb aa e9 3d e2 a4 82 bd 46 f3 08 be 6c 7b 85 be
       0.11409529 -0.06379105 -0.13374051 -0.26070726
0002e0 8b 2e b3 bc ec b2 4d bd 14 26 43 be 59 a6 12 3e
       -0.02187278 -0.05021946 -0.19057494 0.14321269
0002f0 59 4d 22 3d 33 c8 82 3c b4 57 0e 3e 62 3e 92 3d
       0.039624546 0.015964603 0.13900644 0.07140805
000300 da e0 2e 3e 0b 74 43 bd db 29 c1 bd 49 d3 28 be
       0.17077962 -0.04771809 -0.094318114 -0.16486849
000310 2a f5 d9 bd 96 e1 20 3e 28 70 c8 3d 76 a8 f7 bd
       -0.106424645 0.15711054 0.09787017 -0.12092678
000320 3e d4 86 3d 14 a5 02 be 77 ec 64 be dc 7a 72 3c
       0.06583451 -0.12758285 -0.22355829 0.0147998
000330 5d 23 46 3e cc 32 2d be 62 60 ad bd 73 0e 42 be
       0.19349428 -0.16913909 -0.08465649 -0.18950824
000340 e2 af f6 bc 16 fa 8e 3d c6 75 0b 3d 04 e2 db 3d
       -0.030113164 0.06981294 0.034047864 0.107364684
000350 40 21 02 be b0 59 8c bd 96 78 1f 3e 75 f7 9d bc
       -0.12707996 -0.06853044 0.15573344 -0.019283036
000360 27 82 bc bd 3a c0 f0 3d 36 7b 48 3e 22 2a 8b bc
       -0.09204512 0.11755414 0.19578251 -0.016987864
000370 a9 2a 22 3e d1 a8 b1 bd 90 26 fe 3c 8d 10 04 be
       0.15836586 -0.08674777 0.031024247 -0.12896939
000380 9d 1d 15 3e e9 0c 57 3d 9c 47 6b 3e d6 af 7e be
       0.14562078 0.052502546 0.22976536 -0.24871764
000390 49 56 d7 bd aa 70 bc bd 14 de a5 3c d4 2c 0a 3e
       -0.105145045 -0.092011765 0.020247497 0.13493663
0003a0 85 04 e9 3d 22 62 9d 3e 97 b1 48 be ee 0c 5e 3d
       0.11377815 0.30738932 -0.19598995 0.05421155
0003b0 4d 94 a3 3d c0 b6 05 3e 6d 26 67 be 98 23 12 be
       0.079872705 0.13057995 -0.22573252 -0.1427139
0003c0 f8 f2 46 be 5f f8 ff bd 0f 3c c0 3c 31 29 21 3d
       -0.19428623 -0.12498545 0.023466138 0.039345924
0003d0 d7 bc 50 bd 7f 8b de 3d d5 6f 43 3d 57 40 12 3e
       -0.05096134 0.108664505 0.047714073 0.14282356
0003e0 8c 6c eb bc d4 b8 80 3d 1d 37 ba bc b2 d5 43 3e
       -0.028738283 0.06285253 -0.022731358 0.19124487
0003f0 f5 99 0d bc c3 8d f4 3c bf 07 02 bc dd 27 d8 3d
       -0.008642663 0.029852754 -0.007936417 0.10554478

weight_hh_l0 f4 [64, 4]
000000 7c 46 bf bd 72 5a 17 be fc 41 ce b9 82 09 26 3d
       -0.09339616 -0.14780596 -0.00039340544 0.04053641
000010 c4 13 57 3e 63 85 0d be 3b 41 33 3e e5 07 67 be
       0.21003634 -0.13820414 0.17505352 -0.22561605
000020 52 81 ee bd 05 11 63 bc 64 1a b5 bd b6 58 2a 3c
       -0.1164576 -0.013859038 -0.08842924 0.010397127
000030 50 fb 9b 3d 36 74 5a 3e dd ee 1e be 0e b7 f2 3d
       0.076162934 0.21333393 -0.15520807 0.11851321
000040 67 c6 5d 3c a8 17 83 be d0 c0 69 3e 05 96 34 3c
       0.013536072 -0.25603986 0.22827458 0.011022096
000050 ef 95 19 3e 67 39 87 be af 1a 94 3e 2f 1a f5 3a
       0.14998601 -0.26410982 0.28926608 0.001869982
000060 c8 46 79 bd cf 41 7d 3d 2b 78 81 3e 47 cc 99 bb
       -0.060858518 0.061830338 0.25286993 -0.004693541
000070 94 8e c6 3d 89 70 47 be f0 5a ba bd c3 09 97 3e
       0.09695163 -0.19476523 -0.09099376 0.29499635
000080 af c5 12 3e 78 ce 50 be 97 dd 77 be 7a 8f 63 3e
       0.14333223 -0.20391262 -0.24205624 0.222227
000090 21 f4 32 be 43 a2 e1 3d dc c4 02 3e 14 60 b2 bb
       -0.1747594 0.11017277 0.12770408 -0.0054435823
0000a0 6d e2 8c 3e d6 a2 01 bc 0b d7 4a 3e d9 39 6b be
       0.275165 -0.007912358 0.19808595 -0.22971286
0000b0 7c 7b a7 be bc d5 40 3d b8 af ee be 51 56 eb 3c
       -0.327114 0.047078833 -0.46618438 0.028727682
0000c0 17 fb 57 3d 66 13 6c be 01 b3 4a be e1 67 8d be
       0.052729692 -0.23054275 -0.19794847 -0.27618316
0000d0 9e d2 4d be 06 cc fb bd 1e 76 38 3e 03 7e 01 bd
       -0.20099875 -0.12294774 0.18013808 -0.031614315
0000e0 a3 9d 8c be 77 38 c2 bd 64 3c 83 bd 24 22 9e 3e
       -0.27464017 -0.09483426 -0.06408003 0.30885422
0000f0 4e 6f c1 bb 67 5f a4 bd 9f 1f 45 be 27 95 e0 3d
       -0.005903161 -0.08026009 -0.19250344 0.109659486
000100 ec 60 77 3c a9 44 b0 3e 31 1f ed bd 94 15 66 3e
       0.015098792 0.34427384 -0.11578215 0.22469169
000110 03 58 1b be a2 67 39 3e 1a 5a 56 3e dd a8 8f 3e
       -0.15170293 0.18105939 0.20932809 0.2805852
000120 c6 7d 8f be fc 23 b1 3e 4f 6f c8 3d 2b 7e 73 3e
       -0.28025645 0.34597766 0.097868554 0.23778598
000130 49 c0 33 3e 4b 3c 1e be ea 00 99 3e 9f 6a 9d be
       0.1755382 -0.15452687 0.2988351 -0.30745408
000140 95 8b 19 3e c3 7e 26 be de 90 0f 3e 35 5b 3f 3d
       0.14994653 -0.16259293 0.14020106 0.04671784
000150 d6 a8 b3 3e 78 4c aa bc 52 2c ad 3e 8a fe 8a bd
       0.3508975 -0.020788416 0.33822876 -0.06786831
000160 8f e2 9f be 07 3c 87 bc 9e 34 81 3d 7a 29 60 3e
       -0.31227538 -0.016508115 0.06308864 0.21890822
000170 57 8d da 3e 2b 23 bb be 36 5d 5f 3e a6 a4 7a 3d
       0.4268596 -0.3655027 0.21812901 0.061192177
000180 be 47 ea bd 2e b5 78 3e 2a ae 12 be 96 be 63 be
       -0.11439465 0.24287865 -0.14324251 -0.22240672
000190 bf 3d c3 3e 12 d3 c8 be 5a ba 67 3e 52 38 f5 bd
       0.38133046 -0.39223534 0.22629681 -0.11973633
0001a0 83 ac e5 bc 59 fb 60 3d 7e fb da be f4 5d fb 3e
       -0.028036362 0.054927204 -0.42769998 0.49095118
0001b0 5e 56 12 3e 09 cd 20 3d c8 81 2c 3e ec 02 c1 be
       0.14290759 0.039258037 0.16846383 -0.37697542
0001c0 75 cd 0e 3e e7 dc 68 3e 9d 69 08 3e 92 32 32 3d
       0.13945563 0.22740518 0.13321538 0.04350526
0001d0 2a d9 5e 3e 69 59 3a 3e a3 7b 53 be e2 5b 77 be
       0.21762529 0.1819817 -0.20652632 -0.24156144
0001e0 bb 21 40 be c7 08 94 3e ae 48 00 3e 27 75 eb 3d
       -0.18762867 0.28912947 0.12527725 0.114969544
0001f0 58 dc 18 3f 6d 6c a3 be 9b 60 d2 3e b0 48 55 be
       0.5971122 -0.3191866 0.4108933 -0.2082851
000200 3e b8 d3 3e e8 d4 cd be 0a 6e d6 3d b7 57 ae be
       0.41351503 -0.40201497 0.10470207 -0.34051296
000210 eb 6a f9 3d 44 19 dd bd a3 00 90 3e 3f 7f a9 bd
       0.12178596 -0.10795835 0.28125486 -0.082762234
000220 4c b2 5e be 42 a2 34 3e 8b d3 22 3e 61 11 10 be
       -0.21747702 0.17640021 0.1590101 -0.1406913
000230 db 71 53 be be 1e ef 3d c9 e0 9a be 29 05 be 3e
       -0.20648901 0.116757855 -0.30249622 0.37113312
000240 8e 4f 9d 3d 5c b6 49 3c 68 ef c0 3e d5 37 08 bd
       0.076811895 0.012311544 0.37682652 -0.03325637
000250 e8 d2 57 be fd e2 e7 3e 4a 14 bb be d6 16 c0 3e
       -0.21076548 0.45290366 -0.36538917 0.37517422
000260 70 1e 90 3e c7 92 4b 3e ba 97 5a 3e 2a 61 e0 be
       0.28148222 0.1988021 0.21346942 -0.4382413
000270 3b e9 ca be e4 de 9c 3e 2b f1 3b be c5 38 dd bd
       -0.39631066 0.30638802 -0.18353717 -0.108018436
000280 87 7a aa be e5 a5 f0 3e bd 17 2f be ca 65 cf 3c
       -0.33296606 0.47001567 -0.17098899 0.025317091
000290 3c 05 7b be 56 92 9a 3e 47 b2 f3 be 61 99 f7 3d
       -0.24513716 0.3018977 -0.47596952 0.120898016
0002a0 6e f0 13 be f8 03 9e 3b b1 df bc be 89 b9 8e 3e
       -0.14447185 0.0048222505 -0.36889413 0.27875927
0002b0 a1 b8 4e 3e 20 db c1 be 83 f6 a9 3e 13 4a bc 3d
       0.20187618 -0.37862492 0.33195886 0.09193816
0002c0 30 e2 5d be a0 2f 80 3e 48 3f 03 3e c2 c2 ec bc
       -0.21668315 0.25036335 0.12817109 -0.028901462
0002d0 15 b7 e6 bd 30 7f ca be 31 94 0c be 2f d5 0b 3e
       -0.11265389 -0.3955016 -0.13728406 0.13655542
0002e0 70 74 9a 3e a0 93 98 be 9e e4 b1 3e 5f 0c 6b be
       0.3016696 -0.2980013 0.34744734 -0.22953938
0002f0 9c 56 88 bb 87 a7 8a 3d ae c6 d9 3d b8 70 07 be
       -0.0041607153 0.067702346 0.10633598 -0.13226593
000300 da 03 22 3d 6f d8 21 3e 8d 64 a6 bd 6c e4 09 3d
       0.039554454 0.15805219 -0.08124647 0.033665106
000310 40 c1 95 3d e2 c4 25 3e 2e 45 21 3d ce 60 c0 bc
       0.0731225 0.16188386 0.039372616 -0.02348366
000320 e7 ef 1b be 35 e2 84 3e 5d 88 8f be eb 1f 00 3d
       -0.15228234 0.25953832 -0.28033724 0.03128044
000330 1c d7 40 be 2c 4b 88 3e d3 1d 72 3d 6d 20 0f 3e
       -0.18832058 0.26619852 0.059110474 0.13977213
000340 19 77 89 bd 00 67 bb bd db fd b9 3d 7a 74 42 bd
       -0.06712169 -0.09150505 0.09081622 -0.047474362
000350 13 81 08 3f 2d 53 84 bc b3 99 18 3f 89 1a 81 be
       0.5332195 -0.016152943 0.59609526 -0.25215557
000360 4b 3c a8 be bc b1 ea 3d 2b a0 9d be a0 19 91 bc
       -0.328585 0.114596814 -0.3078626 -0.017712414
000370 41 64 89 3e 88 7c 27 be aa 33 e8 3d 83 d2 2e be
       0.268343 -0.16356099 0.11337979 -0.17072491
000380 b6 d9 f9 3d 46 f1 18 be 87 4e c4 3c a3 24 a2 3c
       0.12199728 -0.14935789 0.023963226 0.01979286
000390 23 a8 08 3f 1d 52 c5 be 5a ac 31 3e e9 fc 03 3e
       0.53381556 -0.3853921 0.17350903 0.12889446
0003a0 8d 1f dd 3a af 4d 91 be 68 2a 0e be c9 f4 04 3e
       0.0016870365 -0.2837958 -0.13883364 0.12984003
0003b0 8b 66 c6 3e 39 8a a2 bd ba 51 a0 3d 7e f1 9f be
       0.3875011 -0.0793652 0.07828088 -0.3123893
0003c0 2f ec e7 3c d8 a4 7b be 59 17 8b 3d 3b 5c e9 bd
       0.028310863 -0.24574602 0.067915626 -0.11394545
0003d0 3c 78 5f 3e f1 fa 92 3e 48 ce fc bd c5 64 70 be
       0.2182321 0.28707078 -0.123440325 -0.2347594
0003e0 a2 3d 26 3e 95 8b 17 be 69 bd 8d 3d ee ec 3b be
       0.16234449 -0.1479934 0.06920893 -0.183521
0003f0 84 30 fb 3e 7c 4b 3d be f4 d3 dc 3e b6 23 de be
       0.49060452 -0.18485826 0.43130457 -0.4338662

bias_ih_l0 f4 [64]
000000 ce 4c 74 bd e0 ba 0b be c6 34 6f be 2d 7e ab be
       -0.05964356 -0.13645506 -0.23359975 -0.33494702
000010 45 7e 97 3d 15 bf 72 3d 79 7e 90 bd 5f 72 4f be
       0.07397131 0.05926426 -0.07055373 -0.20258473
000020 8d c5 90 be 35 57 6a 3d 8d 0a 55 be 9b 0d 24 be
       -0.2827572 0.057212073 -0.20804806 -0.16020815
000030 1b d5 37 be 79 de dc 3d 2f 52 20 bb f2 9a 49 be
       -0.17952387 0.10784621 -0.0024463048 -0.19688013
000040 2e 8c ce 3e b4 c7 a7 3e 2b d9 d8 3d fa 62 98 3e
       0.40341324 0.3276955 0.105882965 0.29763013
000050 8b bc b4 3e 43 5d 0c 3e e5 5e 5b be 7e 22 80 3e
       0.35300097 0.13707452 -0.21422918 0.25026315
000060 72 c8 1f 3e b3 2c 50 3e af 26 a7 bd 66 b1 de 3d
       0.15603808 0.20329551 -0.08161675 0.1087368
000070 12 4d 5b be 3b e0 25 be 02 e4 87 3c 23 32 d0 3e
       -0.21416119 -0.16198818 0.016588215 0.4066325
000080 89 39 58 be 0d b1 d4 bb 18 12 42 3e 06 ed 3b be
       -0.21115698 -0.0064908327 0.18952215 -0.18352136
000090 f4 91 62 3e 5c f4 57 be f2 3d 70 3d b9 5e 1b 3d
       0.22125989 -0.2108931 0.058652826 0.03793213
0000a0 8a 97 27 be 86 79 0c 3d 27 e3 fd bd f6 20 4c be
       -0.16366401 0.03429558 -0.123968415 -0.19934449
0000b0 4a 61 c2 3d 3c f7 d2 3d 2a 50 8d 3e 3f 9f 25 3e
       0.09491213 0.103010625 0.27600223 0.16174029
0000c0 bf 63 8c 3e f8 08 eb 3e a2 20 99 3d 63 0b 68 bc
       0.2741985 0.4590528 0.07476927 -0.014162871
0000d0 f8 35 21 3e 18 59 ed 3e bf ed 80 3d df e1 89 3e
       0.15743244 0.46357036 0.062953465 0.26930138
0000e0 7c 25 c4 bc 38 73 43 3e 40 19 97 3e 6b 08 ca 3d
       -0.023943655 0.19086921 0.29511452 0.09864887
0000f0 e2 8b a0 bd 64 32 7d bd 00 af 96 3e 24 3d 31 3e
       -0.078391805 -0.061815634 0.2943039 0.1730848

bias_hh_l0 f4 [64]
000000 a1 00 98 3c c0 89 a5 3d 34 ec fa 3d ce f3 c6 bc
       0.018554987 0.08082914 0.122520834 -0.024286177
000010 03 f5 3a bb 09 da e8 bc 2f ab 07 3e 84 65 4f 3c
       -0.0028527386 -0.02842428 0.13248895 0.012658481
000020 03 f2 58 3d 5b 9a 89 bd d4 10 f4 bd d7 82 3c bd
       0.052965175 -0.06718894 -0.11917272 -0.046023216
000030 96 d4 6b be 18 d2 59 bd 6e 57 de bd 03 b9 26 3e
       -0.23030314 -0.053178877 -0.1085652 0.16281514
000040 75 1e 22 3e e8 72 44 3e a4 19 bf 3e d3 ff 9d 3e
       0.15831931 0.19184458 0.3732425 0.3085924
000050 17 6e 3f 3e dc 6a 9a 3e 44 90 c8 bd c7 c0 48 3e
       0.1869434 0.30159652 -0.097931415 0.19604789
000060 0a fc dd 3d 06 28 68 3e 1c 2b 8d bd 6b aa 91 3d
       0.10839088 0.22671518 -0.06892988 0.07112583
000070 6f 23 5f bb 63 84 e5 bd e6 bd 86 3d 90 d0 89 3e
       -0.003404822 -0.112068914 0.06579189 0.26916933
000080 89 0a b5 3c 9c dc 19 3e 41 61 96 bd b5 18 dd bc
       0.02209975 0.15025562 -0.073427685 -0.02698932
000090 bf a1 11 3d 4b bc 96 be fa 64 b6 3e 64 ef 21 bd
       0.035554644 -0.2944053 0.35623914 -0.03953494
0000a0 15 2a 07 3e 3a 6c 8a be 08 55 37 bd 0d a4 5a be
       0.13199647 -0.27035695 -0.044758826 -0.21351643
0000b0 33 62 86 bd 88 09 76 3e f3 1c 42 3e 5d 31 ec bd
       -0.06561699 0.24027073 0.18956356 -0.11532853
0000c0 1a 0d 86 3d e0 ac 92 3e 25 25 84 bc 07 4e 8e bc
       0.06545468 0.28647518 -0.016130993 -0.01737119
0000d0 dd 32 b4 bc 11 4f 01 3f c8 0b 63 be 6d 2e 0a 3d
       -0.02199691 0.5051127 -0.22172463 0.03373568
0000e0 87 f7 0d be 79 74 c8 3d 99 6c 75 3e 6f c4 a5 3e
       -0.13863955 0.097878404 0.23967208 0.3237643
0000f0 7b 90 50 be 17 83 5d 3e 5f 07 bf bc c5 f2 7c bd
       -0.20367615 0.21632038 -0.023318944 -0.06175496

weight_hr_l0 f4 [4, 16]
000000 6d ec a6 ba 20 8a 02 3e f7 1d cc 3d 89 4b f7 bd
       -0.0012735255 0.12748003 0.09966653 -0.12074954
000010 98 6a 1f 3e 29 f4 98 be e0 63 88 3d b4 d4 98 be
       0.15568006 -0.2987378 0.06659675 -0.2984978
000020 12 f3 f9 bd 88 d7 c1 be 32 c4 08 be db 0b e0 3d
       -0.12204565 -0.3785975 -0.13356093 0.10939761
000030 de 64 15 be fd bc 58 3e a9 23 d4 3e e1 14 3d be
       -0.14589259 0.21165843 0.41433457 -0.18464996
000040 34 f4 82 be 6e 16 2c 3e 1b f5 5a 3e 19 a9 c8 bc
       -0.25576937 0.16805431 0.21382563 -0.024494695
000050 ce 07 ad 3d 48 7c dc 3e 19 39 0e be 18 11 0e 3f
       0.08448754 0.4306357 -0.13888969 0.55494833
000060 d6 78 ca 3e f4 7c 78 3e 66 3b 2d bd b6 eb bc be
       0.39545316 0.24266416 -0.042292975 -0.36898583
000070 75 39 ab 3e bf 09 74 be 06 eb db be ac ff ba 3e
       0.33442274 -0.23831843 -0.42952746 0.36523187
000080 8e 7a ce 3e 3f b2 b2 3e 33 d6 e6 3e 20 84 05 bd
       0.40327877 0.34901616 0.45085296 -0.032596707
000090 1c b0 54 3e df a1 a7 be fc 36 4b 3e 75 e7 8b 3d
       0.20770305 -0.32740685 0.19845194 0.06831256
0000a0 9c 16 e5 bd 5a cd bc bd 1c c7 62 be cc e9 8f bd
       -0.11185953 -0.09218855 -0.22146267 -0.07027015
0000b0 7d 33 83 be d3 a9 5c 3d 1b 25 d8 3a c3 de 2a 3c
       -0.2562522 0.053872894 0.001649055 0.010429087
0000c0 0d 37 0c be 9f 3a c0 be b5 34 e4 be de 02 ab 3e
       -0.13692875 -0.37544724 -0.44571462 0.33400625
0000d0 db 9b 8a be 91 e3 60 3e bf 17 16 be 2b 5e 2b bd
       -0.27072033 0.2196181 -0.14657496 -0.041837852
0000e0 69 74 0a be 26 d5 59 3e c7 d2 67 3e 8b 00 ea 3d
       -0.1352097 0.21272716 0.22638999 0.11425885
0000f0 b3 11 4f 3e 84 04 18 3e 4b 2e ab 3d 86 0b 8a be
       0.20221595 0.14845473 0.08358439 -0.26961917

weight_ih_l1 f4 [64, 4]
000000 32 8b 8b 3e cc 70 bf 3d 5b cb a0 bd 78 4e 7f 3e
       0.27254635 0.09347686 -0.07851287 0.24932277
000010 9a dd 86 bd c5 9f 62 bc 2f 96 86 be 72 e2 0e 3f
       -0.06585236 -0.013832037 -0.26286456 0.5581428
000020 8d 07 cc 3c 6f 45 28 bd 44 5d 41 3e 5f 88 f2 3c
       0.024905944 -0.041081842 0.18883234 0.029606042
000030 2e 20 63 3c 14 a8 1b bd 5e 55 00 bd fe ca b9 3c
       0.013862653 -0.03800209 -0.031331412 0.022679802
000040 8d 6b 29 3e be 68 e6 bd 1a 0b c8 3d f3 ad 72 3e
       0.16544934 -0.11250447 0.097677425 0.23699169
000050 fb 18 cb 3e 0c 6f dd be ee 64 2e 3e 69 67 13 3d
       0.39667496 -0.43248785 0.17030689 0.03598729
000060 f7 f6 10 bd 3a 80 73 3e 52 dc 36 be 4f c9 59 3e
       -0.035391774 0.23779383 -0.17857483 0.212682
000070 05 75 e5 3c ba e5 0b be 51 ef c2 39 5d af 66 3d
       0.0280099 -0.13661852 0.00037180868 0.056319583
000080 d0 4c 75 3d 77 d7 21 bc 1e 8e 0c bf 50 91 51 3e
       0.059887707 -0.009878031 -0.54904354 0.20465589
000090 7a 94 e7 be 8e c8 cf 3e 46 28 e3 be dd a9 43 3e
       -0.45230466 0.405827 -0.44366664 0.19107766
0000a0 ac d1 cb bd ca b1 6a bd ba 51 24 bd b5 24 53 3e
       -0.09952101 -0.05729846 -0.040117003 0.20619471
0000b0 97 23 e6 bd 00 06 ab 3e ce 26 a1 bc ab ff 44 be
       -0.11237257 0.33403015 -0.019671824 -0.19238155
0000c0 a1 55 7b be 7e 95 38 3e 77 5e 0e bc 40 cf 9a 3e
       -0.24544384 0.18025777 -0.008689514 0.30236244
0000d0 a0 09 cd 3d 23 c2 0f be 0c 3c 34 3e 59 f3 ba 3d
       0.100116014 -0.14038901 0.17601031 0.09128446
0000e0 4a 07 42 3b fc f3 ff bc 47 93 7a bd 28 34 4d be
       0.0029606395 -0.03124427 -0.06117561 -0.20039427
0000f0 2f 56 93 3e 0b 1c de be ed 7e 35 3e 78 fd 20 3e
       0.2877669 -0.4338077 0.177242 0.1572169
000100 e7 6e e9 3e c5 bc 28 bf 7a 26 24 bd bd 8f 20 bb
       0.45592424 -0.6591304 -0.040075757 -0.0024499737
000110 68 ef 30 bf 1a 0b 02 3c af 0e 04 bf 14 2a 78 3f
       -0.69115305 0.007937217 -0.51584905 0.96939206
000120 87 1d 72 3e 68 d1 14 bf 03 1a 4d be 62 7e c0 3e
       0.23644076 -0.5813203 -0.20029454 0.37596422
000130 d4 c5 c6 3e 9f 28 03 bf 19 27 31 3e 74 67 61 3d
       0.38822806 -0.5123386 0.17300071 0.0550303
000140 f8 b5 08 3e 53 26 2c bf bb 07 a5 bd a8 75 4c 3d
       0.13350666 -0.6724598 -0.08058115 0.049916893
000150 38 5f bd 3e 42 08 17 bf 36 75 e9 bd 23 39 9d 3d
       0.3698671 -0.58996975 -0.11399309 0.076769136
000160 58 6a 34 be 87 b5 a8 be 09 02 c3 be c6 85 27 3e
       -0.17618692 -0.32950994 -0.3808749 0.16359624
000170 90 27 30 be 37 e0 18 3c 5a 85 12 be 65 e1 5e 3e
       -0.17202592 0.009330801 -0.14308682 0.21765669
000180 f8 c9 04 3e 2f e2 f9 be ad 62 8b be 5c 9d 33 3f
       0.1296767 -0.48805377 -0.2722372 0.70161986
000190 ba 6c 3b be 3b 1f 2f 3e 22 48 6a bc 2f 8a 1e 3e
       -0.18303195 0.17101757 -0.014299424 0.154824
0001a0 80 f7 4e bc 94 b4 bb be 2e bd 62 be 0a ce 06 3f
       -0.012632251 -0.36661208 -0.22142479 0.5265814
0001b0 cf 1f 7c be 93 fa dc 3d a8 7a 44 bd 5f 39 66 be
       -0.24621509 0.10789981 -0.047968537 -0.22482823
0001c0 1c dc 2d 3e 26 85 63 be 7d b9 74 bd 7d 3e dd 3e
       0.16978496 -0.22218761 -0.059747208 0.43211737
0001d0 64 28 80 3d 05 96 09 bf c3 5a 11 bd b4 0a 63 bb
       0.06257704 -0.53744537 -0.035486948 -0.003464383
0001e0 d1 c7 04 3f c9 55 bd be e4 12 a3 3e db e1 d8 be
       0.51867396 -0.3697951 0.3185035 -0.42359814
0001f0 3b 9d 73 3e ba 77 a2 be a0 e5 59 3d f2 7a 02 3e
       0.23790447 -0.3173197 0.053197503 0.12742212
000200 57 58 99 be 49 2d 94 3e c8 4e ba be 28 81 be b9
       -0.2995021 0.289408 -0.3638823 -0.00036335853
000210 b9 cf 44 3c e2 bb 9e be c5 f6 48 be 90 c0 d9 3e
       0.012012416 -0.31002718 -0.19625385 0.42529726
000220 68 af 2c 3d a1 56 51 3d 55 68 87 3e 17 e8 95 be
       0.042159468 0.051108006 0.26446787 -0.29278633
000230 65 c5 e8 3e 98 e0 d9 be a4 92 c9 3e ad 5f 45 3d
       0.454631 -0.42554164 0.3936969 0.048186947
000240 b3 39 8d be d8 b4 22 3e 9e 6a c1 be 1f fd 9d 3e
       -0.27583084 0.15889299 -0.37776655 0.3085718
000250 89 4f d5 be 6b 0d a3 bc 8a 07 5a be f7 c3 af 3e
       -0.41662243 -0.01990386 -0.21291938 0.34329197
000260 94 bc 44 bd bd 17 8f 3e 67 f6 55 be a0 3b 20 3e
       -0.048031405 0.27947798 -0.20894776 0.15647745
000270 d7 91 2c 3e 67 ee ef be 86 fe fe bb 3e c4 b5 3d
       0.16852508 -0.46861574 -0.0077818064 0.08875321
000280 44 2f b1 3e b9 56 b5 bd f9 c0 27 3e ce 9a 50 be
       0.34606373 -0.08854432 0.16382207 -0.20371553
000290 22 a1 09 3e ab f9 e2 be 29 5c 06 3e a9 05 2e be
       0.13440374 -0.44331107 0.13121094 -0.16994347
0002a0 6b eb 74 be ba 7c b9 bc 1e d2 d2 be 3a e4 c2 3e
       -0.2391793 -0.022642482 -0.41175932 0.38064748
0002b0 6f 5b 94 3e 34 55 dc be ca 25 4a be 30 4c 67 3e
       0.28976008 -0.43033755 -0.19740978 0.22587657
0002c0 cd 85 b6 be cf 17 ad 3d 04 7d 62 be 36 48 5e 3e
       -0.35648957 0.08451807 -0.22118002 0.21707234
0002d0 7d 46 fc 3c 3a 23 76 be b3 b1 54 be 7e 8c 8f 3e
       0.03079533 -0.24036875 -0.20770912 0.28036875
0002e0 07 81 54 3e 49 b6 10 bf 03 87 28 be bc 09 93 3e
       0.20752345 -0.56528145 -0.16457753 0.28718364
0002f0 68 cd 28 bb cf d7 4b 3d 5d f6 d9 be b8 f2 9c 3e
       -0.0025757197 0.049766358 -0.42570773 0.3065393
000300 5a e7 9b 3d 80 76 3d be db 07 15 be 62 dd ba 3d
       0.07612486 -0.18502235 -0.14553778 0.09124257
000310 3b 8b 81 be 58 7f 83 3e 81 7c 17 bf 76 55 24 3f
       -0.25301537 0.25683093 -0.5917435 0.64192903
000320 26 7f 99 bd 30 6d ca be ae 71 0a 3e c8 d0 a4 bd
       -0.07494955 -0.39536428 0.13519928 -0.08047634
000330 6b 68 95 3e ee 39 8b be 54 fa 52 be 38 e6 e5 bd
       0.29181227 -0.27192634 -0.20603305 -0.11225551
000340 25 da a0 3e fc 83 a3 be 88 1f a7 3d d1 90 41 be
       0.3141643 -0.31936634 0.08160311 -0.189029
000350 1e b6 ca 3d 98 04 17 bf 53 8a 9f 3e 80 8a 26 3d
       0.09898017 -0.58991385 0.3116022 0.040659428
000360 7c 10 35 be 33 39 21 3e 8b 32 d6 be d2 5a 03 3f
       -0.1768207 0.15744476 -0.41835436 0.51310456
000370 3e 6c 3c be e3 56 fa bd 0d 17 e9 bd fe fa 09 3e
       -0.18400666 -0.122236036 -0.1138135 0.13474652
000380 f9 01 8b be ad 14 e1 bb 06 22 25 bf 96 b6 36 3f
       -0.27149943 -0.00686892 -0.6450504 0.71372354
000390 57 b1 81 be 3a 1b bf 3a b6 8c bd be 91 60 be 3e
       -0.25330612 0.0014580258 -0.37021416 0.3718305
0003a0 0c ac ed 3d e8 e0 cb be b1 40 71 be 73 c2 1a 3f
       0.11605081 -0.39820027 -0.23559834 0.60452956
0003b0 ca b7 2f bd f4 91 c0 3e cd 21 3b be a3 02 8a 3d
       -0.042899884 0.37611353 -0.18274613 0.06738784
0003c0 36 b5 33 be 13 f5 87 be 2b 96 ed be cd f5 ea 3e
       -0.17549595 -0.26554164 -0.46403632 0.45890656
0003d0 ac 13 a7 3e 09 65 08 bf 29 22 82 be 32 9b d1 bd
       0.32632196 -0.5327917 -0.25416687 -0.10234679
0003e0 03 59 af 3e f1 18 ac be 62 5b ca 3d fe 70 0b be
       0.34247598 -0.3361278 0.09880711 -0.13617322
0003f0 46 e0 19 3e 98 16 4b bf 03 ff bb ba f4 c5 20 3d
       0.1502696 -0.7933135 -0.0014342967 0.039251283

weight_hh_l1 f4 [64, 4]
000000 66 a0 f6 3d 32 0d 78 be 49 b5 b9 bb bf eb b5 3d
       0.12042312 -0.24223784 -0.005667363 0.088828556
000010 41 92 2f 3f 3a 1a 19 bf a5 14 f5 be 59 19 f0 be
       0.6858254 -0.59805644 -0.47867313 -0.4689434
000020 1a 86 c9 3e bb b8 e2 be d2 93 b7 be 8c 82 14 bf
       0.39360124 -0.44281563 -0.35854965 -0.580117
000030 9d 4e 16 bd 06 b4 41 be 2a 96 64 be 57 1d 8b be
       -0.036696065 -0.1891633 -0.22322908 -0.27170822
000040 08 4b 09 3e f8 77 5b 3c cd d3 bc bd bb 24 be bd
       0.13407528 0.013395302 -0.09220085 -0.092843495
000050 85 d9 d1 3d 6a 1b 07 3e 5a 8e e9 bd c8 41 82 bd
       0.10246567 0.13194051 -0.114041045 -0.06360203
000060 48 7f 44 be 6d 3b 25 be 0b ab f3 3b 0a b3 0e be
       -0.19189179 -0.1613595 0.0074361614 -0.13935485
000070 a8 fb 90 bd 1b cb 02 3e f3 fd d6 3d 2c 10 94 bd
       -0.070792496 0.12772791 0.10497656 -0.07229647
000080 df 28 2b bd e5 1d 55 bd bc 3d 83 3e 79 56 ac 3d
       -0.041787025 -0.052030463 0.25633037 0.08414931
000090 5b 11 28 3e b8 83 55 be 35 5a 08 3e 40 d5 cb 3d
       0.1641287 -0.20851028 0.13315661 0.099527836
0000a0 4c 5b a1 3e 98 e4 5e be 2d 70 18 3e e7 03 b6 be
       0.31514966 -0.21766889 0.14886542 -0.35549852
0000b0 5b 18 d2 be fa 0c bc 3e 7c 5d 3a be 63 da d2 3c
       -0.41034207 0.3672865 -0.18199724 0.0257389
0000c0 34 1b 7e 3e aa a6 5a 3d 05 03 3f 3e ac 99 40 3e
       0.24815065 0.0533816 0.18653496 0.18808621
0000d0 04 f2 88 3e d6 49 0b bf a7 95 5c be be 58 d6 bd
       0.26747143 -0.5440954 -0.21541463 -0.10466145
0000e0 87 96 51 be d8 00 25 3e a2 1d 2f 3e 30 b9 2c 3e
       -0.20467578 0.16113603 0.17101148 0.16867518
0000f0 4c a3 c0 bc 12 03 a6 be 4e 54 a4 be aa 9a 6a be
       -0.023515366 -0.32424217 -0.3209557 -0.22910562
000100 cc 22 4e 3e 9e 11 cb be 0b 96 61 3e d6 ef 79 bd
       0.20130461 -0.39661878 0.22029893 -0.06101974
000110 bd 00 bc 3e 67 d4 19 bf fa 34 18 be b1 54 14 bf
       0.36719313 -0.60089725 -0.14863959 -0.5794173
000120 2b 0f c0 3d b0 9b fd be c7 d3 a8 be f1 f1 9b be
       0.09377893 -0.49532843 -0.32974073 -0.30458024
000130 63 6c 86 3d 7b 9d 41 be 29 45 94 be c8 7f 83 be
       0.06563642 -0.1890773 -0.28959015 -0.25683427
000140 46 eb 94 3d 6d 23 d5 bd 95 2b 6a 3e 4a 4f 9b bc
       0.07271437 -0.104071476 0.22868188 -0.018958706
000150 24 07 5e 3e 59 be b0 3d 05 75 d6 3d f5 b3 ea bd
       0.21682411 0.08630056 0.104715385 -0.11460105
000160 4c 63 a1 3e 8f a0 f6 3b e0 ef 22 be c1 01 9b 3d
       0.3152107 0.0075264643 -0.15911818 0.07568694
000170 56 ea 01 be f2 8b 6e 3e e1 98 68 3d ab 78 32 3e
       -0.12687048 0.23295572 0.05678642 0.17428844
000180 20 be 0e 3e 89 5d a7 bd e7 86 04 be d8 75 19 be
       0.13939714 -0.08172137 -0.12942086 -0.1498636
000190 5e 30 b7 3e 1f a4 ac be 0e 4c a2 be 30 6e c0 3a
       0.3577909 -0.33718964 -0.3169865 0.0014681276
0001a0 48 39 9c 3d dc 6b b4 3c 61 69 75 3e 31 6b ad be
       0.07628113 0.022024088 0.2396598 -0.33870843
0001b0 52 26 07 bc f1 a6 c5 3e 73 3a 23 be 91 8e 2f 3d
       -0.008248882 0.3860393 -0.15940265 0.04286057
0001c0 09 b6 2e 3e dc 45 f2 bd 58 ca a3 3e 8a 06 5b be
       0.17061628 -0.11829731 0.31990314 -0.21389213
0001d0 b8 80 a3 bc 2e ca 2a be 7e d7 43 be d5 8d 81 bd
       -0.019958839 -0.16678688 -0.19125172 -0.063258804
0001e0 23 22 d4 bc 18 f5 1f be 72 86 c7 3b c8 b5 b5 3e
       -0.025895184 -0.1562084 0.006089025 0.3549025
0001f0 aa 64 89 3e 6f 4a 93 be e9 a7 8e bd 1b 22 37 bd
       0.26834613 -0.28767726 -0.0696562 -0.04471026
000200 64 9d b9 3d c3 18 61 bd 2e 9a bb 3c ec f9 1a be
       0.09063223 -0.054955255 0.022900667 -0.151344
000210 6d c9 20 be 3f 89 95 bd 83 94 72 3e b6 85 89 bd
       -0.15701838 -0.07301568 0.23689465 -0.067149565
000220 b1 19 7c 3d 6b 84 ed 3d d4 8f 66 be 68 d1 fa 3c
       0.06154794 0.11597522 -0.22515804 0.03061743
000230 66 06 3f be 8b 88 49 3c d7 58 24 3e 34 ce be bd
       -0.18654785 0.012300621 0.16049515 -0.09316674
000240 be b1 37 3e 13 c2 7b 3c 74 00 f5 bd 60 4d 2c 3e
       0.17938897 0.015366095 -0.11962977 0.16826391
000250 8b 56 9e bd 58 cf 13 be b5 bb 9c bd 9f d3 e2 3c
       -0.077313505 -0.14434564 -0.0765299 0.0276888
000260 77 e8 b9 bd 5e d6 ff 3d df 22 22 3e d2 83 a4 be
       -0.09077542 0.12492059 0.15833615 -0.3213182
000270 0e 99 85 bd 0d 77 39 3e 5d 60 da 3d bd 57 33 bd
       -0.065233335 0.1811182 0.10662911 -0.043784846
000280 4f 8b 15 3d a7 bc 51 3e 2f 8b a2 bd 57 be a9 3d
       0.03650981 0.20482121 -0.079367034 0.082882576
000290 3e d2 0b 3e 98 1e 90 3e 61 0f 79 3d 1a 3a fb bc
       0.1365442 0.2814834 0.060805682 -0.030667353
0002a0 65 0d bd bd 8f 20 e6 bc 88 31 de bd 83 7c e7 3d
       -0.092310704 -0.028091697 -0.10849291 0.113030456
0002b0 b8 b0 52 3e d7 77 03 3e 68 b0 d8 3e 7f 08 21 3e
       0.20575225 0.12838684 0.42322087 0.15725897
0002c0 be 4f cd 3c d0 fb 63 3d 70 d9 21 be 99 f8 12 be
       0.025062438 0.05566007 -0.15805602 -0.14352645
0002d0 22 b0 51 3e 9f 36 63 be f6 fd 5f 3b 25 1d 14 be
       0.20477346 -0.22188805 0.0034178472 -0.14464243
0002e0 b8 3f d5 3d b2 2b e5 bc 67 74 65 3c bf 3f 9c be
       0.10412544 -0.027974937 0.014004803 -0.30517384
0002f0 ec d6 26 3e d3 af a7 bd 4c 24 fb 3d 85 82 72 be
       0.16292924 -0.08187833 0.122627825 -0.23682602
000300 e4 21 de 3d 25 64 2f bd 55 07 d7 3b ca eb 37 bd
       0.10846308 -0.042820115 0.0065621533 -0.0449026
000310 98 2d bd 3e 03 59 2d bf fe 55 5a be fe cb 3e bf
       0.36948848 -0.67713946 -0.21321866 -0.7453002
000320 b7 f0 08 3f 7d ca 21 bf 99 fa 89 be 32 14 e3 be
       0.534923 -0.631996 -0.26949003 -0.44351345
000330 33 fa 6b 3e ed 88 41 3d fc 62 1d bc b6 87 19 be
       0.23044662 0.047249723 -0.009606119 -0.14993176
000340 44 0e 45 3e 99 7b 08 be a1 85 20 3e ab b0 bb bd
       0.19243723 -0.13328399 0.15675975 -0.09164556
000350 bf 3f d8 bd 6a 72 30 bd e1 48 04 3d 2b 20 f4 bd
       -0.105590336 -0.043077864 0.032296065 -0.11920198
000360 a5 54 57 3e d1 47 75 be b1 e1 2f 3d ac f5 da 3d
       0.21028383 -0.23953177 0.042939845 0.106913894
000370 a8 8d b7 bc c4 4d 66 3e ee d9 5a 3e c0 02 85 3d
       -0.022406414 0.22490603 0.21372196 0.06494665
000380 7e 7e 35 3d e6 e8 02 be b1 48 97 3e 0c 76 39 be
       0.044310085 -0.12784156 0.29547647 -0.18111438
000390 8e a1 d2 bd d7 93 7f be 04 4d 0f 3d f8 92 04 bd
       -0.1028472 -0.2495874 0.034985557 -0.032366723
0003a0 6c 9e 5e 39 82 73 b6 be 81 98 13 3d b4 0a dd be
       0.00021230587 -0.35635 0.03603411 -0.43172228
0003b0 c8 f1 c0 be c2 75 24 3e 12 ef 0d be ff df 12 3e
       -0.37684464 0.16060546 -0.1386073 0.1434326
0003c0 29 1c ea bb 5b 5c 57 be 2f 48 cc 3d 90 b0 cd 3c
       -0.0071444702 -0.21031325 0.099747054 0.025108606
0003d0 c2 be ac 3e d1 1e 03 bf dc 25 1a be 44 b6 ab be
       0.33739287 -0.512189 -0.15053505 -0.33537495
0003e0 10 77 7f be 74 19 37 3e 1c 8c 80 bd 5b 0b 90 3e
       -0.24947762 0.17880803 -0.06276724 0.28133664
0003f0 10 98 c8 bb 44 39 cf be 3f c7 02 bd d0 61 b7 be
       -0.006121643 -0.40473378 -0.031928297 -0.35816813

bias_ih_l1 f4 [64]
000000 c2 77 03 be f7 76 f0 3d e1 85 ac bc 46 e6 26 bd
       -0.12838653 0.11741441 -0.021059932 -0.04074695
000010 65 ee b3 3c d3 bb d8 3d 76 94 05 3e c0 20 8f 3e
       0.021964261 0.105826996 0.13044915 0.27954674
000020 c1 0e 96 b9 53 47 b8 3e a2 be 91 3c ba 62 f9 bd
       -0.00028621222 0.35991916 0.017791096 -0.12177034
000030 1b 48 85 3e 57 1a 38 3e db 4a 95 3e 9a a1 9d 3d
       0.26031575 0.17978798 0.29158673 0.07696839
000040 d8 5a e1 bd df 10 e4 3d 0f 60 92 3e cb 54 77 3e
       -0.11003655 0.111360304 0.28588912 0.2415344
000050 e8 9a 40 be f7 fb 7a bd 2e a3 0c 3e 9a 14 98 3d
       -0.18809092 -0.06127545 0.13734123 0.074258044
000060 0f d6 93 3d 04 bf 92 3d f5 e6 2d 3e d9 f6 7b 3e
       0.07218563 0.071653396 0.16982634 0.24605884
000070 24 d7 bc 3d 85 12 0d be 60 ef ab 3e 43 b7 4f 3e
       0.09220722 -0.13776596 0.33581066 0.20284753
000080 a2 38 11 3e e7 c2 4a bc 06 62 3c bd 31 12 98 3c
       0.1418176 -0.01237557 -0.04599192 0.018563362
000090 98 79 d7 bd 5e b3 ed bd ba 8c 25 3d 8f d5 20 be
       -0.10521239 -0.11606477 0.04041741 -0.15706466
0000a0 2e 6a a2 3b 05 20 50 3c 5c e2 34 bd 47 a9 8d be
       0.0049565053 0.012702947 -0.044161186 -0.2766821
0000b0 72 42 5a 3e e1 df 81 be 73 79 26 3e c9 ee f0 bd
       0.2131441 -0.2536612 0.16257267 -0.11764295
0000c0 4e 8b ad 3e 5d ce 47 3e e7 3e 38 bb 3f f6 ae 3e
       0.33895344 0.19512315 -0.0028113665 0.34172246
0000d0 84 10 1b be 9b 48 ab 3d b4 0a b7 3e 3c 9a 8e bd
       -0.15143019 0.08363458 0.35750353 -0.069630116
0000e0 b5 82 21 3e c5 d4 cc 3e 52 d5 4f 3e 64 83 95 3b
       0.15772517 0.4000608 0.20296219 0.004562782
0000f0 a8 3e 82 3e b3 03 48 be 20 f9 00 3e e6 70 89 3c
       0.25438428 -0.19532661 0.12595034 0.016777467

bias_hh_l1 f4 [64]
000000 89 22 58 3e d9 11 36 3e 7f 07 d6 3d 2d 44 44 3d
       0.21106924 0.17780246 0.104506485 0.04791658
000010 6b a3 a4 3e a0 3e 52 be 54 28 47 3e 00 76 8e 3e
       0.32155928 -0.20531702 0.19448978 0.27824402
000020 ad ef 11 3e 1f 94 c4 3e 56 a2 a8 3d 4a d7 c9 bd
       0.14251585 0.38394257 0.08234088 -0.09855516
000030 d0 7c a7 3e 83 05 88 3e b6 c7 10 3f 06 72 d8 3d
       0.32712412 0.26566705 0.56554735 0.10568623
000040 0d a2 bb bb 9a ae e0 3d 87 08 8d 3b 38 7b 82 3d
       -0.005726105 0.109708026 0.004303995 0.06371158
000050 4f ac 33 3e 54 04 0f be b7 ff cf 3d d3 19 65 3e
       0.175462 -0.13966495 0.101561956 0.22373132
000060 fa 88 44 be f5 48 87 3d a9 06 04 3d f0 b1 10 3d
       -0.19192877 0.06605712 0.032232914 0.035325944
000070 52 43 15 3e 5c cd 98 bd 8f 78 0a 3e bf e0 84 be
       0.14576462 -0.07461044 0.13522552 -0.25952718
000080 3b 27 1a be c0 e6 f5 3d da ba 5f 3d 46 a3 cf 3b
       -0.15054028 0.12006903 0.054621555 0.0063366024
000090 0c 20 5d bd a3 ef 29 be 12 34 8d 3e 6f a5 88 be
       -0.05398564 -0.1659532 0.2757879 -0.26688716
0000a0 8c 10 85 be 7c d4 4c be 96 69 63 3e 0a 67 75 be
       -0.25989187 -0.20002931 0.22208247 -0.23965088
0000b0 40 bd ce 3d 9f 32 8a bd a4 92 a0 bd a0 36 0f be
       0.1009469 -0.067479365 -0.078404695 -0.13985682
0000c0 59 a1 7c 3e 52 bf ac 3e 98 0d 44 3d 3d 43 02 3e
       0.24670924 0.33739716 0.047864527 0.12720962
0000d0 94 80 30 3e 3c c2 65 3d 71 81 81 bd e8 eb 64 3e
       0.17236549 0.05609344 -0.06323517 0.22355616
0000e0 21 99 70 3e 5e 56 23 bd 07 18 3c 3e 67 d6 2b 3d
       0.23495914 -0.039877288 0.1836854 0.041952517
0000f0 7e da 62 3c c3 20 4a 3e 24 5b 14 3f e9 59 df 3b
       0.013846038 0.1973906 0.5795157 0.006816138

weight_hr_l1 f4 [4, 16]
000000 2b 7a ac 3e 67 0d 13 3f 5f 05 f5 be 3e 0d 8c be
       0.33686957 0.57442325 -0.4785566 -0.27353853
000010 aa e5 5c 3e f0 ef 85 3e 25 93 11 3e b2 4d b0 bd
       0.21571985 0.2615962 0.14216287 -0.08608569
000020 02 97 a8 be e0 a4 c2 bd 9e 2d bb 3e 92 7c a4 be
       -0.3292771 -0.09504104 0.3655824 -0.3212629
000030 4c 2c ba 3e ff ea c3 bb 70 72 c3 bd 14 44 90 3e
       0.3636192 -0.0059789415 -0.095433116 0.2817694
000040 ba cb a2 be 45 0b 24 bf 23 28 73 3d ea bb f2 3d
       -0.31796056 -0.64079696 0.05936445 0.11852248
000050 d1 ab 8f be c5 08 8b be 10 d7 c2 be 5d 03 be 3e
       -0.28060773 -0.27155128 -0.38054705 0.3711194
000060 a1 d8 0e 3e 14 3f 98 3e f6 c7 ca bd e8 04 94 bd
       0.13949825 0.29735625 -0.09901421 -0.07227498
000070 be e6 ba be 22 79 6c be 09 10 c9 bd 5d 77 24 3d
       -0.36504167 -0.23093084 -0.098175116 0.040152896
000080 65 a0 6b be a3 29 e5 bc f9 a1 e2 3d 9a a7 36 3e
       -0.23010404 -0.027973955 0.1106605 0.17837372
000090 1e 11 71 be ac 3e c5 bd a6 aa a7 be f9 70 93 3e
       -0.23541686 -0.09631094 -0.32747382 0.2879713
0000a0 83 8a ea 3d 5f 8a d3 3e 33 8a 4b be 37 e3 a6 3e
       0.114522 0.41316506 -0.19876938 0.32595226
0000b0 9a a7 ab 3d a3 dc 14 bc 8c 58 18 3f e1 c0 23 bd
       0.08381577 -0.009085807 0.5951011 -0.039978866
0000c0 cb 75 0f be 54 a8 0c bf 52 c6 cd 3e ea 59 a4 3d
       -0.14009778 -0.5494435 0.4019037 0.08024962
0000d0 4b f3 9a be 25 6d 81 bb 44 c5 5f be ee 04 57 3e
       -0.30263743 -0.0039497786 -0.21852595 0.20997974
0000e0 85 1b c5 3d 6c 99 b6 3e a0 e0 b2 be dc 8c 4c bb
       0.096243896 0.35663927 -0.34937 -0.0031211888
0000f0 be f7 9d be 23 07 81 bd c2 b8 6a 3e 3e e2 a1 be
       -0.30853075 -0.06300189 0.22922042 -0.31617922

weight_ih_l2 f4 [64, 4]
000000 b1 ee 4f 3e 8c 56 b4 be 0d 14 b0 be 6d 4b a4 be
       0.20305897 -0.3522228 -0.34390298 -0.32088795
000010 d8 74 22 3e 27 8c 6e 3c 5d 4b cd be db 33 34 bd
       0.15864885 0.014559782 -0.4009656 -0.043994766
000020 ab dd 13 3e 58 a1 d7 3c 9f 3d a5 bd 10 fb 1b 3e
       0.14440028 0.026322052 -0.08068394 0.15232491
000030 41 89 52 be 0f 6f 05 be 4e 2d db be 52 63 0e be
       -0.2056017 -0.13030647 -0.42808002 -0.13905075
000040 4f 69 0e bb 4e 67 7a be f3 ec 09 3c 61 72 04 be
       -0.002173025 -0.2445347 0.0084183095 -0.12934257
000050 e6 db a1 3e 63 78 96 be 73 eb 34 3e 0d fa 5e be
       0.31613082 -0.29388723 0.17667942 -0.21775074
000060 6e 5f 04 3e 36 0b ec bd 6a dc 8d bd 9d ff bd be
       0.12927029 -0.11525576 -0.06926806 -0.3710908
000070 24 a6 df 3e 5f b9 99 bd 95 ed 6e be ab 91 6c be
       0.43681443 -0.0750606 -0.23332818 -0.23102443
000080 c8 55 ad be d0 0e 29 bd ac 98 0b 3f 5c 41 88 3e
       -0.33854508 -0.041273892 0.54529834 0.26612365
000090 c6 71 cc 3d ea 21 76 3c 16 b5 e8 3a cf 0e 06 be
       0.09982638 0.015022734 0.0017754163 -0.13091587
0000a0 e2 36 dd be 23 c0 85 3e 7f 7e 99 3e 32 ff 5e bd
       -0.43205935 0.2612315 0.2997932 -0.054442592
0000b0 50 32 8e ba 18 b9 9f be c2 80 f8 bc 20 2b bb be
       -0.0010848735 -0.31195903 -0.030334834 -0.3655634
0000c0 82 25 64 3e 5c b9 4d bd cd 8d 88 3d 31 84 ea 3d
       0.22279933 -0.0502256 0.06667671 0.11450995
0000d0 32 2c 82 3d 71 e9 a2 be a3 0b 5e be f1 64 4b bc
       0.06356086 -0.31818727 -0.21684127 -0.012414203
0000e0 cb 2e 21 bc 8c 2e 80 bd 10 11 7e be d5 fc 66 be
       -0.0098378165 -0.06258878 -0.24811196 -0.22557385
0000f0 4f c9 9b 3c 21 85 d8 3d 79 1c d6 3d 67 fe e2 bd
       0.01901689 0.10572267 0.104546495 -0.1108368
000100 a7 03 ea 3e 46 c5 cd be 03 92 1b bd 79 cd 54 bd
       0.45705912 -0.4018957 -0.037981045 -0.051953766
000110 bb 1b eb bb b4 61 5f be c2 92 4a be c1 2e 80 be
       -0.0071749366 -0.21814615 -0.19782546 -0.2503567
000120 8f f9 e3 bd 69 92 0a be 65 7d 7e 3e 4d 7c 61 bd
       -0.11131584 -0.13532414 0.24852522 -0.055050183
000130 3f 7d cb 3d fb d5 5a be 69 c3 5d be 2b 4b a8 bc
       0.09935998 -0.2137069 -0.21656574 -0.020543655
000140 aa 2f dd 3d 80 f7 de bd 85 69 07 bf 22 fd 9f bd
       0.10800107 -0.10887051 -0.52895385 -0.07811953
000150 12 60 e2 3e 3e a8 a3 be 35 fd f8 3c 08 05 65 be
       0.4421392 -0.31964296 0.030394176 -0.223652
000160 af 46 c7 3e ee 17 45 be c6 1a 7f be 9a 4e c6 be
       0.38921115 -0.1924741 -0.24912557 -0.38731843
000170 8f 1e 85 3e f0 74 e2 bd 87 5f 7b be 83 b9 10 be
       0.25999877 -0.1105746 -0.2454816 -0.14133267
000180 dc 29 17 be 3a c7 37 3e 2f 75 30 3f 81 90 d1 3e
       -0.14762062 0.17947093 0.6892881 0.4093056
000190 d3 2a 97 be 81 41 41 3e ce 12 6d be e2 6a 90 bd
       -0.2952486 0.18872644 -0.23151705 -0.07051636
0001a0 21 07 cb be 4a 6d f3 3e 22 af 9c 3e 1a 81 35 3e
       -0.39653876 0.47544318 0.30602366 0.1772503
0001b0 43 e9 0b 3d c9 10 50 be bf 21 65 3e 59 f1 30 bc
       0.034158003 -0.20318903 0.22376154 -0.010799729
0001c0 54 0d 92 3d 64 19 bb bd 83 e0 54 bd 64 71 01 be
       0.071314484 -0.09135702 -0.051971924 -0.12640911
0001d0 9b b2 21 3e 54 99 86 be e3 3d b3 bd b3 1b 7f be
       0.15790789 -0.26288855 -0.08752038 -0.2491291
0001e0 28 cd 86 3e ef 3e d2 3d cd 13 62 3d 1e 4d ee 3c
       0.26328397 0.1026591 0.055194665 0.029089507
0001f0 1c e6 0d 3d d5 1e fa bd a5 d9 7c 3d 4d 85 49 3e
       0.034643278 -0.12212912 0.061731 0.19679756
000200 1b 12 40 be d0 fc db 3e 9d a2 34 3e 57 18 ec 3e
       -0.18756907 0.42966318 0.17640157 0.4611232
000210 17 99 f9 bc 2c 12 29 3d 98 68 91 3e 42 f6 74 bc
       -0.030468507 0.041277096 0.2840011 -0.014951291
000220 d8 f7 c8 3e 51 03 21 be ba d7 49 be 69 d6 bd be
       0.3925159 -0.15723921 -0.197112 -0.37077644
000230 37 a7 32 3e 22 fb 3e 3e 0d 92 e7 be 06 cb 92 be
       0.174466 0.18650487 -0.45228615 -0.2867052
000240 1f 87 fb 3c d4 65 01 3e ef 80 06 3f af 86 d2 3d
       0.03070408 0.126365 0.5254049 0.10279595
000250 b5 41 e1 be 23 6c 01 3f 44 a8 06 3e cf 61 d7 3e
       -0.43995443 0.5055563 0.13150126 0.4206681
000260 f6 fe 26 3e 86 8e 9c be b5 9a 25 be 12 7c 53 be
       0.16308197 -0.30577487 -0.16172297 -0.20652798
000270 67 28 e9 3c f2 72 c4 3c 0e 96 82 3e 37 38 a0 3e
       0.028461648 0.023980591 0.25505108 0.3129289
000280 4e 46 34 bd ad 43 94 bd 2e ab 30 3f 3f 53 c4 bd
       -0.04401236 -0.07239471 0.690112 -0.095861904
000290 cb a5 b2 3e 95 a7 c2 be 9f a5 de 3b f0 e6 c3 be
       0.34892115 -0.3801848 0.006794646 -0.3826213
0002a0 21 27 70 3e df 28 44 be 79 e5 10 3e a2 02 df be
       0.23452426 -0.19156216 0.14150037 -0.43556696
0002b0 e4 08 df 3e eb ab d8 be 11 e0 a1 be 28 c9 af be
       0.4356147 -0.42318663 -0.31616262 -0.34333158
0002c0 09 df a1 be ec d9 21 3e 8b cb 1d 3f 14 a2 38 3e
       -0.31615475 0.15805787 0.61638707 0.18030578
0002d0 10 ab 06 3e 7a 75 86 be 02 54 fb be 3e cf 90 be
       0.13151193 -0.26261503 -0.4908753 -0.28283113
0002e0 46 1f b8 bd ed 69 79 3e b2 a5 d7 3e 24 ce c4 3e
       -0.0899034 0.24356814 0.42118603 0.38438523
0002f0 39 48 c6 be 41 ed 75 3e 83 33 cf 3d 13 c5 3d 3e
       -0.38726977 0.24016286 0.10117247 0.18532209
000300 dc 23 4b 3e bd 0a a6 be 6f 25 81 be 49 eb f5 be
       0.19837898 -0.32430068 -0.25223872 -0.4803107
000310 6e 4c 8b 3e 93 4e 26 be b0 eb 0d bf 91 0b f1 be
       0.2720675 -0.16240911 -0.55437756 -0.47079137
000320 ca aa 9d 3d cd db 79 bd a4 a2 47 3e 0c f7 5f 3e
       0.07698591 -0.061000634 0.19495636 0.21871585
000330 ab 36 13 3e 22 b0 60 be 0a 04 3d be ad d7 22 3d
       0.14376323 -0.2194219 -0.18458572 0.039756466
000340 d2 ec 81 3e c1 45 ab bd c1 f4 c1 be a1 fa 5e be
       0.25375992 -0.08362914 -0.37882045 -0.21775295
000350 a6 0d 3f 3e 16 8e 09 bf 3d 2d 6c be 51 e7 89 be
       0.1865755 -0.5373243 -0.23064132 -0.26934293
000360 0c ea be 3d f4 55 b7 bd f5 aa 91 be ba e0 4c 3a
       0.09321985 -0.08951941 -0.28450742 0.0007815469
000370 1a e4 03 3f 5d ef aa be 9b 6c 32 3d 75 a7 c1 be
       0.5151993 -0.33385745 0.043560605 -0.37823072
000380 0a 16 93 be e9 f2 c2 3e 6b 0e 16 3f 35 e1 67 3e
       -0.28727752 0.3807595 0.5861575 0.22644503
000390 3d 1f 5b be 20 f1 0d 3d bc 14 b0 bd a5 16 0d 3e
       -0.21398635 0.034653783 -0.08597705 0.1377817
0003a0 cb 72 bf be 3d 0d 33 3e 54 d6 83 3d a0 c6 25 3e
       -0.37392268 0.17485519 0.06437364 0.1618905
0003b0 a5 b7 7f 3e 56 6b db be ad bd 61 bd d3 ff 39 be
       0.24972399 -0.42855328 -0.05511253 -0.18163995
0003c0 e0 b0 59 3e 30 5f 4d bc f1 a6 04 3c d9 3e 78 bd
       0.21258879 -0.0125349015 0.008096443 -0.06060681
0003d0 02 da 24 3d bf 18 6b be 8a 69 2d bd 3d 0e 8d be
       0.04024697 -0.22958659 -0.042336978 -0.27549925
0003e0 b8 ed a0 3e ab 12 70 3d 08 ed bf bc 9e c8 e7 bd
       0.31431365 0.058611553 -0.023428455 -0.113175616
0003f0 dd e6 04 be 34 df a2 be b5 ac 82 3e 42 61 82 3d
       -0.12978692 -0.31810915 0.2552239 0.06366207
