saved_models/LSTM/ckpt__epoch100.ckpt (torch, 17513 bytes, 20 tensors)

weight_ih_l0 f4 [64, 8]
0	0x3d2e5d34	0.042569354
1	0xbab659b3	-0.001391223
2	0xbd16f239	-0.036852095
3	0x3cdb341e	0.02675825
4	0xbdc441d7	-0.095828705
5	0x3eb6e8a3	0.35724363
6	0x3e448388	0.191908
7	0xbde794d0	-0.113076806
8	0x3c5e8000	0.013580322
9	0x3eca041e	0.39456266
10	0xbc4e0177	-0.012573591
11	0x3e808485	0.25101104
12	0xbdba6356	-0.09100978
13	0xbd178dce	-0.03700047
14	0xbd03e4c0	-0.032200575
15	0xbd2b15de	-0.0417689
16	0x3cd2237f	0.025651691
17	0xbeafa5c8	-0.3430617
18	0x3edd724c	0.43251264
19	0xbc787d80	-0.01516664
20	0xbe310c97	-0.17289959
21	0xbc2f4fcd	-0.010700178
22	0xbe40cddd	-0.1882853
23	0xbd28868f	-0.04114395
24	0x3ce792c7	0.028268231
25	0x3eab977d	0.33514014
26	0x3ddd8c59	0.10817785
27	0xbd7c4f52	-0.061599083
28	0x3cb756af	0.022380201
29	0xbdcbb68b	-0.09946927
30	0x3cb8429a	0.022492696
31	0x3d9e3026	0.07724027
32	0xbc61b11f	-0.013775139
33	0x3d0a5d65	0.033780474
34	0xbe8e33ba	-0.2777384
35	0x3e45dd5f	0.19322728
36	0xbc919f6a	-0.01777621
37	0xbd2a9f80	-0.041656017
38	0xbe9171c2	-0.28407103
39	0x3d41f104	0.04734899
40	0x3d445cd1	0.04794008
41	0x3df9411b	0.12170621
42	0xbe7a1142	-0.24420646
43	0x3dc4ded3	0.09612813
44	0x3d3192bd	0.04335283
45	0x3e42e869	0.1903397
46	0x3df4e0e1	0.11956955
47	0x3b014292	0.0019723517
48	0xbc61e25e	-0.01378688
49	0x3c158bc2	0.009127559
50	0x3e09b162	0.13446572
51	0x3e2d19e6	0.1690441
52	0xbe1b0d5f	-0.1514182
53	0x3e1d9923	0.15390448
54	0xbe79d6da	-0.24398366
55	0x3e4e59e0	0.20151472
56	0xbd4e673e	-0.05039143
57	0x3df1c92c	0.118059486
58	0xbe3af70e	-0.18258306
59	0xbe0ed399	-0.13947906
60	0x3dd54a21	0.104145296
61	0xbd53083c	-0.051521525
62	0xbee0bc15	-0.43893495
63	0x3d3cc667	0.04608765
64	0xbde5abf8	-0.11214441
65	0xbe8a7bb6	-0.2704751
66	0xbe1bf677	-0.15230738
67	0x3d2d7bc7	0.04235437
68	0x3c828996	0.015934747
69	0xbcf3698f	-0.02971342
70	0x3e4d7f10	0.20068002
71	0x3d7b3aed	0.061335493
72	0x3d4b6cc0	0.04966426
73	0xbe20e96d	-0.15714045
74	0xbe83f32f	-0.25771472
75	0xbe617b88	-0.2201978
76	0x3d867411	0.06565107
77	0xbda041e3	-0.07825067
78	0xbd42b23b	-0.047533255
79	0xbdd88fdc	-0.10574314
80	0x3de0afc7	0.10971027
81	0xbea20440	-0.31643867
82	0x3d3bf30d	0.04588609
83	0x3ce02941	0.027363421
84	0x3dd7ac03	0.105308555
85	0xbde6ac3b	-0.11263319
86	0x3de623ec	0.1123732
87	0xbcc18c21	-0.023626389
88	0xbc3b482d	-0.011430782
89	0xbd3df15a	-0.04637275
90	0xbe0322e6	-0.12806281
91	0xbe04842a	-0.12941042
92	0x3dda283c	0.10652205
93	0xbe8566df	-0.26055047
94	0x3d6027e0	0.054725528
95	0xbe1cf369	-0.15327229
96	0xbc80440b	-0.015657445
97	0xbcbbe849	-0.02293791
98	0xbed6ada6	-0.41929358
99	0x3bda6478	0.006664809
100	0x3cab6c48	0.020925656
101	0xbe6cd827	-0.2312933
102	0x3e2816fb	0.16415016
103	0xbd41f259	-0.04735026
104	0x3e1208fd	0.14261241
105	0xbe7f864d	-0.24953575
106	0xbd446d73	-0.04795594
107	0x3d4b54d6	0.049641453
108	0x3cdc15d9	0.026865887
109	0x3dee0c65	0.11623458
110	0xbd8f821a	-0.07007237
111	0xbc980abb	-0.018559804
112	0x3d10a4e8	0.035313517
113	0x3e161cf5	0.14659484
114	0xbe920ae0	-0.28523922
115	0xbc8b7151	-0.017021807
116	0xbe7baa99	-0.24576797
117	0xbdaa70e6	-0.08322315
118	0xbddc32d1	-0.1075188
119	0xbc8f6c35	-0.017507652
120	0x3d6c06cd	0.057623673
121	0xbdd6f9cb	-0.10496863
122	0xbdb5936d	-0.0886601
123	0x3e183b25	0.14866312
124	0xbb2f9fe8	-0.0026798192
125	0x3e103ea3	0.14086394
126	0xbe896f79	-0.2684286
127	0xbdb0634f	-0.086126916
128	0xb8746250	-5.8265694e-05
129	0xbea55402	-0.32290655
130	0xbe1b10cc	-0.15143126
131	0xbd818f3e	-0.063261494
132	0x3e0fa20d	0.14026661
133	0xbb678661	-0.0035327899
134	0xbe1d8345	-0.15382107
135	0x3de123a2	0.109931245
136	0xbb1b33c5	-0.002368198
137	0xbe612c75	-0.21989615
138	0xbde8872f	-0.11353909
139	0xbe34a6e6	-0.17641792
140	0x3d8277ed	0.0637053
141	0xbdd6eaff	-0.10494041
142	0x3dbc1ecd	0.09185562
143	0x3ce8742b	0.028375706
144	0xbe13e527	-0.14442883
145	0x3e15473a	0.14577952
146	0xbe3bcef6	-0.18340668
147	0x3dc7afc5	0.09750322
148	0xbd850e60	-0.064968824
149	0xbda08fde	-0.078399405
150	0x3e341ffe	0.17590329
151	0x3ba94137	0.005165245
152	0x3c285673	0.010274517
153	0xbd595155	-0.05305608
154	0x3b93a4ae	0.0045057153
155	0x3d120744	0.03565146
156	0x3c0d7c9e	0.008635668
157	0x3cc5afbf	0.024131654
158	0xbe3fb71e	-0.18722197
159	0xbc3938b0	-0.011305019
160	0x3dce52ac	0.10074362
161	0x3d524940	0.051339388
162	0xbcf7509d	-0.030189807
163	0xbe1cb77b	-0.15304367
164	0xbdf08e8b	-0.11745938
165	0xbe930cf9	-0.28720835
166	0x3d7a77a2	0.061149247
167	0xbd1df64f	-0.038564976
168	0xbd6b4bed	-0.057445455
169	0xbdd24c8c	-0.102685064
170	0xbe5a3ac1	-0.21311475
171	0x3e390491	0.18068148
172	0x3dffd85d	0.1249244
173	0xbd0bcbcf	-0.034129914
174	0xbd8b64b1	-0.06806315
175	0x3b9f23cb	0.004856562
176	0xbd97b53d	-0.07407615
177	0xbd2a1c05	-0.041530628
178	0x3d840c5b	0.06447669
179	0x3df092a0	0.117467165
180	0xbe2ba805	-0.16763313
181	0x3cc67947	0.024227751
182	0x3e3b5bc9	0.18296732
183	0xbd3eb43a	-0.046558596
184	0x3c017aa3	0.007902774
185	0x3e017168	0.12640917
186	0xbe87fb5b	-0.26558957
187	0x3e2a874b	0.16653173
188	0x3cfbad0a	0.03072216
189	0xbd53d507	-0.05171683
190	0xbd1e1ff1	-0.03860468
191	0xbbdd2191	-0.006748386
192	0x3e187bdb	0.14890997
193	0xbdffdd89	-0.12493426
194	0x3de12c45	0.10994772
195	0xbc797ebb	-0.015227969
196	0x3d45b7b2	0.04827089
197	0xbca20956	-0.019779842
198	0x3e849394	0.25893843
199	0xbc1ce4da	-0.009576047
200	0xbe250f30	-0.16119075
201	0x3de57038	0.11203045
202	0xbe0ff2a8	-0.1405741
203	0x3c87a92e	0.016560163
204	0x3daa7a5b	0.08324119
205	0x3dc72a7a	0.09724899
206	0xbdfbeee7	-0.123014264
207	0xbd1e8082	-0.038696773
208	0xbc9a4b6a	-0.018834788
209	0xbe815e88	-0.25267434
210	0xbe1f754d	-0.1557209
211	0x3cbb8334	0.022889711
212	0x3e07e7c0	0.13272
213	0x3e059a38	0.13047111
214	0xbc6c20ea	-0.014412144
215	0x3e07a4bc	0.13246435
216	0x3c9ba036	0.018997293
217	0x3e225ec7	0.15856467
218	0xbda16919	-0.07881374
219	0x3e8a49ee	0.2700953
220	0xbd1d8ab2	-0.03846235
221	0xbba6fbf3	-0.0050959527
222	0xbdee7f54	-0.1164538
223	0x3d6cceed	0.057814527
224	0xbcfe0782	-0.03100944
225	0xbe33ccf6	-0.17558655
226	0xbe2f0dd2	-0.17095116
227	0xbb7470d8	-0.0037298705
228	0xbe853d42	-0.26023299
229	0xbe203363	-0.15644602
230	0xbdc0cb9b	-0.09413835
231	0xbdaadd02	-0.08342935
232	0xbe07b51c	-0.13252681
233	0x3ce7648d	0.028246189
234	0x3e7dab97	0.24772488
235	0x3c21420d	0.009842408
236	0xbd9f1f3d	-0.0776963
237	0xbc31ac6b	-0.01084433
238	0xbe8b9ef7	-0.27269718
239	0x3e2fafda	0.17156926
240	0xbd03fec5	-0.03222539
241	0x3ce78509	0.028261678
242	0xbe735272	-0.23761919
243	0xbd8f3dc8	-0.06994206
244	0x3dbe666d	0.0929688
245	0xbe5473e6	-0.20747337
246	0x3e1f6b9c	0.15568393
247	0x3da71666	0.08158569
248	0xbce74db2	-0.02823529
249	0x3deab132	0.114595786
250	0xbe18f3b9	-0.14936723
251	0xbe0bf891	-0.1366904
252	0x3cb61a95	0.022229472
253	0xbe3ff660	-0.18746328
254	0xbd83f289	-0.06442744
255	0x3c8bc7f1	0.017063113

weight_hh_l0 f4 [64, 4]
0	0xbdaca525	-0.08429936
1	0x3e4df828	0.20114195
2	0x3ebe76bb	0.3719996
3	0xbeab4802	-0.33453375
4	0xbdbec83c	-0.093155354
5	0xbdf7614e	-0.12079106
6	0x3e652bd3	0.22379999
7	0xbe212b3c	-0.15739149
8	0x3e12fd97	0.1435455
9	0x3d6f17cb	0.0583723
10	0x3e1274ae	0.14302322
11	0x3da61fd7	0.08111542
12	0xbe245cc9	-0.1605102
13	0x3eca940b	0.39566073
14	0x3e95a8ed	0.29230443
15	0xbdd44fc8	-0.103667796
16	0xbe140593	-0.14455251
17	0xbeaa786b	-0.33294997
18	0xbe0eb8c1	-0.13937666
19	0x3e1f3d1e	0.15550658
20	0x3e20e5c1	0.15712644
21	0xbccf1f54	-0.025283493
22	0x3e501fbf	0.2032461
23	0xbe89f169	-0.26941994
24	0x3cc0d120	0.023537219
25	0x3db39cbe	0.087701306
26	0xbdd71696	-0.10502355
27	0x3e552bd0	0.20817494
28	0x3dc420e8	0.09576589
29	0xbe6982a1	-0.22803737
30	0xbe05f610	-0.13082147
31	0x3d7a1487	0.061054733
32	0xbe88462b	-0.26616034
33	0x3dcb4113	0.09924521
34	0x3d82b9c7	0.063830905
35	0xbe638b65	-0.22221144
36	0xbe3eebd5	-0.1864465
37	0x3c8c035e	0.01709145
38	0xbe726807	-0.23672496
39	0xbe449ed7	-0.19201218
40	0xbe02b64f	-0.12764858
41	0x3d152bff	0.03641891
42	0xbd3679e7	-0.04454985
43	0x3c5936bc	0.013257679
44	0xbcfaf880	-0.030636072
45	0x3d89592a	0.0670646
46	0xbae8825f	-0.0017739049
47	0xbe117326	-0.14204082
48	0x3dac8ff5	0.08425895
49	0x3d729001	0.059219364
50	0x3de51205	0.111850776
51	0x3dcbbf6c	0.0994862
52	0xbda82296	-0.08209722
53	0xbe005675	-0.1253298
54	0xbe7da4fa	-0.24769965
55	0xbe04fcdb	-0.12987082
56	0x3cbbf1bd	0.022942418
57	0xbe9c75d9	-0.3055866
58	0x3d8e1b69	0.06938822
59	0x3d47f310	0.048815787
60	0x3e305504	0.17219931
61	0x3d86c1d0	0.065799356
62	0x3ce927f6	0.028461438
63	0x3d4d56f2	0.050131746
64	0xbdd96134	-0.10614243
65	0xbdbf62a1	-0.09344984
66	0x3d6c4357	0.057681408
67	0xbb485377	-0.0030567327
68	0xbdea5b29	-0.11443169
69	0x3e674424	0.22584587
70	0x3f238618	0.63876486
71	0xbe04b212	-0.12958553
72	0xbeb0108f	-0.34387633
73	0xbd42fbc8	-0.0476034
74	0xbe1b6871	-0.1517656
75	0xbdfb0748	-0.12257248
76	0xbe2f012e	-0.17090294
77	0x3eb3be56	0.35106152
78	0x3ead1f53	0.3381296
79	0xbeabd8ef	-0.33563945
80	0xbe25ff21	-0.16210605
81	0xbe8b62be	-0.27223772
82	0xbcbe77b9	-0.023250448
83	0x3c88bef8	0.016692623
84	0xbe3a823a	-0.1821374
85	0xbbd5ee76	-0.006528671
86	0xbe9b97b1	-0.3038917
87	0xbe4f064c	-0.20217246
88	0xbe88b510	-0.2670064
89	0xbe593630	-0.21212077
90	0xbdc7b7c6	-0.09751849
91	0x3e06659e	0.13124701
92	0xbeb6dae3	-0.35713872
93	0x3e60df92	0.21960285
94	0x3e2eb836	0.17062458
95	0xbe4640d2	-0.19360664
96	0x3de41b67	0.11138039
97	0x3e20143d	0.1563272
98	0xbd5b8f75	-0.05360361
99	0xbe1559fb	-0.14585106
100	0xbda077b0	-0.078353286
101	0x3e254775	0.1614054
102	0x3e944b47	0.28963682
103	0xbed3e387	-0.41384527
104	0xbe01dc3a	-0.12681666
105	0xbe2b7d17	-0.16746937
106	0xbc079669	-0.008275607
107	0x3e85ece1	0.26157287
108	0xbedbdb34	-0.42940676
109	0x3e42f689	0.19039358
110	0x3c9ce04d	0.019149924
111	0x3c85067a	0.01623844
112	0x3c7bea77	0.015375725
113	0xbe0a6ca4	-0.13518006
114	0xbc9717f6	-0.018444043
115	0x3e860979	0.26179102
116	0xbe96a302	-0.2942124
117	0x3e1aa337	0.15101324
118	0x3cf6fbcf	0.030149369
119	0x3d769e68	0.06020966
120	0x3dc2627e	0.09491442
121	0xb9d03e2e	-0.0003971918
122	0x3db73678	0.08945936
123	0xbd8b1a60	-0.0679214
124	0xbe11f36a	-0.14253011
125	0x3a9aa007	0.001179696
126	0xbe411df6	-0.18859085
127	0xbd51ad81	-0.051190857
128	0xbdf560a3	-0.119813226
129	0x3f01a699	0.5064483
130	0x3ee5ca97	0.44881126
131	0xbe865e0f	-0.26243636
132	0xbf04b94a	-0.5184523
133	0x3e789f3b	0.24279492
134	0x3eb071f4	0.3446194
135	0xbf1b8324	-0.6074698
136	0xbee469e3	-0.44612035
137	0x3e7263b8	0.23670852
138	0x3d8f5e38	0.07000393
139	0xbec32fca	-0.38122398
140	0x3f037314	0.5134747
141	0xbe856bea	-0.26058894
142	0xbe12274d	-0.14272805
143	0x3e8dfa14	0.27729857
144	0x3e88c6aa	0.2671407
145	0xbd10a154	-0.035310104
146	0x3dc21231	0.09476126
147	0x3ee74924	0.4517299
148	0xbde3cc65	-0.111229695
149	0x3ddf57b5	0.10905401
150	0x3e90519e	0.2818727
151	0xbeea68c7	-0.45783064
152	0xbe44f8ce	-0.19235536
153	0x3de2602d	0.110535
154	0x3de45c0e	0.111503705
155	0xbe60027d	-0.21875949
156	0xbe8cf85f	-0.27533242
157	0xbe0d5b80	-0.13804436
158	0xbe87f711	-0.26555684
159	0xbe1cc7b6	-0.15310559
160	0xbdf15b61	-0.11785007
161	0xbc9c20ce	-0.019058611
162	0x3e1d361d	0.15352674
163	0xbe762a10	-0.24039483
164	0xbec5932d	-0.3858885
165	0x3eafd3dc	0.34341323
166	0xbd4530bf	-0.04814219
167	0xbd63a4b8	-0.05557701
168	0xbed84297	-0.42238304
169	0x3f1304c9	0.57429177
170	0x3e97e241	0.29664806
171	0xbe34ab09	-0.1764337
172	0x3dddc449	0.10828454
173	0x3de5599e	0.11198734
174	0x3c979a2a	0.018506128
175	0x3da07b8e	0.07836066
176	0xbe93824a	-0.2881034
177	0x3ee1411b	0.43994984
178	0x3defd76d	0.11711011
179	0xbdf23778	-0.11826986
180	0xbe017db4	-0.12645608
181	0xbe3ce7dc	-0.18447822
182	0xbe20ad86	-0.15691194
183	0x3e2aa2e7	0.16663705
184	0xbd4ca5b1	-0.049962703
185	0xbe942267	-0.28932497
186	0xbe46d1df	-0.19415997
187	0x3e0ea14a	0.13928714
188	0x3e004193	0.12525015
189	0xbbc54118	-0.0060197227
190	0x3e42ad45	0.1901141
191	0xbd191d1a	-0.03738127
192	0xbed2d8f8	-0.4118116
193	0x3e9207b5	0.28521505
194	0x3e2e2501	0.17006303
195	0xbe48092e	-0.19534752
196	0xbe8bde4e	-0.27318043
197	0x3e84866d	0.2588381
198	0x3e076ef1	0.13225915
199	0xbeb08dfd	-0.34483328
200	0xbdabc5fa	-0.083873704
201	0xbde3a6f0	-0.11115825
202	0x3e196d77	0.14983164
203	0x3e342bc8	0.17594826
204	0xbe88d36d	-0.26723805
205	0x3de2c111	0.11071981
206	0x3e41d08d	0.18927212
207	0x3c993634	0.018702604
208	0xbe465cb0	-0.19371295
209	0xbe50499a	-0.20340577
210	0x3d11835a	0.035525657
211	0xbe809775	-0.25115553
212	0x3de9d3b4	0.11417332
213	0xbcc92f40	-0.024558663
214	0xbdecabf2	-0.115562335
215	0x3e84eeca	0.25963432
216	0xbe350dcb	-0.17681043
217	0xbd290a93	-0.04126985
218	0x3e34628a	0.17615715
219	0xbe5ccf24	-0.21563393
220	0x3cf663ab	0.030076822
221	0xbddec1a0	-0.10876775
222	0x3d9d27b7	0.07673591
223	0xbe6f1fd7	-0.2335199
224	0x3e063bc9	0.13108744
225	0xbe3bac64	-0.1832748
226	0x3df0d594	0.11759487
227	0x3d240d33	0.04005165
228	0xbea0ba39	-0.31392077
229	0x3e9b9f50	0.30394983
230	0x3ed8b6eb	0.42327055
231	0xbe0e68df	-0.13907193
232	0xbe0ac90c	-0.13553256
233	0xbe05b02b	-0.13055484
234	0xbebf0a2a	-0.37312442
235	0x3e286842	0.16446021
236	0xbd84f421	-0.064918764
237	0x3e4e3f91	0.20141436
238	0x3db69c7c	0.08916566
239	0xbd736228	-0.05941978
240	0x3e483a61	0.1955352
241	0x3d965138	0.0733971
242	0xbda4d321	-0.08048082
243	0xbdb78cb4	-0.08962384
244	0xbe095bb6	-0.13413891
245	0x3c85394a	0.01626267
246	0xbe7ef567	-0.24898301
247	0xbecabc4a	-0.39596778
248	0xbe8a1ac3	-0.26973543
249	0xbc1dedde	-0.0096392315
250	0x3e5aa347	0.21351348
251	0x3d011e92	0.031523295
252	0xbe3e3cef	-0.18577932
253	0x3db11086	0.0864573
254	0x3e3d44af	0.18483232
255	0xbd9da293	-0.07697024

bias_ih_l0 f4 [64]
0	0x3e102930	0.14078212
1	0x3d58be3c	0.052915797
2	0xbe9bf27a	-0.30458432
3	0x3df73f54	0.12072626
4	0xbe11a087	-0.14221393
5	0xbe7fc10e	-0.24975988
6	0x3dc0a4f2	0.09406461
7	0xbaeddd9d	-0.0018147711
8	0xbee6c49a	-0.4507187
9	0xbcc58acc	-0.024114035
10	0x3e8b7eaa	0.27245075
11	0xbdd70389	-0.10498721
12	0xbe281f2c	-0.16418141
13	0xbe243d44	-0.16038996
14	0x3ddf10dc	0.108918875
15	0xbdd78e12	-0.10525145
16	0xbc76cf3f	-0.01506406
17	0x3f07d6d6	0.5306219
18	0xbe1079e2	-0.14108995
19	0x3f010537	0.5039858
20	0xbdf694a2	-0.12040068
21	0x3e48359f	0.19551705
22	0xbde040c1	-0.10949851
23	0x3e08d5cc	0.13362807
24	0xbcbfde19	-0.023421334
25	0xbda28035	-0.0793461
26	0xbc02dc52	-0.007987099
27	0xbd8aaa6a	-0.06770785
28	0x3ee17742	0.440363
29	0xbd49b5bd	-0.049245585
30	0x3dc94abc	0.098287076
31	0x3e84da73	0.25947914
32	0x3e461f93	0.19347982
33	0x3e76c299	0.2409767
34	0x3eb77d17	0.35837623
35	0xbe94aabf	-0.2903652
36	0x3decd373	0.11563768
37	0x3e570f23	0.21001868
38	0x3df994f5	0.121866144
39	0x3dfe6391	0.124213345
40	0x3e73f76a	0.2382485
41	0x3eb6be67	0.3569214
42	0xbcb3a5fd	-0.021929735
43	0xbe80980d	-0.25116006
44	0xbe35ea43	-0.17765145
45	0xbd57bcb1	-0.052670185
46	0x3d423e95	0.047422964
47	0x3e0d6e07	0.13811503
48	0x3da25e40	0.07928133
49	0x3e66e601	0.22548677
50	0x3e1260e0	0.14294767
51	0x3e8c4115	0.27393404
52	0x3d151cdb	0.03640447
53	0x3e020939	0.1269883
54	0xbde303c1	-0.110847004
55	0x3e576c21	0.21037342
56	0x3e50a895	0.20376809
57	0x3e3b5455	0.18293889
58	0x3d81a8f7	0.063310556
59	0xbdbbd0c2	-0.09170677
60	0x3f05e158	0.5229697
61	0x3e36341d	0.17793317
62	0x3d64836f	0.055789407
63	0x3c37b09b	0.01121154

bias_hh_l0 f4 [64]
0	0xbc8da1b9	-0.01728903
1	0x3eceb010	0.403687
2	0xbe58313e	-0.21112534
3	0x3e13864d	0.144067
4	0xbe8a6437	-0.27029583
5	0x3e4dc05d	0.20092912
6	0xbe45526f	-0.19269727
7	0x3c9fedf3	0.019522643
8	0xbc434454	-0.011918146
9	0xbc5198f8	-0.012792818
10	0x3e2e633f	0.17030047
11	0x3de7ec34	0.11324349
12	0xbe3f4521	-0.18678714
13	0xbe79fc3b	-0.24412625
14	0xbe5af633	-0.2138298
15	0xbcd6ed75	-0.026236275
16	0x3e178098	0.14795148
17	0x3eaca610	0.33720446
18	0xbd85563e	-0.0651059
19	0x3eec6952	0.46174103
20	0xbd2c1856	-0.042015396
21	0x3ebc462e	0.36772293
22	0xbe4d3a7e	-0.20041844
23	0x3e613542	0.21992972
24	0xbd01b5b2	-0.03166742
25	0xbc4a389b	-0.012342597
26	0xbd56a5f3	-0.052404355
27	0x3d6c5605	0.057699222
28	0x3e834910	0.2564168
29	0x3e367bf5	0.17820723
30	0x3ea65600	0.32487488
31	0x3e61ebcc	0.22062606
32	0xbc282d75	-0.010264744
33	0x3ec1062a	0.37700015
34	0x3e518aab	0.20463054
35	0xbe8f1a4a	-0.27949744
36	0xbe88f7fe	-0.26751703
37	0x3ca61e55	0.020278135
38	0xbcdf1f36	-0.027236562
39	0xbeaa7306	-0.3329088
40	0x3c89f7e8	0.016841844
41	0x3d4ae668	0.04953614
42	0xbe47854a	-0.1948444
43	0xbe16dcdb	-0.14732687
44	0x3c28e95e	0.010309545
45	0x3e0ce4e7	0.13759194
46	0xbdfd8f56	-0.12380855
47	0x3ebf141d	0.37320033
48	0x3a27c29a	0.00063995423
49	0x3c964b02	0.018346313
50	0xbdbdb2e4	-0.09262636
51	0x3cbec4ea	0.023287255
52	0x3e2fdf21	0.1717496
53	0xbe90707c	-0.2821082
54	0xbd48871c	-0.048956975
55	0xba3684f1	-0.0006962559
56	0x3e8e6415	0.27810732
57	0x3e097c86	0.13426408
58	0xbdfeebeb	-0.124473415
59	0x3d72a9dd	0.059244025
60	0x3e35c65b	0.17751448
61	0x3b4c8361	0.0031206238
62	0x3d739c71	0.059475366
63	0x3e264973	0.16238956

weight_hr_l0 f4 [4, 16]
0	0x3c3fbc60	0.011702627
1	0xbe72d154	-0.23712665
2	0xbe92a97f	-0.2864494
3	0x3ebe5665	0.3717529
4	0x3ebe3b4f	0.37154624
5	0xbd956312	-0.07294287
6	0xbe29a52b	-0.16566913
7	0x3d7219bc	0.059106573
8	0xbedff6dc	-0.43743026
9	0xbeac71b6	-0.33680505
10	0xbdbae720	-0.09126115
11	0xbea5134b	-0.32241282
12	0xbe1400c1	-0.14453413
13	0xbd9e472e	-0.0772842
14	0x3dba46e2	0.09095551
15	0xbe907c3b	-0.2821978
16	0x3e685787	0.22689639
17	0x3eda7a05	0.4267122
18	0x3eadf0b4	0.33972704
19	0xbe7344c4	-0.23756701
20	0xbc91219a	-0.017716218
21	0x3e93bf9f	0.28857133
22	0x3e12a639	0.14321221
23	0xbe0c2b67	-0.13688432
24	0xbda4007f	-0.08007907
25	0xba7c9d86	-0.000963651
26	0x3eacaeb9	0.33727053
27	0xbc1a5f52	-0.00942214
28	0x3e98bdb0	0.2983222
29	0xbea49c42	-0.32150465
30	0xbec59364	-0.38589013
31	0x3ed10efb	0.40831742
32	0x3ea9b8c9	0.33148792
33	0x3bd2a751	0.006428637
34	0xbdd1030c	-0.10205659
35	0x3e25b487	0.16182147
36	0x3ee49a5d	0.4464902
37	0x3ea62309	0.32448605
38	0x3d959982	0.0730467
39	0xbead5ff2	-0.33862263
40	0xbe131dd5	-0.14366849
41	0xbddc41fe	-0.107547745
42	0x3e9e028b	0.30861315
43	0xbd319535	-0.043355186
44	0x3ed0905d	0.4073514
45	0x3d952ddc	0.072841376
46	0xbe74eb14	-0.239178
47	0x3e8e7546	0.27823848
48	0xbe6d11e3	-0.23151354
49	0xbf08957b	-0.5335309
50	0xbeb1f67b	-0.34758362
51	0x3edbe488	0.42947793
52	0x3eb5f99a	0.35541993
53	0xbe0d892f	-0.13821863
54	0xbe5b3f22	-0.21410802
55	0x3eec66bf	0.4617214
56	0xbea3e227	-0.32008478
57	0xbe3916be	-0.18075082
58	0xbe6e7eb8	-0.23290527
59	0xbea9cba9	-0.33163193
60	0xbe9ac0e6	-0.30225295
61	0x3dd9182a	0.10600312
62	0xbdeb42ab	-0.11487325
63	0xbce0dc72	-0.027448867

weight_ih_l1 f4 [64, 4]
0	0x3dea224d	0.114323236
1	0x3e8ddcb4	0.27707446
2	0x3e9c1ac9	0.30489185
3	0xbe54f356	-0.2079595
4	0xbc13ddf1	-0.009025083
5	0x3d3d8f68	0.04627934
6	0x3ecf3f8f	0.4047818
7	0xbda47074	-0.08029261
8	0x3ce07f9a	0.027404595
9	0xbe3754dd	-0.17903467
10	0xbe67138f	-0.22566055
11	0xbeb4ab46	-0.3528692
12	0x3e791e71	0.24328019
13	0x3d524333	0.051333617
14	0x3ed25161	0.41077712
15	0xbe99cd3a	-0.30039388
16	0x3ef41c68	0.47677922
17	0xbea859a8	-0.32880902
18	0x3c52679d	0.012842086
19	0x3e9e503e	0.30920595
20	0xbc797935	-0.015226652
21	0xbcf1bd43	-0.029509192
22	0x3db5ad67	0.088709645
23	0x3b879933	0.004138136
24	0x3ecfadec	0.4056238
25	0xbccb15d6	-0.024790686
26	0x3edc4a5a	0.43025476
27	0x3dc4c6ee	0.09608255
28	0x3e807188	0.25086617
29	0x3d0a8133	0.03381462
30	0xbe3a44be	-0.18190286
31	0x3e800286	0.25001925
32	0xbe8f71f7	-0.28016636
33	0x3e198816	0.14993319
34	0x3e1a48fb	0.15066902
35	0xbdc10604	-0.094249755
36	0x3cdbf7ab	0.026851496
37	0xbed0dff9	-0.40795878
38	0xbeb3a7fe	-0.35089105
39	0x3ec6c952	0.3882547
40	0xbdaa19c8	-0.08305699
41	0x3e54a748	0.20766938
42	0x3e6ffb6f	0.23435758
43	0x3c8825c0	0.016619563
44	0xbe11b140	-0.14227772
45	0xbd791214	-0.060808256
46	0x3b43b510	0.002986256
47	0xbe50d3d2	-0.20393303
48	0xbe10d8a2	-0.14145139
49	0xbe090c6c	-0.13383645
50	0xbb814ee3	-0.0039461716
51	0xbe93dac8	-0.28877854
52	0x3d7b792c	0.061394855
53	0xbef603e1	-0.48049834
54	0xbe9b8c53	-0.30380496
55	0xbe20c2e2	-0.15699342
56	0x3e963298	0.29335475
57	0x3e4b2f95	0.1984237
58	0x3e036275	0.12830527
59	0x3db12821	0.08650232
60	0x3cf3d3a0	0.029763997
61	0x3e95c3b8	0.29250884
62	0x3e16beb4	0.14721185
63	0xbdca956f	-0.098917834
64	0xbe3fcb3d	-0.18729873
65	0x3da9b203	0.08285906
66	0xbea5d2a7	-0.32387277
67	0xbe4b72d4	-0.19868022
68	0xbf062138	-0.5239444
69	0xbd1778f1	-0.036980573
70	0xbdfe108b	-0.12405499
71	0xbebb8910	-0.36628008
72	0xbebb8ec8	-0.3663237
73	0xbd625e02	-0.055265434
74	0xbdc5d092	-0.09658922
75	0xbec34444	-0.3813802
76	0xbea4ed44	-0.3221227
77	0xbd36b6d3	-0.04460795
78	0xbe0ffad4	-0.14060527
79	0xbeaefb50	-0.3417611
80	0x3a81bc6d	0.0009898074
81	0xbf23ffbe	-0.64062107
82	0xbf1b62d2	-0.6069766
83	0xbdd3e8e1	-0.103471525
84	0xbec78d76	-0.38975114
85	0xbda01b6a	-0.07817729
86	0xbec49229	-0.3839276
87	0xbecc3bc3	-0.39889345
88	0xbd6e03c6	-0.058109067
89	0xbe1da698	-0.15395582
90	0x3d6e282d	0.058143783
91	0x3d8ee1c7	0.06976657
92	0xbe87e399	-0.2654083
93	0xbe51306e	-0.2042863
94	0xbdd36d2d	-0.10323558
95	0xbe642d9b	-0.22283022
96	0xbd984e62	-0.07436825
97	0x3e49112d	0.19635458
98	0xbd38efe2	-0.045150645
99	0xbec1dd0d	-0.3786396
100	0xbdb36070	-0.08758628
101	0xbf19f2b0	-0.60135937
102	0xbf2170ad	-0.63062555
103	0xbd342fbf	-0.043990847
104	0xbf05fa0d	-0.5233467
105	0x3df3424b	0.11877879
106	0x3cb96aa4	0.022633858
107	0xbdf8fa03	-0.12157061
108	0xbeef6641	-0.467577
109	0x3eca275f	0.39483163
110	0x3e467d7f	0.1938381
111	0xbdb0fb00	-0.086416245
112	0xbe7be743	-0.24599938
113	0xbd7aec28	-0.061260372
114	0xbe5987b8	-0.21243179
115	0xbe77733f	-0.24165057
116	0x3e1f2aa4	0.1554361
117	0xbf20ff84	-0.62889886
118	0xbf13e7cc	-0.5777557
119	0xbe48baa5	-0.19602449
120	0x3ecf58e3	0.40497503
121	0x3e39100f	0.18072532
122	0x3edf5a73	0.43623695
123	0x3f11189c	0.56678176
124	0xbed281ed	-0.4111475
125	0x3c6ae8a1	0.01433769
126	0xbe740e3b	-0.23833553
127	0xbe3f8464	-0.18702847
128	0x3e804e02	0.25059515
129	0xbea6b28b	-0.32558092
130	0x3e0a4ffc	0.13507074
131	0xbccd58ba	-0.025066722
132	0xbec61f5c	-0.386958
133	0x3e3a5b2a	0.18198839
134	0xbe0331d5	-0.12811978
135	0xbea9466f	-0.3306155
136	0x3eab19a8	0.33418012
137	0xbe7ebf4a	-0.24877658
138	0xbd7a9883	-0.061180603
139	0x3e8be013	0.27319393
140	0x3e196a05	0.1498185
141	0xbdb40569	-0.087900944
142	0xbe637270	-0.22211623
143	0x3e9ebfba	0.3100565
144	0x3e1ba5b0	0.15199924
145	0x3eca320d	0.3949131
146	0x3d475d32	0.048672862
147	0xbdd57de9	-0.10424406
148	0xbe98fb8a	-0.2987941
149	0x3e6c722f	0.23090433
150	0xbd49c8de	-0.049263828
151	0xbe6acea4	-0.2293039
152	0xbdc14789	-0.094374724
153	0x3e02ffa1	0.12792827
154	0x3ee58df6	0.4483487
155	0xbdb5e7f8	-0.08882135
156	0xbdd3623c	-0.10321471
157	0xbee31c71	-0.44357637
158	0xbf039b68	-0.51409006
159	0xbd08d7d2	-0.033408947
160	0xbe3e379b	-0.185759
161	0xbec1e8ab	-0.37872824
162	0xbe8c7273	-0.27431068
163	0xbd0b3548	-0.03398636
164	0x3cb54fd5	0.022132793
165	0xbe75ed52	-0.24016312
166	0xbf071c0e	-0.52777183
167	0xbdcd62bc	-0.10028598
168	0x3e0165a9	0.12636437
169	0xbe5f0c4d	-0.21782036
170	0xbc6f140e	-0.014592184
171	0x3db744d8	0.08948678
172	0xbc6f4752	-0.014604406
173	0xbd5bb3a5	-0.05363812
174	0xbd9700bf	-0.07373189
175	0xbe9560b3	-0.29175338
176	0xbeb2ebd7	-0.34945557
177	0xbd2742dd	-0.04083525
178	0x3e933421	0.2875071
179	0xbe16d35a	-0.14729062
180	0xbdbf17ad	-0.09330688
181	0x3d8855e5	0.06657008
182	0x3e42ced0	0.19024205
183	0xbec09d0b	-0.37619814
184	0x3e7c5a94	0.24643928
185	0x3e01c18c	0.12671489
186	0x3ea94e3c	0.330675
187	0x3ee57316	0.44814366
188	0xbec8fd68	-0.39255834
189	0xbd3d77b7	-0.046256747
190	0x3d6c2fb4	0.05766268
191	0xbe07ed98	-0.13274229
192	0xbca9c2cd	-0.020722771
193	0x3ec8bcfb	0.3920668
194	0x3e80579b	0.25066838
195	0xbeb9206d	-0.3615755
196	0xbe901354	-0.28139746
197	0x3ebac557	0.36478683
198	0x3e6fec5f	0.23430012
199	0xbcbc2823	-0.022968357
200	0xbdd76180	-0.105166435
201	0x3b5cfb25	0.003371903
202	0x3dccd33c	0.10001227
203	0xbec47cb0	-0.3837638
204	0xbec2edb4	-0.38071978
205	0x3e821e04	0.25413525
206	0x3dbbdf96	0.09173505
207	0xbe3a8870	-0.1821611
208	0x3eda37a1	0.42620566
209	0xbea81f2e	-0.32836288
210	0xbe040bf8	-0.1289519
211	0x3eacc096	0.3374068
212	0xbe1c2195	-0.15247186
213	0x3e518b81	0.20463373
214	0xbdd44fa6	-0.10366754
215	0xbe7354ed	-0.23762865
216	0x3dab4fa1	0.083647974
217	0xbd0fd4ed	-0.03511517
218	0x3e9315db	0.28727612
219	0xbd6550ff	-0.055985447
220	0xbd32cb42	-0.043650873
221	0xbe4880c3	-0.19580369
222	0x3d1351ff	0.03596687
223	0xbca8e50b	-0.020617029
224	0xbed73ff7	-0.4204099
225	0x3cab9f3e	0.020949956
226	0x3de7185d	0.11283944
227	0xbeb186ca	-0.34673148
228	0x3ed7a1e5	0.42115703
229	0xbee8feee	-0.45506996
230	0xbf23e551	-0.64021784
231	0x3e354201	0.1770096
232	0x3d4e436f	0.05035728
233	0x3e4bd057	0.19903694
234	0x3ec3af4f	0.38219687
235	0xbaf95e37	-0.0019025271
236	0xbf090689	-0.53525597
237	0x3ea3b11d	0.31971064
238	0x3d7ebd53	0.062192272
239	0xbeabd211	-0.33558705
240	0xbf0d98ea	-0.55311453
241	0x3c201988	0.009771712
242	0xbd9e55cc	-0.07731208
243	0xbe97def0	-0.29662275
244	0x3e7fb5c8	0.24971688
245	0xbf101586	-0.5628284
246	0xbd91fa2f	-0.07127797
247	0xbd7a10eb	-0.06105129
248	0x3eddc665	0.43315426
249	0x3e094cd2	0.13408211
250	0x3ea21796	0.3165862
251	0x3e43914e	0.19098398
252	0xbe630de5	-0.22173269
253	0x3e171a27	0.1475607
254	0x3e19f10a	0.15033355
255	0xbe5ee4ca	-0.21766964

weight_hh_l1 f4 [64, 4]
0	0xbe6dd81c	-0.2322697
1	0x3d340121	0.04394639
2	0x3ddbb0d2	0.10727085
3	0x3d90c3ec	0.07068619
4	0xbf080be4	-0.53143144
5	0xbddf9f60	-0.1091907
6	0x3e94de13	0.2907568
7	0xbe08d5ba	-0.1336278
8	0xbd836a37	-0.06416743
9	0xbe55981e	-0.2085881
10	0xbc400957	-0.011720977
11	0x3cfff533	0.03124485
12	0xbe40a398	-0.18812406
13	0xbe01d1e2	-0.1267772
14	0x3dc7eaab	0.09761556
15	0xbb058b54	-0.0020377235
16	0xbea23473	-0.3168064
17	0xbddc8fcf	-0.10769617
18	0x3df80c43	0.12111714
19	0xbd5a90c5	-0.05336072
20	0xbebe0000	-0.37109375
21	0x3e096b7a	0.13419905
22	0x3e17da1c	0.14829296
23	0xbec1dcc4	-0.37863743
24	0xbe336608	-0.1751939
25	0x3d4e7b70	0.050410688
26	0xbe5128f3	-0.20425777
27	0x3ddd810c	0.10815629
28	0xbe07fbd3	-0.13279657
29	0x3d18526a	0.03718797
30	0xbe2a5622	-0.1663442
31	0xbd5fb3ad	-0.05461471
32	0x3e00ae1b	0.12566416
33	0x3ea54a4c	0.32283247
34	0xbeceadd2	-0.4036699
35	0xbe5de25b	-0.21668379
36	0xbe3626f8	-0.17788303
37	0x3d8b6bf3	0.06807699
38	0x3e2ea269	0.17054142
39	0x3e26addb	0.16277258
40	0x3df82946	0.12117247
41	0xbe305a53	-0.17221956
42	0xbd650731	-0.05591506
43	0xbe31b350	-0.17353559
44	0x3da58013	0.08081069
45	0x3d1c8c12	0.03821952
46	0xbd924d06	-0.07143597
47	0x3dc1c193	0.094607495
48	0xbe34fcbb	-0.17674534
49	0x3e16f5f5	0.14742263
50	0xbd747b95	-0.05968817
51	0xbdd335d7	-0.103130035
52	0xbf0a53ec	-0.54034305
53	0xbec63fa2	-0.38720423
54	0x3e8118c4	0.25214207
55	0xbe2b5d32	-0.1673477
56	0xbe099066	-0.1343399
57	0x3d1c3e8d	0.03814559
58	0x3d419876	0.04726454
59	0xbe5ecd56	-0.21758017
60	0xbe5bdbb2	-0.21470526
61	0xbc2e08fd	-0.01062226
62	0xbcfa810e	-0.030579116
63	0xbd608418	-0.054813474
64	0x3e0d63e2	0.13807634
65	0xbe26602f	-0.16247629
66	0xbbf508a9	-0.007477839
67	0xbe56943e	-0.20954987
68	0x3de9a65e	0.11408685
69	0x3e03ce1e	0.12871596
70	0x3dde558e	0.10856162
71	0xbe5be340	-0.21473408
72	0xbdf319db	-0.11870166
73	0xbd4e8e51	-0.050428692
74	0x3c89aec5	0.01680697
75	0xbe03f183	-0.12885098
76	0x3db4a9ee	0.08821474
77	0xbe3ee6ad	-0.18642683
78	0x3d356cbd	0.044293154
79	0x3d232322	0.039828427
80	0xbc252d23	-0.010081562
81	0x3e8dff7b	0.2773398
82	0xbe44dd75	-0.19225104
83	0x3ecc8dbc	0.39951885
84	0x3e1eb3bc	0.1549825
85	0x3e594fdc	0.2122187
86	0xbdffcb5f	-0.12489962
87	0xbd1c4209	-0.038148914
88	0xbe55cc01	-0.20878603
89	0x3e79a97a	0.24381056
90	0xbec786c8	-0.38970017
91	0x3e4571d8	0.19281709
92	0xbdd919bd	-0.10600612
93	0xbdbe4f74	-0.09292498
94	0xbf0d312f	-0.55153173
95	0x3e047b2f	0.12937616
96	0xbe052465	-0.13002165
97	0x3e85e7db	0.26153454
98	0xbeb9c893	-0.36285838
99	0x3c3c9dbb	0.011512215
100	0x3dea9de1	0.11455894
101	0x3ed7c9ff	0.42146298
102	0xbc7c05dc	-0.015382256
103	0x3ec40ee6	0.38292617
104	0xbe24b899	-0.16086043
105	0xbd88d85b	-0.066818915
106	0xbd5995de	-0.05312144
107	0xbdb7b7bd	-0.08970592
108	0x3dcd2c7a	0.10018249
109	0xbe8b6965	-0.27228847
110	0xbde030b7	-0.109467916
111	0xbe9a004d	-0.30078354
112	0xbb71b941	-0.0036884102
113	0xbd4d0d88	-0.050061733
114	0x3e82d575	0.2555348
115	0xbe2bea08	-0.16788495
116	0xba2200d7	-0.0006179935
117	0x3e85b8d4	0.26117575
118	0x3e3f62df	0.1869006
119	0x3ec50846	0.38482875
120	0xbe8b4c26	-0.27206534
121	0xbe7fcf76	-0.24981484
122	0x3db43148	0.08798462
123	0xbe1aaeb6	-0.1510571
124	0x3e0a299d	0.13492437
125	0xbdd66508	-0.10468489
126	0x3e7276a0	0.23678064
127	0xbbed232f	-0.00723686
128	0xbe66704f	-0.2250378
129	0x3e3aa567	0.18227158
130	0x3e684826	0.22683772
131	0x3d8f9aca	0.070119455
132	0x3e0d7edc	0.13817924
133	0x3e2bc5a7	0.16774617
134	0xbe96d906	-0.2946245
135	0xbdcdaace	-0.10042344
136	0x3d8945f9	0.06702799
137	0x3de5d251	0.11221755
138	0x3e878a03	0.26472482
139	0xbe808c3e	-0.25106996
140	0xbe8837d9	-0.26605108
141	0xbda73c6f	-0.08165824
142	0x3ea31b92	0.31856972
143	0x3d00a40d	0.03140645
144	0xbd0068b6	-0.03134986
145	0xbdb4c858	-0.08827275
146	0xbea9ede5	-0.33189312
147	0x3e9db9bb	0.30805764
148	0x3dd7cf2e	0.10537563
149	0x3d9a86cc	0.07545242
150	0xbdebb1c9	-0.11508519
151	0xbd902f9b	-0.0704033
152	0x3e360a82	0.17777446
153	0x3e91237f	0.28347394
154	0xbd2c86bd	-0.042120684
155	0x3e5943cf	0.21217273
156	0x3db9f50b	0.09079941
157	0x3e2db99c	0.16965336
158	0x3e81b58b	0.2533382
159	0x3e999e9c	0.30003822
160	0x3d9df888	0.07713419
161	0x3e68cb12	0.22733715
162	0xbd8c63e8	-0.06854993
163	0x3e9aef22	0.3026057
164	0xbe70184a	-0.23446766
165	0xbba33d05	-0.0049816393
166	0x3d89609e	0.067078814
167	0xbdf2cd67	-0.11855584
168	0xbe4edb58	-0.2020086
169	0xbe5721f8	-0.21009052
170	0x3e6fe11d	0.23425718
171	0x3e2ceb36	0.16886601
172	0x3b933ec8	0.004493568
173	0x3d0608a5	0.032723088
174	0xbe4084d7	-0.18800674
175	0xbe0797db	-0.13241522
176	0x3e540684	0.2070561
177	0xba4f9572	-0.00079186924
178	0xbd868c4b	-0.065697275
179	0xbde146b3	-0.10999813
180	0x3d244bf8	0.040111512
181	0x3d5ced49	0.05393723
182	0x3b668fdf	0.0035180969
183	0x3d8a3c32	0.067497626
184	0xbe012810	-0.12612939
185	0x3e3554b6	0.17708096
186	0xbe0e341d	-0.13887067
187	0xbe815841	-0.25262645
188	0xbe01539e	-0.12629554
189	0x3e1023f1	0.1407621
190	0xbe2a17be	-0.1661062
191	0x3e986d81	0.29771045
192	0xbea6023f	-0.3242359
193	0xbe1c5017	-0.15264927
194	0x3e7ff681	0.24996378
195	0xbe8a34b9	-0.2699335
196	0xbf0967fb	-0.53674287
197	0xbce17cff	-0.027525423
198	0x3e48df87	0.19616519
199	0xbf0bd5b1	-0.5462294
200	0xbc7ac663	-0.015306088
201	0xbe1be1c3	-0.1522284
202	0x3e5fbbb2	0.21848944
203	0xbe2fe3a3	-0.1717668
204	0xb88e3fed	-6.782995e-05
205	0xbe2b6622	-0.1673818
206	0x3de704db	0.11280223
207	0xbe36b971	-0.17844178
208	0xbbd3e8e6	-0.0064669726
209	0x3d8a84b3	0.067635916
210	0xbdbbafef	-0.09164416
211	0xbe015301	-0.1262932
212	0xbe81192e	-0.25214523
213	0x3cdb420a	0.026764888
214	0xbdb838d2	-0.089952126
215	0xbe533af1	-0.20627953
216	0x3d95367c	0.07285783
217	0x3e695fcc	0.2279045
218	0xbea53486	-0.32266635
219	0x3cb7000f	0.022338895
220	0xbe6ae086	-0.22937211
221	0x3d1d9ec4	0.03848149
222	0xbd745e90	-0.059660494
223	0x3d820941	0.06349421
224	0x3dc0a0e1	0.09405685
225	0x3e85e715	0.26152864
226	0x3cdf0cda	0.027227808
227	0xbe691614	-0.22762328
228	0x3e4d5913	0.2005351
229	0x3f12a497	0.57282394
230	0xbd8121f4	-0.06305304
231	0xbd143df6	-0.036191903
232	0xbe8f6fb0	-0.28014898
233	0x3c149f25	0.009071146
234	0x3d861ee6	0.06548862
235	0xbec65cee	-0.38742775
236	0xbdae50f8	-0.08511537
237	0xbe7643db	-0.24049322
238	0x3bbfaf36	0.005849744
239	0x3db18bd4	0.08669248
240	0x3ce006d8	0.027347013
241	0xbe347c29	-0.17625488
242	0x3e2421c8	0.16028512
243	0x3ca9a04d	0.02070632
244	0xbeb47bdb	-0.35250744
245	0xbcb99003	-0.022651678
246	0xbe34c209	-0.17652144
247	0xbe4082d5	-0.18799908
248	0x3d559b5a	0.052150108
249	0x3e71d974	0.23618108
250	0xbedda5d2	-0.43290573
251	0xbecb6711	-0.3972707
252	0xbde60516	-0.11231439
253	0xbe709d6a	-0.23497549
254	0x3dcc2132	0.09967269
255	0xbe1c373d	-0.15255447

bias_ih_l1 f4 [64]
0	0x3e20ee1f	0.15715836
1	0x3eacc36b	0.33742842
2	0xbb9799ea	-0.0046265023
3	0xbbd25320	-0.0064186007
4	0xbd05f622	-0.032705434
5	0x3e56a9e9	0.20963253
6	0x3dbe9e92	0.09307589
7	0x3eadabc4	0.3392011
8	0xbcb807da	-0.022464681
9	0x3ec876ac	0.3915304
10	0x3c5224f3	0.012826192
11	0xbe227ae8	-0.15867198
12	0x3e576b3e	0.21037003
13	0x3d96851f	0.073496096
14	0x3eb1e1ea	0.3474267
15	0x3d82cac3	0.0638633
16	0x3dc43da7	0.09582072
17	0xbded0128	-0.11572486
18	0xbe78a8a9	-0.24283089
19	0xbda7f61a	-0.08201237
20	0x3dc2f931	0.09520186
21	0x3e1d23ce	0.1534569
22	0xbcee36ec	-0.029078923
23	0xbd9f5026	-0.07778959
24	0x3e09397e	0.13400838
25	0x3cc8d141	0.024513843
26	0xbe8440b4	-0.25830615
27	0xbd0e7b8d	-0.034785796
28	0x3e437ac4	0.190898
29	0xbde15105	-0.110017814
30	0x3edcd3cc	0.43130338
31	0x3e694ce6	0.2278324
32	0x3b40f6c3	0.0029443956
33	0x3dd16e52	0.1022612
34	0xbdc1d327	-0.09464102
35	0xbe1a06be	-0.15041634
36	0xbd5311b9	-0.051530574
37	0x3dc06c69	0.093956776
38	0x3e455df5	0.19274123
39	0x3e0709ec	0.13187379
40	0xbe7bd5cf	-0.2459328
41	0x3e7898b4	0.24277002
42	0xbde8d084	-0.11367896
43	0x3e1007b0	0.14065433
44	0x3d6b9bce	0.057521634
45	0xbe54aae0	-0.20768309
46	0xbdb42b81	-0.0879736
47	0x3e2c7d8a	0.16844764
48	0x3d66c061	0.05633581
49	0x3eafa600	0.34306335
50	0x3ed239e4	0.41059792
51	0x3e70a072	0.23498705
52	0x3e53c048	0.20678818
53	0x3da6d77f	0.08146571
54	0x3edbb291	0.42909673
55	0x3eb05d89	0.34446362
56	0x3cd414f4	0.025888897
57	0x3e9c8919	0.30573347
58	0xbbbb5814	-0.005717287
59	0xbe0e0e7c	-0.13872713
60	0x3dd0ac0c	0.10189065
61	0x3e8171da	0.25282174
62	0x3eae8cd4	0.34091818
63	0x3e922d23	0.28550062

bias_hh_l1 f4 [64]
0	0x3e4672ae	0.19379684
1	0x3e14a27e	0.14515111
2	0xbd9b3822	-0.07579066
3	0x3ebcf728	0.36907315
4	0xbd114ea9	-0.035475407
5	0x3ea5e234	0.32399142
6	0xbcbd10d6	-0.023079317
7	0x3d6a9782	0.057273395
8	0xbde2a085	-0.11065773
9	0x3ec8f724	0.39251053
10	0x3dd7c4ad	0.1053556
11	0x3cdc2ca2	0.026876751
12	0x3e07300d	0.13201924
13	0xbc690168	-0.014221527
14	0x3ed40b0a	0.41414672
15	0x3e5d1cfb	0.21593086
16	0x3db54d02	0.08852579
17	0x3d96550b	0.073404394
18	0x3dac0737	0.083998136
19	0x3da06971	0.07832611
20	0xbe31a70c	-0.1734888
21	0x3cc4f76a	0.024043757
22	0x3e8be306	0.27321643
23	0x3e35ec3b	0.17765896
24	0xbd120271	-0.03564686
25	0x3dc4f4b3	0.09616985
26	0xbe8551f4	-0.26039088
27	0xbe136fb1	-0.14398076
28	0xbe8a87fb	-0.2705687
29	0x3e197cf6	0.14989075
30	0x3ecc0369	0.39846352
31	0xbe37a192	-0.17932728
32	0xbdc73ea9	-0.09728748
33	0xbe8bd11d	-0.27307978
34	0xbd8af539	-0.06785054
35	0x3d7ee848	0.06223324
36	0xbe6515ba	-0.2237157
37	0xbe63c5fc	-0.22243494
38	0x3d2f5455	0.042805035
39	0xbe421bae	-0.18955871
40	0x3e205633	0.15657882
41	0xbb90246f	-0.0043988745
42	0xbd6a2132	-0.057160564
43	0x3e6479aa	0.22312036
44	0xbc95b4a8	-0.01827462
45	0xbe702d0e	-0.23454687
46	0x3df4f1ba	0.11960168
47	0x3e25da22	0.16196492
48	0xbcf170b8	-0.029472694
49	0x3b86cd6a	0.0041138427
50	0x3e658078	0.22412288
51	0x3e1a3095	0.15057595
52	0x3e1eee25	0.15520532
53	0x3e0073af	0.1254413
54	0x3e4d0a39	0.20023431
55	0xbd1bdc54	-0.03805192
56	0x3dd270d9	0.1027543
57	0x3e19fa92	0.15036991
58	0x3e8a38a4	0.26996338
59	0xbe3290db	-0.1743807
60	0x3d9e0a7d	0.07716844
61	0x3eba4984	0.36384213
62	0x3f149122	0.58033955
63	0x3e4ebdaf	0.20189546

weight_hr_l1 f4 [4, 16]
0	0x3ec38e9f	0.3819475
1	0xbe873b8c	-0.26412618
2	0x3ec45289	0.3834422
3	0x3f0854e5	0.5325454
4	0xbda94bc9	-0.08266408
5	0xbe1c1653	-0.15242891
6	0xbdd049e8	-0.101703465
7	0x3db24117	0.08703821
8	0x3e7e6156	0.24841818
9	0x3f0185bf	0.50594705
10	0x3ea1605f	0.31518838
11	0xbea058cb	-0.31317744
12	0xbec85324	-0.3912593
13	0xbeb83970	-0.3598132
14	0xbdd9a8c2	-0.10627891
15	0xbde75c39	-0.11296887
16	0x3e7690b9	0.24078645
17	0xbd9cb3a6	-0.07651453
18	0x3b91cfe0	0.0044498295
19	0x3ee2db16	0.44307774
20	0xbe52b140	-0.20575428
21	0xbe852ed6	-0.26012295
22	0xbed111d1	-0.40833905
23	0x3dcc4f94	0.09976116
24	0x3e6c2354	0.23060352
25	0x3ec94805	0.3931276
26	0x3e8abf28	0.27098966
27	0xbdc8b8f0	-0.09800899
28	0xbcee9a99	-0.029126452
29	0xbea192e6	-0.31557387
30	0x3d311229	0.04323021
31	0x3e007e08	0.12548077
32	0xbe1d5439	-0.1536416
33	0x3f300f0d	0.68772966
34	0xbedb548d	-0.42837945
35	0xbde80534	-0.113291174
36	0x3eca63b8	0.39529204
37	0x3f0e1dcf	0.55514234
38	0xbbc52dbd	-0.0060174153
39	0xbcacb269	-0.021081166
40	0xbe6ee0a7	-0.23327886
41	0x3dde8177	0.10864537
42	0x3dd4d5da	0.103923514
43	0xbb9950da	-0.0046788277
44	0x3e6b7a63	0.22995906
45	0x3edd60c7	0.43237898
46	0xbf0b5156	-0.54420984
47	0x3e7b8c87	0.24565326
48	0x3e7f03a2	0.2490373
49	0xbecf578b	-0.40496477
50	0x3e556ba7	0.20841847
51	0x3e81bc9b	0.25339207
52	0xbe9ed281	-0.31019977
53	0xbeada2dd	-0.33913317
54	0xbe9e8354	-0.3095957
55	0x3e87a639	0.26494005
56	0x3eaae43b	0.3337725
57	0x3eff356f	0.49845454
58	0x3ea36ed0	0.3192048
59	0xbeafeeee	-0.34361976
60	0xbe25ecb2	-0.16203573
61	0xbe6d5ee4	-0.23180729
62	0xbe782056	-0.24231085
63	0xbe89389f	-0.2680101

weight_ih_l2 f4 [64, 4]
0	0x3d5d9a7c	0.054102406
1	0xbe8a3e37	-0.2700059
2	0x3dcadbce	0.09905206
3	0x3d7feacc	0.06247978
4	0x3eae9af4	0.34102595
5	0x3db9f489	0.090798445
6	0xbe205072	-0.15655687
7	0x3ef39dd0	0.4758134
8	0xbd595b4f	-0.053065594
9	0xbe1d3783	-0.15353207
10	0x3d0dad99	0.034589384
11	0x3cecd42e	0.028909769
12	0x3d5dcfa9	0.05415312
13	0x3ca4d989	0.02012326
14	0xbe277159	-0.16351832
15	0xbe543fd5	-0.20727475
16	0xbe9033af	-0.2816443
17	0x3e16adb6	0.14714703
18	0xbdece3dd	-0.11566899
19	0xbd93d335	-0.07218019
20	0xbd7e24df	-0.06204688
21	0xbe98bf0d	-0.2983326
22	0xbe40d031	-0.18829419
23	0xbd83d4c5	-0.06437067
24	0x3e2eb616	0.17061648
25	0xbd5aff04	-0.053465858
26	0xbe088bc0	-0.1333456
27	0xbea95df9	-0.33079508
28	0xbdede87f	-0.11616611
29	0x3e32f86e	0.17477581
30	0xbe6f819f	-0.2338929
31	0x3cad0a91	0.021123203
32	0xbe99e89c	-0.3006028
33	0xbe091d7b	-0.13390152
34	0xbe4fd38a	-0.2029554
35	0xbdec59fa	-0.11540599
36	0x3dadae39	0.08480496
37	0x3e2be874	0.16787893
38	0xbe00505f	-0.12530659
39	0xbe2798f7	-0.16366945
40	0x3e4bb186	0.19891939
41	0xbe94a55e	-0.29032415
42	0xbd3d17b1	-0.046165172
43	0xbe8622a9	-0.2619832
44	0x3d9ed6bd	0.07755802
45	0xbe914c50	-0.28378534
46	0xbd8a2da8	-0.067469895
47	0xbe43e26e	-0.19129345
48	0x3d00c218	0.031435102
49	0x3e9264c6	0.2859251
50	0x3d2a9e38	0.041654795
51	0xbe572725	-0.21011026
52	0x3ea36cb3	0.31918868
53	0x3e947724	0.28997147
54	0xbe88a2cb	-0.266867
55	0x3e65617e	0.22400472
56	0xbe94fb45	-0.29097953
57	0xbb8e8e5c	-0.0043504667
58	0xbe171ba6	-0.14756641
59	0xbed81ca5	-0.42209354
60	0xbe80c304	-0.25148785
61	0x3ea12d85	0.3148004
62	0xbe79cac6	-0.24393758
63	0xbe248686	-0.16066942
64	0x3c79e917	0.015253327
65	0x3cd6fcf0	0.026243657
66	0x3e45c43b	0.19313137
67	0xbe34a6ac	-0.17641705
68	0x3edcb0a4	0.43103516
69	0x3ec6b365	0.38808742
70	0x3d57a532	0.052647777
71	0x3ece0153	0.40235385
72	0x3c8dc395	0.017305175
73	0x3be13968	0.0068732984
74	0x3e9f0f89	0.3106654
75	0x3dcb0062	0.099121824
76	0xbe9eabfb	-0.30990586
77	0xbe59ab8d	-0.21256848
78	0xbd2db4d1	-0.042408768
79	0xbeb54009	-0.35400417
80	0xbe8c3364	-0.27382958
81	0xbe837fda	-0.2568348
82	0xbd84e4c7	-0.06488948
83	0xbed6be6e	-0.4194216
84	0x3ea64c3e	0.32480043
85	0x3e56665d	0.20937486
86	0xbeceefdb	-0.4041737
87	0x3dd86fa7	0.10568171
88	0xbe956db1	-0.2918525
89	0xbeece51f	-0.46268556
90	0x3c365d70	0.011130676
91	0xbf038355	-0.5137227
92	0xbe6a690f	-0.22891639
93	0x3ee1f00a	0.44128448
94	0xbef5b8b2	-0.47992474
95	0x3dcb434d	0.09924946
96	0xbd92e858	-0.07173222
97	0xbeba67a4	-0.36407197
98	0x3ec01b6e	0.37520927
99	0xbeb06a63	-0.34456167
100	0xbde91bb5	-0.11382238
101	0x3e9bd679	0.30437067
102	0xbebd334c	-0.369532
103	0x3e57d283	0.21076398
104	0xbeeb6aae	-0.45979828
105	0xbeca5649	-0.39518955
106	0x3da8db58	0.082449615
107	0xbf10ac48	-0.5651288
108	0xbc8b24df	-0.016985355
109	0xbdb63448	-0.088966906
110	0xbee5b6f5	-0.44866148
111	0x3ead0569	0.3379319
112	0xbd2e5746	-0.0425637
113	0xbd96c18d	-0.07361136
114	0x3dd76d03	0.10518839
115	0x3e844e3c	0.25840938
116	0x3edc5906	0.4303667
117	0x3f28877e	0.65831745
118	0xbe9883c1	-0.2978802
119	0x3eed7236	0.463762
120	0xbecf36ba	-0.4047144
121	0xbeb0df79	-0.34545496
122	0x3e5f99e0	0.21836042
123	0xbcdcb910	-0.026943713
124	0x3cb864ce	0.022509005
125	0x3d0e1846	0.034691118
126	0xbe757db1	-0.23973729
127	0xbd28a6ff	-0.041174885
128	0x3e90a10d	0.28247872
129	0x3edb665c	0.42851532
130	0xbd60af48	-0.05485466
131	0x3e7aebe6	0.2450405
132	0x3e2a48ba	0.16629305
133	0x3e9fb7e3	0.31194982
134	0xbce3292f	-0.027729599
135	0x3e8be848	0.27325654
136	0x3d9ddff3	0.077087305
137	0x3ec38e90	0.38194704
138	0xbecacce6	-0.3960945
139	0x3e747818	0.23873937
140	0xbd717daa	-0.058957733
141	0xbf13a801	-0.5767823
142	0x3a3ea88e	0.00072730414
143	0xbec6212f	-0.38697192
144	0xbedeea19	-0.43537977
145	0xbf0d1aa5	-0.5511878
146	0x3e3bc2e8	0.1833607
147	0xbedb6b58	-0.42855334
148	0xbea58dc5	-0.32334724
149	0xbe99ae4b	-0.30015787
150	0x3e8ad6eb	0.27117094
151	0xbe1e4e95	-0.15459664
152	0xbe513dea	-0.20433775
153	0xbe99bfe2	-0.30029207
154	0xbdd877a4	-0.10569695
155	0xbf054c3c	-0.5206945
156	0xbdbb6242	-0.091496006
157	0x3ca82a5f	0.020528017
158	0x3eecf7f8	0.46282935
159	0xbc6422ef	-0.013924344
160	0x3eacb040	0.33728218
161	0x3e235d90	0.1595366
162	0x3e37ca43	0.1794825
163	0x3ebb9b2a	0.36641818
164	0x3ccaeccc	0.024771117
165	0x3dc5e901	0.096635826
166	0x3ef4a2c5	0.47780433
167	0xbe58f5bb	-0.21187489
168	0x3ea7c2f8	0.32765937
169	0x3f0618f5	0.5238183
170	0x3dcdd512	0.100504056
171	0x3eab0f49	0.334101
172	0xbe111272	-0.14167193
173	0xbe111f79	-0.14172162
174	0x3ed63fd7	0.4184558
175	0x3e20f468	0.15718234
176	0x3e85878a	0.2607997
177	0x3ec2ba0b	0.38032565
178	0xbe552193	-0.20813589
179	0x3e941b86	0.2892725
180	0xbe64715b	-0.22308867
181	0xbec16566	-0.37772673
182	0x3ca8feb9	0.020629274
183	0xbda79fc5	-0.081847705
184	0x3d12ca7a	0.035837628
185	0x3dea614d	0.1144434
186	0xbea2494d	-0.3169655
187	0x3eb8e637	0.3611314
188	0x3e23f4ad	0.16011305
189	0xbe0b48a8	-0.13601935
190	0x3cf9bce3	0.030485576
191	0x3e848ee1	0.25890258
192	0xbebe731d	-0.371972
193	0xbe836a0b	-0.25666842
194	0x3ec77b8b	0.38961443
195	0xbe68124a	-0.22663227
196	0x3f06fc57	0.5272879
197	0x3eb3591d	0.35028926
198	0xbe78060e	-0.2422106
199	0x3e6277e3	0.22116046
200	0x3dbc9a6f	0.09209143
201	0xbc497d60	-0.012297958
202	0xbe8b9def	-0.2726893
203	0xbe829538	-0.2550447
204	0xbdc99c03	-0.0984421
205	0xbe3170a1	-0.17328121
206	0x3e4f2a99	0.20231093
207	0xbf12ff59	-0.5742088
208	0xbede3c62	-0.43405443
209	0xbf0834b4	-0.5320542
210	0xbd2592e6	-0.040423296
211	0xbeaf76a0	-0.3427019
212	0x3d5bfdf2	0.053708978
213	0x3e655e26	0.22399196
214	0xbe483bc9	-0.19554056
215	0xbe91c2fa	-0.28469068
216	0xbea7449b	-0.3266953
217	0xbf081ed2	-0.5317203
218	0xbb44a6c5	-0.003000663
219	0xbeb4867a	-0.35258847
220	0xbe5e8961	-0.21732093
221	0x3e6e5a2e	0.23276588
222	0xbf1a490f	-0.6026773
223	0x3e49961e	0.19686171
224	0xbe89675b	-0.26836666
225	0x3d660ed4	0.056166485
226	0x3e31b9fe	0.17356107
227	0xbb0b167d	-0.002122312
228	0x3e4d7ab3	0.20066337
229	0x3e80b90e	0.25141186
230	0xbf0c10a6	-0.54712903
231	0x3da2cba7	0.07949
232	0xbe5601fb	-0.20899193
233	0xbedfb57b	-0.43693146
234	0x3df5745d	0.11985085
235	0xbf0ad177	-0.5422587
236	0x3c0333c2	0.0080079455
237	0x3e554515	0.20827134
238	0xbeb1f6f9	-0.34758738
239	0xbd0879ce	-0.033319287
240	0xbeeaa89b	-0.4583176
241	0xbe4cce15	-0.20000489
242	0x3e3ca220	0.18421221
243	0xbe53b272	-0.2067354
244	0x3e60e4d0	0.21962285
245	0x3ec92980	0.39289474
246	0xbf045e88	-0.51706743
247	0x3ed1e44e	0.40994495
248	0xbe82a458	-0.2551601
249	0xbe054480	-0.13014412
250	0x3e1b2007	0.15148936
251	0xbe869b15	-0.26290193
252	0xbe611f5b	-0.21984617
253	0x3bd071ec	0.006361237
254	0xbd9856af	-0.074384086
255	0x3d01f9c9	0.031732354

weight_hh_l2 f4 [64, 4]
0	0x3d6861a1	0.05673373
1	0x3d994ed8	0.074857414
2	0xbe9eea5d	-0.3103818
3	0x3db6827f	0.08911609
4	0xbd820162	-0.0634792
5	0x3ed48b5d	0.41512576
6	0xbe8a6bb4	-0.27035296
7	0x3ea22eb5	0.3167626
8	0x3e0f54fc	0.13997263
9	0xbee95aa8	-0.45576978
10	0xbe966155	-0.29371133
11	0xbedd1d1a	-0.43186265
12	0x3e3f6150	0.18689466
13	0xbe852129	-0.26001862
14	0xbe11a52e	-0.14223167
15	0xbe5b2b05	-0.2140313
16	0x3d723123	0.05912889
17	0x3e6de8fe	0.2323341
18	0xbec56201	-0.38551334
19	0xbcedd297	-0.029031081
20	0x3e8a8a91	0.27058843
21	0xbd06159a	-0.032735445
22	0xbee45dd1	-0.44602826
23	0xbeca8db9	-0.3956125
24	0xbd3359f9	-0.043786976
25	0xbdcd1cfb	-0.10015293
26	0xbef5fa52	-0.48042542
27	0xbe2ca74d	-0.16860695
28	0x3edbfcbf	0.42966267
29	0xbe944dc9	-0.28965595
30	0xbe052195	-0.13001092
31	0xbe9a5aab	-0.301473
32	0xbc9c1229	-0.019051628
33	0x3dbfd260	0.09366298
34	0xbebd9d4f	-0.3703408
35	0xbe06deb7	-0.13170896
36	0x3dbd106f	0.0923165
37	0x3daa853d	0.083261944
38	0xbe878298	-0.26466823
39	0xbe3f4f1a	-0.18682519
40	0xbe685e09	-0.22692122
41	0x3db90b29	0.09035332
42	0xbee648e2	-0.4497748
43	0xbe02df07	-0.1278039
44	0xbcabb6d3	-0.0209612
45	0xbe352b34	-0.17692262
46	0xbe9e5b79	-0.30929163
47	0xbe35a7d5	-0.17739804
48	0xbd749111	-0.05970866
49	0xbd5b2d92	-0.053510256
50	0xbe8d2f81	-0.27575305
51	0xbec60574	-0.38676035
52	0x3ad36f76	0.001613124
53	0xbe49e14e	-0.19714853
54	0xbe836901	-0.2566605
55	0x3de8a367	0.113592915
56	0x3d9edfeb	0.07757553
57	0xbed9dd53	-0.4255167
58	0xbe95cd0e	-0.29258007
59	0xbf20d2e6	-0.62821805
60	0xbe6ce0f0	-0.23132682
61	0xbce2667e	-0.027636763
62	0xbd611a24	-0.05495657
63	0xbe81981d	-0.25311366
64	0x3e6aface	0.22947237
65	0xbd80d22d	-0.06290088
66	0x3dcca93c	0.099932164
67	0xb865c366	-5.4779834e-05
68	0xbedce150	-0.4314065
69	0x3e37ce33	0.17949753
70	0xbdcfd8d9	-0.10148782
71	0x3ed91409	0.42398098
72	0x3c1bd215	0.009510537
73	0xbe3219f3	-0.17392711
74	0x3e2d55eb	0.16927306
75	0xbe4f3c88	-0.20237935
76	0x3e059f04	0.13048941
77	0x3dccc255	0.099980034
78	0xbe272350	-0.16322064
79	0xbbd84d11	-0.006600984
80	0xbdee5450	-0.11637175
81	0x3d31c314	0.04339893
82	0xbe5f86f8	-0.2182883
83	0x3b1101e6	0.0022126376
84	0x3c86d0cc	0.016456984
85	0x3dd80954	0.10548654
86	0xbe92b27a	-0.28651792
87	0xbe8132a9	-0.25233963
88	0xbe463422	-0.19355825
89	0xbde7dc0f	-0.1132127
90	0xbeb86dee	-0.3602137
91	0x3e3bdb2c	0.18345326
92	0xbd38e31f	-0.045138475
93	0x3e3b5fd7	0.18298279
94	0xbe74c54e	-0.23903391
95	0xbe2266b4	-0.1585949
96	0xbd868118	-0.065675914
97	0xbde70937	-0.112810545
98	0xbe5e06da	-0.21682301
99	0x3db116b2	0.08646907
100	0xbe0d439c	-0.13795322
101	0xbe064730	-0.13113093
102	0xbd43caa4	-0.047800675
103	0xbe96a8dc	-0.29425704
104	0xbebbb8c5	-0.36664405
105	0x3e8edf27	0.27904627
106	0xbec81776	-0.390804
107	0xbc93129a	-0.017953206
108	0x3c41b57f	0.011823057
109	0xbe1bdc20	-0.1522069
110	0xbe16bf0f	-0.1472132
111	0x3e95bfa8	0.29247785
112	0xbe40551e	-0.1878247
113	0xbe014bc4	-0.12626559
114	0x3e722a2c	0.236489
115	0xbdf8df5c	-0.121519774
116	0xbe8181dd	-0.2529439
117	0x3e7200ad	0.2363307
118	0x3d1f00b0	0.038819015
119	0xbcc69300	-0.024240017
120	0x3e8c9c16	0.27462834
121	0xbc73498c	-0.014849078
122	0x3de4bb7b	0.111685716
123	0xbe811c2a	-0.252168
124	0x3da850f2	0.08218564
125	0x3e6c3993	0.23068838
126	0xbdfee64c	-0.124462694
127	0xbe1b3cd6	-0.15159926
128	0x3df83250	0.12118971
129	0x3de46ff2	0.111541644
130	0xbdd8f1f4	-0.10593024
131	0xbce81d3b	-0.02833425
132	0xbdf66806	-0.1203156
133	0xbd057962	-0.032586463
134	0x3e2ad84f	0.16684078
135	0xbdcf21e8	-0.10113889
136	0x3e84a24e	0.2590508
137	0xbd786a3b	-0.060648184
138	0xbe632d17	-0.22185169
139	0x3db7fcf5	0.089837946
140	0xbe27bb64	-0.16380078
141	0x3df84879	0.12123198
142	0xbccabced	-0.02474829
143	0x3dc1ce9d	0.094632365
144	0x3e750f11	0.23931529
145	0xbe2d40a6	-0.16919193
146	0xbe61d64d	-0.22054406
147	0x3e8e65d6	0.2781207
148	0xbe793a75	-0.24338706
149	0xbcf90b78	-0.030400977
150	0x3e842166	0.2580673
151	0x3d526a4e	0.05137091
152	0x3e101ea2	0.14074185
153	0x3e75be25	0.23998316
154	0xbc00349b	-0.007825042
155	0x3e00df47	0.12585174
156	0xbe33947a	-0.17537108
157	0xbe002498	-0.1251396
158	0x3e2eb0a2	0.17059568
159	0xbd65a1a7	-0.056062367
160	0x3d51f0fe	0.05125522
161	0x3dfabca6	0.12243013
162	0x3d9ebec7	0.07751232
163	0xbd9ba7af	-0.076003425
164	0x3dfe935c	0.1243045
165	0xbde558ef	-0.11198603
166	0x3e3ac691	0.1823981
167	0x3eafb2a1	0.3431597
168	0xbc94a5c5	-0.018145451
169	0xbe7d4e38	-0.2473687
170	0xbdb5a8d0	-0.08870089
171	0x3d1dad04	0.03849508
172	0x3d32d7d2	0.043662854
173	0xbe36d88b	-0.17856042
174	0x3c717e9a	0.014739657
175	0x3e9a4225	0.3012859
176	0x3dadd8db	0.084886275
177	0xbd81105d	-0.06301949
178	0x3e80092a	0.25006992
179	0xbdc7501e	-0.09732078
180	0xbdb60ba7	-0.08888941
181	0xbc93d5c9	-0.018046277
182	0x3e8ae84f	0.27130362
183	0x3e6913c3	0.22761445
184	0x3e6d4670	0.23171401
185	0xbba9f8ef	-0.005187146
186	0x3e00c4e8	0.12575114
187	0xbe240df9	-0.16020955
188	0xbdc77971	-0.0973996
189	0x3dbf9116	0.09353845
190	0xbdbc2462	-0.09186627
191	0xbd825293	-0.06363406
192	0x3c6bb9d9	0.014387571
193	0xbd3d324a	-0.046190538
194	0xbe173141	-0.14764883
195	0x3d8e74c5	0.06955866
196	0xbec62bb3	-0.38705215
197	0x3f03c0e3	0.51466197
198	0xbe230202	-0.15918735
199	0x3ecf6a41	0.40510753
200	0x3ef671f5	0.48133817
201	0xbe80e1e6	-0.25172347
202	0xbefd59cb	-0.4948257
203	0xbebc0305	-0.36721054
204	0x3ea72f81	0.3265343
205	0x3d319363	0.04335345
206	0xbe6f4ff5	-0.23370345
207	0xbee650a3	-0.44983396
208	0x3d870eba	0.06594606
209	0xbe9633e1	-0.29336455
210	0xbe2d8e2e	-0.16948768
211	0xbe8d6c12	-0.27621514
212	0x3e3f6b00	0.18693161
213	0xbe0c3c7a	-0.13694945
214	0xbee33426	-0.44375724
215	0xbdbc6291	-0.091984876
216	0xbd32dc9d	-0.043667424
217	0xbe643c02	-0.22288516
218	0xbeb0af06	-0.34508532
219	0xbeb82aed	-0.3597025
220	0x3e94b3e1	0.29043487
221	0x3dffeb2a	0.12496026
222	0xbea641a3	-0.32471952
223	0xbec01280	-0.37514114
224	0x3eb9935c	0.3624524
225	0xbe946dc3	-0.28989992
226	0xbdf21c5f	-0.118218176
227	0xbedf37c5	-0.43597236
228	0xbe3affd1	-0.18261649
229	0x3d08c9c4	0.033395544
230	0xbedc97c3	-0.43084535
231	0xbe307c82	-0.17234996
232	0x3da91fc8	0.08258015
233	0xbd544ced	-0.051831175
234	0xbe813c76	-0.2524144
235	0xbed7e7f0	-0.42169142
236	0x3e82c45e	0.2554044
237	0xbdf41b9e	-0.1191933
238	0xbe8c4cbf	-0.27402303
239	0xbd5e73b4	-0.05430956
240	0xbd1483e7	-0.036258604
241	0x3d3a786f	0.04552501
242	0xbedf5d20	-0.43625736
243	0xbd2b5b74	-0.041835263
244	0xbd6609b1	-0.056161586
245	0xbd3a15ff	-0.045431133
246	0x3c88a81a	0.01668172
247	0x3ea3eb6b	0.32015547
248	0x3ecd4828	0.40094113
249	0xbec1294f	-0.37726828
250	0xbe89845c	-0.26858795
251	0xbeeb7713	-0.45989284
252	0xbd7e7b59	-0.062129352
253	0x3d4d25ae	0.050084762
254	0x3dc1fe00	0.09472275
255	0xbe44d572	-0.19222048
