saved_models/LSTM/ckpt__epoch100.ckpt (torch, 17513 bytes, 20 tensors)

weight_ih_l0 f4 [64, 8]
0	0xbde9e4bd	-0.114205815
1	0x3be32e78	0.0069330297
2	0x3e093db3	0.13402443
3	0x3da1c948	0.078997195
4	0xbcf00ede	-0.029303964
5	0x3e5b8948	0.21439087
6	0xbe63c750	-0.22244
7	0x3d7f50f4	0.062333062
8	0xbdbf3939	-0.09337086
9	0xbc918701	-0.01776457
10	0x3e113bb7	0.14182936
11	0xbea296ce	-0.3175568
12	0xbc609292	-0.01370682
13	0xbe08d284	-0.13361555
14	0x3e049ce3	0.12950473
15	0xbe0679d6	-0.13132414
16	0x3e58b759	0.21163692
17	0xbd4a1d76	-0.049344502
18	0xbcc65daf	-0.024214594
19	0xbdb89354	-0.090124756
20	0x3cf72420	0.030168593
21	0x3d6e9eb7	0.05825683
22	0x3e1578a0	0.14596796
23	0x3d8f24f6	0.069894716
24	0x3e8a32c3	0.26991853
25	0x3db59bc1	0.08867598
26	0x3d480790	0.048835337
27	0xbe1dfe84	-0.15429121
28	0x3d75d485	0.060017128
29	0x3e1ef720	0.15523958
30	0x3e5b5066	0.21417388
31	0xbdabeb6c	-0.083945125
32	0xbc592e0d	-0.013255608
33	0xbe9cd711	-0.30632833
34	0xbd59a1b5	-0.05313273
35	0x3c45e61c	0.012078788
36	0xbdadc013	-0.08483901
37	0x3e1bc825	0.15213068
38	0x3e45e99a	0.19327393
39	0xbc09fe0d	-0.008422387
40	0x3c1c21bf	0.00952953
41	0x3c31399c	0.010816958
42	0x3e1e2df7	0.15447222
43	0xbcaa04ec	-0.0207543
44	0x3c74d08d	0.0149423005
45	0x3e98946d	0.2980074
46	0x3e2a3ef2	0.16625574
47	0xbd4bddc6	-0.049772047
48	0x3cb7bfe3	0.022430366
49	0xbe2f03e7	-0.17091332
50	0xbe6e1b66	-0.23252639
51	0x3dcb5a50	0.09929335
52	0x3ce54f40	0.02799189
53	0xbe4524ed	-0.19252367
54	0x3e8f48dd	0.27985278
55	0xbdc76061	-0.0973518
56	0x3c1aad54	0.009440739
57	0x3d57219d	0.05252229
58	0x3dd22030	0.102600455
59	0x3e7f2f57	0.24920402
60	0xbd74bcb7	-0.059750285
61	0x3d4b1f8a	0.049590625
62	0xbde78f0f	-0.11306583
63	0x3e38497e	0.17996785
64	0x3d830b7f	0.06398677
65	0x3ebfeb1c	0.37484062
66	0x3dd87cc4	0.10570672
67	0xbbddbea1	-0.0067671095
68	0x3d691380	0.056903362
69	0x3d51eb07	0.05124953
70	0x3e84d126	0.25940818
71	0xbc34bd1a	-0.011031413
72	0xbd6d5eae	-0.05795162
73	0x3ea0e150	0.314219
74	0x3e65ed5c	0.22453827
75	0xbdd81bb3	-0.10552158
76	0xbc50835c	-0.012726631
77	0xbdcd1e91	-0.10015596
78	0xbe48ff87	-0.19628726
79	0x3cec3ade	0.028836664
80	0xbc885b0a	-0.016644973
81	0x3e0eab42	0.13932517
82	0x3d1b7dae	0.037961654
83	0x3e5341c7	0.20630561
84	0xbe0fa222	-0.14026693
85	0x3dc44c0b	0.095848165
86	0x3e320b62	0.17387155
87	0x3da08e35	0.07839624
88	0x3b2069fa	0.002447723
89	0x3dd138da	0.10215922
90	0xbdeea7f0	-0.11653125
91	0x3d825030	0.06362951
92	0x3dd7aca2	0.10530974
93	0x3e09a424	0.13441521
94	0x3e71b5c4	0.23604494
95	0xbdd79e43	-0.10528233
96	0x3ea5567e	0.3229255
97	0x3d12efdd	0.035873283
98	0xbe5b42d6	-0.21412215
99	0x3d693424	0.05693449
100	0x3c6ea5c4	0.014565889
101	0x3e4f16ee	0.2022359
102	0x3d14cfd5	0.036331017
103	0x3e34c4a7	0.17653142
104	0xbc62a40e	-0.013833059
105	0x3d9e94fc	0.0774326
106	0xbd8d3d7d	-0.068964936
107	0xbe9879cb	-0.2978042
108	0x3d283979	0.041070435
109	0xbd36185c	-0.044456825
110	0xbe64689e	-0.22305533
111	0x3dca420e	0.0987588
112	0x3c6a1e03	0.014289382
113	0x3e457fe1	0.19287063
114	0x3e2c911e	0.16852233
115	0x3e5f6bc7	0.21818458
116	0xbe0cdbff	-0.13755797
117	0x3e0cce34	0.13750535
118	0x3e2078b9	0.15671052
119	0x3b7dea7c	0.00387445
120	0xbc2e26ac	-0.010629337
121	0x3d04ea5e	0.032450072
122	0x3e00004e	0.12500116
123	0x3d3e7989	0.046502624
124	0x3e3f898f	0.18704818
125	0x3e2dce32	0.16973189
126	0xbe2d878c	-0.16946238
127	0x3dbfb1d4	0.0936009
128	0xbdedd278	-0.11612409
129	0x3d0a749c	0.033802614
130	0x3d840ee4	0.06448153
131	0x3d7921ed	0.06082337
132	0x3e16bb66	0.14719924
133	0x3e353901	0.17697527
134	0xbe3d6ad0	-0.18497777
135	0xbe450978	-0.19241893
136	0x3c971f35	0.018447498
137	0xbe0beb32	-0.13663939
138	0x3e2760bf	0.163455
139	0x3dd27a89	0.10277278
140	0xbd4ccfe1	-0.050002936
141	0x3d9858fe	0.07438849
142	0xbc917aa4	-0.017758675
143	0xbd0046c5	-0.03131749
144	0xbe6d61fa	-0.23181906
145	0xbd14a4b6	-0.036289893
146	0x3de85e23	0.1134608
147	0xbe8779cd	-0.26460114
148	0x3dd060a8	0.10174686
149	0x3e05ae9e	0.13054892
150	0x3df7565c	0.120770186
151	0xbd2d2f9a	-0.042281725
152	0x3e3c0361	0.18360664
153	0xbdfd56f3	-0.123701
154	0x3d8ba806	0.06819157
155	0x3e646623	0.22304587
156	0x3d11ca52	0.03559334
157	0xbe2e60e6	-0.17029151
158	0xbdbb0910	-0.09132588
159	0x3e61f7cc	0.22067183
160	0xbe47caf0	-0.19511008
161	0xbd41719c	-0.047227487
162	0xbde6f2d1	-0.11276782
163	0xbe21bd6f	-0.1579492
164	0xbe80b0e9	-0.25134972
165	0xbe1a1692	-0.15047672
166	0xbd8e4667	-0.06947022
167	0x3d66f0bd	0.05638193
168	0xbd1395f3	-0.036031675
169	0x3e8e9c7f	0.27853772
170	0xbe1efc09	-0.15525831
171	0x3d144929	0.036202583
172	0x3c8f3d5b	0.017485311
173	0xbc65b87b	-0.014021034
174	0x3c858008	0.016296402
175	0x3c1b9367	0.009495593
176	0xbb7b380c	-0.0038332967
177	0xbab9f3cf	-0.001418704
178	0x3eb23842	0.34808546
179	0xbd81f4c4	-0.063455135
180	0x3cbf8117	0.023376985
181	0xbb4e1897	-0.0031447762
182	0x3d6924c5	0.05691983
183	0xbd124429	-0.035709534
184	0xbd94bfb0	-0.07263124
185	0xbdcc2adb	-0.099691115
186	0x3e0cb561	0.13741066
187	0xbe8aadcc	-0.27085721
188	0x3d261826	0.040550373
189	0xbe5ffaa3	-0.21872954
190	0x3e60825f	0.21924733
191	0xbd58e7e8	-0.052955538
192	0xbdfd9313	-0.12381568
193	0x3dc46ba5	0.09590844
194	0x3dddd5e6	0.108318135
195	0xbe107bc1	-0.14109708
196	0x3aa2905b	0.001240264
197	0x3e346636	0.17617115
198	0xbe1be2a9	-0.15223183
199	0x3d9af71f	0.07566666
200	0xbc4ea2ff	-0.0126121035
201	0x3e70c1ad	0.23511381
202	0xbe02218b	-0.12708108
203	0x3d1a5e19	0.037687395
204	0xbc85a319	-0.016313123
205	0x3c651396	0.01398172
206	0x3cb75f17	0.02238421
207	0xbc6af64a	-0.014340946
208	0xbde0a1ba	-0.10968347
209	0x3e5005b3	0.20314674
210	0x3e5ab2f2	0.21357325
211	0xbd02eec6	-0.031965993
212	0xbd77867a	-0.06043098
213	0xbe84a0d4	-0.25903952
214	0xbe0dbbb5	-0.13841136
215	0xbd6b451a	-0.057438947
216	0xbd9dd1b2	-0.07706012
217	0x3e6a8826	0.22903499
218	0x3e85edcd	0.2615799
219	0xbd01c550	-0.031682312
220	0xbd9906a8	-0.07471973
221	0xbe4f6ba5	-0.20255907
222	0xbdffdd8c	-0.124934286
223	0xbdd216cd	-0.10258255
224	0x3d1214d7	0.035664406
225	0xbe6efb70	-0.23338103
226	0xbe3475fe	-0.17623135
227	0x3c809843	0.015697604
228	0x3c3da64e	0.011575295
229	0x3d1ea1ae	0.03872841
230	0xbdc980a9	-0.09838993
231	0x3bff4b4e	0.0077909594
232	0x3c8a0802	0.016849522
233	0x3e17c605	0.14821632
234	0xbe0f6fa7	-0.14007436
235	0xbc0ed72c	-0.008718293
236	0x3d27f249	0.041002546
237	0x3dec30c8	0.11532742
238	0x3e0c8077	0.1372088
239	0x3dd0e674	0.102002054
240	0x3a32e5e5	0.0006824418
241	0xbdbbb89e	-0.09166072
242	0xbe71644d	-0.23573418
243	0xbde40d71	-0.11135376
244	0xbd4861fc	-0.04892157
245	0x3d4af2c3	0.049547922
246	0xbca42d31	-0.02004108
247	0xbceec26e	-0.029145446
248	0xbd13ae05	-0.03605463
249	0x3e4664c1	0.19374372
250	0x3e6325b6	0.22182354
251	0xbd5c204a	-0.05374173
252	0x3dab066d	0.08350835
253	0xbe8cdad8	-0.27510715
254	0x3dec399d	0.11534426
255	0xbe2b84bd	-0.16749854

weight_hh_l0 f4 [64, 4]
0	0xbd174fe3	-0.03694142
1	0xbd691cbc	-0.05691217
2	0xbeba364a	-0.36369544
3	0xbe9beeb1	-0.30455545
4	0x3e88c12e	0.26709884
5	0x3e8be309	0.27321652
6	0x3ef6af33	0.4818054
7	0x3e977a23	0.2958537
8	0xbc4261ba	-0.01186412
9	0x3e0dd94a	0.1385242
10	0xbcf08bdb	-0.029363563
11	0x3a542461	0.0008092579
12	0xbe1df94a	-0.15427127
13	0xbe0dc931	-0.1384628
14	0xbcb2f668	-0.021846011
15	0xbdb70901	-0.08937264
16	0xbe5f3208	-0.21796429
17	0x3e4f7fca	0.20263591
18	0xbdbf9cc5	-0.09356073
19	0x3e7053b1	0.23469426
20	0x3bd4ec41	0.00649789
21	0x3e5ddfd6	0.21667418
22	0x3d2051a2	0.03914035
23	0x3c90a48f	0.017656593
24	0x3e9bc8c8	0.3042662
25	0x3e2cc519	0.16872062
26	0x3e455ebb	0.19274418
27	0xbdae752f	-0.08518445
28	0x3d2e665f	0.042578097
29	0xbeab3d5b	-0.33445248
30	0xbe49dde4	-0.19713551
31	0xbcd99dd0	-0.026564509
32	0xbe518bce	-0.20463488
33	0xbcb829d7	-0.022480888
34	0xbf1056e1	-0.56382567
35	0xbe31ce2c	-0.17363805
36	0xbd1ac242	-0.037782915
37	0x3d037275	0.032091577
38	0x3e2525ce	0.16127703
39	0x3e335d1f	0.17515992
40	0xbe38a1c5	-0.1803046
41	0x3c92f333	0.017938232
42	0x3d8fd686	0.07023339
43	0x3d5975ef	0.053090986
44	0x3e714bb7	0.23564039
45	0x3d9d6da1	0.07686926
46	0x3e80c8a3	0.25153074
47	0x3a89ef85	0.0010523653
48	0x3e623186	0.22089204
49	0x3e92ed2c	0.28696573
50	0x3e8e9141	0.27845195
51	0xbc3bdcaa	-0.011466185
52	0x3dd4b722	0.10386492
53	0xbbcd2981	-0.006261051
54	0xbc0db2c5	-0.008648579
55	0x3d2e0b4c	0.042491242
56	0x3e8d1987	0.27558538
57	0x3dbe4322	0.09290148
58	0xbdb9076f	-0.09034621
59	0x3e700674	0.23439962
60	0xbd1c14cf	-0.038105782
61	0x3e004b13	0.12528639
62	0xbaa27f2a	-0.0012397517
63	0xbe18614e	-0.14880869
64	0xbcd92a96	-0.026509564
65	0xbd70c189	-0.05877832
66	0x3e11f9b9	0.14255418
67	0x3e4eaa67	0.20182191
68	0x3ee8bcf6	0.45456666
69	0x3e6df1c1	0.23236753
70	0x3ea038a8	0.31293225
71	0x3eb07d09	0.34470394
72	0x3d0576e2	0.03258408
73	0xbe1a5490	-0.1507132
74	0x3e26d415	0.1629184
75	0xbd70ed20	-0.05881989
76	0x3d54cc19	0.051952455
77	0x3ea9ad77	0.33140156
78	0x3d935646	0.0719419
79	0x3e5d96bc	0.21639532
80	0xbc8d317b	-0.017235508
81	0x3e13494c	0.1438343
82	0x3d3ad395	0.045611937
83	0xbe4e0b11	-0.20121409
84	0x3da1a136	0.07892077
85	0x3e4f8349	0.20264925
86	0x3e1b10c6	0.15143117
87	0x3efd4107	0.49463674
88	0x3e9978ab	0.29974875
89	0x3e15cb15	0.14628251
90	0xba896802	-0.0010483267
91	0x3e22a83a	0.15884486
92	0x3edad51b	0.42740712
93	0xbc2357b1	-0.009969638
94	0x3d529a90	0.051416934
95	0x3e50f105	0.20404442
96	0xbda8538f	-0.082190625
97	0xbeb10136	-0.34571236
98	0xbe64d096	-0.22345194
99	0xbe816fa2	-0.25280482
100	0x3df05c01	0.11736298
101	0xbc9f3d90	-0.019438535
102	0x3df4b598	0.11948699
103	0xbdad3f05	-0.08459286
104	0x3ce4e50b	0.027941247
105	0x3d6aa829	0.057289276
106	0x3f03e177	0.5151591
107	0x3ec6d9fc	0.38838184
108	0xbdce060d	-0.10059748
109	0xbe271961	-0.16318275
110	0x3e2d488a	0.16922203
111	0x3e7104d2	0.23536995
112	0x3e83ef6a	0.25768596
113	0x3e83df20	0.25756168
114	0xbcc896a9	-0.024485903
115	0xbc4e2981	-0.0125831375
116	0x3e997452	0.29971558
117	0x3dac213b	0.08404776
118	0x3ec59443	0.38589677
119	0x3e828750	0.2549386
120	0x3e395851	0.18100096
121	0x3ed6e14f	0.41968772
122	0x3f16303d	0.58667356
123	0x3ecdfdb1	0.40232614
124	0x3e59566a	0.2122437
125	0x3dbf04a7	0.09327059
126	0xbdf91472	-0.12162103
127	0xbe0c9a02	-0.13730624
128	0xbd8a0170	-0.067385554
129	0xbe305b99	-0.17222442
130	0x3d08a6a1	0.033362035
131	0xbdf053c5	-0.11734728
132	0xbba0b99a	-0.004904938
133	0xbda87f67	-0.08227425
134	0xbe82f3a2	-0.25576502
135	0xbe659324	-0.22419411
136	0x3dd12a74	0.102131754
137	0xbd7389c6	-0.059457563
138	0x3d01fd4e	0.03173571
139	0x3e7e4c39	0.24833764
140	0xbe896f09	-0.26842526
141	0xbd83fde3	-0.064449094
142	0xbd89162d	-0.06693683
143	0xbdb9d022	-0.09072901
144	0xbedb7751	-0.4286447
145	0xbd0ad9e2	-0.033899195
146	0xbe48bea2	-0.1960397
147	0xbea282dd	-0.31740466
148	0xbea466f6	-0.32109803
149	0xbd17314a	-0.03691224
150	0xbea0e9e5	-0.31428447
151	0xbee01238	-0.437639
152	0x3e6a340b	0.22871415
153	0x3de86207	0.11346822
154	0x3e01ef34	0.12688905
155	0x3ef23ee2	0.473136
156	0x3c7c9e54	0.015418608
157	0xbe9f3a15	-0.31099
158	0xbdee5883	-0.11637976
159	0xbe10fe79	-0.14159574
160	0xbe49125a	-0.19635907
161	0xbe59776b	-0.2123696
162	0xbe0143e2	-0.12623551
163	0xbe819328	-0.25307584
164	0xbf0c1a7a	-0.547279
165	0xbeddcb33	-0.4331909
166	0xbee4014c	-0.4453224
167	0xbf02a02d	-0.5102566
168	0xbe0661a2	-0.13123181
169	0x3e38497e	0.17996785
170	0xbdfc3933	-0.123155974
171	0x3c191b42	0.009344878
172	0x3dac525b	0.084141456
173	0xbe2f64f0	-0.17128348
174	0xbe5c8178	-0.21533763
175	0xbd566846	-0.052345537
176	0x3e2ec061	0.17065574
177	0x3e441b5c	0.19151062
178	0xbe0c65f7	-0.13710772
179	0x3e3fb401	0.1872101
180	0x3b12145f	0.0022289974
181	0xbe068579	-0.13136853
182	0xbecd0cb3	-0.4004875
183	0xbeaa2fd9	-0.3323963
184	0xbcb9425d	-0.022614652
185	0xbe226591	-0.15859057
186	0xbc348918	-0.011019014
187	0x3e4052f2	0.18781641
188	0x3bb47466	0.00550704
189	0xbe33d8dc	-0.17563194
190	0xbe9ce484	-0.30643094
191	0x3e3933a7	0.1808611
192	0xbd324adf	-0.043528434
193	0x3ea93d57	0.3305461
194	0x3e2a5ddc	0.16637367
195	0x3e3daa49	0.1852199
196	0xbe566750	-0.20937848
197	0x3e1d257a	0.15346327
198	0x3e8c8113	0.27442226
199	0x3df96c38	0.12178844
200	0xbe3227bb	-0.17397968
201	0xbe008596	-0.12550959
202	0xbdd33bb3	-0.10314121
203	0x3d33a1c9	0.043855462
204	0xbe59316d	-0.2121026
205	0x3cebc7e6	0.028781842
206	0xbda2431c	-0.07922956
207	0xbe677dc0	-0.22606564
208	0x3b4220c3	0.0029621578
209	0x3dcf2ac7	0.10115581
210	0x3e1d2b8c	0.15348643
211	0xbdbcb088	-0.09213358
212	0x3ee438ea	0.44574672
213	0x3e5f42dc	0.21802849
214	0x3eab7593	0.3348814
215	0x3f040896	0.515756
216	0x3def3c36	0.11681406
217	0x3ec7b98c	0.3900875
218	0x3f01cb6d	0.5070103
219	0x3eda737b	0.4266623
220	0x3ea81bdb	0.32833752
221	0x3ea3b19c	0.31971443
222	0x3eb4f330	0.35341787
223	0x3ec7d67f	0.39030835
224	0x3d8550ac	0.065095276
225	0x3d992365	0.07477454
226	0xbebc7dd2	-0.36814743
227	0xbe0e3c06	-0.13890085
228	0x3e625b2e	0.22105095
229	0xbddffe69	-0.10937197
230	0x3e130bc3	0.14359955
231	0xbe63862c	-0.22219151
232	0x3e87f2de	0.2655248
233	0x3e2bc0e9	0.16772808
234	0x3ea17a22	0.31538492
235	0xbdfae914	-0.122514874
236	0xbde34dda	-0.110988334
237	0xbe6ff9f4	-0.23435193
238	0xbdef360a	-0.11680229
239	0xbec4cbbf	-0.38436696
240	0xbde87117	-0.11349695
241	0x3e4a609f	0.1976342
242	0xbe59ba72	-0.2126253
243	0x3c2b6c44	0.010462824
244	0x3d8ee85c	0.06977913
245	0xbe432c1e	-0.19059798
246	0x3e29ac3f	0.16569613
247	0x3ad35a82	0.0016124996
248	0x3eb58765	0.3545486
249	0x3eedcfb3	0.46447524
250	0x3eaf4b9b	0.3423737
251	0x3edd6eab	0.43248495
252	0x3d9bfc3f	0.076164715
253	0xbcac232b	-0.021012863
254	0x3e6c2fd7	0.23065124
255	0xbdf9362f	-0.12168538

bias_ih_l0 f4 [64]
0	0xbe3de644	-0.1854487
1	0x3e65b121	0.2243085
2	0x3cc1591a	0.023602057
3	0xbdbd31c9	-0.092380114
4	0x3dfe4c38	0.12416881
5	0x3cbd8a8c	0.023137353
6	0x3e1b9263	0.15192561
7	0x3d88158d	0.066447355
8	0xbe213738	-0.1574372
9	0xbda23e70	-0.07922065
10	0xbb96cceb	-0.004602065
11	0x3ea3568c	0.31901968
12	0x3ec4c83b	0.38434014
13	0x3dfa02c0	0.12207556
14	0x3dacc77d	0.08436487
15	0xbb5112bb	-0.0031902033
16	0x3dc789ec	0.097431034
17	0x3dfd9180	0.123812675
18	0x3da375ca	0.07981451
19	0x3eb000b6	0.34375542
20	0x3d9f2345	0.07770399
21	0x3ecddac4	0.40205967
22	0x3d2a50f4	0.04158111
23	0x3e2be916	0.16788134
24	0x39d7438b	0.0004105832
25	0x3ecfa89f	0.40558335
26	0xbca4a52c	-0.020098291
27	0x3bd463a3	0.006481604
28	0x3eae15ba	0.3400095
29	0xbd0c8ed9	-0.034315918
30	0x3ed38f4d	0.41320267
31	0x3e30d906	0.17270288
32	0xbd69d00c	-0.057083175
33	0xbe8ba69f	-0.2727556
34	0x3ebfc948	0.37458253
35	0xbe5041dd	-0.20337625
36	0xbe27cf59	-0.1638769
37	0xbebb79ae	-0.36616272
38	0x3dae5c07	0.085136466
39	0xbe1e46d2	-0.15456703
40	0xbe98ea9b	-0.2986649
41	0xbe8a6155	-0.27027383
42	0x3b231a40	0.0024887472
43	0xbdaaf466	-0.083473966
44	0x3eac0016	0.33593816
45	0xbe9c40ff	-0.30518338
46	0x3e47581f	0.1946721
47	0xbe136956	-0.14395651
48	0x3edcd9d1	0.4313493
49	0x3e1d8868	0.15384066
50	0x3e64d20e	0.22345755
51	0xbdf8e75f	-0.121535055
52	0xbd9418e8	-0.07231313
53	0x3ef9ddef	0.48802134
54	0x3e4204a9	0.1894709
55	0x3e1f3156	0.15546164
56	0x3e9e9745	0.30974784
57	0x3e8ef55b	0.27921566
58	0xbe874461	-0.26419356
59	0xbe078303	-0.13233571
60	0xbeae680a	-0.3406375
61	0xbe82d066	-0.2554962
62	0x3e94279c	0.2893647
63	0x3da3b4cc	0.07993469

bias_hh_l0 f4 [64]
0	0xbeba4631	-0.36381677
1	0x3e8a10fc	0.26966083
2	0x3dd86594	0.105662495
3	0x3dbdf816	0.09275834
4	0xbde040df	-0.10949873
5	0xbba852af	-0.00513681
6	0xbe54154c	-0.20711249
7	0x3e815828	0.2526257
8	0xbdc2b0f2	-0.09506406
9	0x3b218e22	0.0024651368
10	0xbe7096d3	-0.23495035
11	0x3e9dfe2b	0.30857977
12	0x3dfd4940	0.12367487
13	0xbe06b3e3	-0.13154559
14	0xbd7c3817	-0.06157693
15	0xbd9807d8	-0.07423371
16	0x3d51f589	0.05125955
17	0xbd9cf9ee	-0.07664858
18	0xbe23488e	-0.15945646
19	0x3e5e6107	0.217167
20	0x3bacc15c	0.0052720737
21	0x3f1ae98c	0.60512614
22	0x3dd8763d	0.10569427
23	0x3e86e842	0.26349074
24	0x3e69d996	0.22836909
25	0x3f072111	0.5278483
26	0xbd917797	-0.07102888
27	0x3d53b44a	0.05168561
28	0xbdf3815d	-0.118899085
29	0x3e1ad4bd	0.15120216
30	0x3d9739f3	0.073841
31	0x3d84c2d2	0.064824715
32	0x3eae07bd	0.3399028
33	0xbea48f1e	-0.3214044
34	0x3ebf3d9d	0.37351695
35	0xbe915ec6	-0.2839262
36	0x3e453c0a	0.19261184
37	0xbe7524ed	-0.23939867
38	0x3e9b1c09	0.30294827
39	0xbea48924	-0.3213588
40	0xbe0504ab	-0.12990062
41	0xbeb1d710	-0.34734392
42	0xbe554499	-0.20826949
43	0xbd9e0ba8	-0.07717067
44	0xbd8c4bcc	-0.068503946
45	0xbe67b5b4	-0.22627908
46	0x3d5532c0	0.052050352
47	0xbe64a62e	-0.22329018
48	0x3d785255	0.060625393
49	0x3d851a3a	0.06499143
50	0xbd391627	-0.04518714
51	0x3dea836a	0.114508465
52	0x3e2096e3	0.15682559
53	0x3f168c31	0.58807665
54	0x3f0ba6bd	0.545513
55	0xbdf54d96	-0.11977689
56	0x3db41946	0.08793883
57	0x3ea50311	0.32228902
58	0x3e19fc96	0.1503776
59	0x3bbc3927	0.005744118
60	0xbe0f78e4	-0.1401096
61	0xbe879dfb	-0.26487717
62	0xbd04c673	-0.03241582
63	0xbddea6f0	-0.108716846

weight_hr_l0 f4 [4, 16]
0	0xbd9188c6	-0.071061656
1	0xbdf478ff	-0.11937141
2	0x3d18e3df	0.03732669
3	0x3b83dafc	0.0040239077
4	0xbea8820f	-0.32911727
5	0xbe29a66c	-0.16567391
6	0x3e65f5b5	0.22457011
7	0xbe7c31bf	-0.24628352
8	0xbe8c31bd	-0.27381697
9	0xbeda2c00	-0.42611694
10	0xbe0ae690	-0.13564515
11	0xbe18b456	-0.14912543
12	0x3e56d8c1	0.20981123
13	0xbdf57d8a	-0.11986835
14	0x3e36e397	0.17860256
15	0x3df61504	0.12015727
16	0x3e663ec1	0.22484876
17	0xbcf1d177	-0.029518826
18	0xbe18f19c	-0.14935917
19	0x3e19bc6b	0.15013282
20	0xbe9075eb	-0.28214964
21	0xbea3b96b	-0.319774
22	0x3dcf03fc	0.10108182
23	0xbe9a3af8	-0.30123115
24	0xbda1f029	-0.07907135
25	0xbd8bd4fa	-0.068277314
26	0xbe6f3a8c	-0.23362178
27	0xbe327f77	-0.17431436
28	0x3d20bb8c	0.03924136
29	0xbe6d78cd	-0.23190613
30	0xbd654d8c	-0.055982158
31	0xbe76e4c9	-0.24110712
32	0x3e598972	0.21243837
33	0xbe95d62c	-0.29264963
34	0xbe583726	-0.21114787
35	0x3e7ca00a	0.24670425
36	0x3c700d29	0.014651575
37	0xbe7c2b41	-0.24625875
38	0x3e95f1fe	0.29286188
39	0xbe35d119	-0.17755546
40	0xbcc8bb59	-0.024503397
41	0xbed7cb45	-0.4214727
42	0xbbaa9e21	-0.0052068387
43	0xbe5be973	-0.21475773
44	0x3dd9ff7d	0.10644434
45	0xbea8cf38	-0.32970595
46	0x3ec9a4f0	0.3938365
47	0xbe68f81e	-0.22750899
48	0x3e337420	0.17524767
49	0xbe7f8b15	-0.249554
50	0x3d357de7	0.044309523
51	0xbdbd3b88	-0.0923987
52	0x3dc8e4ea	0.09809287
53	0xbee40736	-0.44536752
54	0x3d78dba6	0.060756348
55	0xbca7c2a3	-0.020478552
56	0xbe88ef42	-0.2674504
57	0xbf00c817	-0.5030531
58	0xbdf75bc8	-0.12078053
59	0xbe190725	-0.14944132
60	0x3e64d165	0.22345503
61	0x3d80bccb	0.062860094
62	0xbd87df47	-0.06634384
63	0xbe4c3f52	-0.1994603

weight_ih_l1 f4 [64, 4]
0	0x3e152cd8	0.14567888
1	0xbda58d05	-0.08083538
2	0x3dcf85ae	0.10132919
3	0xbcef9dbe	-0.029250022
4	0x3e2a3b2f	0.16624139
5	0xbc2eaf8e	-0.010661973
6	0x3e05f119	0.13080253
7	0x3e7f67c2	0.24941924
8	0xbb60ae5c	-0.0034283614
9	0x3e895a32	0.26826626
10	0xbd9049f1	-0.07045353
11	0x3b12b310	0.0022384562
12	0x3c84c551	0.016207369
13	0x3cf08b78	0.029363379
14	0xbe2ca97c	-0.16861528
15	0xbe410f30	-0.1885345
16	0x3ba580bc	0.0050507467
17	0x3e806828	0.25079465
18	0x3e078461	0.13234092
19	0x3e1f097b	0.1553096
20	0xbcd9b1b3	-0.026573991
21	0x3cc70d56	0.024298351
22	0x3e96a26c	0.29420793
23	0x3e37e5fb	0.17958824
24	0x3e880923	0.2656947
25	0x3d488232	0.04895229
26	0x3e888602	0.2666474
27	0xbe35ccae	-0.1775386
28	0x3d4f7407	0.05064776
29	0xbda1cad2	-0.07900013
30	0xbc081e3b	-0.008307989
31	0x3d24b945	0.04021575
32	0xbd5dc410	-0.054142058
33	0xbe19375a	-0.14962521
34	0x3df115f7	0.117717676
35	0xbea57922	-0.3231898
36	0xbe0e2398	-0.13880765
37	0x3d98a73e	0.07453774
38	0x3e4d317c	0.20038408
39	0xbe18a9e2	-0.14908555
40	0xbd4411c4	-0.047868505
41	0x3e876c8b	0.2645
42	0x3ea3254d	0.31864396
43	0xbde34a46	-0.11098151
44	0x3d740fff	0.059585568
45	0x3cc27cb3	0.023741102
46	0x3ebb1729	0.36541107
47	0x3d99f240	0.07516909
48	0x3dabeeb8	0.08395141
49	0xbcbfdfe5	-0.02342219
50	0xbd0af7a0	-0.03392756
51	0xbca9dcdc	-0.020735197
52	0x3e130021	0.14355518
53	0x3d10bd45	0.03533675
54	0x3e80e755	0.25176492
55	0x3e7daa0c	0.24771899
56	0x3d286fc0	0.041122198
57	0x3e14c77c	0.14529222
58	0xbe7c0594	-0.24611503
59	0xbec61fe5	-0.3869621
60	0xbdeb2b5d	-0.1148288
61	0x3e3a2ab9	0.1818036
62	0x3df9aa72	0.12190713
63	0x3dd4ac8a	0.10384472
64	0x3e4d9736	0.20077214
65	0x3de94af9	0.11391253
66	0x3e967cb3	0.29392013
67	0x3d204011	0.0391236
68	0x3ebf9109	0.3741534
69	0xbd10e695	-0.03537615
70	0x3e6d5bff	0.23179625
71	0x3de459f0	0.11149967
72	0x3eb41431	0.35171655
73	0xbbdc5655	-0.006724159
74	0x3d7fec15	0.062481005
75	0x3c568b4e	0.013094736
76	0xbd03dcb5	-0.032192905
77	0xbe844804	-0.25836194
78	0x3e1fb89d	0.15597768
79	0xbe964433	-0.29348907
80	0xbca0bd9d	-0.019621665
81	0x3e6bdd57	0.23033653
82	0x3e8d63d7	0.27615234
83	0x3ebc2dd7	0.36753723
84	0x3ea0f8ad	0.31439725
85	0xbcd4b99b	-0.02596741
86	0x3e84a78b	0.25909075
87	0x3e3efc41	0.18650915
88	0x3ea34fbd	0.31896773
89	0x3e2ac54d	0.16676827
90	0x3eaf33dc	0.34219253
91	0xbdd70407	-0.10498815
92	0x3e09e8d4	0.13467723
93	0x3e0279fc	0.12741846
94	0x3dd2a584	0.10285476
95	0xbb2304c8	-0.0024874676
96	0xbd17149f	-0.0368849
97	0xbe37e0a9	-0.17956795
98	0x3e8d5118	0.27600932
99	0xbd0878a3	-0.033318173
100	0x3dc0f11b	0.09420987
101	0x3d3e4191	0.046449248
102	0xbd89f052	-0.067352906
103	0x3e78b93a	0.24289408
104	0x3eb1cc4b	0.34726176
105	0x3eda7220	0.42665195
106	0xbb5f9a92	-0.003411923
107	0x3c77bd56	0.015120825
108	0x3d88ac02	0.06673433
109	0x3eb7bf9b	0.3588837
110	0x3ecfcaaa	0.40584308
111	0x3eae97ca	0.3410018
112	0xbe873f13	-0.2641531
113	0x3df912ec	0.12161812
114	0xbd842b47	-0.06453567
115	0xbe8fb6a6	-0.28069037
116	0x3d1554ab	0.0364577
117	0x3ea4a5cb	0.3215774
118	0x3e711aa4	0.23545319
119	0x3e151322	0.1455808
120	0x3cd9cda0	0.026587307
121	0xbe9ba0e9	-0.30396202
122	0xbd90de1e	-0.070736155
123	0xbe86f8c4	-0.26361668
124	0x3e2f1a51	0.17099883
125	0xbb5fc356	-0.003414353
126	0x3ee7a6a6	0.4524433
127	0x3d890b81	0.06691647
128	0xb982c21d	-0.00024940158
129	0x3e92a91a	0.2864464
130	0x3eae4220	0.34034824
131	0x3db7ee06	0.08980946
132	0xbe807c7f	-0.25094983
133	0x3e41d46b	0.18928687
134	0xbeaa7051	-0.33288816
135	0xbec029c2	-0.3753186
136	0xbe86989b	-0.26288304
137	0xbe802963	-0.25031576
138	0xbdf1f9d5	-0.1181523
139	0x3e13424a	0.14380756
140	0x3e8c8b64	0.27450097
141	0x3e5aaf72	0.2135599
142	0x3daf4e72	0.08559884
143	0x3e4b921e	0.19879958
144	0x3e9454a0	0.28970814
145	0x3dcbc1b8	0.09949058
146	0x3e0871b7	0.13324629
147	0x3eca8ef7	0.395622
148	0xbe9dfefe	-0.30858606
149	0x3da9b84d	0.08287106
150	0xbea0c64b	-0.31401286
151	0xbe5ca60b	-0.21547715
152	0xbe3d22fb	-0.18470375
153	0xbe6de7fd	-0.23233028
154	0xbe9a1225	-0.30091968
155	0xbe354e19	-0.17705573
156	0xbd94c312	-0.07263769
157	0x3e801dce	0.2502274
158	0x3ebab7f3	0.36468467
159	0xbd083941	-0.033257727
160	0xbe4c997d	-0.19980426
161	0xbe5e16c5	-0.21688373
162	0xbebdbc17	-0.37057564
163	0xbeb596d4	-0.35466635
164	0x3e916a00	0.28401184
165	0x3e94de13	0.2907568
166	0x3dbf4222	0.09338786
167	0x3e3db8a4	0.18527466
168	0xbe4691f0	-0.19391608
169	0xbdfbfffb	-0.12304684
170	0xbdb60237	-0.08887141
171	0xbe24d958	-0.16098535
172	0x3d3747f9	0.044746373
173	0x3c95e2f9	0.018296706
174	0xbeba59dc	-0.36396682
175	0x3d88812f	0.06665265
176	0x3e960268	0.2929871
177	0xbd96c7b6	-0.073623106
178	0x3e86b040	0.26306343
179	0x3ecfd14b	0.40589365
180	0x3e4d65cb	0.20058362
181	0x3d6aee86	0.05735638
182	0x3ebb696e	0.36603874
183	0x3e8058c9	0.25067738
184	0xbeb4d569	-0.3531907
185	0xbe73c28e	-0.23804685
186	0xbeb6e1b2	-0.35719067
187	0xbe8da6c2	-0.2766629
188	0x3eb855bb	0.36002907
189	0x3e7034fc	0.23457712
190	0x3ea4162e	0.32048172
191	0x3e755bc8	0.23960793
192	0xbc984796	-0.018588822
193	0x3e61536b	0.22004478
194	0x3ed609ae	0.4180426
195	0x3e3c143d	0.18367095
196	0x3c71d7a5	0.014760886
197	0x3e29f429	0.16597046
198	0x3e66f51f	0.22554444
199	0x3e71dd1e	0.23619506
200	0x3d8316eb	0.06400856
201	0x3ef01a24	0.46894944
202	0x3e6defa5	0.23235948
203	0x3ed047a5	0.4067966
204	0xbe80bb2a	-0.25142795
205	0x3d8bc56a	0.06824763
206	0xbd900bc2	-0.070334926
207	0xbeb66066	-0.3562042
208	0x3c4fcd3b	0.012683208
209	0x3ea266f9	0.31719187
210	0x3eeea102	0.46607214
211	0x3e367778	0.17819011
212	0x3ed762d6	0.42067593
213	0x3ea669de	0.32502645
214	0x3e5ddbe4	0.21665913
215	0xbd13aa14	-0.03605087
216	0x3df3830e	0.11890231
217	0x3cc1aff7	0.023643477
218	0x3eac5b47	0.3366339
219	0x3e949610	0.2902074
220	0x3d9ea902	0.077470794
221	0x3ec637b8	0.38714385
222	0x3e727c66	0.23680267
223	0x3e8d0139	0.27539995
224	0x3a4eaf03	0.0007884355
225	0xbd1287a0	-0.035773873
226	0x3e0f99fd	0.14023586
227	0x3dc1b4c3	0.09458306
228	0x3df551e0	0.11978507
229	0x3e87edf4	0.2654873
230	0x3e913be2	0.28366
231	0xbe0ffd61	-0.140615
232	0x3d1f587d	0.03890275
233	0x3d2031e6	0.039110087
234	0x3ef0042f	0.46878192
235	0x3d9e6b8d	0.077353574
236	0x3eb6305c	0.3558377
237	0x3ef4fa8b	0.478474
238	0x3df1efad	0.11813293
239	0x3ee917ee	0.4552607
240	0x3b8af56f	0.0042406837
241	0x3e3c8778	0.18411052
242	0xbe3bb35c	-0.18330139
243	0xbe8a48e8	-0.27008748
244	0x3e69679b	0.22793429
245	0x3e5d2a4f	0.2159817
246	0x3e9b149e	0.30289167
247	0x3e98834e	0.29787678
248	0xbe7944fa	-0.24342719
249	0x3e10c603	0.14138035
250	0x3cb8f4d7	0.022577686
251	0xbdbee3a0	-0.0932076
252	0x3e9a9c17	0.30197212
253	0x3da900d1	0.08252109
254	0x3ec43f81	0.383297
255	0xbe4072cf	-0.18793796

weight_hh_l1 f4 [64, 4]
0	0x3e13bc9c	0.14427418
1	0xbdd22111	-0.10260213
2	0xbd8aa563	-0.06769826
3	0xbe260450	-0.16212583
4	0xbe0d312a	-0.13788286
5	0xbe80a162	-0.25123125
6	0x3e77dd48	0.24205506
7	0xbe11fba6	-0.14256153
8	0x3e79bc06	0.24388131
9	0x3dd9b3a9	0.106299706
10	0x3b826329	0.003979106
11	0x3e5e2bb1	0.21696354
12	0x3ebcf4c5	0.36905494
13	0xbde7092e	-0.11281048
14	0xbdbd073e	-0.09229897
15	0x3e40d1ac	0.18829983
16	0xbe2ea866	-0.17056426
17	0xbe310e4e	-0.17290613
18	0x3e5c8073	0.21533374
19	0x3e659980	0.22421837
20	0x3e8fda46	0.28096217
21	0xbea80022	-0.328126
22	0xbba69b52	-0.0050844336
23	0x3d7bd64b	0.061483663
24	0x3dc15940	0.09440851
25	0xbe7a4448	-0.2444011
26	0x3d97da36	0.07414667
27	0xbd117496	-0.035511576
28	0x3c97818b	0.018494388
29	0x3bbe548f	0.00580842
30	0x3e09c9f6	0.13455948
31	0x3e8020b5	0.25024953
32	0x3e90f612	0.28312737
33	0xbc2e59bb	-0.010641511
34	0xbebe00f3	-0.371101
35	0x3ea8b178	0.32947898
36	0x3e815dec	0.2526697
37	0x3cc40ca7	0.023931814
38	0xbe027e26	-0.12743434
39	0xbd7c53f7	-0.061603513
40	0x3c46c49c	0.012131836
41	0x3e40732b	0.18793933
42	0xbb8c2f23	-0.00427808
43	0xbc2fa249	-0.010719844
44	0xbd9e5a71	-0.07732094
45	0xbd547e4b	-0.051878255
46	0xbe9ac02d	-0.30224743
47	0xbe0575bb	-0.13033192
48	0x3eb6bec1	0.3569241
49	0xbdc0f0db	-0.094209395
50	0x3d7eb606	0.06218531
51	0x3ed36dd0	0.41294718
52	0x3d042fde	0.032272212
53	0xbd81cdbd	-0.063380696
54	0xbe446d8a	-0.19182411
55	0x3eaee3c6	0.34158152
56	0x3ea1af7e	0.31579202
57	0xbe8f566f	-0.2799563
58	0xbe9f3d5b	-0.31101498
59	0x3ee76daa	0.45200855
60	0x3c59a68d	0.013284338
61	0x3df69101	0.12039376
62	0xbc502741	-0.012704671
63	0xbde2d647	-0.110760264
64	0xbe519379	-0.20466413
65	0xbe80a8a4	-0.25128663
66	0x3dfe0dd5	0.12404982
67	0xbde222f2	-0.110418215
68	0xbe250937	-0.16116796
69	0xbe06dc67	-0.13170014
70	0xbe41b09b	-0.18915026
71	0xbcb43550	-0.021998078
72	0xbcfe92f0	-0.031075925
73	0x3c558446	0.013032025
74	0xbdc1d4b7	-0.094644
75	0xbe02b3a8	-0.12763846
76	0x3dad7e80	0.084713936
77	0x3eb43de4	0.3520347
78	0xbb1a4ad8	-0.0023543146
79	0xbe7d359a	-0.24727479
80	0xbd73c07c	-0.05950974
81	0x3cd274f4	0.025690533
82	0xbcd0d41d	-0.025491768
83	0xbcb69e42	-0.02229226
84	0xbe4f6098	-0.20251691
85	0x3df2fd84	0.118647605
86	0xbde0f94c	-0.109850496
87	0x3cadeb24	0.021230288
88	0xbe74d344	-0.23908716
89	0xbe2f3ca5	-0.17112978
90	0x3d2e6f6a	0.04258672
91	0xbe87b029	-0.26501587
92	0xbe20ae4a	-0.15691486
93	0xbdbdcb41	-0.09267283
94	0xbe1b4be9	-0.15165676
95	0x3e56ebd2	0.20988396
96	0x3e8f3b1a	0.27974778
97	0x3c263808	0.010145195
98	0x3e1c000b	0.15234391
99	0xbde91cd6	-0.11382453
100	0x3e2eb2c9	0.17060389
101	0x3e20acbc	0.15690893
102	0x3d1fe976	0.039041005
103	0x3e07e2d5	0.13270123
104	0x3d930881	0.07179356
105	0x3e43ef2c	0.19134206
106	0xbd7d3c4c	-0.06182508
107	0x3d07ddd2	0.03317053
108	0x3de8d8d7	0.11369484
109	0x3de42638	0.11140102
110	0x3d9fc472	0.07801141
111	0xbd70404e	-0.058655076
112	0xbdace19d	-0.0844147
113	0xbdd7221d	-0.105045535
114	0xbbc21e92	-0.0059240544
115	0x3e2fb20c	0.17157763
116	0xbe822f9f	-0.25426957
117	0xbd244d95	-0.04011305
118	0xbe00d99b	-0.1258301
119	0xbd896e99	-0.06710548
120	0xbcd42663	-0.02589721
121	0x3e36c74f	0.17849468
122	0x3da2af5e	0.07943605
123	0xbe11a6d0	-0.1422379
124	0x3e6dda58	0.23227823
125	0xbe164731	-0.14675595
126	0x3e4bd034	0.19903642
127	0xbe387c26	-0.18016109
128	0x3e1e5153	0.1546071
129	0x3c80ece4	0.015737958
130	0xbb8f8497	-0.0043798196
131	0x3c9f6b2a	0.01946028
132	0x3e888af3	0.2666851
133	0xbe967261	-0.2938414
134	0x3e068d51	0.13139845
135	0xbe472ec2	-0.1945143
136	0xbdfc448d	-0.123177625
137	0x3d7f8756	0.062384926
138	0xbdce6f60	-0.10079837
139	0xbb24be65	-0.0025137898
140	0xbb685a2a	-0.0035454133
141	0xbe05a10f	-0.1304972
142	0x3da25f84	0.079283744
143	0xbd8eaabb	-0.06966158
144	0xbe3889a3	-0.18021254
145	0x3c32b694	0.010907788
146	0xbe0fcdba	-0.14043322
147	0x3da0f4f4	0.07859221
148	0x3ccd11cc	0.0250329
149	0xbe2a5198	-0.16632688
150	0xbe4f587e	-0.20248601
151	0xbdc58880	-0.09645176
152	0x3c2e34e6	0.010632729
153	0xbdcb08f5	-0.09913818
154	0xbdd1cd3a	-0.10244222
155	0x3e3d91e2	0.18512681
156	0x3d03492c	0.032052204
157	0xbdfaebb5	-0.12251989
158	0xbdc7a178	-0.097475946
159	0xba5a7ee1	-0.00083349465
160	0x3e4eb5a4	0.20186478
161	0x3e0f135f	0.13972233
162	0xbd84871d	-0.06471083
163	0x3e9698ab	0.2941335
164	0xbdbf234c	-0.09332904
165	0xbe2e37fa	-0.17013541
166	0x3d19defa	0.037566163
167	0x3d68c8ae	0.056832008
168	0xbe80e0ec	-0.25171602
169	0x3df888f0	0.12135494
170	0x3d9777e4	0.07395914
171	0x3df2008d	0.11816511
172	0xbe40ea0e	-0.18839285
173	0x3dda2fcf	0.1065365
174	0xbe226fb9	-0.15862931
175	0x3e3abba5	0.18235643
176	0xbe6e984c	-0.23300284
177	0x3d1e7e64	0.038694754
178	0xbe35d38c	-0.1775648
179	0xbe0144b4	-0.12623864
180	0x3dbc977d	0.092085816
181	0x3d5126ac	0.05106227
182	0x3e8b09ec	0.27156007
183	0xbe8a5f13	-0.2702566
184	0x3d97344e	0.07383023
185	0xbe8adbab	-0.27120718
186	0x3c2b66ef	0.010461553
187	0x3cde471e	0.02713352
188	0x3e43d1eb	0.19123046
189	0x3cc68a23	0.02423579
190	0x3e25131d	0.16120572
191	0xbcecc1a2	-0.028900925
192	0xbd557328	-0.052111775
193	0xbdd9ec5c	-0.10640785
194	0xbe830499	-0.25589445
195	0x3d5942e8	0.053042322
196	0x3d479184	0.04872276
197	0xbba6751e	-0.0050798794
198	0xbe931684	-0.28728116
199	0x3e71319f	0.23554085
200	0x3eb31e55	0.3498408
201	0x3df7c8d2	0.1209885
202	0x3de4bd0b	0.111688696
203	0x3de43308	0.11142546
204	0x3e51892a	0.2046248
205	0xbea8959c	-0.32926643
206	0x3dba73ff	0.09104156
207	0x3d3226f9	0.0434942
208	0x3e71cd9d	0.23613591
209	0xbde4353d	-0.11142967
210	0x3d2e9994	0.042626932
211	0x3e589b51	0.21152999
212	0x3ea2a3b1	0.31765512
213	0xbe50ad27	-0.20378552
214	0xbe506a94	-0.20353156
215	0x3e8095af	0.251142
216	0x3ddbda3c	0.10734984
217	0xbde31765	-0.110884465
218	0xbca305ca	-0.019900221
219	0x3e85d803	0.26141366
220	0x3e008bfd	0.12553401
221	0x3d9d77a3	0.076888345
222	0x3c22a5d3	0.009927231
223	0x3dc0ba28	0.094105065
224	0x3e9deed2	0.30846268
225	0xbeaff857	-0.34369156
226	0xbe99ddda	-0.30052072
227	0x3e1daa26	0.15396938
228	0xbd599a09	-0.053125415
229	0xbe93a6a8	-0.28838086
230	0xbe753ec8	-0.2394973
231	0xbc097c81	-0.0083915
232	0x3d198cb0	0.037487686
233	0xbda13e02	-0.07873155
234	0x3c381261	0.011234851
235	0x3ead1853	0.3380762
236	0x3e8a4de6	0.27012557
237	0xbcf1854d	-0.029482508
238	0x3d19f91e	0.037591092
239	0x3e280034	0.16406327
240	0x3db5bf44	0.08874372
241	0xbe59bab5	-0.2126263
242	0xbe365588	-0.17806065
243	0x3e4223db	0.1895899
244	0x3e40c5ff	0.1882553
245	0xbe408717	-0.18801533
246	0xbe22f30a	-0.15913025
247	0x3ea962b7	0.33083126
248	0x3f102eaf	0.56321234
249	0xbe9f1761	-0.31072524
250	0xbe2efbf8	-0.17088306
251	0x3e002a0f	0.12516044
252	0x3e3fcba2	0.18730024
253	0xbec998e2	-0.39374453
254	0x3da69c22	0.08135249
255	0x3d6036d5	0.054739792

bias_ih_l1 f4 [64]
0	0x3e7a499f	0.24442147
1	0x3e864778	0.262264
2	0x3d9856cd	0.07438431
3	0xbc6e820e	-0.014557375
4	0x3b8eb3c7	0.004354927
5	0x3e873ca0	0.2641344
6	0x3d7d75bd	0.061879862
7	0x3e820326	0.25393027
8	0x3df84c76	0.12123959
9	0x3e6b62f0	0.2298696
10	0x3e2c4835	0.1682442
11	0x3d97c63b	0.07410856
12	0x3eb3ecc3	0.35141572
13	0x3e29b754	0.1657384
14	0x3e4fee05	0.20305641
15	0x3ea4a399	0.32156065
16	0xbdd8ff3f	-0.10595559
17	0xbd5f4ebc	-0.054518446
18	0xbdc2bb35	-0.09508363
19	0xbe0618a7	-0.13095342
20	0x3d9efd09	0.077631064
21	0x3e86820b	0.2627109
22	0x3df30d58	0.118677795
23	0xbe01cae7	-0.12675057
24	0x3dd42171	0.10357941
25	0xbe1ad2be	-0.15119454
26	0xbe12fed1	-0.14355017
27	0xbdd110a7	-0.10208254
28	0x3cfbfb35	0.030759433
29	0x3e88e783	0.2673913
30	0xbdd9dbbf	-0.10637616
31	0xbe814661	-0.25249007
32	0xbde4a2bb	-0.11163851
33	0xbe4fe76f	-0.20303129
34	0x3debce60	0.11513972
35	0xbe7ec8ef	-0.24881338
36	0x3c4fa003	0.012672427
37	0x3c05195b	0.008123721
38	0xbded0933	-0.1157402
39	0x3e765a08	0.24057782
40	0x3e88d4a8	0.26724744
41	0xbe3a396a	-0.18185964
42	0xbe45b9ba	-0.1930913
43	0xbcc92af6	-0.024556618
44	0xbe3fe78d	-0.18740673
45	0x3da84361	0.082159765
46	0x3da81cb3	0.08208599
47	0xbd408f57	-0.0470117
48	0x3e9155f3	0.28385887
49	0x3e9ae153	0.30250034
50	0xbe28270e	-0.16421148
51	0x3ec4ec41	0.38461497
52	0x3d1e4ff3	0.038650464
53	0x3e826555	0.25467935
54	0x3eb19433	0.3468338
55	0xbe234e06	-0.15947732
56	0x3d6a71b7	0.057237353
57	0xbd620ffa	-0.055191018
58	0x3dc52420	0.09626031
59	0x3eb5578f	0.35418364
60	0x3e6c36fb	0.23067848
61	0x3eca9696	0.39568013
62	0x3e42ff18	0.19042623
63	0xbd72bb98	-0.059260935

bias_hh_l1 f4 [64]
0	0xbe041dd4	-0.12902004
1	0x3e7e1661	0.24813224
2	0x3d8a296a	0.0674618
3	0x3e1ca4a9	0.15297188
4	0x3e5aee0b	0.21379869
5	0x3e828990	0.25495577
6	0x3e1e7b2e	0.15476677
7	0x3e9f1f67	0.31078646
8	0x3eb74060	0.35791302
9	0xbe29e9ac	-0.16593045
10	0xbdaaebd0	-0.08345759
11	0xbd850928	-0.06495887
12	0xbc3e6850	-0.01162155
13	0x3ca66471	0.020311566
14	0x3e910143	0.28321275
15	0x3e9c0606	0.30473346
16	0xbdee5a89	-0.11638362
17	0xbe02a2b6	-0.12757382
18	0x3e3f04c3	0.1865416
19	0x3df55641	0.11979342
20	0xbe069eb6	-0.13146481
21	0x3dfb9bd5	0.12285582
22	0x3e169322	0.14704564
23	0xbe222dcd	-0.15837784
24	0xbe5c6029	-0.21521057
25	0xbd38db99	-0.0451313
26	0x3d19d71a	0.037558652
27	0x3cb38b4e	0.021917012
28	0x3e402748	0.18764985
29	0xbdd316ea	-0.10307105
30	0xba61ba1e	-0.00086108025
31	0xbe598be4	-0.2124477
32	0x3e30083d	0.17190643
33	0xbe118701	-0.14211656
34	0xbe57b051	-0.21063353
35	0xbdf396d3	-0.11894002
36	0x3e248943	0.16067986
37	0xbdd1b779	-0.10240073
38	0xbe0e5030	-0.13897777
39	0xbda3f407	-0.08005529
40	0xbe1cee22	-0.15325215
41	0x3e1070c5	0.14105518
42	0x3e31782c	0.17330998
43	0xbe0d3cb8	-0.13792694
44	0xbd929496	-0.07157247
45	0x3e29f983	0.16599087
46	0x3d87432b	0.06604608
47	0x3d824164	0.063601285
48	0x3bb91345	0.005648049
49	0x3d7b0f91	0.061294142
50	0x3e5d838f	0.21632217
51	0x3d30a3cb	0.043124955
52	0xba7eeef4	-0.0009724938
53	0x3e622326	0.2208372
54	0x3ed261e6	0.41090316
55	0x3e943695	0.28947893
56	0x3d6dfdc1	0.058103327
57	0x3d19b8aa	0.037529625
58	0x3d35376e	0.044242315
59	0x3ea9ac4d	0.33139268
60	0x3e7dbcd5	0.24779065
61	0x3ecf0730	0.4043517
62	0x3ca3d302	0.019998077
63	0x3da089d7	0.07838791

weight_hr_l1 f4 [4, 16]
0	0x3ea895b0	0.32926702
1	0xbe8cd917	-0.27509376
2	0xbea23382	-0.31679922
3	0xbe4eed89	-0.202078
4	0x3e155c87	0.14586078
5	0xbe1f9563	-0.1558433
6	0xbdd6e3d0	-0.104926705
7	0x3e7ce423	0.24696402
8	0xbc9e9503	-0.019358164
9	0x3e9cc013	0.3061529
10	0xbd6b5142	-0.05745054
11	0xbebd0fc8	-0.36926103
12	0x3d325c5a	0.043545105
13	0x3e5dca02	0.21659091
14	0xbe9faf2e	-0.3118834
15	0x3dc7489d	0.09730647
16	0xbe856bca	-0.260588
17	0x3e8ee769	0.27910927
18	0x3df9e256	0.12201373
19	0x3dde4dad	0.10854659
20	0xbec8eb97	-0.3924224
21	0x3e2ba315	0.1676143
22	0x3e977d79	0.29587916
23	0xbe6a140c	-0.2285921
24	0x3e410940	0.18851185
25	0xbe8b0ed6	-0.27159756
26	0xbda78376	-0.08179371
27	0x3e9b0f19	0.30284956
28	0x3d42db33	0.047572326
29	0xbe2c5130	-0.16827846
30	0x3ee51b7d	0.44747534
31	0xbebeb342	-0.37246138
32	0xbe846fac	-0.2586645
33	0x3dea0954	0.114275604
34	0x3e24ca9f	0.16092919
35	0xbe8cf2b0	-0.27528906
36	0xbe9bac76	-0.30405015
37	0x3ed00f20	0.4063654
38	0x3eb9d79f	0.36297318
39	0xbeaf94d2	-0.34293228
40	0x3e9b2b58	0.30306506
41	0xbe9bf6bc	-0.3046168
42	0x3e7c4bdb	0.24638312
43	0x3b1fa714	0.002436106
44	0xbec6bb81	-0.3881493
45	0xbeabbab0	-0.3354087
46	0x3ed1b358	0.4095714
47	0xbec87732	-0.3915344
48	0xbd688602	-0.056768425
49	0xbda93635	-0.08262292
50	0x3dbaf200	0.09128189
51	0x3e55f057	0.20892464
52	0x3d51051a	0.051030256
53	0xbeec9c46	-0.46212977
54	0xbea10afe	-0.314537
55	0x3c2d1324	0.0105636455
56	0xbef13d80	-0.47117233
57	0x3e5387b4	0.20657235
58	0xbe6e7de7	-0.23290215
59	0xbe8dbcce	-0.2768311
60	0x3e8a9a1c	0.270707
61	0x3eca4d64	0.3951217
62	0xbddffcd4	-0.10936895
63	0x3eac480a	0.3364871

weight_ih_l2 f4 [64, 4]
0	0x3eb58fb4	0.354612
1	0xbe15dd68	-0.14635241
2	0xbcfab2b3	-0.030602789
3	0x3e7c3472	0.24629381
4	0xbd9db549	-0.07700593
5	0xbe8daf08	-0.276726
6	0x3d526444	0.051365152
7	0x3e91a507	0.28446218
8	0xbcad64db	-0.021166256
9	0xbda220df	-0.07916426
10	0xbed71622	-0.42009073
11	0x3e3cdbba	0.18443194
12	0x3d968acc	0.07350692
13	0xbd8ef7b4	-0.06980839
14	0xbdceb123	-0.1009238
15	0x3e5f2848	0.2179271
16	0x3e86be80	0.26317215
17	0x3e0a1979	0.1348628
18	0xbdf2cd6f	-0.118555896
19	0xbbf4ec76	-0.0074744774
20	0xbe9247d1	-0.28570417
21	0x3e6070fc	0.219181
22	0x3e6c6288	0.23084462
23	0xbea88697	-0.32915184
24	0x3e36cb53	0.17851
25	0xbdd7e9fe	-0.10542677
26	0x3e88fef0	0.26757002
27	0x3df66cd1	0.12032474
28	0x3ebcfbaf	0.3691077
29	0xbe4aff7b	-0.1982402
30	0xbe1c7a6b	-0.15281074
31	0xbce75b5b	-0.028241804
32	0x3e5803df	0.21095227
33	0xbe7e8e08	-0.24858868
34	0xbd4a6fe4	-0.049423113
35	0x3d0127b1	0.031531993
36	0x3dbca525	0.09211186
37	0xbcfa1a42	-0.030530099
38	0xbb92e1b1	-0.004482471
39	0xbd5172be	-0.051134817
40	0x3e1666a5	0.14687593
41	0xbea7e914	-0.32795012
42	0xbe5a5608	-0.21321881
43	0xbde06a0d	-0.109577276
44	0xbdad5970	-0.084643245
45	0xbea37a7d	-0.3192939
46	0xbc758bda	-0.0149869565
47	0x3d616485	0.055027504
48	0x3d9ecb9d	0.0775368
49	0x3dfe088a	0.124039724
50	0x3e3a663b	0.1820306
51	0xbda5e565	-0.08100394
52	0x3dc45d8e	0.09588157
53	0xbea5fd39	-0.32419756
54	0xbe5d5b66	-0.21616897
55	0x3dd5a30f	0.104314916
56	0x3e8c7ffc	0.27441394
57	0xbeb1f51e	-0.34757322
58	0xbcf1a399	-0.029496955
59	0xbc8f1993	-0.01746825
60	0xbcc4d6c5	-0.024028191
61	0xbe0fbde4	-0.14037281
62	0x3d88ea77	0.066853456
63	0x3eacba88	0.33736062
64	0xbca3a7fa	-0.019977558
65	0xbead34ea	-0.33829433
66	0xbeb94011	-0.3618169
67	0x3ed3db1a	0.413781
68	0x3daa403a	0.083130315
69	0xbd82ea26	-0.063923165
70	0x3ed0fc49	0.40817478
71	0xbeb1ce10	-0.34727526
72	0x3df85059	0.121247
73	0xbe4a71d2	-0.19769982
74	0xbebce0df	-0.36890313
75	0x3e9c1a3d	0.30488768
76	0x3eeb1525	0.4591457
77	0xbeb268e2	-0.34845644
78	0xbedc0326	-0.42971152
79	0x3e62f933	0.22165374
80	0x3ea33a2a	0.31880313
81	0x3cefd060	0.029274166
82	0xbe91611b	-0.28394398
83	0xbd942c28	-0.07234985
84	0xbe8813f4	-0.26577723
85	0x3ace6879	0.0015747688
86	0x3eab6785	0.33477417
87	0xbf08ed0a	-0.5348669
88	0x3d30371c	0.043021306
89	0x3e1a303c	0.15057462
90	0xbdf48a14	-0.11940399
91	0xbcd01d7e	-0.025404688
92	0x3ec40dd9	0.38291815
93	0xbea67be1	-0.32516387
94	0xbef0ee21	-0.47056678
95	0x3cc98c55	0.024603048
96	0xbe142065	-0.14465483
97	0xbe6fd20a	-0.23419967
98	0x3df44b55	0.11928431
99	0x3d12d9b9	0.035852168
100	0xbc8af85c	-0.01696413
101	0xbe6fa435	-0.23402484
102	0x3daac09e	0.0833752
103	0x3ea6bb21	0.32564643
104	0x3d592869	0.053017054
105	0x3d8209e2	0.06349541
106	0xbe051b77	-0.12998758
107	0x3e9d2e88	0.30699563
108	0x3d90dc57	0.070732765
109	0xbee34547	-0.44388792
110	0xbeafdd32	-0.34348446
111	0x3df1365d	0.11777947
112	0xbe77fddc	-0.24217933
113	0xbca0cd1e	-0.019629057
114	0x3dcc8392	0.099860325
115	0xbe86d00d	-0.26330605
116	0x3ea9b7b7	0.33147976
117	0xbdb2fd29	-0.08739693
118	0x3e1b3d6f	0.15160154
119	0x3e942cd2	0.28940445
120	0x3c0ab796	0.008466622
121	0xbe17c38a	-0.14820686
122	0xbe666166	-0.22498092
123	0x3eb7d950	0.35907984
124	0x3e830e77	0.25596973
125	0xbe139e9d	-0.14415975
126	0xbee14458	-0.43997455
127	0x3ed84f12	0.42247826
128	0xbe0f15db	-0.13973181
129	0x3e90e2f6	0.28298157
130	0x3e047a43	0.12937264
131	0xbe8c3057	-0.2738063
132	0x3e57f8f4	0.21091062
133	0xbd406918	-0.046975225
134	0xbe8315cd	-0.2560257
135	0x3eb213f2	0.34780842
136	0x3eddff93	0.4335905
137	0xbeb32501	-0.3498917
138	0xbe9f0583	-0.31058893
139	0x3dc401b8	0.0957064
140	0xbec401d4	-0.38282645
141	0x3d486c77	0.048931565
142	0x3e943ab6	0.28951043
143	0xbe0ed361	-0.13947822
144	0xbce3eeeb	-0.027823886
145	0xbe68df3b	-0.22741406
146	0xbedffd87	-0.43748114
147	0x3da1ceb8	0.079007566
148	0xbcd96613	-0.02653793
149	0x3cffe2b3	0.031236028
150	0xbccc21ce	-0.024918463
151	0xbd3e4cbc	-0.0464599
152	0x3d38f08d	0.045151282
153	0xbe71c879	-0.2361163
154	0xbeb79902	-0.35858923
155	0x3ec9efb4	0.3944069
156	0xbed37d0a	-0.41306335
157	0x3ceee27f	0.029160736
158	0x3ec035a1	0.37540916
159	0xbea5c3ce	-0.3237595
160	0x3e5ab09f	0.21356438
161	0xbe9a3e6d	-0.30125752
162	0xbe91a3dc	-0.28445327
163	0x3db93a2d	0.09044299
164	0x3d95e73d	0.07319496
165	0xbeae8658	-0.3408687
166	0xbe899119	-0.26868513
167	0x3e930c55	0.28720346
168	0xbe972a2f	-0.2952437
169	0x3e02b0f9	0.12762822
170	0x3dac0b29	0.08400566
171	0xbebbbba3	-0.36666593
172	0x3c734431	0.014847801
173	0x3e941d22	0.28928477
174	0x3ec97514	0.39347136
175	0x3d0e4b55	0.03473981
176	0xbdcec10b	-0.10095414
177	0xbe9e0f25	-0.3087093
178	0xbdd6724f	-0.104710214
179	0x3e819a69	0.25313118
180	0x3dfe4f14	0.12417427
181	0xbc10a486	-0.008828288
182	0xbecd9063	-0.4014922
183	0x3edc3b14	0.43013823
184	0xbe57e9c7	-0.21085273
185	0x3e81214c	0.25220716
186	0x3e4784ea	0.19484296
187	0xbe50d737	-0.20394598
188	0x3ea13905	0.31488815
189	0xbebed1fb	-0.37269577
190	0xbee345c4	-0.44389164
191	0x3eb0f6cd	0.34563294
192	0x3dae16ee	0.08500467
193	0xbed3f0a9	-0.41394547
194	0xbee4b9d9	-0.4467304
195	0x3f086d44	0.53291726
196	0x3ebeda8f	0.37276122
197	0x3dc71c04	0.097221404
198	0x3e4c1a66	0.19931945
199	0xbdefe813	-0.117141865
200	0x3ee7496c	0.45173204
201	0xbef785f4	-0.48344386
202	0xbec15f80	-0.37768173
203	0x3f06ac2f	0.5260648
204	0x3ec14a3c	0.3775195
205	0xbee84293	-0.45363292
206	0xbef0c291	-0.47023442
207	0x3e8c3132	0.27381283
208	0x3e7f8c45	0.24955852
209	0x3cc3d991	0.023907455
210	0xbd93c3b1	-0.072150595
211	0xbe1cd84c	-0.15316886
212	0xbebb687e	-0.3660316
213	0x3d48d70b	0.049033206
214	0x3d89269b	0.066968165
215	0xbf04067e	-0.51572406
216	0x3ec476eb	0.38371977
217	0xbe4e3fbc	-0.201415
218	0xbdba7bff	-0.09105682
219	0x3e4a0217	0.1972736
220	0x3e3d4cf3	0.18486385
221	0xbef5293f	-0.4788303
222	0xbf02a094	-0.5102627
223	0x3ef86ec8	0.4852202
224	0x3eb9472a	0.36187106
225	0x3d7a02a5	0.06103768
226	0x3e26950e	0.16267797
227	0xbcc62201	-0.024186136
228	0x3e81030d	0.2519764
229	0xbf0bddba	-0.546352
230	0xbee2122b	-0.44154486
231	0x3f04156d	0.51595193
232	0x3daf4486	0.08557992
233	0xbe86d984	-0.26337826
234	0x3d4859c8	0.048913747
235	0x3e06a633	0.13149337
236	0x3c0e2827	0.008676565
237	0xbe4bce9c	-0.19903034
238	0xbde2ca4e	-0.11073743
239	0x3e946dec	0.28990114
240	0x3d501898	0.050804704
241	0x3d7a7529	0.06114689
242	0xbcf15c19	-0.02946286
243	0xbe448163	-0.19189982
244	0x3e0b4c61	0.13603355
245	0xbc071edd	-0.0082471045
246	0xbe3d9105	-0.18512352
247	0x3e598e8e	0.21245787
248	0x3ea299dc	0.3175801
249	0xbea40564	-0.32035363
250	0xbe9a40a2	-0.30127436
251	0x3e4e7570	0.20161986
252	0x3e886f11	0.26647237
253	0xbe76c545	-0.2409869
254	0xbea72e96	-0.3265273
255	0x3f0279b5	0.5096696

weight_hh_l2 f4 [64, 4]
0	0x3ecb7d95	0.3974425
1	0xbec07971	-0.37592652
2	0x3e1c2b5e	0.15250918
3	0x3e058828	0.1304022
4	0x3e9663bf	0.29372975
5	0xbeb6d7d6	-0.35711545
6	0x3e1f0fd8	0.15533388
7	0x3db710a8	0.08938724
8	0x3eba3088	0.3636515
9	0xbdb4995e	-0.08818315
10	0x3e15fd55	0.1464742
11	0x3e45850a	0.19289032
12	0xbd89e852	-0.06733765
13	0xbeb768d9	-0.3582218
14	0x3d38a061	0.045074824
15	0x3e8f613e	0.28003877
16	0x3e29ca84	0.1658116
17	0xbe9d31c0	-0.3070202
18	0x3eac0acb	0.33601984
19	0x3f00c1f3	0.50295943
20	0x3d011270	0.031511724
21	0xbe67c096	-0.2263206
22	0x3d8484b1	0.064706214
23	0x3aadc7c1	0.0013258384
24	0x3e890166	0.2675888
25	0xbe70f119	-0.23529471
26	0x3ea7c891	0.32770208
27	0x3ddfade6	0.1092184
28	0x3e6f5124	0.23370796
29	0xbe843236	-0.25819558
30	0x3eeb7e85	0.45994964
31	0xbdead5ab	-0.11466535
32	0x3df1d543	0.118082546
33	0xbe20988b	-0.1568319
34	0x3f2230d0	0.6335573
35	0x3e230d72	0.15923098
36	0xbdc45bd4	-0.09587827
37	0xbe8915a5	-0.26774326
38	0x3db68bff	0.08913421
39	0xbc34be0e	-0.011031641
40	0x3e0466fd	0.12929912
41	0xbd82d87e	-0.06388949
42	0x3e988949	0.2979224
43	0x3ed71d43	0.42014512
44	0x3e42c5af	0.19020723
45	0xbd265974	-0.040612653
46	0x3e84707c	0.2586707
47	0xbd76cca9	-0.060253773
48	0x3e86ec1a	0.26352006
49	0x3ca1b8cb	0.019741436
50	0x3ea09df5	0.31370512
51	0x3e8eecd6	0.27915066
52	0x3e0d04ca	0.13771358
53	0xbec4d753	-0.3844553
54	0x3e2fa4aa	0.17152658
55	0x3de282db	0.11060115
56	0x3e74815f	0.23877476
57	0x3ce3355d	0.027735407
58	0x3e624826	0.22097835
59	0x3daea523	0.08527591
60	0x3dcfa424	0.10138729
61	0xbe97b451	-0.29629758
62	0x3f09e514	0.5386517
63	0x3e5f7d68	0.21825182
64	0xbdabd207	-0.08389669
65	0x3e2dc008	0.16967785
66	0x3d091cdd	0.03347479
67	0xbb6dff75	-0.0036315594
68	0xbe72d268	-0.23713076
69	0x3dd8857c	0.10572335
70	0x3e12abb0	0.14323306
71	0xbe4f218c	-0.20227641
72	0x3e2af26f	0.16694044
73	0x3cee6c8b	0.029104492
74	0x3e0372d5	0.12836774
75	0x3e400fe3	0.1875606
76	0x3e46c890	0.19412446
77	0x3dfb6575	0.12275211
78	0xbd34bf14	-0.04412754
79	0x3cf17a23	0.029477185
80	0x3d4d1a05	0.050073642
81	0x3db3c703	0.08778193
82	0xbdd5f1b4	-0.10446492
83	0x3e93b045	0.2884542
84	0xbe22573e	-0.15853593
85	0x3e2476d4	0.16060954
86	0x3e81de50	0.25364923
87	0xbe79ef2d	-0.24407645
88	0x3e4ac9b9	0.19803514
89	0x3e4333f0	0.19062781
90	0xbd142f74	-0.036178067
91	0xbe0d1604	-0.1377793
92	0xbbf86070	-0.0075798556
93	0x3e5b8d92	0.21440724
94	0xbe2688c4	-0.1626311
95	0x3d2df5c7	0.04247072
96	0x3d9069e8	0.0705145
97	0xbe5f977a	-0.21835127
98	0x3d6dd577	0.058064904
99	0x3e588a78	0.21146572
100	0x3e47581d	0.19467206
101	0xbd98f0fd	-0.0746784
102	0x3e2c948c	0.16853541
103	0x3e54f562	0.20796731
104	0xbd89321a	-0.06699009
105	0xbcd6cb40	-0.026219964
106	0x3e2d4542	0.16920951
107	0xbdbe6678	-0.09296888
108	0xbca66986	-0.02031399
109	0x3d9f3cd2	0.077752724
110	0xbe4613e0	-0.19343519
111	0xbdf20f9c	-0.118193835
112	0xbe3dabf5	-0.18522628
113	0x3d31248c	0.043247744
114	0x3e9d5610	0.30729723
115	0x3db78a5f	0.08961939
116	0xbd8aa6f2	-0.067701235
117	0xbcc30489	-0.023805873
118	0xbcf2e986	-0.029652368
119	0x3d01224b	0.031526845
120	0xbe453407	-0.19258128
121	0xbe23149f	-0.15925835
122	0xbd8cdadb	-0.06877681
123	0x3e15b9dd	0.14621682
124	0xbd7562d1	-0.05990869
125	0x3e962e3f	0.29332158
126	0xbddb2e41	-0.107021816
127	0xbea55718	-0.3229301
128	0xbe0d9bed	-0.13829012
129	0xbe963970	-0.29340696
130	0xbe28d683	-0.1648808
131	0x3e1a289f	0.15054558
132	0xbe49e047	-0.19714461
133	0xbc11b912	-0.008894222
134	0xbdcff533	-0.1015419
135	0xbad49042	-0.0016217309
136	0x3cb105f2	0.02160928
137	0xbe4c88e6	-0.19974098
138	0xbd239135	-0.039933402
139	0xbce30eb1	-0.027716966
140	0x3d71cbe6	0.059032343
141	0xbe0b58fa	-0.1360816
142	0xbe71090c	-0.23538607
143	0x3e139a5d	0.14414354
144	0xbd505e11	-0.05087096
145	0x3e579415	0.21052583
146	0xbe133be2	-0.14378312
147	0x3d343f70	0.04400581
148	0x3d8dd0ba	0.06924577
149	0xbe134f46	-0.14385709
150	0x3eb4ac72	0.35287815
151	0xbd722b35	-0.059123237
152	0xbe045129	-0.12921585
153	0x3dfd6c28	0.12374145
154	0xbd0f66d7	-0.035010185
155	0xbb00660c	-0.0019592075
156	0x3e9d62e0	0.30739498
157	0xbe5d9566	-0.21639022
158	0xbd392d21	-0.045209054
159	0xbdaffb44	-0.08592847
160	0xbe4038dd	-0.18771692
161	0x3e076aff	0.1322441
162	0xbe5d72df	-0.21625851
163	0x3dc95ce1	0.09832168
164	0xbd4390d6	-0.04774555
165	0x3dd8a54b	0.10578402
166	0xbc570230	-0.01312308
167	0xbdc429b8	-0.0957827
168	0xbdde26ab	-0.10847219
169	0xbe5f20f1	-0.2178991
170	0x3e1bf749	0.1523105
171	0x3e2a1a82	0.16611674
172	0xbbba4b2b	-0.0056852303
173	0x3c00441f	0.007828741
174	0x3e2b972f	0.1675689
175	0x3d8f5990	0.069995046
176	0x3dc53189	0.09628589
177	0x3df58b30	0.119894385
178	0x398dbe0f	0.0002703522
179	0xbe635fb5	-0.22204478
180	0x3c9976fd	0.018733496
181	0x3e121b08	0.14268124
182	0xbe870ecb	-0.26378474
183	0xbe3d59a5	-0.18491228
184	0x3d21bd09	0.03948692
185	0x3c07bfb8	0.008285455
186	0xbe2f0075	-0.17090018
187	0xbdebf97f	-0.11522197
188	0xbe3aa967	-0.18228684
189	0x3ea10932	0.31452328
190	0x3e0b87d9	0.1362604
191	0xbe912e17	-0.28355476
192	0x3e13eb17	0.14445148
193	0xbe17ff1b	-0.14843409
194	0x3e3359a4	0.17514664
195	0x3e0282e7	0.12745248
196	0x3ec98836	0.39361733
197	0xbe25bfed	-0.16186495
198	0x3e82845b	0.25491604
199	0x3e6c96d2	0.23104408
200	0x3e7fffcc	0.24999923
201	0xbef15815	-0.47137514
202	0x3c849231	0.01618299
203	0x3e1a555b	0.15071623
204	0x3e7f083b	0.24905483
205	0xbe364319	-0.17799033
206	0x3e1268f2	0.14297846
207	0x3e9d21e4	0.3068992
208	0x3f01decb	0.5073058
209	0xbe8fe0c9	-0.28101185
210	0x3e675c12	0.22593716
211	0x3ecd12ef	0.40053508
212	0x3e2c89b2	0.16849402
213	0x3e6c8fc2	0.23101714
214	0x3e8b7385	0.27236572
215	0x3e1e3254	0.15448886
216	0xbd8b1f04	-0.06793025
217	0xbe1956bb	-0.14974491
218	0x3e1f7943	0.15573601
219	0x3cf57328	0.029962137
220	0x3e0beeeb	0.13665359
221	0xbe8fac5c	-0.28061187
222	0x3e9381ad	0.28809872
223	0x3ea95983	0.33076105
224	0x3e94d682	0.29069906
225	0xbeba265a	-0.36357385
226	0x3ef55dbb	0.47923073
227	0x3e7b32ab	0.24531047
228	0xbd62affb	-0.05534361
229	0xbe8ef043	-0.2791768
230	0x3b3ec1e0	0.0029107258
231	0xbcc1d9fc	-0.023663513
232	0x3ec719fc	0.38887012
233	0xbe96a8a9	-0.29425552
234	0x3f0c3289	0.5476461
235	0x3ee210c2	0.4415341
236	0x3e8edab6	0.27901238
237	0xbd1b45b6	-0.03790828
238	0x3e7dd3c4	0.24787813
239	0x3ee9014b	0.455088
240	0xbd84ef73	-0.06490984
241	0xbe11992c	-0.14218587
242	0x3dddaa5c	0.10823509
243	0x3e18d7cd	0.14926071
244	0x3ec827bd	0.39092818
245	0xbe779fa6	-0.24181995
246	0x3e9235f4	0.28556788
247	0x3eb84b37	0.35994884
248	0x3ea04325	0.31301227
249	0xbee8b288	-0.4544871
250	0x3e2ab2be	0.16669747
251	0x3d9a7a15	0.075428165
252	0x3e6edb8e	0.23325941
253	0xbe890dd3	-0.2676836
254	0x3ecf51f6	0.4049222
255	0x3de4df3d	0.11175392
