saved_models/MLP/ckpt__epoch100.ckpt (torch, 18336 bytes, 20 tensors)

model.0.weight f4 [32, 64]
000000 13 dc 3c 3d 25 14 58 bd 75 44 e0 bd 75 73 dd 3d
       0.046108317 -0.052753586 -0.10950557 0.10813037
000010 62 f8 df bc fd 6c 05 3d d6 8f 49 be 91 65 48 bd
       -0.027340118 0.032574642 -0.19683775 -0.048924986
000020 72 de 41 bd ba 58 f2 3d 15 ed cb 3d 92 55 26 3c
       -0.04733128 0.118333295 0.09957329 0.0101522375
000030 b5 e5 a4 bb 33 12 06 bb fb 3e 38 be 75 bc 57 3d
       -0.005032266 -0.0020457625 -0.17992775 0.05266996
000040 b3 ee 9e 3c e9 56 ae 3d ac 9f 14 be fe 26 9b ba
       0.01940093 0.085126705 -0.14514035 -0.0011837182
000050 6a 61 83 3a fb bc 2e bd 90 89 0e 3e 57 13 e7 3b
       0.0010023538 -0.042660695 0.13919663 0.007051866
000060 e6 45 10 3d 5f ca 30 3d 46 69 94 3c e8 38 76 3c
       0.03522291 0.043161746 0.018116605 0.015028216
000070 54 d0 9c bc 73 37 96 3c f1 e5 f3 3c a4 13 4d bd
       -0.019142307 0.018336987 0.02977273 -0.05006756
000080 12 d7 28 3d 25 52 92 bb a6 87 ae bc 35 42 e8 3c
       0.041220732 -0.004465359 -0.021304917 0.028351882
000090 23 92 4e 3d e4 cc 53 bc e7 6a d6 3d 89 28 07 3d
       0.050432336 -0.012927268 0.10469609 0.03299764
0000a0 21 d9 55 3d 05 17 98 bd 12 c8 79 3d 1a e1 ce bc
       0.052209023 -0.074262656 0.060981818 -0.025253821
0000b0 d1 30 b7 bc 02 ae 04 3d ab 46 5b 3d db a0 25 3c
       -0.022362145 0.03239251 0.05353419 0.010109152
0000c0 6a 47 8b 3d 09 ee 04 be dd 33 de bd d2 16 c4 3d
       0.068007305 -0.12981428 -0.10849736 0.09574665
0000d0 83 d4 4b bd 7f e1 a7 bc 25 bd 94 3d 91 33 44 3d
       -0.049763214 -0.020493267 0.07262639 0.04790074
0000e0 a8 9c ea bc be d1 fa 3c b7 05 17 3d 80 d6 9e 3d
       -0.028639153 0.030617591 0.036870684 0.077557564
0000f0 a2 40 19 bd 33 99 40 3d ff 2e 72 be b0 0a a0 3d
       -0.037415154 0.047021102 -0.2365074 0.078145385
000100 18 d5 e2 bd 58 0f 18 be 2b 90 17 3e 55 73 d3 bc
       -0.11075801 -0.14849603 0.1480109 -0.02581183
000110 f5 2f 81 3d 34 c0 1a bd 3e f0 bb bc 3c c0 10 3d
       0.06307975 -0.037780955 -0.022941705 0.03533958
000120 fb d3 f1 3c e1 2a 4b 3b f6 36 08 3d 69 e1 43 bb
       0.029520025 0.00310009 0.03325554 -0.0029888994
000130 ce 28 bf bd dd b3 0c bd 0e e3 83 3d e3 96 de 39
       -0.09333955 -0.03435122 0.064397916 0.0004245556
000140 1a 7d ac 3d b0 99 93 3e 16 46 33 3d 1e 64 b6 bd
       0.08422299 0.28828192 0.04376801 -0.089058146
000150 65 e6 1a bd 25 97 a7 bd 45 d4 dc 3c fd 65 11 3d
       -0.037817378 -0.081831254 0.026956687 0.035497654
000160 f5 2d b4 3c 54 42 37 3d 6e 52 99 3d ac 41 1c bd
       0.02199457 0.04474099 0.07486425 -0.038148567
000170 31 79 5e 3d 52 00 2c bd 34 11 ea 3c fa 9d 0b 3d
       0.054314796 -0.041992493 0.028572656 0.034086205
000180 cb 2f 96 3c c9 23 52 3e 24 37 93 3d 4c 5b 91 bd
       0.018333336 0.20521463 0.071882516 -0.070974916
000190 04 1a 06 3d f0 03 3e 3c 44 7c ae bd 1d 27 b5 3d
       0.032739654 0.011597618 -0.085197955 0.08845351
0001a0 51 1f 5c 3d 8d 9f 80 bd b5 a7 29 3d 8d 0e d8 bc
       0.053740803 -0.06280432 0.041419704 -0.026374126
0001b0 a2 e0 62 bd a8 2d 80 3d e8 a4 62 bd 88 8e 09 3d
       -0.055390008 0.06258708 -0.055333048 0.033583194
0001c0 34 81 93 bd 8f 33 60 3e d2 75 3b 3e ec f4 86 bd
       -0.07202378 0.21894668 0.18306664 -0.06589684
0001d0 95 1a 20 3d 76 6f 2c bd 93 21 95 bc 26 52 ed 3c
       0.03908785 -0.042098485 -0.018204486 0.028969835
0001e0 08 3d 2e bd ef 5e a3 3e 3a ad 3f 3d 52 88 bd bd
       -0.042538673 0.31908366 0.04679606 -0.09254517
0001f0 74 00 91 bd 8f d0 8a bb 3b 04 ab bd 73 d7 1b 3c
       -0.070801646 -0.004236288 -0.08350416 0.009511816
000200 f2 e1 18 3c 0d 50 00 3c 02 45 a1 bb 90 65 0c bc
       0.009331213 0.007831586 -0.0049215565 -0.008569136
000210 ad b5 46 bb 36 01 4c bc e8 bf b6 3d 19 40 59 bc
       -0.003032069 -0.012451461 0.08923322 -0.013259911
000220 13 99 18 3d 0a e0 bb bb 15 ce 0a 3d 6a e3 0e be
       0.037255358 -0.0057334946 0.03388794 -0.13953939
000230 d2 aa ff bb 26 3e df bb 13 dd 8f 3d 78 91 0c bd
       -0.007802346 -0.0068128286 0.070245884 -0.034318417
000240 da 61 bf 3c 94 dc bf bd 07 f1 3b be 6b 33 af be
       0.023362089 -0.09368244 -0.18353663 -0.34218916
000250 50 75 59 3d c9 d3 39 be 5a d9 4c be ba ea 8b bd
       0.053090394 -0.18147196 -0.20004788 -0.0683188
000260 8f ec 3e 3c d0 f4 b7 bd e8 df ae 3d 68 4b 6d 3d
       0.01165308 -0.08982241 0.085388005 0.05793324
000270 18 38 00 bd 0e 74 cc 3c b6 ce cf 3a 16 93 a3 3d
       -0.031303495 0.024957683 0.0015854451 0.07987039
000280 66 f6 36 3d 02 56 89 3d e3 f2 a1 3d 4f 49 f7 3d
       0.044668578 0.06705858 0.07907655 0.120745294
000290 c6 4e ea bc 81 ad 16 3d c9 60 83 bd ae 8e 7f bb
       -0.028602015 0.03678656 -0.06414945 -0.0038994956
0002a0 3d 52 c2 3c b1 f1 b0 b9 5e bb 24 3e fe b6 ac 3d
       0.023720855 -0.0003374941 0.160871 0.084333405
0002b0 7b 0c 10 bd fe c1 96 3d f2 1f ce 3d eb 52 55 bd
       -0.035168152 0.0736122 0.10064687 -0.05208103
0002c0 4c 84 b7 3c b9 01 46 bd b5 f9 99 3d 29 2b 4d bd
       0.022401951 -0.048341487 0.07518331 -0.05008999
0002d0 69 1c f6 3b 99 43 d8 bb ff c0 8d bb b5 49 33 bd
       0.007510711 -0.006599855 -0.0043259854 -0.043771464
0002e0 a2 14 af 3c 56 3a 96 bd 86 80 8e 3c 92 e9 03 be
       0.021372143 -0.073353454 0.01739527 -0.12882069
0002f0 50 1f 65 3c 8f 50 82 bd 7e 1b 8d 3d 11 ca aa bd
       0.013984516 -0.063630216 0.06890009 -0.08339322
000300 1f 6b 17 bd 8c 72 bf bd 64 c2 b2 bb 70 81 0f 3c
       -0.036967393 -0.0934802 -0.005455302 0.008758888
000310 87 24 e5 bb e6 31 ce bd 23 29 0f bd cf 1f 21 3e
       -0.00699288 -0.10068111 -0.03495134 0.1573479
000320 22 cf 0c 3d 96 c2 a3 bd 1d 05 f4 bd 2e 1b 37 bd
       0.034377225 -0.07996099 -0.11915038 -0.044703655
000330 03 09 5d 3d 0b b4 b7 bd 96 a4 81 3c f9 20 33 3d
       0.053963672 -0.08969887 0.015825551 0.043732617
000340 97 11 45 3d 40 b4 89 3c a4 39 a7 3d 1a 96 0b 3d
       0.048112478 0.016809583 0.08165291 0.034078695
000350 f2 55 1c 3d 61 2c 9c bc 6d f2 27 bd 92 eb c2 3c
       0.0381679 -0.01906413 -0.04100268 0.02379397
000360 d1 88 dc 3c 08 4c 9c bd 7c 8f f4 bc 32 e5 f4 bd
       0.026920708 -0.07631689 -0.029853575 -0.11957778
000370 89 af 3a 3d de 23 00 be 24 24 12 be 64 54 83 bd
       0.04557756 -0.12513682 -0.14271599 -0.064125806
000380 bf 1f 2e bc c9 06 f5 3c 6e a1 5a be 8a 8a c0 bd
       -0.010627686 0.029910462 -0.21350643 -0.09401424
000390 f9 39 31 3d 28 f5 0e be 52 ab cd bd 1b 0e cd bd
       0.043268178 -0.13960707 -0.100424424 -0.10012456
0003a0 19 16 45 3d 64 05 c4 bb a4 fa 30 3d b2 b2 dc 3d
       0.048116777 -0.005982088 0.04320778 0.10776271
0003b0 15 e4 b0 bc d2 03 c7 3d da b5 be bd 7f 45 81 bd
       -0.021593133 0.097175255 -0.09312029 -0.063120835
0003c0 d1 d3 d6 3c 49 e3 03 3e be b2 8e 3c 92 e7 c9 bd
       0.026224049 0.12879671 0.017419215 -0.09858622
0003d0 e3 bd 08 3d 1a 04 d4 3b 07 2f be 3d 28 05 c0 3d
       0.033384215 0.0064702155 0.092863135 0.093759835
0003e0 7d eb 97 3c 8b 07 17 be d0 02 87 bc 39 1d cd bd
       0.018544907 -0.14748971 -0.016480833 -0.100153394
0003f0 19 6b c4 ba 91 3b 35 bd 21 d1 8f bd c8 9f 8d bd
       -0.0014985531 -0.04424626 -0.0702231 -0.069152415

model.0.bias f4 [32]
000000 1d c5 08 3e 4f 16 33 3d fa 82 e9 bd 8d 2f f7 3d
       0.13356443 0.043722447 -0.11401935 0.120696165
000010 42 16 18 3b ec 41 ad 3d dc 18 e3 bd 7a 34 cd 3d
       0.0023206626 0.08459839 -0.11088726 0.10019775
000020 36 3b 6d 3e a2 20 d1 bc 49 90 22 be 8b a0 e7 3d
       0.23167118 -0.025528256 -0.15875353 0.11309918
000030 dd 5e 2b 3d 3b 9c 6d 3d b4 db 2a 3b 62 11 f3 3d
       0.041838516 0.05801032 0.0026070895 0.1186855
000040 7a 30 07 3e 24 f6 25 bd e2 38 b3 bd da 2c a1 3c
       0.13202086 -0.04051794 -0.08751084 0.019674707
000050 bd 44 2c 3e f2 98 de 3d da 9a 06 be 57 9b 08 3d
       0.16823097 0.10869016 -0.13145009 0.03335127
000060 c9 83 0e 3d 9b 8a 48 bd cb 2f d9 bd 7d a2 f0 3c
       0.03479365 -0.04896031 -0.10604819 0.029374355
000070 98 e3 06 3e e6 15 e5 3d 21 1a 7e 3d 7e 82 11 3e
       0.13172758 0.111858174 0.062036637 0.14209935

model.2.weight f4 [32]
000000 2f 11 87 3f 9f dd 7c 3f 40 4a 81 3f da 33 86 3f
       1.0552119 0.98775667 1.0100784 1.0484574
000010 50 94 7a 3f 86 be 85 3f 73 ca 85 3f 3b 35 81 3f
       0.97882557 1.0448768 1.0452408 1.009437
000020 ed 01 75 3f 9d 75 80 3f 30 3e 84 3f 79 40 82 3f
       0.95706064 1.0035893 1.0331478 1.0175925
000030 88 e2 7b 3f 09 16 7c 3f f4 b2 7c 3f b3 f4 7a 3f
       0.98392534 0.9847112 0.9871056 0.9802963
000040 f9 7a 7f 3f b2 45 8b 3f 6e ad 84 3f 43 6a 79 3f
       0.99797016 1.0880644 1.0365427 0.9742777
000050 01 f6 89 3f b0 01 75 3f 7c 7c 7e 3f d6 4a 85 3f
       1.07782 0.957057 0.994087 1.0413463
000060 3c cf 71 3f dd c3 73 3f 19 ea 81 3f 63 22 5f 3f
       0.9445684 0.9522074 1.0149566 0.87161845
000070 f5 91 74 3f fa 36 7b 3f be 67 73 3f b5 d5 85 3f
       0.9553521 0.9813076 0.95080173 1.0455843

model.2.bias f4 [32]
000000 f9 fe 21 3d fc 62 44 bd 46 4e 74 bc 03 05 8d 3d
       0.0395498 -0.04794596 -0.01491124 0.068857215
000010 ad 28 12 bd da 96 4d 3d ed ab 07 3c e7 13 8d 3d
       -0.035683323 0.05019269 0.008280736 0.06888562
000020 06 d2 bf 3c 9b b0 fb 3c ca 56 cf bc 80 66 13 bd
       0.023415577 0.03072386 -0.025309939 -0.035986423
000030 28 b1 ac 3c e0 ba 5f bd 21 d1 a6 3d 9f 41 58 3d
       0.021080568 -0.054621577 0.08145357 0.052796956
000040 a7 de 10 bd cc 2f 9d bc ba c6 93 3c 01 ee d2 3c
       -0.035368588 -0.01918783 0.018039096 0.025748255
000050 eb 73 57 3c 34 f6 85 bd 5a 25 83 3b b5 76 e3 bd
       0.013150196 -0.065411 0.0040022554 -0.11106626
000060 d8 3d 56 bc 96 12 eb bd cb 8a 6f 3a 76 f0 09 3c
       -0.013076268 -0.11478154 0.0009137808 0.008419147
000070 27 0c 8d bc f5 e0 a7 bd 30 27 ad bc ba 23 6b 3d
       -0.017217709 -0.08197204 -0.02113685 0.05740712

model.2.running_mean f4 [32]
000000 6e 58 52 40 bb 30 40 40 d1 13 83 40 dd 81 7f 40
       3.2866473 3.0029743 4.096169 3.9923012
000010 22 1b 56 40 15 3a 54 40 c2 aa 6d 40 2d ee 6a 40
       3.345406 3.316045 3.7135472 3.670787
000020 9f 8b 92 40 77 c2 83 40 15 57 5c 40 a9 e7 65 40
       4.5795436 4.1174884 3.442815 3.5922644
000030 34 62 6e 40 da df 31 40 b7 80 5b 40 2c f1 8b 40
       3.7247438 2.7792878 3.4297311 4.37319
000040 d6 b1 77 40 c2 55 8a 40 f4 06 31 40 31 f1 85 40
       3.8702292 4.3229685 2.7660494 4.1856923
000050 34 c0 41 40 ec 39 71 40 65 dd 48 40 f9 d7 87 40
       3.0273561 3.7691603 3.1385128 4.245114
000060 23 15 47 40 42 1d a8 40 83 3c 32 40 32 9b 92 40
       3.110665 5.2535715 2.7849433 4.5814447
000070 f8 26 50 40 11 ae 8a 40 6b 8d 5b 40 15 38 63 40
       3.2523785 4.3337483 3.4305065 3.550298

model.2.running_var f4 [32]
000000 68 8c 2f 42 96 b8 c6 41 39 1f 33 42 19 be 23 42
       43.887115 24.84013 44.78049 40.935642
000010 1c ea e3 41 20 d6 3f 42 a9 45 6a 42 48 c1 66 42
       28.489311 47.959106 58.568027 57.68875
000020 2b 45 35 42 d3 fb 27 42 58 2a 5a 42 5f 54 42 42
       45.317547 41.995922 54.54135 48.582394
000030 9b ef 18 42 b0 6c d7 41 e2 99 20 42 fc 56 2b 42
       38.23399 26.92807 40.150276 42.834946
000040 de e1 32 42 d0 0b 9b 42 ac 56 b3 41 c8 fd 25 42
       44.720573 77.52307 22.41732 41.497833
000050 53 25 ed 41 e8 67 0d 42 35 d5 00 42 24 d5 29 42
       29.643225 35.35147 32.20821 42.458145
000060 7d 4b c3 41 60 a4 76 42 41 e6 fd 41 17 cf 49 42
       24.41186 61.660522 31.737429 50.452236
000070 b3 02 fa 41 4a 96 4b 42 94 16 d9 41 61 14 31 42
       31.251318 50.896767 27.136024 44.2699

model.3.weight f4 [16, 32]
000000 61 4c 68 be 1a dc 87 3d 09 fc 8a bd f5 3e a2 3d
       -0.22685386 0.06633778 -0.06786353 0.07922164
000010 6b 1f 53 3e 59 4e 7d 3b 70 e6 9f bd 95 51 eb 3d
       0.20617454 0.0038651435 -0.07807624 0.1149017
000020 d6 98 ab bd b0 e3 0b ba ab 0f 9f bc 36 a0 f3 bc
       -0.083787605 -0.0005336357 -0.01941665 -0.02973948
000030 36 ce ac bc 89 91 5e 3e 3e 0d fd 3d 39 86 1d 3d
       -0.021094423 0.21735205 0.12356041 0.038458083
000040 93 1f ed bd 6f dc 01 3d c2 c3 a9 bd e4 4d ce bd
       -0.11578288 0.031704362 -0.08289291 -0.1007345
000050 02 91 4f be 98 0e f6 3d 00 68 08 be 51 32 c3 bc
       -0.2027016 0.12014502 -0.13320923 -0.023827704
000060 4e 1e 42 3e cf b1 58 3d 2b 88 05 3e 5b 8f e4 bd
       0.18956873 0.052903946 0.13040225 -0.111601554
000070 87 48 02 be b0 97 06 bd ce 5b ed bc 6e 11 f5 3d
       -0.1272298 -0.032859504 -0.02897444 0.11966215
000080 ec 66 67 be 7b 9a cb bd e7 89 ae bd 96 36 b6 3d
       -0.22597855 -0.09941574 -0.085223965 0.0889713
000090 a4 0f 0a be 4e e3 66 3c 59 c1 ae bd 9d ef 17 bd
       -0.13482529 0.01409228 -0.08532972 -0.037093747
0000a0 f9 0c 89 3c 15 07 ce 3d 63 db 01 be 19 b0 52 be
       0.016729819 0.100599445 -0.12681346 -0.20574988
0000b0 cd c1 a5 3d 38 cf 9b bd 4b f6 9a bc 33 46 5f 3d
       0.08093605 -0.07607883 -0.01891627 0.054510307
0000c0 57 1c 9e bb fb 6b d6 bd fa 76 b8 bd 85 fe 82 3d
       -0.0048251557 -0.104698144 -0.09007068 0.06396202
0000d0 1e a0 02 be e6 16 40 bd 40 ca b7 bd 2f b1 52 be
       -0.12756392 -0.046896838 -0.08974123 -0.20575403
0000e0 df cc a1 3c 73 f3 15 bd e0 e3 45 be bf bc 80 3c
       0.01975101 -0.036609124 -0.19325209 0.015715001
0000f0 d1 ab 98 bc c6 9a b8 bc fe 4a 98 bd 79 6b 88 bd
       -0.018636616 -0.02253474 -0.074361786 -0.06661124
000100 1d 74 d3 3d 33 bf f1 3c 78 8e c8 3c b4 b5 82 bd
       0.10324881 0.029510116 0.024481997 -0.06382313
000110 83 73 42 3d ed 89 95 bc eb 55 57 3e d7 1a 61 3d
       0.04747344 -0.018254245 0.21028869 0.054957237
000120 6a 7e 5e 3d d1 c4 8e 3d 1e 4c 1f be 19 92 b9 bb
       0.054319777 0.069711335 -0.1555638 -0.005663168
000130 af a6 80 bd 6f 67 f6 bd 72 87 cc 3c 6f 24 ca 3d
       -0.06281792 -0.12031447 0.02496693 0.098702304
000140 a0 bd bb bd 24 d1 25 3e 51 51 ee bd 5d ae 0c be
       -0.091670275 0.16193062 -0.116366036 -0.1373839
000150 16 0b ab 3d 8b 59 5f 3d d1 3c 0b 3e 1e 09 86 bd
       0.08351724 0.054528754 0.13597418 -0.06544708
000160 e2 32 c3 3d cf 9d 45 bd 06 11 3d be 3c b1 43 3d
       0.095311895 -0.0482462 -0.18463525 0.047776446
000170 c0 70 76 bd e3 d4 cc bd b2 bd 20 bc e9 52 60 3e
       -0.06016612 -0.100015424 -0.009810852 0.21906628
000180 42 3c 02 3d 04 1a 10 3e 08 78 6d bb ca 22 27 3e
       0.031795748 0.14072424 -0.0036234874 0.16321865
000190 a2 7a d3 bd ab b6 dd bd 7d b3 b9 bd 8d 6d d6 3d
       -0.10326125 -0.10825857 -0.09067438 0.10470114
0001a0 89 39 12 3c ee fc be 3d de 84 43 bd ae 1f b0 3d
       0.00892485 0.09325586 -0.047734134 0.085997924
0001b0 09 3c aa 3d b0 01 38 3e 52 8e 53 3e 21 13 fa 3d
       0.08312232 0.17969394 0.2065976 0.1221068
0001c0 86 40 4c 3d 54 76 f1 bc 0a 71 20 3e 39 17 ea bd
       0.04986622 -0.029475369 0.15668121 -0.114302106
0001d0 d1 21 28 3e 84 21 e1 bc 30 39 15 be 94 5d 27 be
       0.1641915 -0.027481802 -0.14572597 -0.16344291
0001e0 b1 1f 00 3e 1a b2 b0 3d c6 71 af 3b c2 b5 2a 3e
       0.1251209 0.0862772 0.005354139 0.16670898
0001f0 af 77 09 3e a0 25 31 be a7 7f 5a 3d 2a f2 f0 3c
       0.13424562 -0.17299509 0.053344395 0.029412348
000200 34 cc 67 3d e6 37 f5 bd d5 89 a7 3d 63 bd 8e bd
       0.056591228 -0.119735524 0.08180586 -0.069697164
000210 30 37 8b 3d 49 8e 9a 3d ca cf 3b 3d 23 9a 64 3d
       0.067976356 0.0754667 0.04585246 0.05581106
000220 1a 5e b9 3d c8 8c c1 bd f8 7d b4 3d 5f 36 ac 3d
       0.090511516 -0.0945068 0.08813089 0.08408808
000230 3d 62 1c be 9e 86 20 3e 04 6c c4 3d d9 21 3a bd
       -0.1527185 0.15676352 0.09590915 -0.045442436
000240 56 32 2c 3e 78 70 9a 3d 10 19 f2 3d ef 6d 67 bd
       0.16816077 0.07540983 0.118211865 -0.056501325
000250 2e 2e d8 3d 45 63 02 bd 7a 8b ce 3d b4 a4 15 be
       0.10555683 -0.031832952 0.10085197 -0.1461361
000260 ad 2a 12 be 7d 7a 26 be 32 b0 ce bd 2a c4 d7 bd
       -0.14274092 -0.16257663 -0.100922 -0.10535462
000270 e3 74 f7 bd 7f 4f d1 3c fc 92 0e bd db 43 0a bc
       -0.12082841 0.025550602 -0.034808144 -0.00843903
000280 fa 76 36 be f5 8c 0b be 91 6b ab 3d c6 ab 7d 3c
       -0.17818823 -0.1362799 0.08370126 0.0154828485
000290 75 5b 1b be 9a 6f 1f 3c 63 77 eb bd ca a1 c6 3d
       -0.15171607 0.009731198 -0.114973806 0.096988276
0002a0 01 f2 17 be 2d 1b fa 3d 33 7d e9 bc c0 62 79 bd
       -0.14838411 0.122122146 -0.028502082 -0.06088519
0002b0 c1 71 7d bd e6 2c 9e 3c b0 29 65 3d 16 0c 9a bc
       -0.061876062 0.019308519 0.05594796 -0.018804591
0002c0 8d bf 51 be cc 17 14 3e bf 60 17 be 6e b1 07 3e
       -0.20483227 0.14462203 -0.14783 0.13251278
0002d0 c7 a2 42 be b6 ef d7 bd 21 c4 e5 3d 28 3f 85 3d
       -0.19007407 -0.10543768 0.11219049 0.06506187
0002e0 7d 9e 28 3c c5 ef de bc 4e 2b a5 bd 5d 53 f2 3d
       0.010291693 -0.02721394 -0.080649 0.118323065
0002f0 95 cf 23 bd 23 c8 10 3e ed 43 83 3d 6f 24 26 3e
       -0.039992888 0.14138846 0.0640944 0.16224836
000300 85 dd 33 bd 0e a0 b4 3d d1 d7 16 be 36 bb 8e bd
       -0.04391243 0.088195905 -0.14730765 -0.069693014
000310 da 1e 16 ba 61 6e 70 be b0 8a 80 bd 5a 11 55 be
       -0.0005726643 -0.23479606 -0.062764525 -0.208074
000320 1c b7 5f 3d 39 79 ca 3d f1 d8 42 be 60 be 32 be
       0.054617986 0.09886403 -0.19028069 -0.17455435
000330 d6 20 45 3d 83 cc 19 bd 16 bc 27 be 96 19 b2 3d
       0.048127018 -0.037548553 -0.16380343 0.086962864
000340 b4 59 d6 3d 77 12 00 be a2 fe c1 3d 27 fc 21 be
       0.10466328 -0.12507044 0.094723955 -0.15818845
000350 bb 7f ab 3c 13 28 b3 bd fe 0e 3b be 63 1d b9 3d
       0.02093493 -0.08747878 -0.18267438 0.09038808
000360 72 52 94 3d c1 ab cf 3d 9c 30 cf bd 47 18 ee 3d
       0.07242288 0.10140181 -0.101166934 0.11625724
000370 eb e7 bc 3b 23 62 6a bd 45 0d 2b 3d 36 f2 f6 bd
       0.0057649515 -0.057222497 0.0417607 -0.12057917
000380 9a d4 98 3b 6a 02 04 3e 0d 21 76 3d a9 6e 9b 3d
       0.004664016 0.12891546 0.060090113 0.07589466
000390 97 8d e8 bd 56 79 e5 bd 54 ed 94 3c 29 e7 2e 3e
       -0.11355131 -0.112047836 0.018179573 0.17080368
0003a0 77 c9 79 be 72 27 90 bd ac b7 08 bc 64 8d a4 3d
       -0.24393259 -0.070387736 -0.008344572 0.080347806
0003b0 6c 54 16 3e 43 5b 86 3c bb a7 5e bd 26 d1 45 be
       0.14680642 0.016400939 -0.05435918 -0.19318065
0003c0 98 8a ea bd 07 c0 ca 3d 9f 59 84 3d 5a 96 6d bd
       -0.11452216 0.098999076 0.06462406 -0.058004715
0003d0 3e 0d 1c bd f9 21 4b be bb ad a6 bd 39 d0 27 3e
       -0.038098566 -0.19837178 -0.08138605 0.16388024
0003e0 8e 4e 0d 3e b9 11 84 bd 89 1d 86 bd d9 2d b1 bc
       0.13799497 -0.06448693 -0.06548602 -0.021628307
0003f0 1c 37 5c bd c7 d6 d5 bb 77 53 c4 3c 55 13 b2 3c
       -0.053763494 -0.0065258476 0.02396558 0.021737734

model.3.bias f4 [16]
000000 1b c8 4c 3d ec 2b db 3d 59 e6 d5 3c b3 c5 57 3d
       0.049995523 0.10701737 0.026110815 0.052678775
000010 e6 6a 12 bd a7 6e 17 bb f3 d5 7a 3c 7b cc a1 bd
       -0.035746478 -0.0023106725 0.0153097985 -0.0790033
000020 3b db 22 3e bc 61 1a be 55 76 56 3c 01 7e c0 3d
       0.15903942 -0.15076345 0.013089736 0.09399033
000030 98 6e 15 3e 7d c0 23 3e 2b b2 8e bc 0a c9 a6 3d
       0.1459297 0.15991397 -0.017418941 0.08143814

model.5.weight f4 [16]
000000 20 e6 87 3f 68 60 57 3f 49 c7 83 3f d5 bd 5c 3f
       1.0617104 0.8413148 1.0295192 0.8622716
000010 0e 24 80 3f 75 a2 70 3f f9 3f 80 3f d0 9b 85 3f
       1.0011003 0.9399789 1.0019523 1.0438175
000020 70 47 85 3f 6f 5d 7a 3f 6a bb 84 3f 6c b4 74 3f
       1.0412426 0.9779882 1.0369694 0.955878
000030 ab 88 84 3f e3 c1 83 3f 05 00 76 3f 99 1a 83 3f
       1.0354208 1.0293545 0.9609378 1.0242492

model.5.bias f4 [16]
000000 a7 45 2b 3c b5 d8 11 be 38 aa 68 3e 58 cf 01 be
       0.010453618 -0.14242823 0.22721183 -0.12676752
000010 e9 4a 2d 3e e3 38 e2 bb bf ae 73 be 88 ce 66 3e
       0.16923107 -0.006903754 -0.23797129 0.22539723
000020 45 ea 40 3e 0d a5 d9 bd 87 0b 45 3e 8b a4 02 be
       0.18839367 -0.10627184 0.19242679 -0.1275808
000030 d7 6b 97 3e d5 04 6f 3e c9 48 c8 bd 76 ba 1d 3e
       0.29574463 0.23341687 -0.09779508 0.1540316

model.5.running_mean f4 [16]
000000 8c f2 6b 3e b3 d5 cc 3e 34 cf 83 3e 71 9c 94 3e
       0.23041743 0.4000679 0.2574402 0.29025605
000010 47 5c 5a 3e 81 19 6c 3e 5c de 7b 3e 7d 5f 35 3e
       0.21324264 0.23056604 0.24596542 0.17712207
000020 20 5f a5 3e bd 86 28 3e 6a 3d 65 3e 32 40 8b 3e
       0.32299137 0.16457649 0.22386709 0.27197415
000030 62 6e 81 3e 9e b3 9a 3e 4e 6b 7d 3e 33 26 b3 3e
       0.25279528 0.30215162 0.24747965 0.3499008

model.5.running_var f4 [16]
000000 b9 91 31 3e a5 82 13 3e ea 45 90 3e 06 b9 56 3e
       0.17340745 0.14405306 0.2817834 0.20969018
000010 94 18 2a 3e 14 92 d9 3d 64 6d 9a 3d 55 7d 05 3e
       0.16610938 0.10623565 0.07540396 0.13036092
000020 82 46 5e 3e 94 e8 1d 3e 31 57 87 3e 1d 92 28 3e
       0.21706584 0.15420753 0.2643371 0.16461988
000030 ee e0 ae 3d 06 fa 7d 3e 61 39 6e 3e a7 cd 4c 3e
       0.08538996 0.24802408 0.23264076 0.20000325

model.6.weight f4 [8, 16]
000000 0a df 83 bd 89 18 01 3e 67 f8 02 be 4f 59 3b 3d
       -0.06439026 0.12607016 -0.1279007 0.04573947
000010 76 74 f4 bd 80 f8 84 bd 19 a5 55 3e 52 e2 c3 bd
       -0.11936276 -0.0649271 0.20863761 -0.095646515
000020 17 a5 0c be d9 fc 7d 3c f0 5d b4 bd 86 c4 94 3d
       -0.13734852 0.015502178 -0.0880698 0.07264046
000030 80 aa 8a be b6 48 8f bd 5c fa b8 bc eb 04 c0 ba
       -0.27083206 -0.069962904 -0.022580318 -0.0014649903
000040 0e ac 1e bd 36 1c e6 bc c6 2c ad 3d e2 10 34 bc
       -0.038738303 -0.028089624 0.084558055 -0.010990353
000050 10 9f 52 3d 86 2a 2f be 76 03 18 3d a9 15 ff 3d
       0.051421225 -0.17106065 0.037112676 0.12455303
000060 1a a8 f2 3c b6 22 83 3c 6d bd 2b 3e 8b fd d7 3d
       0.029621173 0.016007762 0.16771479 0.10546406
000070 2e 9a 6b bd d2 17 f2 3d ed 46 5a bd cc 5e 7b 3e
       -0.057520084 0.118209496 -0.053290296 0.24547881
000080 7e 40 01 be b9 32 93 bc 88 ff 99 3d c7 99 31 bd
       -0.12622258 -0.017968522 0.07519442 -0.043359544
000090 89 81 c3 3c c6 19 96 3d d7 ce a2 be fe 48 35 3e
       0.023865478 0.07329135 -0.3179843 0.17703626
0000a0 ca 07 e9 3d 1f 9c 83 3d 0b d8 9d 3e b5 98 fb bd
       0.11378439 0.06426262 0.3082889 -0.12284986
0000b0 d6 60 3b 3e f6 b4 f1 bc 02 93 37 bd 3a 1d a5 3e
       0.18298659 -0.029505234 -0.044817932 0.3224886
0000c0 5e a3 f8 bd 24 11 1c bd 39 b4 17 3e a9 20 11 3e
       -0.12140535 -0.038102284 0.14814843 0.14172615
0000d0 59 80 f9 bd c9 d2 2d 3d ea ae 24 be 91 86 d3 3c
       -0.121826835 0.04243735 -0.1608235 0.025821002
0000e0 fb d5 15 be 02 8b a4 bd 39 ce 63 3d 0e 32 80 3d
       -0.14632408 -0.08034326 0.05561659 0.06259547
0000f0 5a 67 52 3e 2a b0 6e 3d 57 df 69 be 05 27 13 3d
       0.20547238 0.058273472 -0.22839104 0.035925884
000100 bd 30 a6 3c 51 14 6e 3d 17 8f 62 3d 7f 23 37 be
       0.020286912 0.058124844 0.055312242 -0.17884634
000110 92 52 9f 3d 95 80 1e be 42 95 52 be fb 6e f1 3d
       0.07779421 -0.15478738 -0.2056475 0.11788746
000120 5f bf 57 3e 0d 4f 17 be 44 ee f7 3d e9 d7 c2 3c
       0.21069096 -0.14776249 0.121059924 0.023784595
000130 5c 40 14 3d a6 5b 3c 3e 34 e6 86 3d 03 d7 e0 3d
       0.03619419 0.18394336 0.065868765 0.1097851
000140 75 89 44 3e fc 44 a6 be 67 58 2e 3e 23 f1 d9 3c
       0.1919306 -0.32474506 0.1702591 0.02660424
000150 fb f6 6d 3e 4f 44 8f 3d aa c4 14 be d5 ea dc bc
       0.23238747 0.06995451 -0.14528146 -0.026967445
000160 0d b5 3d 3e a9 f7 3b be 4e d6 1f 3d 2c 2f d4 bd
       0.18526097 -0.18356194 0.039022736 -0.1036056
000170 34 4c 85 3d f7 91 7f 3e e3 03 49 be d8 81 c3 bd
       0.06508675 0.24958025 -0.19630389 -0.0954625
000180 3d 55 56 be fa e4 d5 3d a0 89 68 3e 99 1c 85 bd
       -0.20930953 0.104440644 0.2270875 -0.06499595
000190 45 94 56 be 0a 73 08 be 74 da 07 3e d6 33 03 3e
       -0.20954998 -0.13325134 0.13266927 0.12812743
0001a0 ec 86 93 be 8e 98 de bb db fa c0 3c f3 2b 23 3e
       -0.28813875 -0.0067930883 0.023557117 0.15934734
0001b0 bb 49 5a 3c b2 a7 7b bb 29 0e 33 be b4 7c 1f 3d
       0.013323243 -0.0038399515 -0.1748587 0.038937286
0001c0 d1 3e 19 be e9 60 10 3e 89 40 8c 3e 7b d8 ea bd
       -0.14965369 0.14099468 0.27392986 -0.114670716
0001d0 21 fd bb bc 22 fd 6a 3e 0e 88 30 3d a0 6e 2f be
       -0.02294785 0.22948125 0.0430985 -0.17132044
0001e0 be 20 85 be e5 4a 2e 3c 70 92 63 be ad c8 a0 bb
       -0.26001543 0.010637973 -0.2222383 -0.004906735
0001f0 0a c8 77 3e 0d 6b 1e be cf ed 6d be 41 18 96 bd
       0.24197403 -0.15470524 -0.23235248 -0.07328845

model.6.bias f4 [8]
000000 bb 8f fe 3b da 0d 23 3e 90 bc a2 3d 8e 7c 6c 3e
       0.007768599 0.15923253 0.07946122 0.23094389
000010 ef fe c3 bd 90 1e d8 3d 95 19 0b 3e 58 4b 38 be
       -0.09570109 0.10552704 0.13583978 -0.17997491

model.8.weight f4 [8]
000000 db 73 d8 3f 16 fe d4 3f 5f a1 c3 3f 0a 39 d0 3f
       1.6910356 1.6640041 1.5283622 1.6267407
000010 ed fe cf 3f 19 65 bc 3f 7d 09 c2 3f 81 3b b8 3f
       1.6249672 1.4718353 1.5159146 1.4393159

model.8.bias f4 [8]
000000 b3 60 38 be 06 fd 07 be f4 8b b3 3c 08 fa 03 3d
       -0.18005638 -0.13280115 0.02191732 0.03222087
000010 38 94 47 bd a2 44 cf bb 7b 37 eb bd 91 78 b0 3d
       -0.048725337 -0.0063253203 -0.114851914 0.08616746

model.8.running_mean f4 [8]
000000 8f 6b f4 3d 9d 7a aa 3e 0a 07 08 3f db 09 c5 3e
       0.11934578 0.33296672 0.5313574 0.38484082
000010 a9 92 8d 3e da 92 03 3f e2 fb 8a 3e 1b c0 3b 3e
       0.27650955 0.5139595 0.27145296 0.18335001

model.8.running_var f4 [8]
000000 96 88 21 3d e6 e0 3d 3e 83 45 05 3f 23 2c b3 3d
       0.0394369 0.18542823 0.5205919 0.08748653
000010 35 04 24 3e 00 53 d8 3e 99 9d 96 3d 88 1c a3 3d
       0.1601723 0.42250824 0.07354278 0.07964426

model.9.weight f4 [4, 8]
000000 9f 67 36 be d4 5e 57 3f 8c 2f 39 3f a2 64 a2 3e
       -0.17812966 0.8412907 0.72338176 0.31717402
000010 e3 7d 5b 3f eb cf 10 3f 15 1f 86 3b d9 66 9f be
       0.8573896 0.5656726 0.0040930607 -0.31133154
000020 eb 8c 6f 3f 49 58 00 be 02 5b 0f bf e5 de 0f bf
       0.935744 -0.12533678 -0.5599824 -0.56199485
000030 8b d8 87 be 1f 41 f1 be 7e c3 d8 3e 80 b6 9f bd
       -0.26532397 -0.47119996 0.4233665 -0.07798481
000040 5d 48 26 bf e7 b0 2e bf 54 b6 e1 be f5 db 16 bf
       -0.6495417 -0.6823868 -0.44084418 -0.5892938
000050 e9 9e 0a be de 19 ae 3d eb b6 3c bf c6 35 7e be
       -0.13537182 0.085010275 -0.7371661 -0.248252
000060 33 6b 5f be 7e 45 19 bf 65 58 49 bc 8b 7e 0d 3f
       -0.21818237 -0.5987166 -0.012289141 0.55271214
000070 f3 16 c2 be 5d cc 9b be 30 b9 7e 3e 57 3d 3a 3f
       -0.37908134 -0.30429354 0.24875331 0.7274985

model.9.bias f4 [4]
000000 d9 8d 1c 3e a6 cf b4 bd 23 f5 0c 3e e7 21 9e 3e
       0.15288486 -0.08828668 0.13765387 0.3088524
