saved_models/MLP/ckpt__epoch100.ckpt (torch, 18336 bytes, 20 tensors)

model.0.weight f4 [32, 64]
-0.11558466 -0.28140324 -0.032980237 0.008138843 -0.06300837 -0.007114813 -0.020661728 0.0012454623
-0.09168973 -0.1103942 -0.11575798 -0.09489149 -0.07236219 0.07633852 0.112223856 -0.072937295
0.075187325 -0.10907035 -0.13752596 -0.0703193 0.1110334 0.024200482 -0.03522519 -0.0109891
-0.10389516 -0.1117121 0.011016083 -0.018555837 0.0070427298 0.0029877156 -0.05695634 0.049258325
-0.0009713969 0.178575 0.08477806 -0.044028714 -0.032318406 0.024777057 -0.13383041 0.015642634
-0.023412298 -0.014868837 0.06629023 -0.058121566 0.031916138 -0.021070682 -0.036742937 0.007779783
0.019388348 0.021497097 -0.063117385 0.036891036 0.09274555 0.024376404 -0.13082163 -0.034583796
0.07264156 -0.09252171 0.028431877 0.0396554 0.069606364 -0.019478386 -0.05124709 -0.0038534598
-0.0583841 -0.14417899 -0.015540579 0.11065647 -0.12726863 -0.052902885 -0.015503134 0.045579918
0.035288792 0.044188246 0.13824646 -0.052057873 0.017510409 -0.005845683 -0.11217981 -0.020617604
-0.029401587 0.019861314 0.11639928 0.002965327 -0.07329944 0.015913822 -0.00683823 -0.0004639085
0.07883329 0.003953031 -0.091473825 -0.03773693 -0.06380739 0.010921462 0.038702995 -0.03588473
0.04419118 -0.15310161 -0.11767601 0.0030573583 0.018878758 -0.005162105 0.05344812 -0.021077773
0.11860941 -0.16130932 0.008756778 -0.03477876 0.06350526 0.1974168 -0.032194246 -0.06083607
0.030594563 0.15060255 0.14991893 0.012244968 -0.067803636 -0.061759662 -0.0659551 0.087115444
0.10635736 0.055281 -0.09327746 0.056250285 -0.10375082 -0.07765699 0.10938119 0.034562923
0.018939916 -0.09979621 0.06224767 -0.066700645 0.0030435987 -0.048948575 -0.09619401 -0.019248374
0.017555067 -0.0077659204 0.06337177 -0.04863503 0.03409497 -0.06349156 0.2653853 0.06323116
0.008539841 0.07408588 -0.027019946 -0.17511053 0.05409839 -0.093163535 -0.100730754 -0.040278703
0.043341327 -0.16780989 -0.0771102 0.03296883 0.013737794 -0.06564545 0.042853184 -0.032986816
0.036390632 -0.09734667 -0.12342569 0.07550346 0.033870228 -0.06272081 -0.19468081 -0.01267617
0.046465658 -0.042785287 0.04261622 -0.021467425 -0.036116935 0.020050542 0.09449101 -0.07107325
0.04484315 -0.17811702 -0.029371545 0.0029738669 -0.028620688 -0.040180236 0.11909949 0.0021408235
-0.0068470617 0.15642881 -0.14902568 -0.07787844 0.031082507 -0.057639565 -0.20275493 0.017076496
-0.1165496 -0.07555074 -0.021401605 0.047375552 -0.055450223 0.006576738 -0.033543322 0.042968817
0.06371268 0.047716796 0.022434762 -0.012547191 -0.051007904 -0.010974229 -0.015701752 0.06524215
-0.00038108058 -0.056715358 -0.07636615 0.0017417887 0.04008831 -0.020376854 0.086500704 0.006257002
0.05492792 -0.0053515537 -0.008407324 0.07194754 0.0758711 0.06768801 -0.0072204974 0.05882301
0.09803183 0.06970667 -0.1391655 -0.052684654 0.14599639 0.025553497 0.010375124 0.04521752
-0.034531906 -0.024088588 0.021366129 -0.056561176 0.0390507 0.08569533 0.092564896 -0.0058599054
0.10110754 0.061868615 0.117706776 0.16590393 -0.18257087 -0.18020128 0.09187669 -0.010401739
-0.08613453 0.017756065 0.043645415 -0.09852378 -0.08402591 -0.08874481 -0.029693725 -0.0017361286
00000000: a6b7 ecbd 1614 90be 4916 07bd c858 053c
00000010: 880a 81bd 6123 e9bb c942 a9bc c83e a33a
00000020: d3c7 bbbd 5b16 e2bd 8512 edbd 7856 c2bd
00000030: a132 94bd 5f57 9c3d 9fd5 e53d 2660 95bd
00000040: d0fb 993d 4760 dfbd 9bd3 0cbe 9103 90bd
00000050: 7b65 e33d 1740 c63c 4a48 10bd a00b 34bc
00000060: fcc6 d4bd 50c9 e4bd cd7c 343c 6902 98bc
00000070: b3c6 e63b 8dcd 433b 0d4b 69bd 19c3 493d
00000080: 58a5 7eba 5ddc 363e 1fa0 ad3d 7457 34bd
00000090: 4e60 04bd 41f9 ca3c d70a 09be fb24 803c
000000a0: 26cb bfbc 6c9c 73bc 2cc3 873d e110 6ebd
000000b0: 7fba 023d 6c9c acbc c37f 16bd 8ded fe3b
000000c0: 50d4 9e3c ae1a b03c b043 81bd 0e1b 173d
000000d0: 61f1 bd3d 06b1 c73c 1bf6 05be bda7 0dbd
000000e0: 19c5 943d 067c bdbd f8e9 e83c b36d 223d
000000f0: c88d 8e3d 2391 9fbc 78e8 51bd 548a 7cbb
00000100: 2b24 6fbd a8a3 13be ea9d 7ebc dc9f e23d
00000110: b552 02be b2b0 58bd db00 7ebc 02b2 3a3d
00000120: fb8a 103d bcfe 343d 7b90 0d3e a33a 55bd
00000130: fd71 8f3c 258d bfbb 87be e5bd 40e6 a8bc
00000140: 99db f0bc 32b4 a23c bf62 ee3d ee55 423b
00000150: 041e 96bd b45d 823c 3b13 e0bb bf38 f3b9
00000160: 5973 a13d 6d88 813b a156 bbbd 0a92 1abd
00000170: 73ad 82bd efef 323c 0887 1e3d defb 12bd
00000180: d001 353d abc6 1cbe 1f00 f1bd f65d 483b
00000190: a0a7 9a3c e026 a9bb 6aec 5a3d 4bab acbc
000001a0: 7ee9 f23d 452e 25be 9778 0f3c 2c74 0ebd
000001b0: 0c0f 823d a127 4a3e 1dde 03bd 3e2f 79bd
000001c0: 73a1 fa3c 8e37 1a3e 5984 193e 1e9f 483c
000001d0: a2dc 8abd b3f7 7cbd 7813 87bd 9569 b23d
000001e0: e3d1 d93d 546e 623d 4108 bfbd b366 663d
000001f0: 4f7b d4bd a10a 9fbd 3f03 e03d da91 0d3d
00000200: e227 9b3c f561 ccbd 6af7 7e3d 599a 88bd
00000210: 1d77 473b 4d7e 48bd 5d01 c5bd c4ae 9dbc
00000220: a5cf 8f3c 4379 febb 0fc9 813d 8635 47bd
00000230: 2ba7 0b3d dd07 82bd 95e0 873e 577f 813d
00000240: b0ea 0b3c 56ba 973d ef58 ddbc 2d50 33be
00000250: 4696 5d3d 86cc bebd ed4b cebd 48fb 24bd
00000260: ad86 313d 5bd6 2bbe f4eb 9dbd 530a 073d
00000270: 7c14 613c 1f71 86bd d286 2f3d 2f1d 07bd
00000280: 580e 153d b15d c7bd 9cc6 fcbd 8fa1 9a3d
00000290: 82bb 0a3d c573 80bd 685a 47be b6af 4fbc
000002a0: c652 3e3d a03f 2fbd 588e 2e3d 74dc afbc
000002b0: 5aef 13bd 0941 a43c 8184 c13d da8e 91bd
000002c0: 73ad 373d 4f64 36be 989c f0bc 35e5 423b
000002d0: ef75 eabc 0894 24bd 6fea f33d 0f4d 0c3b
000002e0: 515d e0bb e02e 203e 309a 18be bb7e 9fbd
000002f0: bea0 fe3c 7717 6cbd fd9e 4fbe 02e4 8b3c
00000300: 8fb1 eebd 59ba 9abd 6b52 afbc de0c 423d
00000310: c61f 63bd ad81 d73b b964 09bd 1200 303d
00000320: cb7b 823d b072 433d 1bc9 b73c bc92 4dbc
00000330: aaed 50bd 41cd 33bc f6a0 80bc ad9d 853d
00000340: c5cb c7b9 5d4e 68bd db65 9cbd bb4c e43a
00000350: a433 243d 5ced a6bc 4827 b13d 8907 cd3b
00000360: 19fc 603d 165c afbb dfbe 09bc 3b59 933d
00000370: 4f62 9b3d 03a0 8a3d ec99 ecbb 66f0 703d
00000380: e9c4 c83d 5fc2 8e3d 6781 0ebe ddcb 57bd
00000390: 1480 153e 9155 d13c 6dfc 293c 0236 393d
000003a0: 5471 0dbd 6e55 c5bc 0508 af3c b1ac 67bd
000003b0: a0f3 1f3d 0881 af3d aa92 bd3d 7304 c0bb
000003c0: 7811 cf3d f269 7d3d 4010 f13d b8e2 293e
000003d0: dcf3 3abe af86 38be d929 bc3d 0e6c 2abc
000003e0: 4d67 b0bd 2b75 913c 89c5 323d d6c6 c9bd
000003f0: c715 acbd d7bf b5bd 4140 f3bc cf8e e3ba

model.0.bias f4 [32]
0.04264072 0.04708996 0.020967837 -0.13763222 -0.08293865 0.015882982 0.050422534 0.09053964
0.032705694 0.18366511 -0.026404453 -0.009244411 -0.08196276 0.16253561 -0.018965814 -0.051074997
-0.09774696 -0.07674177 -0.114267804 -0.01820345 -0.18262093 0.25434023 -0.045040987 -0.15507007
-0.032751773 0.1576452 0.14601293 -0.016109237 -0.13145728 -0.041849677 0.1572554 -0.11039309
00000000: 09a8 2e3d 67e1 403d bec4 ab3c 76ef 0cbe
00000010: bddb a9bd 071d 823c dc87 4e3d d96c b93d
00000020: 68f6 053d b512 3c3e 274e d8bc df75 17bc
00000030: 17dc a7bd bc6f 263e 325e 9bbc 0434 51bd
00000040: 8f2f c8bd ca2a 9dbd 3d05 eabd 671f 95bc
00000050: fb00 3bbe e238 823e e67c 38bd b0ca 1ebe
00000060: b926 06bd be6d 213e 6a84 153e 85f7 83bc
00000070: bd9c 06be 916a 2bbd 8f07 213e c615 e2bd

model.2.weight f4 [32]
0.9824817 0.9859614 1.0932455 0.924189 0.9203021 0.9296749 0.8935267 1.0119088
0.9999759 1.0029064 0.9795772 0.9990682 0.9363065 1.0739096 0.949135 1.1203136
0.8924743 0.9820149 1.045714 0.96642077 1.0542753 1.0883932 0.9751648 1.0139738
1.0982212 1.0959489 0.9395846 1.0268843 1.0121131 0.9438756 0.97212327 1.0451399
00000000: ec83 7b3f f767 7c3f 78ef 8b3f a697 6c3f
00000010: eb98 6b3f 2dff 6d3f 2abe 643f 3a86 813f
00000020: 6cfe 7f3f 3d5f 803f 92c5 7a3f efc2 7f3f
00000030: c8b1 6f3f df75 893f 83fa 723f 7066 8f3f
00000040: 3279 643f 5465 7b3f f5d9 853f 5a67 773f
00000050: 7ef2 863f 7850 8b3f 66a4 793f e5c9 813f
00000060: 8392 8c3f 0e48 8c3f 9e88 703f f270 833f
00000070: ec8c 813f d5a1 713f 12dd 783f 25c7 853f

model.2.bias f4 [32]
0.046343703 0.009407658 0.13038628 -0.017254462 -0.0450209 -0.072540715 -0.049362548 0.037346117
-0.044783846 0.073806114 0.012759446 0.054775525 -0.10646231 -0.011799296 0.11531713 0.07902838
0.03701048 0.12615693 0.1219461 0.105701275 0.14244677 0.13000806 -0.000904771 0.12652268
0.08826705 0.07714055 -0.060940046 0.10393622 -0.08202058 0.09481395 0.0155992145 0.12058889
00000000: e5d2 3d3d 9422 1a3c fb83 053e 3b59 8dbc
00000010: d667 38bd 3a90 94bd 6230 4abd 3ef8 183d
00000020: 446f 37bd a927 973d ff0c 513c 4d5c 603d
00000030: e908 dabd d651 41bc 632b ec3d a2d9 a13d
00000040: 4d98 173d 482f 013e e0be f93d e979 d83d
00000050: 91dd 113e d520 053e 272e 6dba 298f 013e
00000060: 5bc5 b43d ddfb 9d3d 459c 79bd 83dc d43d
00000070: 68fa a7bd d12d c23d d993 7f3c 4ff7 f63d

model.2.running_mean f4 [32]
3.607445 4.37923 4.591712 4.36462 3.9291234 3.717206 4.343269 2.9572532
2.5978513 3.3651867 3.8206146 3.9150763 4.2640505 3.0066478 3.317633 4.0407047
3.9147115 3.2798731 3.1314402 2.7652423 2.9052835 2.9623358 4.394481 3.0207329
3.6271143 3.931982 3.9071665 3.4435973 4.0183783 3.6187398 2.7155023 3.1624985
00000000: 61e0 6640 a722 8c40 4eef 9240 f8aa 8b40
00000010: c276 7b40 b4e6 6d40 0ffc 8a40 a343 3d40
00000020: 3243 2640 385f 5740 f384 7440 9c90 7a40
00000030: 1a73 8840 eb6c 4040 1954 5440 744d 8140
00000040: a28a 7a40 71e9 5140 8469 4840 bbf9 3040
00000050: 2af0 3940 e996 3d40 979f 8c40 b053 4140
00000060: a422 6840 98a5 7b40 040f 7a40 e663 5c40
00000070: 8e96 8040 6f99 6740 caca 2d40 6066 4a40

model.2.running_var f4 [32]
30.529615 44.62992 75.78594 42.82644 37.13321 35.095043 42.743412 29.797459
28.716875 33.548573 43.930267 37.59123 45.25686 38.904415 27.91274 80.593956
36.94081 34.155823 50.263878 21.579956 41.29623 29.732498 48.372776 35.199406
61.644684 47.965637 37.341553 33.381283 55.825222 35.564537 27.809671 39.633263
00000000: a73c f441 0a85 3242 6792 9742 464e 2b42
00000010: 6888 1442 5361 0c42 41f9 2a42 3261 ee41
00000020: 29bc e541 bd31 0642 98b8 2f42 6b5d 1642
00000030: 0607 3542 1f9e 1b42 4b4d df41 1b30 a142
00000040: 64c3 1342 909f 0842 360e 4942 c0a3 ac41
00000050: 572f 2542 28dc ed41 b97d 4142 31cc 0c42
00000060: 2894 7642 d0dc 3f42 c05d 1542 6f86 0542
00000070: 074d 5f42 1642 0e42 357a de41 7688 1e42

model.3.weight f4 [16, 32]
0.07197738 -0.19793579 0.07661617 0.1324743 -0.13117917 -0.027444718 -0.049326945 -0.027050842
0.014357712 -0.022953976 0.14616016 -0.0072155236 0.13532546 -0.020249292 0.13092346 0.0883066
-0.13531062 -0.035324834 0.06494072 0.07389546 0.058714453 0.08996181 0.10850372 0.00016274757
-0.05887698 0.1993152 0.12209978 -0.026831456 0.11283579 -0.15587795 -0.11727569 0.047321137
0.053838063 -0.00054865156 0.14910167 0.094117716 -0.06656628 -0.0737996 0.07493791 -0.081498995
0.09238234 0.155669 0.15096587 -0.15009925 -0.19576888 0.04463891 0.10869208 -0.016493669
-0.13401233 0.08176968 0.06081166 -0.13570927 0.11541084 -0.052136276 0.0037378485 0.18267296
-0.044113085 0.14272968 0.05221971 -0.0390922 -0.11430091 -0.01994885 0.10853381 0.13188507
-0.07511529 0.046259176 -0.08229701 -0.033654742 -0.08263403 0.02569398 -0.1228143 -0.07405831
0.15407243 0.0048184525 -0.063115165 -0.12867704 -0.18921623 -0.010638935 -0.11451287 0.1738991
-0.2132182 0.09186625 -0.0050841295 0.039495498 0.11571694 -0.09361017 -0.14431593 0.13986541
0.1934761 0.07628898 0.003901405 -0.029311424 0.03422446 0.05595608 -0.028891042 0.12898485
0.101787016 0.13309763 -0.20374124 0.004856804 -0.17556739 0.024081895 0.03407403 -0.021302508
-0.20661856 -0.12721539 -0.01963633 -0.09214586 0.0827837 -0.032557085 -0.20424332 -0.02404921
0.034662016 0.08843082 -0.047521167 -0.19141564 0.0930563 0.2924475 -0.10208417 -0.084089816
-0.108857445 -0.19084851 -0.1332089 0.027382528 0.005843721 0.024369631 0.0014962456 -0.031016186
-0.1409222 0.048280828 -0.026627924 0.09053318 -0.08834176 -0.010208266 -0.106857754 -0.17970628
-0.08044645 0.06939476 -0.0734325 -0.1260373 -0.21514261 -0.04923671 0.11503992 -0.22477941
-0.05103804 0.10896671 -0.07668264 -0.064555116 0.11897533 -0.018559188 0.048777938 0.068168916
-0.14551312 0.13094147 0.114918545 0.05291995 -0.21680373 0.15153646 0.14833273 -0.026176339
0.09042721 0.112044506 0.1577255 -0.10541542 0.041739393 0.0149370115 0.100417875 -0.112348504
-0.09231656 0.14572231 0.03507809 -0.04334607 -0.08320708 -0.11471811 0.14253257 0.17287989
0.12643358 0.18032743 -0.068564124 -0.076020926 0.12950166 0.0025078466 0.093449034 -0.11943667
0.07271045 0.040108856 -0.09644421 -0.1765092 0.012700636 -0.035640486 0.11883918 -0.025070079
0.008998547 -0.10196343 0.16814074 -0.1441978 -0.06963707 0.019147925 0.034649618 -0.03213474
0.018423969 -0.23487563 -0.07904011 -0.06722982 0.056670383 0.16379042 -0.04931868 -0.03779819
0.051050063 -0.029114418 0.16765183 -0.0851236 0.016915007 0.105370305 -0.051138546 0.09518836
0.088662155 0.12783046 0.16017061 -0.05266209 0.08458533 -0.01975498 0.07626815 -0.118364915
-0.015547115 -0.0014694134 -0.18091063 0.0908448 -0.018778488 0.063439064 0.087560154 -0.114215806
0.043457154 -0.08344444 0.08209518 -0.0050134324 0.087717764 -0.045039847 -0.08686474 -0.15326998
-0.0570034 -0.05809111 -0.17802419 -0.13749066 -0.13370633 -0.18224075 0.00931576 -0.15580308
-0.18014567 -0.021814136 0.06890901 -0.20078392 0.12376598 -0.13187023 -0.091210105 -0.15699346
00000000: e068 933d aeaf 4abe f0e8 9c3d 58a7 073e
00000010: d553 06be bfd3 e0bc 0d0b 4abd ba99 ddbc
00000020: 9c3c 6b3c fa09 bcbc 02ab 153e 3370 ecbb
00000030: c292 0a3e d8e1 a5bc cd10 063e 17da b43d
00000040: de8e 0abe c6b0 10bd a4ff 843d 8156 973d
00000050: 917e 703d e63d b83d 3337 de3d 38a7 2a39
00000060: fd28 71bd 4919 4c3e 730f fa3d a4cd dbbc
00000070: 7316 e73d 789e 1fbe 3d2e f0bd cfd3 413d
00000080: 4d85 5c3d 62d3 0fba 1cae 183e cac0 c03d
00000090: e753 88bd 3f24 97bd 0c79 993d f2e8 a6bd
000000a0: f432 bd3d b267 1f3e cc96 1a3e 9eb3 19be
000000b0: a377 48be 4ad7 363d f499 de3d bb1d 87bc
000000c0: 873a 09be dd76 a73d a615 793d 5ff7 0abe
000000d0: 855c ec3d d98c 55bd b1f6 743b 9f0e 3b3e
000000e0: ecaf 34bd bb27 123e 56e4 553d 251f 20bd
000000f0: 9816 eabd c56b a3bc f946 de3d e10c 073e
00000100: 0cd6 99bd 437a 3d3d 568b a8bd 8ed9 09bd
00000110: 083c a9bd 2e7c d23c 1086 fbbd e2ab 97bd
00000120: 2ac5 1d3e 1ce4 9d3b 8642 81bd eac3 03be
00000130: e6c1 41be ed4e 2ebc b985 eabd 9b12 323e
00000140: df55 5abe 5f24 bc3d c598 a6bb 08c6 213d
00000150: 01fd ec3d b0b6 bfbd 8ec7 13be e138 0f3e
00000160: 991e 463e 663d 9c3d b7ae 7f3b 831e f0bc
00000170: f32e 0c3d 3432 653d e8ac ecbc 9b14 043e
00000180: b675 d03d bf4a 083e 8ba1 50be d325 9f3b
00000190: f0c7 33be 6547 c53c 3691 0b3d 9982 aebc
000001a0: d193 53be c044 02be 5edc a0bc f8b6 bcbd
000001b0: 808a a93d 945a 05bd 2925 51be d902 c5bc
000001c0: c2f9 0d3d 381b b53d 8ea5 42bd 7602 44be
000001d0: 4d94 be3d aebb 953e 8111 d1bd 4837 acbd
000001e0: a7f0 debd cb6d 43be ea67 08be 5351 e03c
000001f0: af7c bf3b d2a2 c73c ac1d c43a a815 febc
00000200: e94d 10be 1ec2 453d ce22 dabc 7669 b93d
00000210: 86ec b4bd 9240 27bc 3dd8 dabd ec04 38be
00000220: 1cc1 a4bd d71e 8e3d c763 96bd ec0f 01be
00000230: 584e 5cbe 6fac 49bd 0d9a eb3d 932c 66be
00000240: 440d 51bd f029 df3d ca0b 9dbd 7935 84bd
00000250: 56a9 f33d 7009 98bc 60cb 473d 259c 8b3d
00000260: 6401 15be 8515 063e 6a5a eb3d 97c2 583d
00000270: cc01 5ebe 602c 1b3e 89e4 173e c36f d6bc
00000280: e731 b93d 9777 e53d cb82 213e 0ae4 d7bd
00000290: edf6 2a3d 5eba 743c e3a7 cd3d f916 e6bd
000002a0: 7710 bdbd 3b38 153e 0bae 0f3d a68b 31bd
000002b0: 7968 aabd 54f1 eabd 0ff4 113e 6d07 313e
000002c0: ce77 013e c1a7 383e 596b 8cbd dcb0 9bbd
000002d0: 159c 043e af5a 243b 3562 bf3d 369b f4bd
000002e0: 37e9 943d 2f49 243d 8b84 c5bd d4be 34be
000002f0: 5416 503c c2fb 11bd f561 f33d c45f cdbc
00000300: a46e 133c 34d2 d0bd 162d 2c3e 97a8 13be
00000310: e19d 8ebd 1cdc 9c3c c2ec 0d3d b89f 03bd
00000320: dded 963c 3d83 70be c8df a1bd caaf 89bd
00000330: 341f 683d adb8 273e 6202 4abd 46d2 1abd
00000340: df19 513d 5c81 eebc ecac 2b3e 4855 aebd
00000350: 5791 8a3c 63cc d73d a776 51bd 1df2 c23d
00000360: 8194 b53d fde5 023e c403 243e 34b4 57bd
00000370: 133b ad3d 32d5 a1bc 7a32 9c3d 4e69 f2bd
00000380: 54b9 7ebc 5599 c0ba a340 39be d70c ba3d
00000390: 58d5 99bc 57ec 813d bd52 b33d fae9 e9bd
000003a0: 2100 323d ebe4 aabd 8521 a83d b847 a4bb
000003b0: 5fa5 b33d b47b 38bd 24e6 b1bd cef2 1cbe
000003c0: 667c 69bd f2f0 6dbd f94b 36be 5aca 0cbe
000003d0: 50ea 08be 529d 3abe 21a1 183c d88a 1fbe
000003e0: 1b78 38be 8fb3 b2bc 2b20 8d3d 4d9a 4dbe
000003f0: 0579 fd3d fd08 07be 5dcc babd e5c2 20be

model.3.bias f4 [16]
0.2710592 0.09605189 -0.0013343213 0.10202325 -0.13407119 0.09619918 -0.11603987 0.033039574
0.0043920297 -0.06714679 -0.10921073 0.044630535 0.19061333 0.15592673 0.021498425 -0.011452808
00000000: 45c8 8a3e dab6 c43d 65e4 aeba 91f1 d03d
00000010: f549 09be 1304 c53d 50a6 edbd 8154 073d
00000020: 04eb 8f3b 4284 89bd e0a9 dfbd 82ce 363d
00000030: 2430 433e 42ab 1f3e 771d b03c 8fa4 3bbc

model.5.weight f4 [16]
0.9191461 1.0140781 1.0741732 1.0185151 0.85949373 0.8948215 1.033025 1.1838659
1.0166038 0.9888126 0.9620671 1.078916 0.93691 1.0595813 0.918424 0.80561423
00000000: 294d 6b3f 50cd 813f 827e 893f b45e 823f
00000010: c807 5c3f 0613 653f 2a3a 843f eb88 973f
00000020: 1320 823f d322 7d3f 084a 763f eb19 8a3f
00000030: 55d9 6f3f 5ca0 873f d61d 6b3f bc3c 4e3f

model.5.bias f4 [16]
-0.036729675 -0.036206234 0.07251819 0.17994004 0.007638469 0.0625397 -0.0505627 -0.08578911
0.14359993 -0.108881615 -0.02102454 -0.08149609 -0.12288019 0.08732879 -0.022850664 0.22950473
00000000: db71 16bd fd4c 14bd 6b84 943d 3442 383e
00000010: 1f4c fa3b d014 803d d51a 4fbd 33b2 afbd
00000020: dc0b 133e 53fd debd a83b acbc 6ce7 a6bd
00000030: 9ca8 fbbd 70d9 b23d 5131 bbbc 4a03 6b3e

model.5.running_mean f4 [16]
0.3657555 0.33832878 0.22991568 0.31480345 0.19326957 0.28761467 0.171381 0.1811387
0.1564609 0.071010105 0.12845536 0.20391688 0.33605537 0.26290122 0.24697609 0.15309013
00000000: 4e44 bb3e 6e39 ad3e 046f 6b3e eb2d a13e
00000010: 75e8 453e 3b42 933e 807e 2f3e 6c7c 393e
00000020: 4937 203e bf6d 913d cd89 033e 96cf 503e
00000030: 730f ac3e fd9a 863e 4de7 7c3e a9c3 1c3e

model.5.running_var f4 [16]
0.23086707 0.25120962 0.212037 0.18398808 0.10038131 0.18107228 0.19639514 0.056423943
0.050458398 0.015466355 0.04746079 0.13511267 0.12568156 0.11743779 0.08669992 0.06617532
00000000: 6b68 6c3e 8c9e 803e 3a20 593e 5f67 3c3e
00000010: b794 cd3d 036b 393e cf1b 493e cb1c 673d
00000020: 77ad 4e3d 9866 7d3c 3f66 423d fa5a 0a3e
00000030: abb2 003e 3983 f03d ba8f b13d ed86 873d

model.6.weight f4 [8, 16]
-0.22170244 -0.05126234 -0.21002845 0.13045113 0.12772936 0.10000084 -0.16700622 0.019003013
0.23196675 0.17977282 -0.12173349 -0.21520527 0.039388914 0.051521227 0.13919173 0.074516214
-0.14043665 0.17484857 -0.057948418 0.18380277 -0.06616776 -0.10691258 -0.011919015 -0.3390077
0.04626684 0.04899483 -0.09772293 -0.01650656 -0.20528834 -0.12643625 0.10339738 0.00079188123
0.0941885 -0.2869251 -0.2861317 -0.043417476 0.1746542 -0.1658954 -0.29587275 -0.23811518
-0.13406236 -0.22353546 0.1398696 -0.17733337 0.14691281 -0.04057726 -0.095780626 0.08913725
0.019732716 0.070266195 0.05407293 0.035632048 -0.10156988 -0.017945392 0.040524255 -0.053731155
0.00753051 -0.05790594 -0.21430853 0.094597906 -0.14201322 0.11104224 -0.25071082 -0.13070169
0.055752423 -0.18658496 -0.028805139 0.0045998353 0.18262695 -0.036051396 -0.048943203 -0.36107436
0.20960493 -0.027271265 -0.008062377 -0.2229022 0.029447097 0.18029726 -0.19508134 0.18977445
0.010288991 0.13095982 0.07825022 0.1466706 -0.13311926 -0.0011016411 -0.07351357 0.0017803505
0.14275603 0.050647367 -0.23022036 0.022152066 -0.07541963 0.16757406 -0.017309397 0.1873754
-0.24506211 -0.08977111 -0.38292935 -0.07516356 0.070362955 0.06652625 -0.17358437 0.4593854
-0.03006694 -0.0035084875 -0.071338914 0.013488887 0.10547854 -0.16184391 0.10136792 -0.009445245
0.048616223 -0.13994057 0.2124934 -0.059883725 0.0038569707 0.0010900297 0.17192264 0.0459881
-0.110707186 -0.11302982 0.08235453 0.08550005 -0.3122897 0.045812357 -0.14598556 0.013053581
00000000: f705 63be 76f8 51bd b311 57be fb94 053e
00000010: 7ccb 023e 3ecd cc3d ae03 2bbe 35ac 9b3c
00000020: b188 6d3e 5e16 383e 684f f9bd c55e 5cbe
00000030: 4556 213d ec07 533d 4788 0e3e f59b 983d
00000040: a0ce 0fbe 810b 333e 525b 6dbd cb36 3c3e
00000050: f682 87bd fcf4 dabd f947 43bc 6b92 adbe
00000060: 4c82 3d3d ceae 483d f622 c8bd c438 87bc
00000070: 1b37 52be 8178 01be 01c2 d33d 4096 4f3a
00000080: e6e5 c03d d9e7 92be db7f 92be 86d6 31bd
00000090: 8dd8 323e 7ce0 29be a27c 97be 77d4 73be
000000a0: a547 09be 7be6 64be fa39 0f3e e196 35be
000000b0: 5070 163e 5734 26bd a228 c4bd 978d b63d
000000c0: 81a6 a13c b9e7 8f3d 947b 5d3d e9f2 113d
000000d0: df03 d0bd 3702 93bc c3fc 253d 3315 5cbd
000000e0: 7fc2 f63b c72e 6dbd b273 5bbe 8cbc c13d
000000f0: ea6b 11be 1d6a e33d 2b5d 80be aad6 05be
00000100: a75c 643d 2110 3fbe c1f8 ebbc 37ba 963b
00000110: 8f02 3b3e a1aa 13bd ab78 48bd bdde b8be
00000120: ada2 563e fd67 dfbc 0f18 04bc 7940 64be
00000130: 0a3b f13c d89f 383e 67c3 47be 3c54 423e
00000140: 2893 283c 551a 063e a741 a03d d130 163e
00000150: 6a50 08be f164 90ba 488e 96bd a65a e93a
00000160: a32e 123e 9d73 4f3d e3be 6bbe 4078 b53c
00000170: 9b75 9abd 8998 2b3e 70cc 8dbc 56df 3f3e
00000180: 90f1 7abe ead9 b7bd 510f c4be 5aef 99bd
00000190: 741a 903d ea3e 883d 1ac0 31be 9034 eb3e
000001a0: f14e f6bc a7ee 65bb 231a 92bd 7e00 5d3c
000001b0: 2205 d83d 69ba 25be fc99 cf3d 3bc0 1abc
000001c0: ce21 473d 954c 0fbe df97 593e a348 75bd
000001d0: 3bc5 7c3b 54df 8e3a 7d0c 303e 055e 3c3d
000001e0: 73ba e2bd 2e7c e7bd 7ea9 a83d a61a af3d
000001f0: 70e4 9fbe bda5 3b3d 3d7d 15be b0de 553c

model.6.bias f4 [8]
0.23255822 -0.12326514 0.09843704 0.019310834 -0.050223812 0.30975205 0.17067191 0.12494516
00000000: be23 6e3e 6f72 fcbd 5c99 c93d c131 9e3c
00000010: 7cb7 4dbd d297 9e3e 9ec4 2e3e 3fe3 ff3d

model.8.weight f4 [8]
1.6132195 1.4814377 1.6521416 1.671567 1.5424263 1.6309068 1.6402124 1.5020239
00000000: fa7d ce3f c09f bd3f 6079 d33f e8f5 d53f
00000010: 3a6e c53f 8ec1 d03f 7bf2 d13f 5242 c03f

model.8.bias f4 [8]
0.06353417 0.025211073 0.24476871 -0.19748183 0.15671343 -0.16684464 0.005635666 -0.111662954
00000000: 341e 823d 7487 ce3c a6a4 7a3e ad38 4abe
00000010: 7c79 203e 52d9 2abe 65ab b83b 8caf e4bd

model.8.running_mean f4 [8]
0.5311761 0.20039982 0.35870466 0.25022307 0.28877756 0.45599425 0.43239993 0.29813486
00000000: 28fb 073f 9c35 4d3e 23a8 b73e 3d1d 803e
00000010: a7da 933e 1478 e93e 8663 dd3e 22a5 983e

model.8.running_var f4 [8]
0.21806046 0.10731702 0.15593478 0.12762997 0.20520376 0.12396762 0.2962124 0.20909849
00000000: 3e4b 5f3e 07c9 db3d 5ead 1f3e 6eb1 023e
00000010: ef20 523e bce2 fd3d 27a9 973e ea1d 563e

model.9.weight f4 [4, 8]
-0.82931 0.24660546 -0.78937787 0.8247097 -0.027663246 0.53704554 -0.32952672 0.82979095
0.71940136 -0.49585843 -0.9277964 -0.01545982 -0.5586955 0.0702354 0.4916538 -0.20839685
0.31551063 0.5503131 0.44714296 -0.0729265 0.69376624 0.11322059 -0.32106376 -0.46410364
-0.1822617 -0.53002423 0.55892754 -0.25440317 -0.25192156 -0.61869913 0.12495069 0.13195345
00000000: a94d 54bf 2486 7c3e ab14 4abf 2d20 533f
00000010: 089e e2bc d17b 093f bab7 a8be 2e6d 543f
00000020: b02a 383f 28e1 fdbe 1184 6dbf 2f4b 7dbc
00000030: ab06 0fbf 94d7 8f3d 0cba fb3e fc65 55be
00000040: 9c8a a13e 52e1 0c3f ecef e43e 7d5a 95bd
00000050: aa9a 313f 32e0 e73d 7862 a4be fe9e edbe
00000060: d0a2 3abe abaf 07bf e015 0f3f 2241 82be
00000070: ddfb 80be 1163 1ebf 26e6 ff3d ce1e 073e

model.9.bias f4 [4]
0.09803669 -0.0045980588 0.36727536 0.29425442
00000000: 76c7 c83d 50ab 96bb 840b bc3e 84a8 963e
