saved_models/MLP/ckpt__epoch100.ckpt (torch, 18336 bytes, 20 tensors)

model.0.weight f4 [32, 64]
0	0x3c781a48	0.015142985
1	0x3d7e68a9	0.06211153
2	0x3e3e5b7f	0.1858959
3	0x3d9992ee	0.07498728
4	0xbc2695da	-0.010167563
5	0x3cc23bb7	0.023710115
6	0x3d84cc93	0.06484332
7	0xbd85a988	-0.06526476
8	0xbc49881b	-0.0123005165
9	0xbd12b452	-0.035816498
10	0x3b617d2d	0.0034406886
11	0xbc3981d7	-0.01132246
12	0xbaeed69d	-0.0018221919
13	0x3d0a34ab	0.033741634
14	0xbcb15936	-0.021648984
15	0x3d81b76d	0.06333814
16	0x3a2b2870	0.0006529158
17	0x3e3c651a	0.18397942
18	0xbdbd1cd2	-0.09234013
19	0xbd8ad710	-0.06779301
20	0x3d244be3	0.040111434
21	0xbd1e4fca	-0.03865031
22	0x3e244904	0.16043478
23	0xbdd03095	-0.10165516
24	0x3d02c90a	0.031930007
25	0xbe8bdcb2	-0.27316815
26	0xbe2979d5	-0.16550381
27	0x3d4be7c9	0.049781594
28	0xbd5edb72	-0.054408498
29	0x3d523459	0.051319454
30	0xbe33ee1b	-0.17571299
31	0x3d23ca6c	0.039987966
32	0x3d406ba4	0.046977654
33	0xbe6595e5	-0.22420461
34	0xbdfa02d4	-0.12207571
35	0x3c06581e	0.00819972
36	0xbc618885	-0.013765459
37	0xbbe4e60c	-0.0069854315
38	0x3dc472d1	0.09592212
39	0x3d25d214	0.04048355
40	0x3cca1b15	0.024671117
41	0x3c909859	0.01765077
42	0x3e74472f	0.2385528
43	0x3c71308f	0.01472105
44	0xbd0821e0	-0.03323543
45	0x3d88977f	0.066695206
46	0xbe38d8af	-0.18051408
47	0x3d71f07f	0.059067246
48	0xbc95d35c	-0.01828926
49	0x3ddf2ad4	0.10896841
50	0xbe098b7a	-0.13432112
51	0xbbf138f7	-0.007361527
52	0xbcc7c96b	-0.024388036
53	0x3c9173d3	0.017755425
54	0x3e347b01	0.17625047
55	0xbcc71d04	-0.024305828
56	0xbd2ebd15	-0.04266079
57	0x3e7135b1	0.23555638
58	0x3e025df7	0.12731157
59	0xbd8313e3	-0.064002775
60	0xbd962ddb	-0.07332965
61	0x3d9dbdb7	0.07702201
62	0x3e13b989	0.14426245
63	0x3e21d539	0.15803994
64	0xbd0da36d	-0.034579683
65	0xbd06c541	-0.03290296
66	0xbdf4c58f	-0.11951744
67	0xbaa69a70	-0.0012710821
68	0xbbc6ddff	-0.0060689445
69	0x3c0a8a1d	0.00845578
70	0x3d99ef43	0.07516339
71	0xbd253e4b	-0.04034261
72	0xbd61cf35	-0.05512925
73	0x3cb5b0cf	0.022179035
74	0xbc21e761	-0.009881825
75	0x3e1c7c20	0.15281725
76	0xbe710a7c	-0.23539156
77	0xbe52ad51	-0.20573927
78	0xbc1bb204	-0.009502891
79	0x3d0f8972	0.035043187
80	0x3c68d982	0.014212014
81	0x3b12a850	0.0022378154
82	0x3d15c117	0.036561098
83	0x3d803051	0.062592156
84	0xbdfb7f12	-0.12280096
85	0x3d949939	0.072557874
86	0x3ce99676	0.028514128
87	0xbd97445e	-0.07386087
88	0x3d4164e9	0.047215376
89	0x3d59aa20	0.05314076
90	0x3cc1a831	0.02363977
91	0x3db1443a	0.08655591
92	0xbda6debd	-0.08147953
93	0xbd45f34b	-0.048327725
94	0xbd4c427e	-0.0498681
95	0xbd9daa08	-0.076984465
96	0x3dc2b43b	0.095070325
97	0xbbceb79a	-0.006308508
98	0x3c5f971c	0.013646867
99	0x3ca7da82	0.020489935
100	0xbe13bbb1	-0.14427067
101	0x3d5b91fd	0.053606022
102	0x3d04530a	0.032305755
103	0xbdd36ecd	-0.10323868
104	0x3ddde469	0.108345814
105	0xbbe7fae3	-0.0070794686
106	0xbd012390	-0.031528056
107	0xbcad3e9e	-0.021148022
108	0xbd420dd2	-0.04737646
109	0xbe013889	-0.12619223
110	0x3dc3e49f	0.095650904
111	0xbcfafc61	-0.030637922
112	0x3dc1f137	0.09469836
113	0x3ca3439b	0.019929698
114	0x3d2f9aec	0.042872354
115	0xbe328614	-0.17433959
116	0x3d8a0aea	0.06740363
117	0xba2f63ec	-0.000669061
118	0xbce3b642	-0.027796868
119	0x3d227c9e	0.039669625
120	0x3cb3b584	0.02193714
121	0x3cbe8bc3	0.023260003
122	0xbc2bd9ba	-0.010488922
123	0xbd89c780	-0.06727505
124	0xbd281159	-0.04103217
125	0x3cdf9b7e	0.027295824
126	0xbc74a15c	-0.014931049
127	0x3d6ce25e	0.057833068
128	0x3c4f84c7	0.012665934
129	0x3db662e3	0.0890558
130	0xbca1620c	-0.019700073
131	0x3d6a9e2a	0.057279743
132	0x3d0abdba	0.033872344
133	0x3e4b6102	0.19861224
134	0xbb0c989f	-0.0021453274
135	0xbde0fb80	-0.1098547
136	0x3c7ef32e	0.015560908
137	0x3d0cf486	0.034412883
138	0xbd3ad855	-0.045616467
139	0x3b2f59c3	0.0026756383
140	0x3df9b931	0.121935256
141	0xbd26875a	-0.040656425
142	0xbc2d8197	-0.010589979
143	0x3b61eaa4	0.0034472132
144	0x3a2be5d0	0.0006557377
145	0xbd4afb97	-0.04955634
146	0xbdc0195e	-0.093798384
147	0x3d0f47fe	0.034980766
148	0x3d92bfcd	0.07165489
149	0x3dbb86ee	0.09156595
150	0x3af5af5d	0.0018744279
151	0x3d754766	0.059882544
152	0x3c720227	0.014771021
153	0x3dd742f5	0.10510818
154	0xbd2e4fb5	-0.042556483
155	0xbb4259c3	-0.0029655553
156	0x3d5e28ee	0.054238252
157	0x3dd02a5c	0.101643294
158	0xbbf3dc12	-0.007442006
159	0x3d24de2f	0.040250953
160	0x3c5c2b02	0.013437988
161	0xbe171068	-0.14752352
162	0xbcd419fd	-0.025891298
163	0x3d941693	0.07230868
164	0xbd9d7c41	-0.07689715
165	0x3e1fda08	0.15610516
166	0x3db49a69	0.08818514
167	0xbcf4b4fb	-0.029871454
168	0xbcf2095e	-0.029545482
169	0x3d9c6d93	0.07638087
170	0xbca23014	-0.019798316
171	0xbc9ae6b7	-0.018908842
172	0xbccd5ac2	-0.02506769
173	0xbe5deb40	-0.21671772
174	0xbb8d634f	-0.004314817
175	0x3da650fb	0.081209145
176	0x3aa2dcaf	0.0012425388
177	0xbd0200fd	-0.031739224
178	0x3db1b071	0.08676232
179	0xbd2d5b40	-0.04232335
180	0xbda12fc6	-0.0787044
181	0x3dbc532c	0.09195551
182	0x3db6413b	0.088991605
183	0x3daabd2f	0.08336865
184	0x3bcc7bc4	0.00624034
185	0x3d84ba9d	0.06480906
186	0x3c6edeec	0.014579516
187	0xbd9b92e5	-0.07596377
188	0x3c45c370	0.012070522
189	0xbdd75e86	-0.10516076
190	0x3b6336c2	0.003467009
191	0xbd6e7f1a	-0.058226682
192	0xbc97ead6	-0.018544596
193	0x3d831354	0.06400171
194	0x3d876617	0.06611269
195	0xbe035b25	-0.12827738
196	0x3ca1cf58	0.01975219
197	0xbcdf2a39	-0.027241813
198	0xbe148519	-0.14503898
199	0xbb12ef71	-0.002242055
200	0x3ca80151	0.02050844
201	0xbb2e5ad1	-0.0026604424
202	0xbe38a462	-0.18031457
203	0xbd8d82b8	-0.06909698
204	0x3cf0d82c	0.029399954
205	0xbdad1570	-0.084513545
206	0xbb3d6810	-0.0028901137
207	0xbcfb7e9e	-0.030700024
208	0x3d03add2	0.03214819
209	0xbde771c7	-0.11300998
210	0x3dbaab7f	0.091147415
211	0xbd0abaeb	-0.033869665
212	0x3cc0d4b7	0.02353893
213	0xbd56d2a0	-0.05244696
214	0x3dd1c9f3	0.10243597
215	0xbd1a5cff	-0.037686344
216	0xbcd608e3	-0.026127284
217	0x3e66b79d	0.2253098
218	0xbe573c76	-0.21019158
219	0x3b0b9fff	0.0021305082
220	0x3d1f47f7	0.03888699
221	0xbd8e4a11	-0.06947721
222	0x3d51c9ed	0.051217962
223	0x3cd13d4e	0.025541928
224	0x3ce9c49d	0.028536135
225	0x3c258052	0.010101395
226	0x3e0516fc	0.12997049
227	0x3e1a67a4	0.15078598
228	0xbb8a7c17	-0.0042262184
229	0x3d048085	0.03234913
230	0xbd35b8a7	-0.04436555
231	0xbcef660b	-0.029223463
232	0x3d0ceee5	0.034407515
233	0xbdc3123c	-0.09524962
234	0x3cb5cbec	0.022191964
235	0x3d3dd9e5	0.04635038
236	0x3caf37ec	0.02138897
237	0xbc6541d6	-0.013992747
238	0x3e18dc8f	0.14927886
239	0xbcf12bb6	-0.029439788
240	0x3cfd647c	0.030931704
241	0xbdccf2a6	-0.10007219
242	0xbda07428	-0.07834655
243	0x3df276af	0.11839043
244	0x3cce1f3a	0.025161374
245	0xbbf62d8a	-0.007512753
246	0xbe41f936	-0.18942723
247	0x3ccf6496	0.025316518
248	0xbb272ab7	-0.0025507638
249	0x3e5a01b3	0.2128971
250	0x3e402254	0.18763095
251	0x3c5cc099	0.013473653
252	0xbc5b9ae1	-0.013403625
253	0x3cc449ba	0.023960937
254	0x3c214012	0.009841936
255	0x3cbb5a53	0.022870218

model.0.bias f4 [32]
0	0x3c92e470	0.017931193
1	0xbdfaa511	-0.12238515
2	0xbd879357	-0.066199
3	0x3dc362f5	0.09540359
4	0x3e3c947b	0.18416016
5	0xbd48e2e2	-0.049044497
6	0xbc4efefb	-0.012634034
7	0xbe275dff	-0.1634445
8	0x3de77b60	0.11302829
9	0x3dcdbdce	0.10045968
10	0x3cbdd334	0.023171999
11	0xbd1ad118	-0.037797064
12	0xbde4456a	-0.11146052
13	0x3d9be7fe	0.076126084
14	0xbe38f055	-0.1806043
15	0xbd8c842d	-0.06861148
16	0x3e745c66	0.23863372
17	0x3daca646	0.08430152
18	0xbcec3887	-0.028835548
19	0x3d338790	0.043830454
20	0xbdb7fbcd	-0.08983574
21	0xbd022fa0	-0.0317837
22	0xbd8e3fda	-0.069457725
23	0x3d96e087	0.07367044
24	0xbd614bb1	-0.055003826
25	0xbcdbd4cf	-0.026834873
26	0xbd29f484	-0.041492954
27	0xbe081194	-0.13287956
28	0x3d54c10c	0.051941916
29	0xbac64fbf	-0.0015129967
30	0x3ab59493	0.0013853483
31	0xbde600dc	-0.11230633

model.2.weight f4 [32]
0	0x3f767a13	0.9628002
1	0x3f7d0613	0.98837394
2	0x3f73ff8f	0.95311826
3	0x3f82d7cb	1.0222105
4	0x3f73072b	0.9493281
5	0x3f8035b7	1.0016392
6	0x3f848150	1.0351963
7	0x3f6bb7b9	0.92077214
8	0x3f8056cb	1.0026487
9	0x3f830434	1.0235658
10	0x3f7fa18a	0.99855864
11	0x3f7fa258	0.9985709
12	0x3f65d567	0.8977875
13	0x3f793c35	0.97357494
14	0x3f8e72b6	1.1128757
15	0x3f7657b7	0.9622759
16	0x3f864bfa	1.0491936
17	0x3f8a600b	1.081056
18	0x3f7d5ef6	0.98973024
19	0x3f741283	0.95340747
20	0x3f800d15	1.0003992
21	0x3f6539c3	0.8954126
22	0x3f7ecdb9	0.9953266
23	0x3f841e10	1.0321674
24	0x3f8737ef	1.0563945
25	0x3f75e9bd	0.9605978
26	0x3f87df59	1.0615035
27	0x3f834f62	1.0258601
28	0x3f87f278	1.062087
29	0x3f838dac	1.027761
30	0x3f8a150a	1.0787671
31	0x3f9077ab	1.128652

model.2.bias f4 [32]
0	0x3d2cf77f	0.04222822
1	0xbd485566	-0.048909567
2	0xbcc1046f	-0.023561684
3	0x3d7699be	0.060205214
4	0xbc292fad	-0.010326308
5	0xbc4c7668	-0.012479402
6	0x3d6e0876	0.058113538
7	0xbd0c3371	-0.034228746
8	0x3d8ba4e3	0.06818559
9	0xbc9e081c	-0.019290976
10	0x3d6a50b4	0.05720587
11	0x3cf698b9	0.03010212
12	0xbca01244	-0.01953996
13	0xbcd83869	-0.026394086
14	0xba79dd9a	-0.00095316174
15	0xbda7dc33	-0.081962965
16	0x3ca82473	0.020525193
17	0xbcd392d7	-0.025826855
18	0xbc672c07	-0.014109618
19	0x3d183b45	0.0371659
20	0xbc343062	-0.0109978635
21	0x3bcbfc93	0.0062251776
22	0xbc9a9aaf	-0.018872587
23	0xbc813dd7	-0.015776558
24	0x3d8144ee	0.063119754
25	0x3cdb548a	0.02677371
26	0x3cd08a8a	0.025456686
27	0xb99c6fa4	-0.00029837817
28	0x3c2b1928	0.010443009
29	0x3c135799	0.008993053
30	0x3d913b82	0.07091428
31	0xbac70899	-0.0015185057

model.2.running_mean f4 [32]
0	0x407a75ce	3.9134402
1	0x4077dedf	3.872978
2	0x407cd032	3.9502072
3	0x40641b8d	3.5641816
4	0x4053e05c	3.3105688
5	0x405cab1d	3.447944
6	0x40394112	2.8945966
7	0x40874125	4.226702
8	0x407763ff	3.8654783
9	0x408636fc	4.194212
10	0x404ae70f	3.1703527
11	0x408b5014	4.353525
12	0x40503baf	3.2536428
13	0x406cbc7a	3.6990037
14	0x40178493	2.3674667
15	0x405ea2e8	3.478693
16	0x4084498a	4.133977
17	0x405461d0	3.31847
18	0x405a41ff	3.410278
19	0x407db848	3.9643726
20	0x4030cd61	2.7625353
21	0x405674ec	3.3508863
22	0x408a8caa	4.329671
23	0x404c24dc	3.1897497
24	0x403d45d4	2.957387
25	0x40545a30	3.3180046
26	0x401e0d8e	2.4695773
27	0x406c12c8	3.6886463
28	0x40841061	4.1269994
29	0x40844176	4.132991
30	0x404db1f0	3.2139854
31	0x4070e635	3.7640507

model.2.running_var f4 [32]
0	0x426a2c72	58.543404
1	0x42167ac8	37.619904
2	0x421a4760	38.569702
3	0x422577c1	41.366947
4	0x4208f1ca	34.236122
5	0x421e13d8	39.51938
6	0x41f1b523	30.213446
7	0x422a6b71	42.604923
8	0x422fcd4f	43.950497
9	0x423e41ba	47.564186
10	0x42138331	36.878117
11	0x424ad2c0	50.70581
12	0x41e09117	28.070845
13	0x421314d5	36.770344
14	0x41bb636d	23.423548
15	0x4201bb00	32.432617
16	0x422cf226	43.236473
17	0x41f729f8	30.895493
18	0x422f5e12	43.841866
19	0x421d7e34	39.373245
20	0x41e8ac10	29.084015
21	0x41eb9e0e	29.452175
22	0x424c04ab	51.00456
23	0x41dfaf7c	27.960686
24	0x41f098e5	30.074656
25	0x41cea026	25.828197
26	0x41e156f4	28.167458
27	0x422958d6	42.336754
28	0x42ab0b52	85.52211
29	0x429ae330	77.443726
30	0x4249c2e3	50.44032
31	0x427fa8a9	63.914707

model.3.weight f4 [16, 32]
0	0xbe160631	-0.146508
1	0x3cdb0509	0.0267358
2	0x3da2a851	0.0794226
3	0xbe46b37d	-0.19404407
4	0xbd8ab19d	-0.06772158
5	0x3c93ef75	0.018058518
6	0xbe56c05e	-0.2097182
7	0xbd50064f	-0.050787266
8	0x3d4e6fc5	0.05039956
9	0x3e349391	0.17634417
10	0x3cb372ca	0.021905322
11	0xbddd41e8	-0.10803586
12	0x3db65d3b	0.08904501
13	0xbd1b0268	-0.03784409
14	0xbe2f3507	-0.17110072
15	0x3d98988a	0.074509695
16	0xbd716037	-0.05892965
17	0xbcef5782	-0.029216532
18	0xbc9e8b95	-0.019353667
19	0xbd7d7247	-0.06187656
20	0xbdafe6b1	-0.08588923
21	0x3cca1bfd	0.024671549
22	0xbdc10875	-0.09425441
23	0xbc88e86d	-0.016712392
24	0xbde03df7	-0.10949319
25	0xbd4d8c4b	-0.050182622
26	0xbd8dab98	-0.069174945
27	0xbe1e607b	-0.15466492
28	0xbe0cc1fc	-0.13745874
29	0xbd8b5187	-0.068026595
30	0xbdc3e336	-0.095648214
31	0xbd936dca	-0.07198675
32	0x3d28e890	0.041237414
33	0x3c68a77d	0.014200089
34	0xbd0d9f96	-0.03457602
35	0xbe01b84a	-0.12667957
36	0xbd9e4235	-0.07727472
37	0xbcbf2186	-0.023331415
38	0x3bd7e8f3	0.006589049
39	0xbe105088	-0.1409322
40	0x3d850285	0.06494621
41	0x3dfd8cca	0.12380369
42	0x3e5c119a	0.2149109
43	0x3e1b977b	0.15194504
44	0x3e29245f	0.1651778
45	0xbe0441c7	-0.12915717
46	0xbd3954cf	-0.045246895
47	0xbe037d1d	-0.12840696
48	0x3c6a672c	0.014306825
49	0xbde31a20	-0.11088967
50	0xbdde5b09	-0.10857207
51	0x3dcad543	0.09903958
52	0xbda72467	-0.0816124
53	0xbdb1a20a	-0.086734846
54	0xbda727d1	-0.08161891
55	0xbd282948	-0.041054994
56	0x3da91bb3	0.08257236
57	0x3bc830f2	0.0061093504
58	0xbd1fe7ef	-0.03903955
59	0xbd32b8cb	-0.043633264
60	0xbd641e2d	-0.05569284
61	0xbe5946be	-0.21218392
62	0x3dccb13a	0.09994741
63	0x3d9f4f69	0.07778818
64	0x3de02e90	0.10946381
65	0xbda47fb5	-0.08032171
66	0xbe00fbe3	-0.12596087
67	0x3df0ab4b	0.117514215
68	0xbc6f0c19	-0.014590287
69	0xbe181bb6	-0.14854321
70	0x3d1f6074	0.038910344
71	0xbdeb11be	-0.114779934
72	0x3dadd80a	0.08488472
73	0xbd98ff0f	-0.074705236
74	0x3d704e47	0.0586684
75	0xba8a9afc	-0.0010574753
76	0xbd84c803	-0.06483462
77	0xbe13627e	-0.1439304
78	0x3d698290	0.05700928
79	0xbe068da6	-0.13139972
80	0xbd2f7594	-0.04283674
81	0x3d374eb7	0.044752803
82	0x3d8e656c	0.069529384
83	0x3d4e3d36	0.050351344
84	0x3cc27e5a	0.02374189
85	0xbdac18ba	-0.08403154
86	0xbd9941b6	-0.074832365
87	0xbcd6a670	-0.02620241
88	0x3cecfcad	0.028929079
89	0xbddad816	-0.10685746
90	0x3e02edbd	0.12786002
91	0x3d7246f8	0.059149712
92	0x3d5c8d7c	0.053845868
93	0x3daaf7d5	0.083480515
94	0x3e4d30ed	0.20038195
95	0x3d86314f	0.065523736
96	0xbe7ff788	-0.2499677
97	0xbe0946f7	-0.13405977
98	0x3aca9b6f	0.00154577
99	0x3d64874d	0.055793095
100	0xbd0554cc	-0.03255157
101	0x3c9770f1	0.018486472
102	0x3d7897b0	0.060691535
103	0xbd7f81b2	-0.062379546
104	0x3dc29761	0.095015295
105	0x3d3cd37c	0.046100125
106	0x3e2b1ecf	0.16710971
107	0x3d0fe3c9	0.035129342
108	0x3cc87520	0.024469912
109	0xbc69eace	-0.014277173
110	0x3e16ce56	0.14727148
111	0xbd2f10f5	-0.04274078
112	0x3e419318	0.18903768
113	0x3e4afdf3	0.19823436
114	0xbdb2c88c	-0.087296575
115	0x3e258c6c	0.16166848
116	0xbe273ac0	-0.16331005
117	0xbddce107	-0.10785108
118	0xbd019e2c	-0.031644985
119	0xbd6de722	-0.058081754
120	0x3d61fa33	0.05517025
121	0x3d7b7b24	0.061396733
122	0xbbd32795	-0.0064439275
123	0xbd8fd334	-0.07022706
124	0xbe2ef19b	-0.17084353
125	0x3c7bb44e	0.015362812
126	0x3d454299	0.048159216
127	0xbc8d1ad4	-0.017224707
128	0xbdc1a695	-0.09455601
129	0x3cc772eb	0.02434679
130	0xbcb0557e	-0.02152514
131	0x3dcf04cc	0.10108337
132	0x3d4010fd	0.0468912
133	0x3d073cb9	0.033016894
134	0xbdc46b29	-0.09590752
135	0xbda53c21	-0.08068109
136	0xbde7fef5	-0.11327926
137	0xbcf08e9e	-0.02936488
138	0xbded3b4a	-0.11583574
139	0x3e20ddd9	0.15709628
140	0xbdcebf18	-0.10095042
141	0x3de3f2e1	0.1113031
142	0xbe71c674	-0.2361086
143	0x3e092da7	0.13396321
144	0x3e22920f	0.1587603
145	0xbde545e9	-0.11194975
146	0xbb3b8fb7	-0.0028619596
147	0xbcbb2c88	-0.022848383
148	0xbdf14dc0	-0.11782408
149	0xbc314948	-0.010820694
150	0x3dd81682	0.10551168
151	0xbc4d7f3f	-0.012542545
152	0xbcb44fe2	-0.022010747
153	0x3dcd3512	0.10019888
154	0xbe57ae90	-0.21062684
155	0xbe0f5837	-0.13998495
156	0x3d41f418	0.047351927
157	0xbdd9f710	-0.106428266
158	0x3db7cd1b	0.08974668
159	0x3e347f86	0.17626771
160	0xbdf7f734	-0.12107697
161	0x3d766fca	0.060165204
162	0x3d244669	0.04010621
163	0xbe0106da	-0.1260027
164	0x3e5a3753	0.21310167
165	0xbd986cdf	-0.074426405
166	0x3b8e5b70	0.0043443963
167	0xbd3a477c	-0.04547833
168	0x3d8b3129	0.06796486
169	0x3e2fdb5e	0.17173526
170	0xbdd5f3ec	-0.10446915
171	0x3d051436	0.032489978
172	0xbdf0103c	-0.117218465
173	0xbe16cd87	-0.1472684
174	0xbaebb374	-0.0017982558
175	0x3d1f1ad0	0.03884393
176	0x3dff6098	0.12469596
177	0xbe0447d4	-0.12918025
178	0x3ba121da	0.0049173655
179	0xbd352591	-0.04422528
180	0xbcdc0b48	-0.026860848
181	0x3ce66c7a	0.028127898
182	0x3e0aa790	0.13540483
183	0xbc583391	-0.013195888
184	0x3e1d1373	0.1533945
185	0xbc6e1170	-0.014530525
186	0xbc9a2930	-0.018818468
187	0xbd13816a	-0.03601209
188	0x3cf2c7e2	0.029636327
189	0x3d4cb4b1	0.04997701
190	0x3dd25f50	0.10272086
191	0xbe23df82	-0.1600323
192	0xbe2e4b46	-0.17020902
193	0x3df943bf	0.12171125
194	0xbe3b7ee6	-0.18310127
195	0x3cce4c14	0.025182761
196	0x3c78903a	0.015171105
197	0x3da4a406	0.080390975
198	0xbd8100df	-0.06298994
199	0x3d388d6d	0.04505675
200	0xbc95ed9d	-0.01830178
201	0xbd1288f0	-0.035775125
202	0x3e27df92	0.16393879
203	0x3c8d2bd7	0.017232819
204	0x3cca1a97	0.024670882
205	0x3d743437	0.05962011
206	0xbdb72d2f	-0.08944165
207	0xbe27bdc1	-0.16380979
208	0xbdd11969	-0.10209925
209	0x3ca05eca	0.019576449
210	0x3dce30e2	0.100679174
211	0xbd05953c	-0.032613024
212	0xbd84d9e9	-0.064868756
213	0xbe193498	-0.14961469
214	0xbdfcb5ac	-0.12339339
215	0x3dbf10f8	0.093294084
216	0xbe1029f0	-0.14078498
217	0xbe24c4ec	-0.16090745
218	0x3db60be0	0.08888984
219	0xbb96e11f	-0.0046044732
220	0x3d236bbd	0.03989767
221	0x3c9a56ee	0.01884028
222	0x3e6151a2	0.22003797
223	0x3e30d20a	0.17267624
224	0x3d93e210	0.072208524
225	0xbdf09bb3	-0.11748447
226	0x3d84edfb	0.06490704
227	0x3d7087a1	0.058723096
228	0xbdeb217b	-0.11480995
229	0x3e4838b5	0.19552882
230	0xbd8a36ee	-0.06748758
231	0xbb422cda	-0.0029628784
232	0x3b93e1a6	0.0045129834
233	0x3dd9b68a	0.1063052
234	0xbda2f017	-0.0795595
235	0xbe18e7ab	-0.14932124
236	0x3d2f0984	0.042733684
237	0x3cfcc3cb	0.03085508
238	0xbe56b424	-0.20967156
239	0xbd839df3	-0.06426611
240	0xbe322fd1	-0.17401053
241	0x3e01d950	0.12680554
242	0x3d99f458	0.07517308
243	0x3d9b3d79	0.07580084
244	0xbe4e92cb	-0.20173185
245	0x3d5a3860	0.05327642
246	0xbc3bebc8	-0.011469789
247	0xbe0535bd	-0.13008781
248	0xbe82856d	-0.2549242
249	0xbd31eef0	-0.04344076
250	0x3c06140d	0.008183491
251	0xbde87eb4	-0.11352292
252	0x3e2ba159	0.16760768
253	0x3dfc3122	0.12314059
254	0x3dc497af	0.09599244
255	0x3df89baa	0.121390656

model.3.bias f4 [16]
0	0x3d9359b6	0.071948454
1	0xbd0f54da	-0.03499303
2	0xbbadb70e	-0.005301363
3	0x3d20dcd3	0.039273094
4	0xbdbfb41d	-0.09360526
5	0xbe00adfa	-0.12566367
6	0x3e250e00	0.16118622
7	0x3e2d2623	0.16909079
8	0x3ddc3745	0.10752729
9	0xbe28c2ca	-0.16480556
10	0xbcd6293d	-0.02614271
11	0x3d2f4777	0.042792764
12	0x3d965061	0.0733955
13	0x3e0b3b02	0.13596728
14	0x3e155168	0.14581835
15	0xbddde7da	-0.10835238

model.5.weight f4 [16]
0	0x3f823e37	1.0175236
1	0x3f789c52	0.97113526
2	0x3f8d460d	1.1037003
3	0x3f82e296	1.0225399
4	0x3f7257d4	0.94665265
5	0x3f780c23	0.9689352
6	0x3f831777	1.0241536
7	0x3f8639f0	1.0486431
8	0x3f70a50b	0.94001836
9	0x3f7f9cf4	0.99848866
10	0x3f64eba5	0.89422065
11	0x3f80f10c	1.0073562
12	0x3f60203e	0.875492
13	0x3f829379	1.0201255
14	0x3f8c5de1	1.096615
15	0x3f6c6446	0.92340505

model.5.bias f4 [16]
0	0xbdc402bb	-0.09570833
1	0x3e2add28	0.16685927
2	0x3e1ce629	0.15322174
3	0xbcb61a9c	-0.022229485
4	0x3e8a8e89	0.2706187
5	0x3da56ed4	0.080777794
6	0x3d4a06e2	0.04932297
7	0x3e5e3258	0.21698892
8	0xbda37cc6	-0.07982783
9	0x3d8c76f1	0.06858624
10	0x3e19cf1c	0.15020412
11	0xbdcb686f	-0.099320285
12	0xbe126053	-0.14294557
13	0xbe3655fb	-0.17806236
14	0xbc6b5b3a	-0.014365012
15	0x3dec41b5	0.1153597

model.5.running_mean f4 [16]
0	0x3e8eeca4	0.27914917
1	0x3e5e63ad	0.21717711
2	0x3e5d3d74	0.21605474
3	0x3e6f9b81	0.23399164
4	0x3e05c69f	0.13064049
5	0x3e0edda3	0.13951735
6	0x3e9d78f8	0.30756354
7	0x3e918b81	0.28426746
8	0x3e76a933	0.24087982
9	0x3e1e55fb	0.15462486
10	0x3e57f2cc	0.21088713
11	0x3e8cf8b3	0.27533492
12	0x3e8866a9	0.26640823
13	0x3ea76382	0.32693106
14	0x3eac0b19	0.33602217
15	0x3e362149	0.17786135

model.5.running_var f4 [16]
0	0x3db13af6	0.08653824
1	0x3df81d2f	0.12114941
2	0x3e21ece5	0.15813024
3	0x3dfe81bc	0.124270886
4	0x3d4fa263	0.050691973
5	0x3dab0b54	0.0835177
6	0x3e5bee1e	0.21477553
7	0x3e01c564	0.12672955
8	0x3d8c6ae6	0.06856327
9	0x3de80eb2	0.11330928
10	0x3dd59776	0.104292795
11	0x3dd35eef	0.103208415
12	0x3e4e4976	0.2014521
13	0x3deb97c8	0.11503559
14	0x3e8fd9b6	0.28095788
15	0x3de66095	0.1124889

model.6.weight f4 [8, 16]
0	0xbe52b36b	-0.20576255
1	0x3d285c75	0.0411038
2	0x3e8077af	0.2509131
3	0xbb46819f	-0.0030289663
4	0xbc3adddc	-0.011405434
5	0xbe014e21	-0.1262746
6	0x3e136fff	0.14398192
7	0x3ca8911c	0.020577006
8	0x3dfa0c22	0.122093454
9	0x3c901373	0.0175874
10	0x3d353fa4	0.044250146
11	0x3e425194	0.18976432
12	0x3dd72553	0.10505166
13	0xbec23ead	-0.37938443
14	0x3e1a5010	0.15069604
15	0x3e6dce12	0.23223141
16	0xbdbbf5f4	-0.09177771
17	0xbe19fa89	-0.15036978
18	0xbea1ffa0	-0.3164034
19	0xbd55e879	-0.052223656
20	0x3d7f24ed	0.062291075
21	0xbbda80b0	-0.006668173
22	0xbe861c56	-0.26193494
23	0xbcb9e93c	-0.022694223
24	0x3d311eb1	0.04324216
25	0xbdc372da	-0.095433906
26	0x3bddec29	0.0067725373
27	0xbe8b672d	-0.27227154
28	0xbd5e1f83	-0.05422927
29	0xbdc078ce	-0.09398042
30	0xbe6b92da	-0.23005238
31	0xbe110ea5	-0.14165743
32	0xbe2fca38	-0.17166984
33	0xbccbbc82	-0.024870161
34	0x3c411141	0.011783899
35	0x3d8d886c	0.06910786
36	0xbd6cffda	-0.057861187
37	0x3d226f97	0.0396572
38	0xbd932036	-0.07183878
39	0xbe145780	-0.14486504
40	0x3d0c8b83	0.034312736
41	0x3dca58ea	0.0988024
42	0x3e3f766a	0.18697515
43	0xbdfdea7a	-0.123982385
44	0xbe482a2d	-0.19547339
45	0xbe508459	-0.20362987
46	0xbe062b56	-0.13102469
47	0x3d83fb98	0.06444472
48	0xbd744e60	-0.059645057
49	0x3e19276a	0.14956442
50	0x3e7ff12f	0.24994348
51	0x3cc4c1a3	0.024018114
52	0x3e723701	0.23653795
53	0xbd51d4cd	-0.051228333
54	0x3e0ea8a9	0.13931526
55	0x3e8723cc	0.26394498
56	0xbe58cf0c	-0.21172732
57	0x3decb594	0.11558071
58	0x3e27903a	0.16363612
59	0x3e3ba93c	0.18326277
60	0x3dbd4210	0.09241116
61	0xbde8d96a	-0.113695934
62	0x3dbb9da6	0.091609284
63	0xbdbc4f00	-0.091947556
64	0x3da739f3	0.0816535
65	0xbde2e4df	-0.1107881
66	0xbe31c21d	-0.17359205
67	0x3e19834a	0.14991489
68	0xbe27f764	-0.16402966
69	0xbd848758	-0.06471127
70	0x3c0132de	0.007885663
71	0xbe8bac75	-0.27280012
72	0x3e17ad41	0.14812185
73	0xbd175283	-0.036943924
74	0xbd988de1	-0.07448936
75	0x3e0e40d9	0.13891925
76	0x3d0359f6	0.032068215
77	0x3df388f1	0.11891354
78	0xbea5144e	-0.32242054
79	0xbdc537a0	-0.0962975
80	0x3e61707f	0.2201557
81	0x3e0858b0	0.13315082
82	0x3e0dec29	0.13859619
83	0x3e1bf37c	0.152296
84	0xbe4bb0af	-0.19891618
85	0xbe63177e	-0.2217693
86	0x3e3a3596	0.18184504
87	0xbe63813c	-0.22217268
88	0x3e0ca93d	0.13736434
89	0xbd44877c	-0.04798077
90	0x3de0a140	0.10968256
91	0x3e6a36c0	0.22872448
92	0xbd1f231b	-0.03885184
93	0x3db4c6de	0.088269934
94	0xbe041fc2	-0.1290274
95	0xbe3f74ee	-0.18696949
96	0x3e3ff553	0.18745928
97	0x3e1da99a	0.15396729
98	0xbe21c5fc	-0.15798181
99	0x3c93ded1	0.018050583
100	0x3e5f5dc8	0.21813118
101	0x3cb52346	0.022111546
102	0x3da7ea48	0.081989825
103	0x3e41e7ce	0.18936083
104	0xbced7b1b	-0.028989365
105	0xbe5d5e15	-0.2161792
106	0xbe4eaf8c	-0.20184153
107	0x3e1c65a7	0.15273152
108	0xbdaf394d	-0.08555851
109	0x3e60fb5e	0.21970889
110	0xbe371525	-0.1787916
111	0x3d857b9b	0.065177165
112	0xbd21017f	-0.039308067
113	0x3e4606ef	0.19338582
114	0x3e32aefd	0.17449565
115	0xbcb6600a	-0.022262592
116	0xbe2fd772	-0.1717203
117	0x3d43fa3b	0.04784606
118	0x3e43c9a0	0.19119883
119	0x3e10cd2b	0.14140765
120	0x3d746675	0.059668023
121	0xbba0d049	-0.004907642
122	0xbde560db	-0.11200114
123	0xbdc22052	-0.09478821
124	0xbe10b43f	-0.14131258
125	0xbea13eb1	-0.31493142
126	0x3d94b7e5	0.072616376
127	0x3e57932e	0.21052238

model.6.bias f4 [8]
0	0x3e18cc72	0.1492174
1	0x3debaf38	0.1150803
2	0x3e75cebc	0.24004644
3	0xbcffc41a	-0.031221438
4	0xbcea40fb	-0.028595438
5	0x3dc18da6	0.094508454
6	0x3defcaa9	0.11708576
7	0x3cde7f7e	0.027160402

model.8.weight f4 [8]
0	0x3fcb94f8	1.5904837
1	0x3fd2b5be	1.6461713
2	0x3fdc2012	1.7197287
3	0x3fbae50a	1.4601147
4	0x3fc8dcbc	1.5692363
5	0x3fc2bd78	1.5214071
6	0x3fc305e4	1.5236173
7	0x3fc78a31	1.5589048

model.8.bias f4 [8]
0	0xbe20f85f	-0.15719746
1	0x3e3ab563	0.18233256
2	0x3b6de19c	0.0036297804
3	0xbccebe6c	-0.025237285
4	0xbdcf037d	-0.10108087
5	0xbe39d4a3	-0.1814752
6	0xbda4539e	-0.08023761
7	0x3c926910	0.017872363

model.8.running_mean f4 [8]
0	0x3ef5d200	0.4801178
1	0x3ea25c19	0.3171089
2	0x3ec94cd0	0.39316416
3	0x3ebfda66	0.37471312
4	0x3e2456fb	0.16048805
5	0x3e796b25	0.24357279
6	0x3ecee2fa	0.40407544
7	0x3ebf8151	0.37403348

model.8.running_var f4 [8]
0	0x3f04a5f0	0.518157
1	0x3decb305	0.11557583
2	0x3e4881da	0.19580784
3	0x3ef45724	0.47722733
4	0x3d6b47fb	0.057441693
5	0x3df55185	0.11978439
6	0x3e40b6f1	0.18819787
7	0x3ec827bb	0.39092812

model.9.weight f4 [4, 8]
0	0x3f3f5444	0.74737954
1	0xbf54a3c4	-0.83062387
2	0x3efab462	0.48965746
3	0x3f4af3d3	0.79278296
4	0xbf0cc0a2	-0.54981434
5	0x3e437714	0.19088393
6	0xbe86bec5	-0.2631742
7	0x3f5a0daa	0.851771
8	0x3dcfad6c	0.101404995
9	0xbf078e81	-0.5295182
10	0xbed5930c	-0.4171375
11	0xbe186bcf	-0.14884876
12	0x3f4eeae1	0.80827147
13	0x3f31293d	0.6920355
14	0x3ed200c4	0.4101621
15	0xbefdd2a3	-0.49574766
16	0xbe9a661a	-0.30156022
17	0x3ea81601	0.32829288
18	0x3f024245	0.5088237
19	0xbf146942	-0.5797311
20	0xbcab316d	-0.020897591
21	0xbef40c1e	-0.47665495
22	0xbf087f76	-0.5331949
23	0xbea02f49	-0.31286076
24	0xbef7bff5	-0.4838864
25	0x3d1e8c38	0.03870794
26	0xbf32b09c	-0.69800735
27	0x3e18861e	0.14894912
28	0xbf171d0f	-0.59028715
29	0xbf0e79f6	-0.5565485
30	0x3ebe79b0	0.37202215
31	0xbe340cc1	-0.1758299

model.9.bias f4 [4]
0	0x3dd66ebc	0.1047034
1	0xbd9a4394	-0.07532421
2	0x3dbe2065	0.092835225
3	0x3ebad083	0.36487207
