saved_models/MLP/ckpt__epoch100.ckpt (torch, 18336 bytes, 20 tensors)

model.0.weight f4 [32, 64]
-0.051934194 -0.019049944 -0.010276781 -0.013017998 0.015258842 -0.09617627 0.08295105 -0.019987172
-0.03369945 -0.13491149 -0.017213888 -0.025117524 -0.02111139 0.030562162 -0.11752648 0.024625637
-0.030613186 -0.19527607 -0.10559734 -0.07972783 0.0075714677 -0.08002249 -0.16186357 0.064254515
0.0062184115 -0.12401274 -0.018133856 0.0047480124 -0.031039147 0.010795229 0.13605373 -0.08000936
-0.025406156 -0.012932554 -0.033017866 0.13513525 -0.01093069 0.04410442 -0.06729574 -0.015192185
-0.019896496 -0.05753191 -0.10678115 -0.13648279 -0.022082448 -0.046925187 0.04387959 0.016039705
-0.032593768 0.08724533 -0.15910119 -0.101735994 -0.008850465 -0.04128636 -0.27239418 0.053615212
0.0037971507 0.20019783 0.027277375 0.06624729 -0.014632302 0.02510113 0.036232438 0.045915596
-0.040349662 -0.13696523 0.03456721 0.0022067965 0.025352504 0.1323581 -0.007395302 0.06379715
-0.019827152 0.076978974 -0.19112392 -0.039208733 -0.037323836 0.014851703 -0.005643154 0.004802263
0.017469024 -0.06344051 -0.0665909 0.06957545 0.04822597 0.12768896 0.039551444 -0.08509038
0.052742086 -0.015303014 -0.10064595 0.08154268 0.03332237 0.16422123 0.03737068 -0.008470426
0.03610822 -0.009818245 -0.0033725325 0.02778734 -0.09081351 0.025999019 0.06019091 -0.09677042
0.0011394188 -0.039304093 -0.111585364 0.07374004 -0.017242268 -0.007285497 0.058126356 -0.02675768
0.02168159 0.09395619 -0.0024918816 -0.053370014 0.06911823 -0.06874503 -0.008946001 0.03209863
0.0078316685 0.108902395 -0.169444 -0.009743901 0.11402384 -0.15727527 0.041175023 -0.064875714
-0.0961414 -0.032345988 0.13296181 0.09661653 -0.11962454 0.00047547504 -0.19687593 0.006949516
-0.05813694 -0.015466642 0.09380425 -0.04817247 -0.012990764 0.03825935 -0.07294705 0.027834537
-0.012155193 -0.05293161 0.021714969 0.0015499371 0.0457662 -0.051536486 0.26556113 0.030032307
0.10091931 -0.012684323 -0.05200007 -0.14888272 0.0702122 0.007079571 0.08384701 0.02701258
-0.015768426 0.025094744 -0.092591286 -0.028915687 -0.029010236 0.03622104 -0.035244703 0.039541848
-0.10248656 -0.04156786 0.079655655 0.18175088 -0.12522088 0.042883962 -0.13335572 0.013711177
-0.029529234 -0.043805346 -0.0019985703 0.039888434 0.11093881 0.017879225 -0.10723743 0.028554909
-0.009775821 -0.0070803873 -0.05691407 -0.017500974 0.09745207 -0.018213443 -0.0038226855 0.025738832
-0.0037016016 0.059149534 0.06337128 -0.117115565 0.0610562 -0.09456249 0.026028857 0.03369761
-0.021225065 0.068402655 0.018101798 -0.006617598 0.04881294 -0.0028871966 -0.014025475 0.0016811372
-0.049570482 -0.03306796 -0.04852989 -0.01032817 0.09610865 0.037352238 0.009803331 0.011716165
0.0046784435 -0.061361466 -0.058068868 -0.00031913424 0.0095703555 -0.1798146 0.007866326 0.11005374
0.018861454 -0.08028009 0.046240542 -0.038629152 0.021045933 -0.16377792 0.020493487 0.083894394
-0.013458222 -0.023745134 0.05594854 0.024006747 0.0004988528 0.14392199 0.023317626 0.030644191
0.054812483 -0.007374777 0.0016258763 0.037355978 0.043603636 0.22070177 0.02432719 -0.028149864
0.0072637754 -0.17217138 0.10394073 -0.013694521 0.04731191 -0.07450137 0.0061095012 0.06549497
00000000: f3b8 54bd a10e 9cbc f25f 28bc 7149 55bc
00000010: 3900 7a3c 10f8 c4bd 3de2 a93d 23bc a3bc
00000020: 6f08 0abd 3d26 0abe 2404 8dbc 44c3 cdbc
00000030: cbf1 acbc 805d fa3c b9b1 f0bd b4bb c93c
00000040: 81c8 fabc 73f6 47be 6b43 d8bd 5848 a3bd
00000050: 131a f83b d5e2 a3bd 90bf 25be df97 833d
00000060: d1c3 cb3b 64fa fdbd 748d 94bc 3795 9b3b
00000070: cf45 febc 79de 303c ab51 0b3e f3db a3bd
00000080: 9220 d0bc 10e3 53bc be3d 07bd e560 0a3e
00000090: a316 33bc d6a6 343d 59d2 89bd a4e8 78bc
000000a0: fafd a2bc 94a6 6bbd 13b0 dabd 25c2 0bbe
000000b0: 40e6 b4bc a034 40bd 16bb 333d b365 833c
000000c0: 0b81 05bd aead b23d 6ceb 22be f65a d0bd
000000d0: 8a01 11bc e31b 29bd 4077 8bbe a09b 5b3d
000000e0: 9ed9 783b a900 4d3e cd74 df3c a9ac 873d
000000f0: 53bc 6fbc e3a0 cd3c 7768 143d fe11 3c3d
00000100: b045 25bd 9d40 0cbe 5996 0d3d e79f 103b
00000110: 0eb0 cf3c e288 073e 4a54 f2bb 15a8 823d
00000120: 8d6c a2bc 27a7 9d3d fdb5 43be 5699 20bd
00000130: e1e0 18bd 8f54 733c 35ea b8bb 4d5c 9d3b
00000140: 331b 8f3c 19ed 81bd cf60 88bd 937d 8e3d
00000150: 9888 453d e5c0 023e b200 223d dd43 aebd
00000160: 1608 583d 7eb9 7abc 771f cebd d9ff a63d
00000170: 0a7d 083d 9c29 283e 0012 193d 8bc7 0abc
00000180: 37e6 133d b4dc 20bc b505 5dbb 47a2 e33c
00000190: 6ffc b9bd e5fb d43c be8a 763d 922f c6bd
000001a0: 8d58 953a 54fd 20bd de86 e4bd 0505 973d
000001b0: a83f 8dbc 2ebb eebb e715 6e3d ec32 dbbc
000001c0: 979d b13c 1a6c c03d d64e 23bb 849a 5abd
000001d0: dc8d 8d3d 32ca 8cbd 3f92 12bc da79 033d
000001e0: 6650 003c 3808 df3d ba82 2dbe e2a4 1fbc
000001f0: 5585 e93d c50c 21be 24a7 283d 8fdd 84bd
00000200: c8e5 c4bd 3a7d 04bd 2427 083e e3de c53d
00000210: b6fd f4bd 2e49 f939 d899 49be c4b8 e33b
00000220: 0021 6ebd cc67 7dbc 711c c03d 7f50 45bd
00000230: 37d7 54bc d6b5 1c3d 4365 95bd 4105 e43c
00000240: 9326 47bc d1ce 58bd 97e3 b13c 4227 cb3a
00000250: 5775 3b3d ec17 53bd a1f7 873e 5006 f63c
00000260: c8ae ce3d e8d1 4fbc 07fe 54bd b674 18be
00000270: 6acb 8f3d bffb e73b fbb7 ab3d 7c49 dd3c
00000280: c92c 81bc 7e93 cd3c 80a0 bdbd 97e0 ecbc
00000290: e0a6 edbc 835c 143d c05c 10bd a2f6 213d
000002a0: 79e4 d1bd 0f43 2abd 8122 a33d e71c 3a3e
000002b0: e739 00be 18a7 2f3d 678e 08be d8a4 603c
000002c0: 4be7 f1bc 3c6d 33bd 72fa 02bb 0e62 233d
000002d0: e333 e33d 7477 923c 4c9f dbbd fceb e93c
000002e0: c42a 20bc 9802 e8bb ba1e 69bd 345e 8fbc
000002f0: f394 c73d 5c34 95bc 0586 7abb 3eda d23c
00000300: 9296 72bb c846 723d cdc8 813d 49da efbd
00000310: 1116 7a3d fba9 c1bd 783a d53c 8106 0a3d
00000320: 30e0 adbc b116 8c3d 394a 943c 6fd8 d8bb
00000330: 14f0 473d 1f37 3dbb 1bcb 65bc 9b59 dc3a
00000340: 6b0a 4bbd 4572 07bd 47c7 46bd 7c37 29bc
00000350: 9dd4 c43d a9fe 183d 279e 203c 28f5 3f3c
00000360: a14d 993b 2956 7bbd 9fd9 6dbd 7951 a7b9
00000370: fbcc 1c3c 5221 38be c3e1 003c db63 e13d
00000380: 5683 9a3c e369 a4bd b966 3d3d 9a39 1ebd
00000390: 8568 ac3c 66b5 27be f5e1 a73c d3d0 ab3d
000003a0: e07f 5cbc 2885 c2bc 4c2a 653d cca9 c43c
000003b0: 72c5 023a 4960 133e 9b04 bf3c 8709 fb3c
000003c0: 0e83 603d 1da8 f1bb 5b1b d53a 9502 193d
000003d0: ba99 323d a5ff 613e d149 c73c 8b9a e6bc
000003e0: f704 ee3b b24d 30be e1de d43d fc5e 60bc
000003f0: 22ca 413d 2d94 98bd 3632 c83b 3a22 863d

model.0.bias f4 [32]
0.12923662 -0.06450155 -0.20631127 0.017574826 0.1987223 0.16088422 -0.25820547 0.017575791
-0.097850144 -0.044487774 -0.17146662 -0.12751544 -0.16087064 0.17627658 -0.01170316 0.007626567
0.16237417 0.05861884 -0.08785049 0.033047598 0.08145377 0.08110307 -0.2830036 0.20399344
0.123390675 0.1169782 0.032311987 -0.040297892 0.18305738 0.23566775 0.016020674 -0.013048857
00000000: 9b56 043e 6319 84bd 4343 53be 15f9 8f3c
00000010: dc7d 4b3e d5be 243e 8233 84be 1bfb 8f3c
00000020: a865 c8bd d038 36bd f294 2fbe 6893 02be
00000030: 46bb 24be d981 343e 9cbe 3fbc 48e8 f93b
00000040: 6a45 263e 4f1a 703d f5ea b3bd eb5c 073d
00000050: 3cd1 a63d 5e19 a63d d9e5 90be a8e3 503e
00000060: 40b4 fc3d 4492 ef3d 9359 043d 670f 25bd
00000070: 6573 3b3e e352 713e ca3d 833c e0ca 55bc

model.2.weight f4 [32]
1.090194 0.95224416 0.9722434 0.95459425 0.953718 0.98340225 0.99848676 1.0197911
1.0337348 0.9645271 1.0135345 1.1026729 1.0698202 0.9592846 0.99311984 1.0352523
1.0810152 0.89470947 1.052962 0.97612923 0.9494761 0.96201813 1.1036091 0.9508993
0.9500928 1.0542196 0.988562 0.91500914 1.0697622 1.0216992 0.9481931 1.0015451
00000000: 7a8b 8b3f 46c6 733f f2e4 783f 4a60 743f
00000010: dd26 743f 40c0 7b3f d49c 7f3f 8488 823f
00000020: 6c51 843f 3feb 763f 80bb 813f 6324 8d3f
00000030: deef 883f ad93 753f 1a3d 7e3f 2683 843f
00000040: b55e 8a3f ae0b 653f 75c7 863f 9be3 793f
00000050: de10 733f d246 763f 1043 8d3f 236e 733f
00000060: 4839 733f abf0 863f 6612 7d3f 0a3e 6a3f
00000070: f8ed 883f 0ac7 823f c8bc 723f a132 803f

model.2.bias f4 [32]
-0.00041669357 -0.07022072 -0.021598566 -0.07657211 0.0433678 -0.013477633 0.0056430036 0.081192195
0.12764172 -0.028008731 0.039375592 0.103614576 0.032790855 -0.015418646 -0.01674385 0.084091604
0.090722226 0.037677772 -0.027999643 0.002271776 -0.14926785 0.031140227 0.0645959 -0.08239077
-0.012775367 0.012147866 -0.093370475 -0.08235995 0.009497951 0.04917684 -0.035210226 0.038457774
00000000: aa77 dab9 e1cf 8fbd 7aef b0bc d7d1 9cbd
00000010: 6fa2 313d 4ad1 5cbc f2e8 b83b 1848 a63d
00000020: 83b4 023e 9172 e5bc 4d48 213d e133 d43d
00000030: b44f 063d 7d9e 7cbc 662a 89bc 3838 ac3d
00000040: 93cc b93d 0254 1a3d 825f e5bc 14e2 143b
00000050: acd9 18be ca19 ff3c db4a 843d 7ebc a8bd
00000060: c64f 51bc d807 473c 0539 bfbd 55ac a8bd
00000070: 4b9d 1b3c a76d 493d 9938 10bd e685 1d3d

model.2.running_mean f4 [32]
4.8248806 3.2706823 3.7515128 3.8568249 3.8133874 4.1358223 2.7787976 3.9477115
3.7835245 2.763473 3.0075374 3.2726264 3.7955928 3.0085685 4.072084 4.370394
3.5020654 3.8615184 2.438646 3.622196 3.768983 3.097875 3.3371325 4.5184884
3.492774 3.9676359 3.524967 4.0653267 2.9789944 3.221275 4.5134506 3.147242
00000000: 6c65 9a40 dc52 5140 c918 7040 38d6 7640
00000010: 8a0e 7440 a858 8440 d2d7 3140 4ea7 7c40
00000020: 4425 7240 bedc 3040 7e7b 4040 b672 5140
00000030: feea 7240 638c 4040 834e 8240 45da 8b40
00000040: d721 6040 1e23 7740 c712 1c40 0fd2 6740
00000050: 0437 7140 9643 4640 9493 5540 7597 9040
00000060: 9c89 5f40 bfed 7d40 0f99 6140 2817 8240
00000070: d8a7 3e40 5f29 4e40 306e 9040 6a6c 4940

model.2.running_var f4 [32]
59.8253 26.12239 57.219208 37.459843 37.550713 54.409237 25.964676 45.671894
39.36234 26.272205 29.527182 57.13481 58.57604 22.930754 41.973186 69.44626
46.26941 38.035286 20.593609 45.06488 35.78858 24.5815 57.327026 44.41967
30.006182 45.83648 35.07583 44.486183 35.47886 31.802237 47.654655 43.856598
00000000: 1b4d 6f42 a8fa d041 78e0 6442 e1d6 1542
00000010: ee33 1642 0fa3 5942 a8b7 cf41 05b0 3642
00000020: 0973 1d42 7a2d d241 ab37 ec41 0c8a 6442
00000030: dd4d 6a42 2f72 b741 8be4 2742 7ce4 8a42
00000040: e013 3942 2224 1842 b6bf a441 7042 3442
00000050: 8227 0f42 e9a6 c441 e04e 6542 bead 3142
00000060: a90c f041 8e58 3742 a64d 0c42 daf1 3142
00000070: 5aea 0d42 fb6a fe41 5e9e 3e42 286d 2f42

model.3.weight f4 [16, 32]
0.21435899 -0.06878082 -0.08478566 0.00073778466 0.09104157 0.13454887 -0.10962406 0.08722491
-0.070822604 -0.1491127 0.0081675155 0.087519646 -0.09406555 -0.11334196 -0.027041784 0.037291754
0.038321596 -0.11599096 -0.19196086 -0.07639445 0.01717605 0.104819305 0.119192116 0.08365454
0.12882024 0.00047895018 0.029188622 0.048526343 0.064210534 -0.16110149 -0.08790212 -0.03491843
-0.08599383 0.0262863 0.034134835 -0.097509235 -0.100931786 -0.060814258 -0.02633237 -0.013844686
0.16013291 0.1626998 0.030938486 -0.0037174046 -0.05297779 0.17604981 -0.105805166 0.06639895
0.1546375 0.12514319 0.09235707 0.19642423 -0.13767855 0.0066136974 -0.13099565 0.009298267
0.08441785 -0.14508337 -0.006987226 -0.08504883 -0.023854665 0.038827743 -0.101658694 0.11759201
-0.10790479 0.02996847 0.136698 -0.050509993 -0.12356111 -0.1490387 -0.18875791 -0.14246736
-0.0906084 0.026049288 -0.11592842 -0.14220373 0.06965315 0.014743047 0.009754647 0.045862477
-0.09943962 0.13017437 -0.1118137 -0.05926751 0.05279475 -0.015171748 -0.04897529 -0.05752584
-0.094116725 -0.1850756 0.13082734 0.08694893 0.0059956163 -0.12186204 0.09545639 -0.12635602
-0.02287845 0.12077672 -0.09753087 0.052903842 0.085267715 -0.06037894 0.099324554 0.023035256
-0.1307701 -0.067118935 -0.06254906 -0.055415012 -0.19954355 0.09717571 -0.11616517 0.16808744
-0.15950249 0.059461385 -0.028379377 0.012751469 -0.11523811 -0.00032669518 0.015240234 -0.02346378
0.1478742 0.18512376 0.056354254 -0.15068094 -0.09123533 -0.010734599 -0.0011968082 -0.16497912
-0.02182374 -0.03574813 -0.088887334 0.17364933 0.15275171 0.029087208 -0.076202825 0.0098293405
-0.096548155 0.071191676 0.12256614 -0.124963455 -0.14330687 0.07851958 -0.07355913 -0.14893304
-0.05901118 0.028023833 -0.09164394 -0.065790385 -0.096536204 0.23127069 -0.15519054 0.16177182
0.10982333 -0.12995699 -0.20158792 0.1640214 -0.055600252 0.00393268 0.061789498 0.014553605
0.04216525 0.058965348 -0.102685146 -0.047906708 0.049908385 0.05341373 0.027252128 -0.114789546
0.15713783 -0.10226474 0.17758933 -0.051894326 -0.016974324 0.15462096 -0.09223072 0.15703608
0.035126016 0.011128058 -0.16154018 -0.023566443 -0.103579015 -0.12431577 -0.009658528 -0.15888058
-0.1220737 -0.07955162 0.0060880724 -0.07376715 -0.0032000951 -0.04926276 0.08991999 -0.1705743
0.03919292 -0.17146237 0.077478394 -0.057464156 -0.079956405 0.11000888 -0.062797345 -0.17998412
-0.13192621 0.16724607 -0.09203127 0.11286319 0.1370838 -0.13604128 -0.07644708 -0.22670938
-0.023086483 -0.05603707 0.0055085937 0.15794222 -0.1320689 0.009993554 0.18079911 -0.14232737
-0.024228685 -0.14301345 -0.061371434 -0.04511863 0.17539419 0.08847642 -0.09938692 0.12425242
-0.04765794 -0.098834656 -0.043163642 -0.10626925 0.08570771 -0.12037662 0.004031903 0.05229645
0.18705593 -0.017230304 0.010437986 0.21999097 0.1566461 -0.0910054 0.008889082 0.13010478
0.08656816 0.020914728 -0.10369681 -0.08078568 -0.07732058 0.06503833 0.18238209 -0.15991329
0.016753886 0.0382233 -0.1712252 -0.045324244 -0.08550225 0.009050863 0.008391748 0.09114779
00000000: ec80 5b3e f5dc 8cbd 1ba4 adbd e467 413a
00000010: 0174 ba3d 2ec7 093e 9482 e0bd f9a2 b23d
00000020: 710b 91bd 00b1 18be 0bd1 053c 803d b33d
00000030: 70a5 c0bd d41f e8bd bb86 ddbc 3dbf 183d
00000040: 1bf7 1c3d ab8c edbd 6391 44be b274 9cbd
00000050: cab4 8c3c 81ab d63d ff1a f43d 1253 ab3d
00000060: 74e9 033e 9b1b fb39 fa1c ef3c 8fc3 463d
00000070: d080 833d caf7 24be 0706 b4bd a106 0fbd
00000080: 881d b0bd 5e56 d73c f8d0 0b3d ecb2 c7bd
00000090: 53b5 cebd 5f18 79bd fbb6 d7bc d2d4 62bc
000000a0: e2f9 233e c79a 263e b572 fd3c b39f 73bb
000000b0: 3dff 58bd 6746 343e 61b0 d8bd 2cfc 873d
000000c0: 4b59 1e3e 8925 003e b425 bd3d 6f23 493e
000000d0: 9bfb 0cbe b7b7 d83b b923 06be c257 183c
000000e0: 44e3 ac3d bc90 14be 1af5 e4bb 152e aebd
000000f0: dc6a c3bc d709 1f3d 6f32 d0bd 14d4 f03d
00000100: 30fd dcbd 7080 f53c 8ffa 0b3e 91e3 4ebd
00000110: 9b0d fdbd 9a9d 18be c149 41be f7e2 11be
00000120: e690 b9bd 5165 d53c e16b edbd db9d 11be
00000130: 50a6 8e3d d28c 713c f4d1 1f3c 4bda 3b3d
00000140: 00a7 cbbd 6e4c 053e 95fe e4bd 7dc2 72bd
00000150: 4f3f 583d ec92 78bc 509a 48bd 37a0 6bbd
00000160: 45c0 c0bd 7584 3dbe 9af7 053e 4812 b23d
00000170: e076 c43b ce92 f9bd a47e c33d 7963 01be
00000180: 966b bbbc c959 f73d 44be c7bd b3b1 583d
00000190: d7a0 ae3d e84f 77bd ac6a cb3d 6fb4 bc3c
000001a0: 99e8 05be a775 89bd b919 80bd dafa 62bd
000001b0: 2555 4cbe 0f04 c73d 01e8 edbd 1d1f 2c3e
000001c0: 9f54 23be c88d 733d de7b e8bc 8aeb 503c
000001d0: f501 ecbd 4948 abb9 2db2 793c 1d37 c0bc
000001e0: 566c 173e 1591 3d3e b8d3 663d 1b4c 1abe
000001f0: 97d9 babd 2ce0 2fbc 38de 9cba 49f0 28be
00000200: b3c7 b2bc a26c 12bd 900a b6bd 21d1 313e
00000210: f26a 1c3e 4c48 ee3c 3a10 9cbd 3e0b 213c
00000220: 0abb c5bd f1cc 913d f503 fb3d d7ec ffbd
00000230: 09bf 12be e0ce a03d 2ba6 96bd e781 18be
00000240: b5b5 71bd 3d92 e53c d1af bbbd 1cbd 86bd
00000250: c6b4 c5bd 39d2 6c3e 45ea 1ebe 83a7 253e
00000260: 0eeb e03d 7213 05be 106d 4ebe 3af5 273e
00000270: 17bd 63bd b6dd 803b fc16 7d3d 3e72 6e3c
00000280: 78b5 2c3d a685 713d 974c d2bd d339 44bd
00000290: bc6c 4c3d 5bc8 5a3d db3f df3c c816 ebbd
000002a0: bde8 203e 2d70 d1bd fad9 353e 258f 54bd
000002b0: bd0d 8bbc f554 1e3e 76e3 bcbd 11ce 203e
000002c0: 4ce0 0f3d 7552 363c ca6a 25be 6a0e c1bc
000002d0: 3c21 d4bd 4499 febd cd3e 1ebc 97b1 22be
000002e0: c701 fabd f6eb a2bd 747e c73b 3b13 97bd
000002f0: b0b8 51bb bfc7 49bd f927 b83d 08ab 2ebe
00000300: c188 203d d593 2fbe feac 9e3d 895f 6bbd
00000310: 2fc0 a3bd 564c e13d e59b 80bd c24d 38be
00000320: aa17 07be 8e42 2b3e e47a bcbd d124 e73d
00000330: b25f 0c3e 684e 0bbe 4990 9cbd 8126 68be
00000340: dd1f bdbc 2087 65bd 6f81 b43b 9bbb 213e
00000350: 123d 07be 01bc 233c 6723 393e 44be 11be
00000360: 3c7b c6bc 1e72 12be 9d60 7bbd 50ce 38bd
00000370: 899a 333e 2033 b53d 5f8b cbbd 0e78 fe3d
00000380: f934 43bd d369 cabd 5ccc 30bd b1a3 d9bd
00000390: 8687 af3d 0488 f6bd 0e1e 843b cd34 563d
000003a0: 978b 3f3e 9126 8dbc 1604 2b3c 5045 613e
000003b0: d667 203e 0a61 babd 83a3 113c 303a 053e
000003c0: a64a b13d 5d55 ab3c fe5e d4bd f672 a5bd
000003d0: 415a 9ebd d132 853d 5fc2 3a3e 4fc0 23be
000003e0: 723f 893c 0990 1c3d a955 2fbe eaa5 39bd
000003f0: ce1b afbd 124a 143c 8b7d 093c b1ab ba3d

model.3.bias f4 [16]
0.07337021 -0.036955617 0.06964374 -0.119476095 0.09826581 -0.03683914 -0.101120815 0.07653581
-0.19070768 -0.07452028 -0.0458848 0.16783348 -0.064298876 -0.04949666 0.09066196 -0.009437781
00000000: 1f43 963d c65e 17bd 61a1 8e3d e2af f4bd
00000010: 963f c93d a3e4 16bd 6e18 cfbd cfbe 9c3d
00000020: e048 43be 179e 98bd b3f1 3bbd 8adc 2b3e
00000030: 21af 83bd 02bd 4abd faac b93d eca0 1abc

model.5.weight f4 [16]
0.96234256 1.0170587 1.045344 0.9763331 0.9807665 0.9092844 0.95275086 0.92728645
1.097118 1.0140761 0.98528934 0.9150022 0.988324 1.1138093 0.9338774 0.9641602
00000000: 155c 763f fb2e 823f d5cd 853f f7f0 793f
00000010: 8313 7b3f ddc6 683f 7be7 733f a562 6d3f
00000020: 5d6e 8c3f 3fcd 813f ec3b 7c3f 963d 6a3f
00000030: cd02 7d3f 4e91 8e3f 9712 6f3f 34d3 763f

model.5.bias f4 [16]
0.18900575 0.2231551 -0.11713133 0.06231656 -0.19465588 0.15300648 0.0387795 0.2822742
0.110738255 -0.26232496 -0.0046987063 0.17260964 -0.010609087 0.04995366 0.1788035 0.058773052
00000000: b98a 413e c582 643e 8de2 efbd a63f 7f3d
00000010: df53 47be bbad 1c3e 41d7 1e3d 3e86 903e
00000020: bdca e23d 754f 86be 9bf7 99bb 95c0 303e
00000030: bcd1 2dbc 369c 4c3d 4418 373e 03bc 703d

model.5.running_mean f4 [16]
0.25931868 0.21149187 0.21425478 0.120747715 0.26473123 0.18347731 0.22263534 0.31275418
0.17618558 0.11571767 0.1854711 0.32060355 0.14749578 0.3266561 0.28980416 0.18346578
00000000: 6bc5 843e 5391 583e 9b65 5b3e 944a f73d
00000010: da8a 873e 7ae1 3b3e 85fa 633e 5121 a03e
00000020: fe69 343e 63fd ec3d 23ec 3d3e 2626 a43e
00000030: 2209 173e 783f a73e 3661 943e 74de 3b3e

model.5.running_var f4 [16]
0.20375428 0.18464442 0.060369927 0.043465387 0.12672463 0.06641355 0.20139284 0.21572159
0.24319997 0.059348777 0.16178548 0.24281348 0.050043613 0.41415465 0.18394344 0.13790561
00000000: f6a4 503e 6d13 3d3e 7546 773d c308 323d
00000010: 1ac4 013e d403 883d ed39 4e3e 1fe6 5c3e
00000020: 6a09 793e b417 733d 18ab 253e 19a4 783e
00000030: 88fa 4c3d 140c d43e ab5b 3c3e 2137 0d3e

model.6.weight f4 [8, 16]
0.08840529 0.15544522 0.017571336 -0.21847354 -0.2617294 -0.043489713 0.118072085 0.21423158
0.19652279 0.000866188 0.097388916 0.14898373 -0.2569698 -0.043582577 -0.011925338 0.06635524
0.26011392 0.0012403207 -0.1685132 0.078776166 -0.03364734 0.095123716 -0.13433488 0.2184255
0.06805858 -0.08459182 0.1469594 -0.024067067 0.07632319 -0.29197505 0.17332119 -0.036719836
-0.09728169 0.14098145 -0.110579275 -0.1639781 -0.29547885 -0.09588122 0.08344782 0.10830131
0.05892789 -0.13598546 -0.015729122 0.1664529 -0.22321627 0.07782277 -0.14919496 0.21773827
0.2617977 -0.10833271 0.057244346 -0.015014418 -0.26087874 -0.06132085 -0.034877174 0.18788539
0.12757117 -0.1027783 0.12438436 0.021434199 0.048482843 -0.10072464 0.18702672 -0.22984233
-0.23331682 -0.23355283 0.17973301 -0.036234375 0.090232715 -0.13721742 -0.00083414855 -0.32586104
-0.24230647 0.061896466 -0.17607173 0.056586146 -0.01847257 -0.15369073 -0.14510731 0.09877553
0.017386962 0.13010412 -0.2692856 0.036509223 -0.0024202038 0.10640493 -0.19406141 0.09262527
-0.31789255 0.12438448 -0.16229235 -0.03753395 0.018005218 -0.28387016 0.01961425 0.09083368
-0.1155711 0.03886682 -0.15527637 0.16445822 0.17445354 0.16271697 -0.091851935 -0.050359134
-0.22592753 -0.13387239 -0.12094183 0.14454573 0.20515214 -0.07329103 0.030704515 0.024969451
0.14909028 -0.2500455 0.0071356413 0.08277767 0.11269851 0.12568313 0.05008917 -0.18625726
0.00083623914 -0.17039366 -0.1107769 -0.33394903 0.11039278 -0.04749936 0.023377238 -0.33134654
00000000: d50d b53d 082d 1f3e c3f1 8f3c 87b7 5fbe
00000010: 6501 86be 4522 32bd c7cf f13d 865f 5b3e
00000020: 453d 493e e510 633a d773 c73d 318f 183e
00000030: 8c91 83be a583 32bd 7e62 43bc 42e5 873d
00000040: a72d 853e 4292 a23a b98e 2cbe 6655 a13d
00000050: cbd1 09bd 39d0 c23d 158f 09be efaa 5f3e
00000060: 4c62 8b3d 7a3e adbd 867c 163e 4c28 c5bc
00000070: 554f 9c3d c17d 95be 1c7b 313e 8a67 16bd
00000080: 9f3b c7bd 715d 103e 6377 e2bd e0e9 27be
00000090: 0149 97be 605d c4bd b1e6 aa3d 14cd dd3d
000000a0: 5f5e 713d c63f 0bbe 5cda 80bc a172 2a3e
000000b0: ce92 64be 8b61 9f3d 90c6 18be c8f6 5e3e
000000c0: 590a 863e 8add ddbd 0c79 6a3d 09ff 75bc
000000d0: e691 85be 922b 7bbd 5edb 0ebd 0765 403e
000000e0: 04a2 023e 6e7d d2bd 3abd fe3d c696 af3c
000000f0: f295 463d b848 cebd ef83 3f3e ca5b 6bbe
00000100: 9bea 6ebe 7928 6fbe ee0b 383e 7f6a 14bd
00000110: eecb b83d b982 0cbe c3aa 5aba 42d7 a6be
00000120: 301f 78be 2687 7d3d 264c 34be e0c6 673d
00000130: ca53 97bc 1a61 1dbe 0397 14be d34a ca3d
00000140: 1a6f 8e3c 043a 053e cddf 89be b28a 153d
00000150: 489c 1ebb d4ea d93d 09b8 46be 51b2 bd3d
00000160: d0c2 a2be 4abd fe3d f72f 26be 33bd 19bd
00000170: ae7f 933c 6e57 91be 10ae a03c 0207 ba3d
00000180: 8ab0 ecbd d132 1f3d c500 1fbe bc67 283e
00000190: f3a3 323e 479f 263e de1c bcbd 6145 4ebd
000001a0: 8c59 67be d815 09be 5ab0 f7bd cc03 143e
000001b0: 6713 523e 9c19 96bd 0988 fb3c bc8c cc3c
000001c0: 1fab 183e f705 80be 19d2 e93b 5787 a93d
000001d0: 7ace e63d 14b3 003e 4d2a 4d3d 39ba 3ebe
000001e0: 0f37 5b3a ad7b 2ebe 00df e2bd 5efb aabe
000001f0: 9c15 e23d b08e 42bd 9f81 bf3c 41a6 a9be

model.6.bias f4 [8]
0.032184504 0.21697542 0.15945785 0.21791138 0.018899877 0.07148858 0.28696382 0.016177222
00000000: e6d3 033d ce2e 5e3e eb48 233e 2924 5f3e
00000010: ead3 9a3c 9b68 923d ecec 923e 1886 843c

model.8.weight f4 [8]
1.6738999 1.427566 1.5426702 1.4027387 1.6136379 1.5105602 1.5120802 1.6076031
00000000: 5a42 d63f 7cba b63f 3876 c53f f18c b33f
00000010: b08b ce3f 095a c13f d88b c13f f0c5 cd3f

model.8.bias f4 [8]
-0.09453582 0.15703315 0.0570829 -0.14993607 -0.11672852 0.23227043 0.20289427 -0.10053606
00000000: ff9b c1bd 4ccd 203e c2cf 693d d788 19be
00000010: 5d0f efbd 4dd8 6d3e 84c3 4f3e dae5 cdbd

model.8.running_mean f4 [8]
0.398959 0.42699647 0.4723298 0.46076995 0.17671418 0.27757376 0.41835654 0.23018129
00000000: 5b44 cc3e 489f da3e 36d5 f13e 0aea eb3e
00000010: 90f4 343e 261e 8e3e d432 d63e a5b4 6b3e

model.8.running_var f4 [8]
0.3594772 0.11890422 0.33916938 0.19863671 0.05601712 0.09712072 0.1432822 0.06562098
00000000: 650d b83e 0e84 f33d 9ca7 ad3e 6c67 4b3e
00000010: 3572 653d 3ae7 c63d 92b8 123e 4b64 863d

model.9.weight f4 [4, 8]
0.8873369 0.13220477 0.6010606 0.63040334 -0.4229836 -0.34311485 -0.6574462 -0.084941484
-0.02015079 -0.81656116 -0.46762395 0.046539713 0.7722585 -0.4633942 -0.44781446 0.5000039
-0.0876922 -0.0687422 0.16511339 -0.5276385 0.025656337 0.73028207 0.46990004 -0.5095601
-0.10504361 0.49161366 -0.6903013 0.3542633 -0.2784665 0.16481397 0.45738658 0.81402194
00000000: 8328 633f b060 073e 1cdf 193f 1d62 213f
00000010: 4e91 d8be c0ac afbe 654e 28bf cdf5 adbd
00000020: 4513 a5bc 270a 51bf 686c efbe 6da0 3e3d
00000030: bcb2 453f 0142 edbe f047 e5be 4100 003f
00000040: f897 b3bd b6c8 8cbd 7c13 293e 5113 07bf
00000050: 3d2d d23c c4f3 3a3f bd96 f03e 8872 02bf
00000060: 1b21 d7bd c9b4 fb3e 96b7 30bf 0062 b53e
00000070: 2993 8ebe fec4 283e 932e ea3e be63 503f

model.9.bias f4 [4]
0.028004471 0.056107298 0.1378636 0.21575913
00000000: a269 e53c c4d0 653d 1e2c 0d3e f6ef 5c3e
