saved_models/MLP/ckpt__epoch10.ckpt (torch, 18336 bytes, 20 tensors)

model.0.weight f4 [32, 64]
0	0x3dcc545c	0.09977028
1	0x3d2361d1	0.039888207
2	0x3e297628	0.1654898
3	0x3e30fd7c	0.17284197
4	0xbf0e12d4	-0.5549748
5	0xbd42a422	-0.04751981
6	0xbca06a7e	-0.01958203
7	0xbbf587ee	-0.0074930107
8	0xbe099486	-0.13435563
9	0xbe9df06a	-0.30847484
10	0x3e391e4e	0.18077967
11	0xbc4e461a	-0.012589956
12	0x3dd8cdf6	0.10586159
13	0x390804f8	0.00012971822
14	0x3e3bd2a9	0.18342079
15	0xbc51e5ff	-0.012811183
16	0xbf39272a	-0.72325385
17	0xbe27862e	-0.16359779
18	0x3d8f422a	0.06995042
19	0xbd8330a0	-0.06405759
20	0x3dc10374	0.09424487
21	0x3d14cec2	0.036329992
22	0x3e2ef21d	0.17084546
23	0x3dad019d	0.08447573
24	0xbf00f912	-0.5038005
25	0x3eabd8ac	0.33563745
26	0x3eef0826	0.46685904
27	0x3ed36b3d	0.41292754
28	0xbe5af581	-0.21382715
29	0x3dc89be6	0.0979536
30	0xbf09a7a8	-0.5377145
31	0x3cfb0220	0.030640662
32	0x3f113d8f	0.56734556
33	0x3ebc71e7	0.3680565
34	0xbf32f760	-0.69908714
35	0xbf0fd49b	-0.56183785
36	0xbe3ea3e6	-0.1861721
37	0x3dbdc273	0.09265604
38	0xbd3f1539	-0.0466511
39	0x3e0898ce	0.1333954
40	0x3f24cfd8	0.64379644
41	0xbd8437cd	-0.06455956
42	0xbe2db7d0	-0.1696465
43	0x3ebe6a77	0.371906
44	0xbd313983	-0.043267738
45	0x3d5138f1	0.051079694
46	0xbdb09035	-0.08621255
47	0x3db06849	0.08613641
48	0xbf61b01c	-0.88159347
49	0xbde5edf7	-0.11227029
50	0x3f0664f1	0.52497774
51	0x3e7ab01c	0.24481243
52	0xbdd26b6e	-0.10274397
53	0x3cfed664	0.031108089
54	0xbeab79f0	-0.33491468
55	0x3e1dda8b	0.15415399
56	0x3e3eded2	0.18639687
57	0xbe247c21	-0.16062976
58	0xbdf19f14	-0.1179792
59	0xbe35a559	-0.17738856
60	0x3e0ad809	0.13558973
61	0x3d800285	0.062504806
62	0x3d5ec46b	0.054386538
63	0xbcf19102	-0.02948809
64	0x3dd9e353	0.10639062
65	0xbd412f86	-0.047164463
66	0x3ea744a5	0.3266956
67	0xbeb032a6	-0.34413642
68	0xbedc4cfc	-0.43027484
69	0xbe534195	-0.20630486
70	0xbd240b50	-0.04004985
71	0x3dfb3976	0.12266819
72	0x3e3ace6f	0.1824281
73	0xbe933bc7	-0.28756544
74	0xbf02d854	-0.5111134
75	0xbe4c8bc6	-0.19975194
76	0x3ef0752f	0.46964404
77	0x3e9962db	0.29958233
78	0x3ccecac5	0.025243172
79	0x3db19677	0.08671277
80	0xbea18616	-0.31547612
81	0xbcc102a4	-0.02356083
82	0x3de38278	0.11108869
83	0x3eb3cb6f	0.35116145
84	0xbeb07d63	-0.34470662
85	0xbf5b08be	-0.85560215
86	0xbd87965f	-0.06620478
87	0xbdf32251	-0.1187178
88	0xbe2e2f74	-0.1701029
89	0xbc413dde	-0.011794535
90	0xbe01eb82	-0.12687495
91	0xbeddc4d1	-0.43314222
92	0x3e81693f	0.2527561
93	0x3eb807e8	0.35943532
94	0x3deb10d5	0.1147782
95	0xbe35dfb5	-0.17761119
96	0x3ce11f6e	0.027480807
97	0x3e6c8124	0.23096138
98	0x3eb7c626	0.35893363
99	0x3e06284d	0.13101311
100	0x3e41c699	0.18923415
101	0xbe57b83b	-0.21066372
102	0x3e1a11a7	0.15045796
103	0xbc8114a5	-0.015756914
104	0xbe76ba0d	-0.2409441
105	0xbdafdb59	-0.08586759
106	0x3ed0b4d1	0.40762952
107	0x3e16a24a	0.14710346
108	0xbeb92126	-0.36158103
109	0xbea8bcbb	-0.3295649
110	0xbde6d830	-0.11271703
111	0x3e9d7616	0.30754155
112	0xbd0e171b	-0.034690004
113	0x3ddc8123	0.107668184
114	0x3e800edd	0.2501134
115	0x3e347817	0.17623936
116	0xbed216bc	-0.4103297
117	0x3defe0d4	0.117128044
118	0xbeae39ee	-0.34028572
119	0x3dee64d4	0.11640325
120	0xbd7310e6	-0.059342287
121	0x3e8829f9	0.26594523
122	0x3e0a602f	0.13513254
123	0x3d0fae4f	0.035078343
124	0x3e3a4111	0.18188883
125	0x3ee10bab	0.43954214
126	0xbd8994eb	-0.06717857
127	0xbd17cd8e	-0.037061267
128	0xbe4d903b	-0.20074551
129	0x3f8ca495	1.0987726
130	0xbb4dd31e	-0.0031406353
131	0xbd549de6	-0.051908396
132	0xbd6cccae	-0.057812385
133	0x3d02d08b	0.031937163
134	0x3c8242ce	0.015900996
135	0xbcb63d8c	-0.022246145
136	0x3acb9f06	0.0015535064
137	0x3f3ccf86	0.73754156
138	0xbdd37974	-0.103259
139	0x3b88b711	0.004172214
140	0xbdf5614a	-0.11981447
141	0xbc347629	-0.0110145
142	0x3cdbd1d2	0.026833449
143	0x3c751ace	0.014960004
144	0x3d3b0cba	0.045666434
145	0xbeb7c5aa	-0.35892993
146	0x3e9bcbb3	0.30428848
147	0x3e407422	0.18794301
148	0x3caee9fa	0.021351803
149	0x3ce72d5f	0.028219877
150	0x3e1674b1	0.14692952
151	0xbdaa7a7f	-0.083241455
152	0xbca60cba	-0.02026974
153	0x3f293786	0.6610035
154	0xbd8a13d8	-0.06742066
155	0x3e6369c6	0.22208318
156	0xbd1839da	-0.037164547
157	0xbcc15a67	-0.023602678
158	0x3e0132ae	0.12616989
159	0xbd2b216a	-0.041779913
160	0xbd47df1e	-0.048796766
161	0xbf9530c2	-1.1655505
162	0x3f19aa6e	0.6002568
163	0xbda21aa9	-0.07915241
164	0xbd8bfaad	-0.06834922
165	0xbc192f4a	-0.0093496535
166	0x3e15852f	0.14601587
167	0x3cf05391	0.029336723
168	0xbe16a161	-0.14709999
169	0xbf064ab2	-0.52457726
170	0x3ea92515	0.33036104
171	0x3d346c9e	0.044048898
172	0x3dfee292	0.124455586
173	0xbd1008b2	-0.035164542
174	0x3e5ff9d2	0.21872643
175	0xbc527701	-0.012845756
176	0x3d829843	0.06376698
177	0x3f6d423d	0.92679197
178	0x3ce49574	0.027903296
179	0xbb5d22b3	-0.0033742606
180	0x3e23d884	0.16000563
181	0xbddb40c3	-0.10705712
182	0xbe192dc2	-0.14958861
183	0x3d9aac41	0.07552386
184	0xbd65c2ff	-0.056094166
185	0x3fdee4f0	1.7413616
186	0xbea2170b	-0.31658205
187	0xbe63b2cc	-0.22236174
188	0xbd821d0d	-0.06353197
189	0x3da2f50f	0.079568975
190	0xbe7bf35a	-0.2460455
191	0x3c74087c	0.014894601
192	0x3d83bb6d	0.06432233
193	0x3f02ed2f	0.51143163
194	0xbea977c9	-0.330992
195	0xbe2d6197	-0.16931759
196	0xbdb8b283	-0.090184234
197	0xbd875e0a	-0.066097334
198	0xbea8a889	-0.32941082
199	0x3d22dda7	0.039762165
200	0x3e1c0491	0.15236117
201	0xbf5aa9c6	-0.85415304
202	0xbe7b3fd4	-0.24536067
203	0x3c64f0c8	0.013973422
204	0x3d4e8b6c	0.05042593
205	0xbe246a8d	-0.16056271
206	0x3de5beae	0.1121801
207	0x3c6570a2	0.014003905
208	0x3d62e528	0.05539432
209	0xbf9d8bb1	-1.2308255
210	0x3ea44ae5	0.3208839
211	0x3dff3fe9	0.12463362
212	0xbda2687d	-0.07930086
213	0x3d020d9a	0.031751253
214	0x3df59590	0.119914174
215	0x3e32c774	0.17458898
216	0xbba91dd3	-0.005161026
217	0x3f98185c	1.1882434
218	0x3e4f83d0	0.20265126
219	0x3dc77921	0.097399004
220	0x3cd9d478	0.02659057
221	0x3e0fe1aa	0.14050928
222	0x3bb61eda	0.005557877
223	0xbd93423d	-0.07190368
224	0x3d9791e6	0.07400875
225	0x3f06d5a8	0.52669764
226	0xbe8c8bf3	-0.27450523
227	0xbd768969	-0.06018964
228	0x3d7356de	0.059409015
229	0x3ac95186	0.0015359379
230	0x3eded332	0.43520504
231	0xbe53f5d1	-0.2069924
232	0x3dc57412	0.09641279
233	0x3efbbce0	0.49167538
234	0x3e3ff76c	0.18746728
235	0xbe462c7a	-0.19352904
236	0x3cfa0c46	0.03052343
237	0xbdabc207	-0.08386617
238	0x3d04a404	0.03238298
239	0xbe0ecf4c	-0.13946265
240	0x3d22bae9	0.039729033
241	0xbfcba3f9	-1.5909415
242	0xbf1abe5b	-0.6044671
243	0x3dc2be2b	0.09508928
244	0xbc2ae179	-0.010429733
245	0xbd4b566a	-0.049642958
246	0x3e0a6524	0.13515145
247	0x3e2365db	0.15956824
248	0x3e34b90e	0.17648718
249	0x3d589d5f	0.052884456
250	0xbeea163d	-0.4572009
251	0x3cbbdca7	0.022932364
252	0x3e8bce4e	0.27305835
253	0xbe3af9c0	-0.18259335
254	0x3e92d3db	0.28677258
255	0xbe2c0af5	-0.16801055

model.0.bias f4 [32]
0	0xbf05c0c7	-0.5224728
1	0xbf162e20	-0.5866413
2	0xbf6ec868	-0.93274546
3	0xbfa8d3a4	-1.3189588
4	0xbf3f8cd1	-0.74824244
5	0xbfa9da1b	-1.3269686
6	0xbfa61fc8	-1.2978449
7	0xbfaf4970	-1.3694286
8	0xbeb9c304	-0.36281598
9	0xbf43673b	-0.7632939
10	0xbf275b3f	-0.65373605
11	0xbf888794	-1.0666375
12	0xbf59964f	-0.8499498
13	0xbfe65275	-1.7993914
14	0xc0068fc4	-2.1025248
15	0xbfbd2e31	-1.4779721
16	0xbe4e2444	-0.20131022
17	0xbeded50b	-0.43521914
18	0xbf3e2ce9	-0.7428728
19	0xbfcf0e64	-1.6176267
20	0xbf07ab36	-0.5299562
21	0xbf11ef19	-0.5700546
22	0xbf139341	-0.57646567
23	0xbf203612	-0.62582505
24	0xbff162a5	-1.8858229
25	0xbc5a73cd	-0.013333273
26	0xbf0a0577	-0.5391459
27	0xbfccaa77	-1.5989522
28	0xbf800046	-1.0000083
29	0xbfb72e0c	-1.4310927
30	0x3de8376e	0.113386974
31	0xbfe4d97c	-1.7878871

model.2.weight f4 [32]
0	0x3f3d5449	0.73956734
1	0x3f639ba0	0.8890934
2	0x3f939963	1.1531185
3	0x3f83f327	1.0308579
4	0x3f95d487	1.1705483
5	0x3f995254	1.197825
6	0x3f73efc6	0.9528774
7	0x3f6ec5d8	0.93270636
8	0x3f686d55	0.9079183
9	0x3f7f9bb7	0.99846977
10	0x3f8131fd	1.009338
11	0x3f97513f	1.1821669
12	0x3f85524d	1.0415741
13	0x3fb40880	1.4065094
14	0x3fad7f0d	1.3554398
15	0x3fb3e46f	1.4054087
16	0x3f5a1ce2	0.8520032
17	0x3f8c5a86	1.0965126
18	0x3f6efbd9	0.9335304
19	0x3fa674ce	1.3004396
20	0x3f8db69e	1.1071355
21	0x3f75ee09	0.9606634
22	0x3f8d86fd	1.105682
23	0x3f80b0d7	1.0053967
24	0x3fb091d8	1.3794508
25	0x3f5d4b79	0.8644329
26	0x3f8a235c	1.0792041
27	0x3fb9ad98	1.4506102
28	0x3f97bd4f	1.1854647
29	0x3f8cecfb	1.1009821
30	0x3f87f3ea	1.0621312
31	0x3f9412b9	1.1568214

model.2.bias f4 [32]
0	0x3e4c3ada	0.19944325
1	0x3d33463f	0.043768164
2	0x3e39811d	0.18115659
3	0x3db5605d	0.088562705
4	0x3de58c6d	0.11208425
5	0x3d463329	0.048388634
6	0x3d9b039e	0.07569049
7	0x3c949395	0.018136779
8	0x3c9fa15e	0.019486126
9	0x3d5cf0eb	0.053940695
10	0xbd6866f0	-0.056738794
11	0x3dc7bec7	0.09753185
12	0xbd9e3dd6	-0.07726638
13	0x3e2e11ef	0.16999029
14	0x3da64cd5	0.08120123
15	0x3d82b553	0.06382241
16	0x3e07cf12	0.13262585
17	0x3e691fe2	0.22766069
18	0x3e04641f	0.12928818
19	0x3d24fadb	0.040278297
20	0x3c73ef5b	0.01488861
21	0x3da3f79e	0.080062136
22	0xbde817ce	-0.113326654
23	0x3da10bc4	0.07863572
24	0x3d75a4ba	0.05997155
25	0x3d74c6b7	0.05975982
26	0x3d27bc5c	0.040951118
27	0x3dd8c0ef	0.10583674
28	0xbc85674c	-0.016284607
29	0x3d34e8de	0.044167392
30	0xbe0ea0bb	-0.13928501
31	0x3df60877	0.12013333

model.2.running_mean f4 [32]
0	0x415941a4	13.578526
1	0x418aee94	17.366493
2	0x410f8b0b	8.971446
3	0x413f26c1	11.946961
4	0x4133f323	11.24686
5	0x41527910	13.154556
6	0x413716a3	11.443027
7	0x416b1044	14.691471
8	0x4168f4b4	14.559742
9	0x41529c1b	13.163112
10	0x415fc4e6	13.985571
11	0x413544d1	11.329301
12	0x415983ae	13.594648
13	0x419488bd	18.566767
14	0x41496c58	12.588951
15	0x419976d2	19.183018
16	0x416b061c	14.688992
17	0x4157646d	13.462018
18	0x41472742	12.447084
19	0x4156ae25	13.417516
20	0x412e62d8	10.899132
21	0x4150ccff	13.050048
22	0x417ea597	15.915427
23	0x4184bff7	16.593733
24	0x417984f9	15.594964
25	0x4172c08d	15.172009
26	0x41912cb1	18.146822
27	0x41471069	12.441506
28	0x4155c3b2	13.360277
29	0x41438d4b	12.221995
30	0x41840764	16.503609
31	0x414adbd5	12.67867

model.2.running_var f4 [32]
0	0x4402e092	523.5089
1	0x442b98ea	686.3893
2	0x43bdd41c	379.6571
3	0x44063685	536.85187
4	0x43fba2f7	503.27316
5	0x4434d581	723.336
6	0x43d504cf	426.03757
7	0x4408183a	544.37854
8	0x440e62af	569.54193
9	0x4403c104	527.01587
10	0x443d84f4	758.0774
11	0x44045d8c	529.4617
12	0x442332b5	652.7923
13	0x4501f67c	2079.4053
14	0x449c463d	1250.195
15	0x45186af6	2438.685
16	0x44197a5a	613.91174
17	0x4421979f	646.3691
18	0x43fb1291	502.14505
19	0x44a35dee	1306.9353
20	0x44052b6c	532.67847
21	0x43ea8182	469.01178
22	0x4420ce6e	643.22546
23	0x44456491	789.57135
24	0x44c701e1	1592.0587
25	0x44072352	540.5519
26	0x444fc163	831.02167
27	0x4489bea2	1101.9573
28	0x442c6732	689.6124
29	0x44223593	648.8371
30	0x4435c524	727.0803
31	0x442fe25b	703.5368

model.3.weight f4 [16, 32]
0	0x3edfafcb	0.43688807
1	0xbdf5b354	-0.11997095
2	0xbde3353a	-0.110941365
3	0xbde21afd	-0.11040304
4	0x3e55ff6e	0.2089822
5	0x3e764a39	0.24051751
6	0xbe8964f3	-0.2683483
7	0xbe59ff31	-0.21288754
8	0xbe9da278	-0.30788016
9	0xbea67edb	-0.32518658
10	0x3e03f25d	0.12885423
11	0xbf109b67	-0.56487125
12	0x3eb87545	0.3602697
13	0x3eaa8af5	0.3330914
14	0x3e560a02	0.20902255
15	0x3f0e3ff9	0.55566365
16	0x3d98a20e	0.074527845
17	0x3eb6ae06	0.35679644
18	0xbecb6499	-0.39725187
19	0x3e38586b	0.18002479
20	0xbe7303c3	-0.23731904
21	0xbd175a06	-0.036951087
22	0x3de26b9f	0.11055683
23	0x3ef68e56	0.4815547
24	0x3e037253	0.1283658
25	0x3c00e296	0.007866522
26	0xbee49ff0	-0.44653273
27	0xbe9b3247	-0.30311796
28	0x3df5a725	0.11994771
29	0x3e35920b	0.17731492
30	0x3e949933	0.29023132
31	0xbe2b8b59	-0.16752376
32	0x3d11ae30	0.03556651
33	0xbf0de70b	-0.5543067
34	0xbdf66be6	-0.12032299
35	0xbe2f27f0	-0.17105079
36	0x3e6bdcde	0.23033473
37	0xbda8988b	-0.0823222
38	0xbd954c27	-0.072899155
39	0xbefc9405	-0.4933168
40	0xbf0e7c6b	-0.55658597
41	0x3d4dbc47	0.050228383
42	0xbdd36bd2	-0.103232995
43	0xbcabece0	-0.020986974
44	0xbd9ae301	-0.07562829
45	0x3ec42ff8	0.38317847
46	0x3eea9d5f	0.4582319
47	0x3ea8ddeb	0.3298181
48	0x3e4ac1e1	0.19800521
49	0x3e733670	0.23751235
50	0xbda04d22	-0.07827212
51	0x3ebd60a0	0.36987782
52	0xbe2c3aa9	-0.16819252
53	0xbe1a0b1a	-0.15043297
54	0xbf0c2222	-0.5473958
55	0xbcdf45d9	-0.027254986
56	0x3f0324c5	0.5122798
57	0xbed693c7	-0.4190962
58	0xbeb81852	-0.35956055
59	0x3f4b32fb	0.79374665
60	0xbe6d7efa	-0.23192969
61	0x3b812bdb	0.0039419956
62	0xbdeabfde	-0.11462377
63	0x3cdb05b8	0.026736125
64	0xbcf5aad3	-0.029988682
65	0xbee4bea0	-0.44676685
66	0xbe2cc666	-0.16872558
67	0x3f0df439	0.5545078
68	0x3ef03e73	0.46922645
69	0x3ef9af99	0.48766783
70	0x3d3630b0	0.044480026
71	0x3e3fa2d6	0.1871446
72	0xbe111923	-0.14169745
73	0x3e64f0a7	0.22357427
74	0xbecea144	-0.4035741
75	0x3e8ea9e2	0.27863985
76	0xbeae68cf	-0.34064338
77	0x3e93f44e	0.28897327
78	0xbe1a83bc	-0.15089315
79	0xbe199fb5	-0.1500233
80	0xbe820e89	-0.25401714
81	0x3e387713	0.18014173
82	0xbec2c7d7	-0.3804309
83	0xbe001dc3	-0.12511353
84	0x3efc076c	0.49224412
85	0x3be1f4e8	0.00689565
86	0xbdaf51fb	-0.085605584
87	0x3dfd8d62	0.12380482
88	0x3e1ff1c2	0.15619567
89	0xbea2401f	-0.31689546
90	0xbe5df2c3	-0.21674637
91	0xbf0777b7	-0.52917045
92	0x3e68982d	0.227143
93	0xbef8b46f	-0.4857516
94	0xbe500d61	-0.20317604
95	0x3ea19291	0.31557134
96	0xbe4aeba1	-0.19816448
97	0xbcfda1f8	-0.030961022
98	0xbebf1ff8	-0.37329078
99	0xbd881e5b	-0.06646415
100	0xbefeb1b5	-0.49744955
101	0xbeb09459	-0.3448818
102	0x3e7859bc	0.24252981
103	0x3e8b063b	0.2715319
104	0x3e341454	0.1758588
105	0x3ed0f269	0.40809944
106	0x3e2d5879	0.16928281
107	0xbf085978	-0.5326152
108	0x3eaa4623	0.33256635
109	0xbd008a4b	-0.031381886
110	0xbcac706f	-0.021049706
111	0x3df93cf5	0.1216983
112	0xbc5b1f68	-0.013374187
113	0xbf0f91ca	-0.5608183
114	0xbe8b1b72	-0.27169377
115	0xbe754fb3	-0.23956184
116	0xbf0136d0	-0.5047426
117	0x3e4086dd	0.18801446
118	0x3eb3e28b	0.35133776
119	0x3cb7fcd5	0.022459427
120	0x3cdbd9f6	0.02683733
121	0x3dc1ad80	0.094569206
122	0xbe5bd89c	-0.21469349
123	0x3d283e79	0.041075204
124	0x3e6b9be8	0.23008692
125	0xbf179f78	-0.59227705
126	0xbed637b9	-0.41839388
127	0xbef3d447	-0.47622892
128	0xbeac24a6	-0.3362171
129	0x3b6d4471	0.0036204124
130	0xbde5eaef	-0.11226451
131	0xbed69d54	-0.41916907
132	0x3db6a2d1	0.089177735
133	0xbe4e3c3a	-0.20140162
134	0xbf71f78d	-0.9451836
135	0x3d114d11	0.035473887
136	0xbe1a5e0c	-0.15074939
137	0xbdca3b76	-0.098746225
138	0xbe96252e	-0.2932524
139	0xbe51320a	-0.20429245
140	0x3eba687e	0.36407846
141	0x3c82a9b8	0.015950069
142	0xbef2aada	-0.47395974
143	0x3e725ef3	0.23669033
144	0xbe812a70	-0.2522769
145	0xbf09b656	-0.5379385
146	0xbdb5d220	-0.08877969
147	0x3e2e172d	0.17001028
148	0x3e6ad429	0.22932495
149	0x3d04a5e0	0.032384753
150	0x3ea0bc72	0.31393772
151	0x3e794d7b	0.24345963
152	0xbd19b236	-0.03752347
153	0x3c947f34	0.018127061
154	0x3e9373e6	0.2879936
155	0x3ec58eea	0.38585597
156	0xbe183c1c	-0.1486668
157	0x3d53b360	0.051684737
158	0x3e5aa703	0.21352772
159	0xbecded5e	-0.4022016
160	0x3e6bd674	0.23031026
161	0xbe6ca64e	-0.23110315
162	0x3e691b6e	0.2276437
163	0xbcf86058	-0.030319378
164	0xbc8cf41d	-0.017206246
165	0xbea51b2d	-0.32247296
166	0xbe7d992d	-0.24765463
167	0xbef4de6c	-0.47825944
168	0xbde3bffc	-0.111206025
169	0xbed88d3c	-0.42295253
170	0x3e88169c	0.2657975
171	0xbdfdd641	-0.12394381
172	0xbec7fff8	-0.39062476
173	0xbe249937	-0.16074072
174	0x3eac2dbc	0.33628643
175	0xbf109039	-0.56470066
176	0xbd98520e	-0.07437526
177	0x3e487346	0.19575223
178	0xbbce0503	-0.0062872185
179	0x3e2a3d41	0.16624929
180	0x3e36ba56	0.17844519
181	0xbe9df299	-0.3084915
182	0xbee76055	-0.45190683
183	0xbecb2671	-0.39677766
184	0xbd464222	-0.048402913
185	0xbba878c4	-0.0051413495
186	0xbef20ead	-0.47276822
187	0x3d06b83b	0.03289054
188	0xbe79a657	-0.2437986
189	0x3e442232	0.1915367
190	0x3e2a4df1	0.16631295
191	0x3dcb3238	0.09921688
192	0xbe2eb276	-0.17060265
193	0xbe98eed8	-0.29869723
194	0xbda83c86	-0.08214669
195	0xbe6e8583	-0.23293118
196	0xbea0de87	-0.31419775
197	0x3e95f0d1	0.2928529
198	0x3e1bed7c	0.15227312
199	0xbf079112	-0.52955735
200	0xbe0b9fcd	-0.13635178
201	0xbe68c1c7	-0.2273017
202	0x3f3bc8d1	0.73353297
203	0x3d7e2dec	0.062055513
204	0x3e2f2aa0	0.17106104
205	0xbc1e94e1	-0.00967905
206	0x3c14959d	0.009068874
207	0x3eb0215a	0.34400445
208	0xbe22dbea	-0.15904203
209	0xbdf9710b	-0.12179764
210	0xbda84642	-0.082165256
211	0x3e833285	0.2562448
212	0x3dd47a7a	0.10374923
213	0xbef057e0	-0.46942043
214	0xbe5d7170	-0.21625304
215	0x3dc2cd7b	0.095118485
216	0x3ed2bf4f	0.41161582
217	0xbecfbb61	-0.40572646
218	0xbedbcaa1	-0.4292803
219	0x3e8239d0	0.25434732
220	0x3e8a436a	0.27004558
221	0x3ef9c513	0.48783168
222	0x3e22e02b	0.15905826
223	0x3e2314de	0.15925929
224	0x3e3b0771	0.18264557
225	0x3db688ad	0.089127876
226	0x3f0288a4	0.5098975
227	0x3e82cff2	0.25549275
228	0x3f387ae1	0.720625
229	0xbd9cf8b1	-0.076646216
230	0xbe7be90e	-0.24600622
231	0xbe7f92da	-0.24958363
232	0x3d9c38c6	0.07628016
233	0xbde55347	-0.111975245
234	0xbdfd1111	-0.12356771
235	0xbeaf512e	-0.34241623
236	0xbdf0f86e	-0.11766134
237	0xbdd36c0c	-0.10323343
238	0xbdca978e	-0.09892188
239	0x3e23ddc8	0.16002572
240	0xbd9fbc3d	-0.077995755
241	0xbf0cb351	-0.54961115
242	0x3e40b90a	0.18820587
243	0xbd2448db	-0.040108543
244	0x3e6a6e70	0.22893691
245	0xbf04c372	-0.51860726
246	0xbed83019	-0.42224196
247	0xbdf25950	-0.11833441
248	0x3e822f61	0.25426772
249	0x3dbf3c89	0.09337718
250	0xbeabb144	-0.3353368
251	0x3dda236e	0.10651289
252	0x3ee14a07	0.4400179
253	0x3d973b34	0.07384339
254	0xbe5ecb3b	-0.21757214
255	0x3f1af497	0.60529464

model.3.bias f4 [16]
0	0x3dc62873	0.09675684
1	0x3eb582d4	0.35451376
2	0x3d9c8941	0.076433666
3	0xbe34b07a	-0.17645445
4	0xbe83650f	-0.2566304
5	0x3e38fd49	0.1806537
6	0xbeb961be	-0.36207384
7	0x3cf989dc	0.030461244
8	0x3d5531a3	0.05204929
9	0x3e008deb	0.12554137
10	0xbe6ecca0	-0.23320246
11	0xbdaedb3c	-0.085379094
12	0x3e18632b	0.1488158
13	0x3e684a0d	0.22684498
14	0xbc737bb0	-0.014861032
15	0x3c98ec34	0.018667318

model.5.weight f4 [16]
0	0x3f7f5088	0.99732256
1	0x3fab8d96	1.3402584
2	0x3f71623b	0.9429051
3	0x3f6f29ae	0.93422973
4	0x3f1763ec	0.59136844
5	0x3f5d9b9d	0.8656557
6	0x3f9bf548	1.2184229
7	0x3f84c12d	1.0371453
8	0x3f44f6e0	0.769392
9	0x3f685e1c	0.907686
10	0x3f58686c	0.84534335
11	0x3f8c5b72	1.0965407
12	0x3f9140f4	1.1347947
13	0x3faf0e67	1.367627
14	0x3fa6f74b	1.3044218
15	0x3f6c77bb	0.92370194

model.5.bias f4 [16]
0	0x3f0a8270	0.5410528
1	0x3ee4db6d	0.4469866
2	0xbe817783	-0.25286493
3	0xbdd2d0d5	-0.10293738
4	0x3dd9dc26	0.10637693
5	0x3e13f08b	0.14447229
6	0x3e684e05	0.22686012
7	0xbe0dbdd3	-0.13841943
8	0x3e914a15	0.28376833
9	0x3e69c52b	0.2282912
10	0x3dd51698	0.104047
11	0xbe072519	-0.13197745
12	0xbd8fc758	-0.07020444
13	0xbe932073	-0.28735694
14	0x3f041c87	0.5160603
15	0xbe4b190c	-0.19833773

model.5.running_mean f4 [16]
0	0x3f444886	0.7667316
1	0x3f8c815f	1.0976981
2	0x3f466f07	0.77513164
3	0x3ec42c39	0.3831499
4	0x3eb1e95d	0.34748355
5	0x3f33d1ec	0.7024219
6	0x3f0bfca0	0.5468235
7	0x3f44f406	0.7693485
8	0x3f50c8c4	0.81556344
9	0x3f296c11	0.6618052
10	0x3f1b7475	0.60724574
11	0x3f3c2ca6	0.7350563
12	0x3f48701e	0.7829608
13	0x3f9b25fe	1.2120969
14	0x3f4cdbba	0.80022776
15	0x3f33207c	0.6997144

model.5.running_var f4 [16]
0	0x4015ccbc	2.340621
1	0x4076332a	3.8468728
2	0x3fdd00fd	1.7265927
3	0x3edb756f	0.42863032
4	0x3eef5102	0.46741492
5	0x3f22e63a	0.6363255
6	0x40142b88	2.315157
7	0x3fe9d1f4	1.8267198
8	0x400c849d	2.195594
9	0x3f5dd67c	0.866554
10	0x3f7ef369	0.99590164
11	0x3fcd2d75	1.6029497
12	0x3f67995b	0.90468377
13	0x3f9e3823	1.2360882
14	0x403f2438	2.9865856
15	0x3f5e79aa	0.86904395

model.6.weight f4 [8, 16]
0	0xbea77313	-0.32704982
1	0xbf2ca131	-0.6743346
2	0x3dcd55c6	0.100261256
3	0x3dbffdb4	0.09374562
4	0xbb80705d	-0.0039196447
5	0xbe0ae60f	-0.13564323
6	0xbede1fe3	-0.43383703
7	0x3e409f00	0.18810654
8	0x3ea3be58	0.31981158
9	0xbe103682	-0.14083293
10	0xbe81fd9a	-0.25388795
11	0x3eb73e53	0.35789737
12	0xbf131583	-0.574547
13	0xbd87a096	-0.06622426
14	0xbf128016	-0.57226694
15	0xbecc3b11	-0.39888814
16	0x3ee2d106	0.44300097
17	0x3f356101	0.7085114
18	0x3d85e59a	0.06537934
19	0x3bdd5d92	0.006755539
20	0x3da21077	0.07913297
21	0xbe1258ac	-0.14291638
22	0x3ed2b428	0.41153073
23	0xbd5b3109	-0.05351356
24	0x3e57a79a	0.21060029
25	0x3dda337a	0.106543496
26	0x3e9bc811	0.30426076
27	0xbce05d61	-0.027388277
28	0x3e686ea9	0.22698463
29	0xbea9709f	-0.33093736
30	0x3e45da0d	0.19321461
31	0xbf010cf7	-0.5041041
32	0x3e3fdbb3	0.18736152
33	0xbd3e8ab2	-0.04651899
34	0xbe572213	-0.21009092
35	0x3eacedaa	0.33775073
36	0x3eb35b72	0.35030705
37	0xbe2bb2b9	-0.16767396
38	0xbe96545d	-0.2936124
39	0xbf0d3719	-0.551622
40	0xbf074e62	-0.5285398
41	0x3ee89b69	0.4543107
42	0xbdd622de	-0.10455869
43	0xbf14ccee	-0.581252
44	0xbdd9e12a	-0.1063865
45	0xbed023d0	-0.40652323
46	0xbc122937	-0.008920959
47	0x3c8fa46c	0.017534457
48	0x3e837438	0.25674605
49	0x3eb60ffe	0.35559076
50	0xbd73fbf9	-0.05956647
51	0xbe22c418	-0.15895116
52	0x3d2ce21f	0.042207833
53	0x3d5fa6b8	0.054602355
54	0x3ec31665	0.38103023
55	0x3d884adf	0.066549055
56	0x3dbf6569	0.09345514
57	0x3e68159e	0.22664496
58	0x3e9a8dde	0.3018636
59	0xbd91aaaf	-0.071126334
60	0x3e443854	0.19162112
61	0xbf03b585	-0.5144885
62	0x3f1fef3a	0.62474406
63	0xbe929435	-0.28628698
64	0x3e234fa2	0.15948346
65	0x3ed5a62a	0.41728336
66	0x3e4fb299	0.20282973
67	0xbecfb0ee	-0.40564674
68	0x3d9cae7d	0.076504685
69	0x3ef2a30c	0.4739002
70	0x3eaff7ec	0.34368837
71	0x3d7d5eb5	0.061857898
72	0x3e89c666	0.26909178
73	0xbe2cb988	-0.1686765
74	0x3e658906	0.22415552
75	0x3dc34f8d	0.095366575
76	0x3eaf4ab3	0.34236678
77	0xbeb23825	-0.3480846
78	0x3e9e87a0	0.3096285
79	0xbede637b	-0.43435273
80	0x3e88ccd7	0.2671878
81	0x3ed081c0	0.4072399
82	0xbdd9d3dc	-0.10636112
83	0xbe9843a0	-0.29739094
84	0xbc91edda	-0.017813612
85	0x3ec688e0	0.38776302
86	0x3ea1791d	0.31537715
87	0xbce53320	-0.02797848
88	0x3e746e14	0.23870116
89	0x3cdb4bfa	0.026769627
90	0x3e92b706	0.2865526
91	0xbb3f9936	-0.0029235608
92	0x3e8a946b	0.2706636
93	0xbedb1ba1	-0.42794517
94	0x3edeb018	0.43493724
95	0xbeb46e16	-0.3524024
96	0xbee2bbf8	-0.44284034
97	0xbe97d336	-0.2965333
98	0xbede32b4	-0.43398058
99	0xbd558762	-0.052131064
100	0xbe4547fa	-0.19265738
101	0x3e73d32f	0.23811029
102	0xbe965290	-0.29359865
103	0xbe568e0a	-0.20952621
104	0x3deaf04c	0.11471614
105	0xbe908428	-0.28225827
106	0x3e71c5c1	0.23610593
107	0x3decddbc	0.1156573
108	0x3efe9896	0.4972579
109	0x3f22e992	0.6363765
110	0xbe37710c	-0.17914218
111	0x3e2478e6	0.16061744
112	0xbceb389b	-0.028713515
113	0xbe655aa8	-0.22397864
114	0xbf015bf7	-0.5053095
115	0x3e88c1e8	0.2671044
116	0xbde1f4c8	-0.110330164
117	0x3e4bae56	0.19890723
118	0xbc71ad3c	-0.014750775
119	0xbf238e44	-0.63888955
120	0xbe251055	-0.16119511
121	0x3e8f9829	0.28045776
122	0x39e56d00	0.00043759495
123	0xbf21548c	-0.63019633
124	0x3e17f77a	0.14840499
125	0x3f0bc1d8	0.5459266
126	0xbe88235f	-0.26589486
127	0x3e96a038	0.29419112

model.6.bias f4 [8]
0	0x3f03cc51	0.5148364
1	0x3d2341a3	0.039857518
2	0x3f0d2e71	0.5514899
3	0x3ec68ae9	0.38777855
4	0x3e112acd	0.14176483
5	0x3e93ac21	0.2884226
6	0xbd45fbd6	-0.048335873
7	0x3e992abb	0.29915413

model.8.weight f4 [8]
0	0x3fd37d1c	1.6522555
1	0x3fd5ccc7	1.6703118
2	0x3ff041fc	1.8770137
3	0x3ff68d3c	1.9261851
4	0x3ff804f4	1.9376512
5	0x4001b4e8	2.0266666
6	0x3fdced9c	1.7260013
7	0x3fef5a34	1.8699403

model.8.bias f4 [8]
0	0x3ca54be1	0.020177783
1	0xbd211604	-0.039327636
2	0x3e0fce4b	0.14043538
3	0xbe3d985c	-0.18515152
4	0xbdd9633d	-0.10614631
5	0xbe6a564a	-0.22884479
6	0xbe664c37	-0.22490011
7	0x3e42abe1	0.19010879

model.8.running_mean f4 [8]
0	0x3f249415	0.64288455
1	0x3fa89f9a	1.3173707
2	0x3f92ffae	1.1484277
3	0x3fc641d4	1.5488839
4	0x3fa02a6f	1.251295
5	0x3fb923aa	1.4464009
6	0x3f2df14d	0.6794632
7	0x3f83df39	1.0302497

model.8.running_var f4 [8]
0	0x3f75c52a	0.96003973
1	0x4085f77d	4.186461
2	0x3fbb6064	1.4638791
3	0x408e3bde	4.444808
4	0x40288ae6	2.6334777
5	0x4059fc27	3.4060152
6	0x3f88beaa	1.0683186
7	0x3fb23f3b	1.3925546

model.9.weight f4 [4, 8]
0	0xbe4593a8	-0.19294608
1	0x3f467dcb	0.77535695
2	0xbd4509d7	-0.048105087
3	0x3f4fb40c	0.81134105
4	0x3f7c95a6	0.98665845
5	0x3f530796	0.8243345
6	0xbe3f3837	-0.18673788
7	0xbde1d807	-0.11027532
8	0xbf3d7f3b	-0.74022263
9	0xbe2326f1	-0.15932824
10	0xbf3faed9	-0.7487617
11	0xbed117f7	-0.40838596
12	0xbecbb469	-0.3978608
13	0xbed5bfb6	-0.41747826
14	0x3f7e4ee5	0.99339134
15	0x3f441ec7	0.7660946
16	0x3f4553f2	0.77081215
17	0xbee7f39f	-0.45303056
18	0xbf1439ff	-0.57900995
19	0xbf3c2319	-0.73491055
20	0xbeb3dd82	-0.35129935
21	0xbf29dbb9	-0.66350895
22	0xbf155572	-0.58333504
23	0xbf013a7e	-0.50479877
24	0x3dddd895	0.10832325
25	0xbe80c910	-0.251534
26	0x3f82f4c6	1.0230949
27	0xbeb43c9b	-0.35202488
28	0xbf0a498e	-0.54018486
29	0xbf1d2cf3	-0.6139671
30	0xbf0d0903	-0.55091876
31	0x3f16ba9b	0.5887849

model.9.bias f4 [4]
0	0xbe026aca	-0.1273605
1	0xbe7bd927	-0.24594556
2	0x3c88b277	0.016686661
3	0x3d799d55	0.06094106
