saved_models/MLP/ckpt__epoch100.ckpt (torch, 18336 bytes, 20 tensors)

model.0.weight f4 [32, 64]
-0.038316343 0.27497497 0.08122943 -0.08492165 -0.009561409 -0.0015856426 -0.034997366 0.054830875
0.013826545 0.022879472 -0.108985215 -0.034111504 0.013944902 -0.008121009 0.08895326 -0.00544149
0.026153766 0.18024321 0.05726395 -0.015427672 -0.013454991 0.009071539 -0.09753633 -0.06709589
0.009843691 0.17982991 0.10151422 0.0642696 0.003516656 0.006305121 -0.061392516 -0.04086027
0.015033328 -0.16489643 0.07168406 0.04375446 -0.0057130274 -0.0014504315 0.029168805 -0.047431037
0.0014345837 -0.27491203 0.11602048 0.1300975 0.012476745 0.013731955 -0.1499149 0.028146895
0.0017694057 0.020658633 -0.03590204 0.10915102 0.034058016 -0.017944794 0.019009061 0.011291495
-0.00563302 0.15964387 0.039372552 -0.086486034 0.027258553 0.011965568 0.026705783 0.022276012
-0.017237494 0.025118707 -0.111803465 -0.021663455 0.03830391 0.09465573 0.0066334503 -0.03432075
-0.020543864 -0.07278446 -0.014771216 0.011360864 0.03556312 -0.2025231 -0.070905834 0.038680002
0.05576741 -0.07424315 -0.011902266 0.12731978 0.07140823 0.16571815 0.0070249173 -0.102204695
0.057368524 0.024351265 -0.060507443 0.0698353 -0.04496855 0.05089982 0.0059912032 -0.073884524
0.014976377 0.12672107 -0.064543545 -0.06305257 -0.079545364 -0.03265703 0.045544423 0.0054030335
0.031732872 -0.062011383 0.057410363 0.023661114 -0.07134676 -0.018349595 0.023223167 0.0168281
0.057263985 0.12960628 0.062483452 -0.018982308 -0.016694041 0.08431152 0.04518381 -0.07912853
0.072886504 -0.14700581 0.005142977 0.0125542525 -0.06749544 -0.15650605 0.06260357 -0.027933763
0.005910668 0.03871046 0.11448902 0.02669762 -0.038688052 0.06721489 0.0068999156 0.05419763
-0.043246884 0.008615291 0.26932445 0.06835561 -0.009348362 0.12871516 0.12940884 -0.0019042492
-0.08098276 0.011514808 -0.16912083 -0.03358558 0.0055236137 -0.08276563 0.02786821 -0.036196403
-0.008882814 0.038535304 -0.023667846 0.18707767 -0.028252369 0.14245437 -0.030028448 -0.07250064
-0.0341957 0.08161147 -0.054537926 -0.16383678 0.061261002 -0.06012853 -0.21664423 -0.06285844
0.023770738 -0.12268016 -0.098655574 -0.017919563 0.04547202 -0.018710656 -0.019636147 0.08830239
-0.042627748 0.02392666 -0.12591834 0.020066885 0.0385538 -0.03286694 0.031554118 0.0718085
-0.034383576 0.05499638 0.029157067 0.11683108 -7.32046e-05 -0.01063516 -0.018661654 0.12726718
-0.15021841 -0.020406252 -0.004863984 0.037928764 -0.0051007513 0.013719219 0.1525666 0.052930534
-0.021272015 0.03995396 -0.10594936 0.035751823 0.08264515 0.01808299 -0.08076631 -0.0051781926
-0.057034347 0.17585944 0.075721815 0.057937358 -0.09776331 0.010892136 0.020555215 0.068771504
0.017568327 0.012388334 -0.29693457 0.023451976 0.05811515 0.021715483 -0.02646155 0.013652388
-0.05956346 0.033266466 0.07912051 -0.04565157 0.022735817 -0.0064790794 -0.03690843 0.009738569
-0.09639242 -0.037896823 0.18455048 0.087341055 -0.021596987 0.011499973 -0.14477044 0.05787472
0.013122198 -0.012123697 -0.19782475 0.054453623 -0.03187436 -0.012497517 0.15599704 0.017369958
-0.109062985 0.08805071 0.15688875 -0.08277295 -0.06517635 -0.014982022 0.024963776 0.00609871
00000000: 99f1 1cbd 85c9 8c3e 9e5b a63d 67eb adbd
00000010: 75a7 1cbc 56d5 cfba 6659 0fbd 5796 603d
00000020: bc88 623c bb6d bb3c a433 dfbd 81b8 0bbd
00000030: 2979 643c fb0d 05bc 202d b63d 874e b2bb
00000040: 6c40 d63c ad91 383e 9b8d 6a3d 59c4 7cbc
00000050: 5372 5cbc cba0 143c 21c1 c7bd 9269 89bd
00000060: 6f47 213c 5525 383e b0e6 cf3d c89f 833d
00000070: b377 663b 309b ce3b b876 7bbd 195d 27bd
00000080: 594e 763c 9cda 28be 18cf 923d e037 333d
00000090: 5934 bbbb 681c beba 6bf3 ee3c 0c47 42bd
000000a0: a408 bc3a 45c1 8cbe 259c ed3d 4738 053e
000000b0: 436b 4c3c fefb 603c 4b83 19be 5194 e63c
000000c0: 67eb e73a 4b3c a93c 040e 13bd 928a df3d
000000d0: 6b80 0b3d f600 93bc e4b8 9b3c f6ff 383c
000000e0: 3295 b8bb af79 233e 1d45 213d 971f b1bd
000000f0: 544d df3c 3b0b 443c 16c6 da3c 2f7c b63c
00000100: a535 8dbc bfc5 cd3c 37f9 e4bd 8f77 b1bc
00000110: 90e4 1c3d ddda c13d 6a5d d93b ea93 0cbd
00000120: 9b4b a8bc 0510 95bd f802 72bc eb22 3a3c
00000130: a2aa 113d 3762 4fbe 1437 91bd ec6e 1e3d
00000140: 5e6c 643d cb0c 98bd b901 43bc 1e60 023e
00000150: 7a3e 923d 05b2 293e 4731 e63b b250 d1bd
00000160: 42fb 6a3d 4e7c c73c a7d6 77bd cf05 8f3d
00000170: f130 38bd 547c 503d db51 c43b c550 97bd
00000180: 7a5f 753c 2bc3 013e 682f 84bd b521 81bd
00000190: aee8 a2bd 61c3 05bd ca8c 3a3d ee0b b13b
000001a0: 54fa 013d a6ff 7dbd 2127 6b3d f4d4 c13c
000001b0: 401e 92bd e451 96bc 833e be3c 15db 893c
000001c0: a48d 6a3d 82b7 043e a6ee 7f3d c980 9bbc
000001d0: f1c1 88bc 85ab ac3d a912 393d 240e a2bd
000001e0: 8545 953d b188 16be 6b86 a83b 5ab0 4d3c
000001f0: 0d3b 8abd 1f43 20be 4d36 803d 59d5 e4bc
00000200: 47ae c13b dc8e 1e3d 3879 ea3d f8b4 da3c
00000210: 5d77 1ebd f6a7 893d b018 e23b 56fe 5d3d
00000220: a523 31bd 2627 0d3c e5e4 893e 07fe 8b3d
00000230: df29 19bc e8cd 033e c083 043e 0098 f9ba
00000240: 4ada a5bd 9ba8 3c3c 032e 2dbe 0891 09bd
00000250: 6eff b43b 0781 a9bd df4b e43c ae42 14bd
00000260: 3989 11bc 32d7 1d3d 12e3 c1bc 4a91 3f3e
00000270: 8371 e7bc 8fdf 113e 38fe f5bc 377b 94bd
00000280: ca10 0cbd ea23 a73d 2963 5fbd d4c4 27be
00000290: d1ec 7a3d 5549 76bd fcd7 5dbe edbb 80bd
000002a0: daba c23c bc3f fbbd ef0b cabd 0ccc 92bc
000002b0: de40 3a3d 1747 99bc fcdb a0bc e2d7 b43d
000002c0: 6f9a 2ebd d801 c43c bdf0 00be 4f63 a43c
000002d0: 97ea 1d3d 7c9f 06bd e43e 013d 5610 933d
000002e0: cbd5 0cbd e243 613d cdda ee3c 2245 ef3d
000002f0: 6c85 99b8 183f 2ebc 53e0 98bc 5452 023e
00000300: dbd2 19be 032b a7bc 0e62 9fbb 315b 1b3d
00000310: 3424 a7bb 93c6 603c 6b3a 1c3e b0cd 583d
00000320: a642 aebc c3a6 233d fafb d8bd 8170 123d
00000330: dc41 a93d c722 943c cf68 a5bd d4ad a9bb
00000340: d99c 69bd 7f14 343e 0a14 9b3d b94f 6d3d
00000350: 2138 c8bd ee74 323c 6963 a83c 13d8 8c3d
00000360: 74eb 8f3c 70f8 4a3c cf07 98be 5c1e c03c
00000370: 270a 6e3d abe4 b13c e4c5 d8bc 44ae 5f3c
00000380: d1f8 73bd 6b42 083d ef09 a23d 24fd 3abd
00000390: 7740 ba3c 754e d4bb 4b2d 17bd 858e 1f3c
000003a0: 6469 c5bd b339 1bbd cdfa 3c3e dedf b23d
000003b0: 2aec b0bc 626a 3c3c b43e 14be 0b0e 6d3d
000003c0: 7dfe 563c 79a2 46bc 9292 4abe c30a 5f3d
000003d0: b08e 02bd 63c2 4cbc b0bd 1f3e 714b 8e3c
000003e0: 6a5c dfbd ee53 b43d 72a7 203e dd84 a9bd
000003f0: 2e7b 85bd 2877 75bc d580 cc3c b0d7 c73b

model.0.bias f4 [32]
-0.14823729 0.08047617 0.010346656 0.029711513 -0.22440484 0.015228651 0.08597669 -0.15182322
0.14460261 0.04308348 -0.19933772 -0.11657514 -0.004108899 0.13442677 -0.10300852 -0.14214143
-0.020883705 0.018178008 -0.23881136 -0.029563276 0.17464861 -0.13634613 -0.1232808 -0.06425737
-0.124107614 -0.36634266 -0.10507842 -0.06233221 0.18026438 -0.08326706 -0.11845393 0.019064615
00000000: 84cb 17be b1d0 a43d 0585 293c 8f65 f33c
00000010: 62ca 65be 9881 793c 8c14 b03d 8c77 1bbe
00000020: b512 143e 4e78 303d 301f 4cbe f2be eebd
00000030: f1a3 86bb 2ca7 093e 22f6 d2bd 868d 11be
00000040: 4e14 abbc 0cea 943c f78a 74be af2e f2bc
00000050: 16d7 323e 529e 0bbe a57a fcbd 5e99 83bd
00000060: 222c febd 4491 bbbe 5b33 d7bd 0f50 7fbd
00000070: 3a97 383e ec87 aabd f997 f2bd 652d 9c3c

model.2.weight f4 [32]
1.0041349 0.9863284 1.0231111 0.9133959 1.0664346 1.0353234 0.98331815 0.94526833
1.0216078 0.97418255 1.1508842 1.0026422 0.90220004 1.087224 0.9695474 0.98312926
0.9279145 0.9447922 1.0005051 0.98752993 0.9856256 1.0548308 0.93130076 1.0609071
0.9836931 1.0589805 0.9673405 0.9768965 1.05851 1.0397427 0.97125125 1.0171852
00000000: 7e87 803f 0580 7c3f 4ef5 823f 50d4 693f
00000010: ee80 883f 7a85 843f bdba 7b3f 1bfd 713f
00000020: 0bc4 823f 0764 793f 2c50 933f 9456 803f
00000030: 95f6 663f 282a 8b3f 4234 783f 5cae 7b3f
00000040: ce8b 6d3f e7dd 713f 8d10 803f c3ce 7c3f
00000050: f651 7c3f b204 873f ba69 6e3f cecb 873f
00000060: 50d3 7b3f ac8c 873f a1a3 773f e415 7a3f
00000070: 417d 873f 4a16 853f eca3 783f 2033 823f

model.2.bias f4 [32]
-0.0012391331 0.037318878 -0.006885121 -0.0910381 -0.05311835 -0.014299979 0.023558762 -0.023317534
0.14132625 0.1570118 -0.012783873 -0.1046685 -0.040197015 -0.05859071 0.022883156 -0.055147264
-0.055408694 0.04121237 0.010908763 0.08454661 0.04233443 0.020705635 -0.035850752 -0.050011966
-0.02205256 0.023956735 0.051213473 0.0993659 0.020553064 0.058806024 -0.030763384 0.0072970814
00000000: 686a a2ba aedb 183d 959c e1bb 2f72 babd
00000010: a192 59bd 764a 6abc 4efe c03c 6a04 bfbc
00000020: d4b7 103e b4c7 203e 7373 51bc 705c d6bd
00000030: a0a5 24bd d0fc 6fbd 7575 bb3c 19e2 61bd
00000040: 3af4 62bd 4dce 283d abba 323c c626 ad3d
00000050: de66 2d3d dd9e a93c 3dd8 12bd 59d9 4cbd
00000060: 92a7 b4bc ea40 c43c 38c5 513d 5980 cb3d
00000070: e65e a83c 96de 703d 7e03 fcbc 5b1c ef3b

model.2.running_mean f4 [32]
2.683831 4.408226 4.0253334 3.2112226 3.202112 3.4246008 3.1443372 4.823023
3.4273622 3.8490803 4.0340705 3.4482558 3.5332787 3.8926685 3.5518737 4.2749453
3.0761635 3.60675 3.6943552 3.0721967 3.1980314 2.8064213 2.559635 3.2467003
2.7980049 2.2995071 4.0882883 3.952187 4.0130253 5.3768363 3.197166 3.6770847
00000000: e3c3 2b40 3010 8d40 88cf 8040 ac84 4d40
00000010: 67ef 4c40 a92c 5b40 d23c 4940 3456 9a40
00000020: e759 5b40 5557 7640 1b17 8140 39b0 5c40
00000030: 3d21 6240 7b21 7940 e651 6340 5acc 8840
00000040: dddf 4440 fed4 6640 5170 6c40 df9e 4440
00000050: 8cac 4c40 689c 3340 0fd1 2340 f0c9 4f40
00000060: 8312 3340 202b 1340 42d3 8240 a2f0 7c40
00000070: b46a 8040 0b0f ac40 5e9e 4c40 5b55 6b40

model.2.running_var f4 [32]
30.23298 49.931023 47.416794 30.821428 35.347244 49.85783 34.924744 56.49482
37.1112 45.549625 83.0708 32.065342 42.439182 59.1028 38.213696 42.21999
27.158049 35.920128 62.2955 37.415455 25.765556 28.745377 18.740217 46.09609
24.649847 19.54588 50.2679 50.277363 48.609856 66.02221 27.902481 30.53896
00000000: 25dd f141 5eb9 4742 ccaa 3d42 4992 f641
00000010: 9463 0d42 6b6e 4742 f0b2 0b42 b2fa 6142
00000020: de71 1442 d132 3642 4024 a642 e942 0042
00000030: b9c1 2942 4469 6c42 d3da 1842 45e1 2842
00000040: af43 d941 36ae 0f42 982e 7942 6da9 1542
00000050: dc1f ce41 88f6 e541 f7eb 9541 6562 3842
00000060: e332 c541 f65d 9c41 5412 4942 051c 4942
00000070: 7e70 4242 5f0b 8442 4838 df41 ca4f f441

model.3.weight f4 [16, 32]
-0.1803182 -0.0048737354 -0.036540795 0.0010726234 -0.09717011 0.057680722 -0.030904487 -0.0155217545
0.0031983636 -0.1156846 0.12295843 0.10232349 0.14647406 -0.17635289 -0.0405509 0.041820705
0.054783825 -0.21232219 0.055063482 -0.035375055 0.052549552 0.18384126 -0.15558721 0.15878089
0.044954453 -0.06486617 -0.13462244 0.0037869045 -0.1202078 0.030464236 0.10537551 -0.040732462
-0.17742425 0.015671248 0.20508921 0.07451352 -0.09882823 0.06022329 0.0178833 0.11911914
0.025421772 0.06878779 0.054970063 -0.09577517 -0.040257957 0.030079653 0.15698212 -0.13046192
0.13628833 0.09154441 0.056059584 -0.022304954 -0.20946316 -0.18655503 -0.057330087 -0.038718563
-0.19966638 -0.12724406 -0.067912646 0.14339401 0.08839211 -0.064106934 -0.10615213 0.0753242
0.037826132 0.095633514 -0.100570366 -0.0065729874 -0.09983126 -0.0106550185 -0.20149684 0.09011844
0.009708253 0.24133307 0.11043579 -0.065252535 -0.09373837 -0.07529156 -0.13036758 -0.04120557
-0.10113532 0.024878822 0.08494256 -0.15461494 0.0035548403 0.05641138 -0.048588503 -0.0024632048
-0.03824904 -0.02854902 -0.06629834 0.12003524 -0.11321355 0.11429325 0.1053513 0.006570713
0.087959334 -0.07547218 0.009446276 0.13760443 0.14970694 0.18603654 -0.06801612 -0.012800897
-0.14135076 0.047385108 0.06664383 0.019188689 0.13357167 0.19714932 -0.07978076 -0.18253873
0.056890607 -0.02707296 0.103157885 0.034136355 0.18467973 0.17716105 -0.09775919 -0.04175316
-0.068995684 -0.01652059 0.14275679 -0.16319303 0.0110869035 -0.048626143 0.044268083 -0.14865616
0.029672476 -0.031727307 -0.17687698 -0.09668531 0.019617764 0.056424957 0.006098554 0.116712205
0.17466065 0.1989336 0.06864701 -0.072206326 -0.020856682 -0.06582514 0.03704829 -0.12621774
0.027750127 0.09053576 -0.093655735 0.04696587 0.06442822 0.12616807 -0.12615371 -0.23340042
-0.008630614 -0.17258136 0.09136777 0.14750469 0.17315254 -0.010631393 -0.013548966 0.07023134
0.07487466 -0.22400962 -0.041201152 0.15430179 0.06412036 0.136824 0.030176513 -0.13731502
0.05646628 0.0062272144 -0.027072689 -0.09231904 0.04930246 -0.04243188 0.07409586 -0.20872684
-0.006833254 -0.18810168 0.17570104 -0.13536571 -0.2124746 -0.0779994 -0.15271738 0.13978276
-0.00047610578 0.09665521 0.02117268 0.043978963 0.13623865 0.00733006 0.05514169 -0.14987296
0.07613462 -0.03837487 -0.10124051 0.06990182 -0.06489255 0.036629677 0.10423192 -0.10835263
-0.026430223 0.044989593 0.03931895 -0.19785674 -0.07759767 0.054884396 0.047073454 -0.11871202
-0.06456752 0.050513 0.04784868 -0.054279532 0.00085655117 -0.057725333 0.09098556 -0.041440878
0.07978983 0.05571557 0.138949 0.06679876 0.14607719 -0.08552477 0.088612325 -0.109581925
-0.08443032 -0.05907322 -0.012161313 0.056024726 -0.036600623 -0.118060514 -0.09943596 -0.11035788
0.14817879 0.12412745 0.22016357 -0.11054508 -0.011333851 0.066721275 0.061738316 -0.12823617
0.017819667 0.043931995 -0.006886478 0.14209528 -0.011232355 -0.06607318 -0.03482898 -0.04535931
0.1377086 -0.14864601 -0.17175224 -0.02185318 -0.14261448 -0.02505211 0.14915036 0.03434387
00000000: 56a5 38be dbb3 9fbb cdab 15bd 4597 8c3a
00000010: 1f01 c7bd 9f42 6c3d 682b fdbc f54e 7ebc
00000020: a39b 513b 0cec ecbd a1d1 fb3d fa8e d13d
00000030: 4cfd 153e da95 34be b318 26bd 304c 2b3d
00000040: 0165 603d fd6a 59be 3f8a 613d 6fe5 10bd
00000050: 333e 573d e240 3c3e 4152 1fbe 7597 223e
00000060: 2922 383d 8ed8 84bd 77da 09be b72d 783b
00000070: 822f f6bd 2290 f93c 1ecf d73d 15d7 26bd
00000080: b4ae 35be fd60 803c e802 523e 8b9a 983d
00000090: 7466 cabd b2ac 763d 0080 923c bcf4 f33d
000000a0: 5241 d03c 9de0 8c3d 4a28 613d c625 c4bd
000000b0: 87e5 24bd 9b69 f63c ecbf 203e cf97 05be
000000c0: 2b8f 0b3e a37b bb3d bc9e 653d e1b8 b6bc
000000d0: 837d 56be 4808 3fbe f4d2 6abd 5b97 1ebd
000000e0: 5875 4cbe 444c 02be c915 8bbd e1d5 123e
000000f0: ec06 b53d 7f4a 83bd 4a66 d9bd 9343 9a3d
00000100: 93ef 1a3d 81db c33d d6f7 cdbd 3762 d7bb
00000110: 5574 ccbd 6392 2ebc 3055 4ebe 0490 b83d
00000120: 5d0f 1f3c 0420 773e 292c e23d 1fa3 85bd
00000130: e7f9 bfbd 7632 9abd 147f 05be 2cc7 28bd
00000140: 0920 cfbd acce cb3c 5df6 ad3d 6153 1ebe
00000150: 53f8 683b 9f0f 673d bd04 47bd b86d 21bb
00000160: 06ab 1cbd a2df e9bc 6dc7 87bd 09d5 f53d
00000170: 81dc e7bd 9412 ea3d 6cc2 d73d 234f d73b
00000180: 0624 b43d 2991 9abd 8ec4 1a3c 2de8 0c3e
00000190: c74c 193e 5d80 3e3e 094c 8bbd daba 51bc
000001a0: 41be 10be e316 423d 8f7c 883d 9931 9d3c
000001b0: 03c7 083e 83e1 493e 1864 a3bd 6feb 3abe
000001c0: 2006 693d 1dc8 ddbc 7144 d33d 90d2 0b3d
000001d0: af1c 3d3e b569 353e f835 c8bd 5d05 2bbd
000001e0: 9c4d 8dbd 3056 87bc d62e 123e 131c 27be
000001f0: d8a5 353c 352c 47bd 7352 353d 5239 18be
00000200: b113 f33c 7ef4 01bd 3d1f 35be f302 c6bd
00000210: 6fb5 a03c db1d 673d 61d6 c73b cf06 ef3d
00000220: 3eda 323e 40b5 4b3e ce96 8c3d e9e0 93bd
00000230: a2db aabc 55cf 86bd f3bf 173d 393f 01be
00000240: 3c54 e33c d06a b93d 94ce bfbd 495f 403d
00000250: f1f2 833d 3432 013e 702e 01be 8500 6fbe
00000260: 6b67 0dbc 2bb9 30be 071f bb3d 780b 173e
00000270: e64e 313e 4b2f 2ebc 7bfc 5dbc 73d5 8f3d
00000280: e357 993d c762 65be 8ac2 28bd 4a01 1e3e
00000290: 8951 833d 971b 0c3e bc34 f73c 4f9c 0cbe
000002a0: 3049 673d a90d cc3b 8bc7 ddbc c411 bdbd
000002b0: 60f1 493d 0dcd 2dbd 92bf 973d 7dbc 55be
000002c0: 7de9 dfbb ba9d 40be f9ea 333e 4f9d 0abe
000002d0: f192 59be 26be 9fbd f261 1cbe 3623 0f3e
000002e0: d69d f9b9 2bf3 c53d 5472 ad3c 4923 343d
000002f0: 2582 0b3e 0031 f03b 41dc 613d 4c78 19be
00000300: 78ec 9b3d f82e 1dbd 2f57 cfbd af28 8f3d
00000310: 63e6 84bd 0009 163d 8b77 d53d fce7 ddbd
00000320: 3284 d8bc 0247 383d e80c 213d f59a 4abe
00000330: 87eb 9ebd 76ce 603d 18d0 403d 4a1f f3bd
00000340: fa3b 84bd b8e6 4e3d fafc 433d 3754 5ebd
00000350: 2d8a 603a 6671 6cbd a356 ba3d e9bd 29bd
00000360: da68 a33d 0236 643d a648 0e3e cacd 883d
00000370: 4295 153e 9c27 afbd 617a b53d 7d6c e0bd
00000380: cee9 acbd c3f6 71bd 3e40 47bc 2f7a 653d
00000390: 89ea 15bd b6c9 f1bd 15a5 cbbd 5003 e2bd
000003a0: 2ebc 173e 8836 fe3d 8f72 613e 7565 e2bd
000003b0: 9eb1 39bc 2aa5 883d 51e1 7c3d 5850 03be
000003c0: 8dfa 913c 09f2 333d f7a7 e1bb 6d81 113e
000003d0: e907 38bc 6051 87bd d5a8 0ebd afca 39bd
000003e0: 7c03 0d3e a936 18be d2df 2fbe 7105 b3bc
000003f0: 8809 12be 153a cdbc dfba 183e 28ac 0c3d

model.3.bias f4 [16]
0.021916123 0.058059834 0.1495482 -0.058022093 0.17482702 -0.025459375 0.019516762 -0.044154137
-0.009433406 -0.007215227 -0.10528535 -0.073514074 0.19468485 0.007503906 -0.048725888 -0.15508007
00000000: 7189 b33c 26d0 6d3d 2a23 193e 93a8 6dbd
00000010: db05 333e 2e90 d0bc 9ee1 9f3c f8da 34bd
00000020: 938e 1abc b66d ecbb d89f d7bd 8c8e 96bd
00000030: 775b 473e 53e3 f53b cc94 47bd 4fcd 1ebe

model.5.weight f4 [16]
1.003387 0.9507398 1.0691285 1.0578073 0.8856058 1.0290028 0.9387072 0.9696729
1.1044956 1.0317923 0.9356096 0.88247263 1.0256152 0.9796779 0.89760536 0.8829962
00000000: fc6e 803f af63 733f 34d9 883f 3b66 873f
00000010: 10b7 623f 5db6 833f 1d4f 703f 7c3c 783f
00000020: 1d60 8d3f c511 843f 1c84 6f3f bae9 613f
00000030: 5c47 833f 2ccc 7a3f 77c9 653f 0a0c 623f

model.5.bias f4 [16]
0.012334962 0.047168028 0.15765448 -0.039467636 0.17205232 -0.020837078 -0.117647246 0.1512502
-0.113381736 0.20795298 0.01587422 0.33385384 0.22024953 0.077968076 0.080485225 0.07753559
00000000: 9518 4a3c 4333 413d 2d70 213e d1a8 21bd
00000010: 7c2e 303e 85b2 aabc 0af1 f0bd 55e1 1a3e
00000020: af34 e8bd a0f1 543e a70a 823c e4ee aa3e
00000030: 1889 613e baad 9f3d 70d5 a43d fbca 9e3d

model.5.running_mean f4 [16]
0.22475745 0.26766863 0.29224187 0.21591015 0.39250022 0.18435334 0.19754247 0.18238823
0.28498888 0.18898353 0.19505392 0.18587552 0.33800468 0.22237036 0.24252073 0.1678728
00000000: d126 663e dd0b 893e baa0 953e 8d17 5d3e
00000010: caf5 c83e 1fc7 3c3e 9348 4a3e fbc3 3a3e
00000020: 10ea 913e e684 413e 37bc 473e 2756 3e3e
00000030: f30e ad3e 0eb5 633e 5b57 783e d9e6 2b3e

model.5.running_var f4 [16]
0.12667687 0.12171498 0.09589491 0.217458 0.2544798 0.10330733 0.1250483 0.106971934
0.09704438 0.1192426 0.099835865 0.086259015 0.15150398 0.25946754 0.11565813 0.16108586
00000000: 95b7 013e b445 f93d 8d64 c43d 4fad 5e3e
00000010: 2d4b 823e cb92 d33d a90c 003e 1a14 db3d
00000020: 34bf c63d 7735 f43d bf76 cc3d 91a8 b03d
00000030: dc23 1b3e eed8 843e 2bde ec3d b1f3 243e

model.6.weight f4 [8, 16]
0.15484728 -0.077525824 -0.01911756 -0.2671009 0.11149111 -0.10596427 -0.20578912 -0.116362944
0.18766597 0.012554079 -0.007201492 -0.057011846 0.027689341 -0.15222804 0.0071955887 0.027989462
0.005972459 -0.016811047 0.16776045 -0.0798117 -0.023503093 -0.18658891 -0.2349337 0.010816145
-0.18349646 -0.081465766 0.19773288 -0.024677282 0.06458253 -0.13144664 0.12439127 -0.12366291
-0.03831605 -0.21502186 -0.16745895 -0.009135784 0.060212173 0.22355098 -0.06052619 0.18115431
-0.23367041 -0.06890806 0.14318188 0.014171336 -0.24049729 0.01065324 0.19284554 0.0004994923
-0.16843039 0.055714916 -0.15161711 0.08522253 0.016781857 0.2275218 0.011812857 0.11992694
-0.08241474 0.11197166 -0.23432474 0.11526441 0.07899331 0.18501754 -0.19126955 0.15015651
0.22829852 0.25190225 0.16561255 -0.30007944 -0.10215394 -0.14967671 0.11046323 0.14879057
0.1275645 0.19820237 -0.032046016 0.092847735 0.20461321 0.021614868 -0.17754948 -0.1667593
-0.031511247 -0.09937673 0.077011175 0.017850513 0.05973121 -0.06961977 -0.0023832328 0.0010332803
-0.28122962 0.016949408 0.030974904 0.0889951 0.044038147 -0.077675946 0.036696833 0.06986567
0.005593427 0.034656767 0.052543346 0.020120207 0.26322523 -0.29045057 0.027292563 0.06963031
0.13651124 0.18042947 0.15047754 0.15101884 0.2582567 -0.25634563 0.16735692 -0.04012825
-0.017374936 0.11299358 0.18217209 -0.01908374 0.11966119 0.038910534 -0.11462382 -0.0010683998
-0.11779599 0.09271687 -0.05035179 0.04854197 0.139488 0.06403653 -0.015011568 -0.020504536
00000000: 4990 1e3e dcc5 9ebd 6e9c 9cbc 73c1 88be
00000010: 7355 e43d cc03 d9bd 62ba 52be b24f eebd
00000020: 822b 403e a0af 4d3c 7efa ebbb 4185 69bd
00000030: c2d4 e23c abe1 1bbe f9c8 eb3b 284a e53c
00000040: 9eb4 c33b 52b7 89bc 65c9 2b3e 5174 a3bd
00000050: 8f89 c0bc 2a11 3fbe 7692 70be 3336 313c
00000060: 7fe6 3bbe 86d7 a6bd 7d7a 4a3e 0328 cabc
00000070: d843 843d f399 06be dac0 fe3d fb42 fdbd
00000080: 4af1 1cbd b12e 5cbe 5c7a 2bbe 41ae 15bc
00000090: 0aa1 763d 8cea 643e 4fea 77bd 8480 393e
000000a0: 4c47 6fbe ab1f 8dbd 459e 123e e42e 683c
000000b0: ec44 76be ed8a 2e3c 4d79 453e 5cf0 023a
000000c0: 0479 2cbe 5335 643d 8441 1bbe 2689 ae3d
000000d0: 1b7a 893c 7afb 683e b78a 413c 419c f53d
000000e0: 0fc9 a8bd 6651 e53d d3f2 6fbe bf0f ec3d
000000f0: 3fc7 a13d 3d75 3d3e 2adc 43be a1c2 193e
00000100: 16c7 693e 55f9 803e 5696 293e 03a4 99be
00000110: 1636 d1bd da44 19be 8c3a e23d 8e5c 183e
00000120: 45a0 023e 90f5 4a3e af42 03bd f426 be3d
00000130: 2086 513e aa11 b13c 88cf 35be f3c2 2abe
00000140: f011 01bd 0786 cbbd 09b8 9d3d 3d3b 923c
00000150: b7a8 743d cf94 8ebd 0330 1cbb 226f 873a
00000160: 54fd 8fbe 7cd9 8a3c 15bf fd3c 1043 b63d
00000170: 5861 343d 9114 9fbd 6b4f 163d bb15 8f3d
00000180: 1149 b73b 41f4 0d3d b137 573d 22d3 a43c
00000190: 75c5 863e f0b5 94be a794 df3c 569a 8e3d
000001a0: 9ac9 0b3e 81c2 383e c916 1a3e afa4 1a3e
000001b0: 393a 843e bc3f 83be 9d5f 2b3e 855d 24bd
000001c0: e255 8ebc 2e69 e73d 528b 3a3e 8155 9cbc
000001d0: ed10 f53d a760 1f3d e5bf eabd 8c09 8cba
000001e0: 063f f1bd 58e2 bd3d ae3d 4ebd f2d3 463d
000001f0: f1d5 0e3e 9625 833d 14f3 75bc 21f9 a7bc

model.6.bias f4 [8]
0.12511526 0.13562605 0.12621586 0.009157033 -0.051266726 0.58384377 -0.15663671 0.4495151
00000000: 371e 003e 8ee1 0a3e bb3e 013e 6107 163c
00000010: 0ffd 51bd c976 153f 6065 20be d826 e63e

model.8.weight f4 [8]
1.5607859 1.9457849 1.5639768 1.8517892 1.5477344 1.804929 1.5537754 1.7108914
00000000: d5c7 c73f 7b0f f93f 6430 c83f 6e07 ed3f
00000010: 291c c63f ea07 e73f 1de2 c63f 7dfe da3f

model.8.bias f4 [8]
0.030174 0.2827883 -0.0034705936 -0.18006487 0.023457156 0.2009957 0.31810102 0.2855166
00000000: 772f f73c a1c9 903e e672 63bb ed62 38be
00000010: 3929 c03c d1d1 4d3e 23de a23e 3b2f 923e

model.8.running_mean f4 [8]
0.31309122 0.33273453 0.29668835 0.3140342 0.2781578 0.6809718 0.23877463 0.5983879
00000000: 7e4d a03e 2e5c aa3e 89e7 973e 17c9 a03e
00000010: b36a 8e3e 2b54 2e3f 5681 743e f32f 193f

model.8.running_var f4 [8]
0.09895767 0.10661785 0.17672205 0.30644208 0.12799619 0.12869808 0.12303109 0.11220823
00000000: 52aa ca3d 765a da3d a0f6 343e fae5 9c3e
00000010: 6f11 033e 6ec9 033e b9f7 fb3d 6ecd e53d

model.9.weight f4 [4, 8]
-0.57851595 -1.1555908 0.17688568 1.0400172 0.29745376 0.6590776 -0.06883073 0.2918922
0.5572704 -0.52598125 -0.4316863 -0.09321002 -0.4774293 -0.9191756 -0.89726824 -1.1593063
0.010941867 0.6357535 0.3305886 -0.48629418 -0.7079933 0.54628515 -0.055538144 -0.106343344
0.3789412 0.45990846 -0.6723909 -0.40100375 0.66113836 -0.05835184 0.4310818 0.39905334
00000000: 9f19 14bf 66ea 93bf 8521 353e 491f 853f
00000010: dc4b 983e 4fb9 283f 20f7 8cbd e572 953e
00000020: 46a9 0e3f b5a6 06bf fd05 ddbe e5e4 bebd
00000030: 9d71 f4be 184f 6bbf 5fb3 65bf 2664 94bf
00000040: 8445 333c bec0 223f e942 a93e 8dfb f8be
00000050: 0d3f 35bf 58d9 0b3f f77b 63bd 8aca d9bd
00000060: 9504 c23e 1f79 eb3e cf21 2cbf 5d50 cdbe
00000070: 5d40 293f 5702 6fbd c1b6 dc3e b850 cc3e

model.9.bias f4 [4]
-0.16924274 -0.34951985 0.32266274 0.16292726
00000000: f84d 2dbe 44f4 b2be 0d34 a53e 67d6 263e
