saved_models/MLP/ckpt__epoch100.ckpt (torch, 18336 bytes, 20 tensors)

model.0.weight f4 [32, 64]
0.104132965 0.061461817 -0.060978644 0.038457055 -0.010397678 0.00949521 0.08015765 0.04678053
0.07731278 0.017126385 -0.14079612 -0.034065578 -0.020859493 0.02590173 0.12176562 0.04271087
0.038285177 0.06017536 0.04236156 -0.12982062 -0.0119948005 -0.028611956 0.13743326 0.013464041
0.013407207 -0.013066051 -0.042038206 -0.021744898 -0.003914273 0.061036855 -0.14539528 0.06632768
-0.06753635 0.080644265 -0.039359234 0.009589815 0.012203839 0.006906914 -0.12343079 0.034088455
-0.064459205 1.948027e-05 -0.035307467 0.06685965 -0.12470309 0.031909876 -0.10644231 0.03815613
0.054690387 -0.12795128 -0.002820037 0.014650248 -0.10129593 0.003021478 0.21626724 -0.004702971
-0.0044940375 0.02312008 0.10972594 -0.044949234 -0.00641145 0.056886267 -0.072078906 0.068970606
-0.017893165 -0.08396943 0.1793588 0.038543396 -0.011039959 0.030930115 0.005000287 -0.014377966
0.024498837 -0.20599559 0.0616247 -0.020508837 -0.0072170356 0.009850309 -0.043186773 -0.0042828326
-0.024233406 0.20098114 0.0063663633 -0.13827233 0.04722794 -0.082205124 0.16154121 0.06883833
0.0013898076 -0.08819433 0.0006624476 0.00072177476 0.04968734 -0.06786315 0.0013426563 -0.035790373
-0.036188632 0.022420572 0.07828585 -0.0019053066 0.03184261 -0.014770379 0.037316144 0.004799665
0.0071612606 -0.18960935 -0.042542424 -0.07031315 0.05473703 -0.051877253 -0.00883471 0.007679815
0.023541981 -0.03614016 -0.103768475 -0.22439536 0.04019796 -0.08472739 -0.056489807 0.0088471575
0.022725765 -0.14658618 -0.2855151 -0.10391664 0.075466305 -0.12900557 0.006106569 -0.09634401
-0.021869626 -0.19230394 0.03918772 -0.03769882 -0.017603192 -0.0055789826 0.07065244 0.12020316
-0.020244451 0.24770316 -0.22535133 -0.16293903 0.009082874 -0.06142619 0.04584025 0.07084603
-0.022523867 -0.18054254 0.12947518 0.042414673 -0.012501949 -0.019022934 0.071117036 0.022068258
0.024842126 0.047344547 -0.26819614 -0.040264647 -0.029022837 -0.04591186 -0.10808886 0.012641443
-0.011383551 0.08172605 0.15799767 -0.10601861 0.016922206 0.01618586 0.05855638 -0.007653936
0.014101991 -0.14366384 -0.081496604 -0.0069877347 -0.014725968 0.0038434146 -0.06202225 0.070744514
0.018372772 0.00036594633 -0.13590106 -0.11482813 -0.011503564 -0.06860848 0.01640825 -0.034399986
-0.008439381 0.16186903 0.15304166 -0.084607765 -0.018895654 0.037103407 0.07845293 0.035729613
-0.02494591 -0.017438265 -0.2449582 4.1705076e-05 0.070099846 -0.13621269 -0.067806445 -0.00017251451
0.014115367 -0.040309962 0.11903704 0.21629874 -0.092590466 0.17160621 0.025581395 0.072104216
0.020690126 -0.10911928 0.046149265 -0.07729192 -0.019386677 -0.05081446 -0.025654668 -0.03451441
-0.011415651 0.0070428876 0.19933964 0.0463694 -0.10337957 0.17578164 0.054923534 -0.05614124
-0.025563156 0.15114932 -0.031275194 -0.09656736 0.019063076 0.03090623 -0.012331174 -0.009017109
-0.0035776834 -0.008663348 -0.058003407 -0.11537131 0.041939 0.006272936 0.04128856 0.064160526
0.014620017 0.030325653 0.028364535 -0.046096902 0.015641382 -0.0012041895 0.0071206223 -0.023901053
-0.02958902 -0.123460874 0.047609773 0.011519454 -0.029783653 0.06457763 0.03156174 0.020328425
00000000: aa43 d53d 63bf 7b3d bec4 79bd 2585 1d3d
00000010: 065b 2abc cc91 1b3c b229 a43d f19c 3f3d
00000020: 2a56 9e3d a24c 8c3c dc2c 10be 5988 0bbd
00000030: 87e1 aabc dd2f d43c 4160 f93d 98f1 2e3d
00000040: ebd0 1c3d 707a 763d 5183 2d3d b2ef 04be
00000050: d785 44bc 9f63 eabc 4ebb 0c3e 4898 5c3c
00000060: e7a9 5b3c fd12 56bc 4130 2cbd 5b22 b2bc
00000070: 4d43 80bb c801 7a3d 80e2 14be cfd6 873d
00000080: 7f50 8abd d228 a53d 2637 21bd 991e 1d3c
00000090: 9cf2 473c 6553 e23b 48c9 fcbd 56a0 0b3d
000000a0: 3003 84bd 9069 a337 909e 10bd b6ed 883d
000000b0: 5564 ffbd eeb3 023d 6dfe d9bd 9a49 1c3d
000000c0: 0703 603d a905 03be 5fd0 38bb 9807 703c
000000d0: 3e74 cfbd fd03 463b 2975 5d3e 611b 9abb
000000e0: b842 93bb 5266 bd3c feb7 e03d b01c 38bd
000000f0: 2417 d2bb 9301 693d 1b9e 93bd 7640 8d3d
00000100: b094 92bc 2af8 abbd d5a9 373e aedf 1d3d
00000110: f2e0 34bc 2761 fd3c 73d9 a33b 8f91 6bbc
00000120: c9b1 c83c 82f0 52be 2e6a 7c3d 2602 a8bc
00000130: e27c ecbb 3163 213c 9de4 30bd 0157 8cbb
00000140: 2385 c6bc 00ce 4d3e ed9c d03b 4397 0dbe
00000150: 1672 413d 295b a8bd 0f6b 253e 1cfb 8c3d
00000160: 342a b63a 3b9f b4bd 1ba8 2d3a 7c35 3d3a
00000170: f484 4b3d d6fb 8abd 12fc af3a ed98 12bd
00000180: 883a 14bd 59ab b73c 5554 a03d 7bbb f9ba
00000190: 666d 023d 76ff 71bc d0d8 183d 8246 9d3b
000001a0: 02a9 ea3b f428 42be f740 2ebd 5700 90bd
000001b0: f033 603d 3e7d 54bd 76bf 10bc f5a6 fb3b
000001c0: 1ddb c03c b407 14bd 9184 d4bd e6c7 65be
000001d0: 9ea6 243d 8e85 adbd db61 67bd abf3 103c
000001e0: 622b ba3c b01a 16be 092f 92be 3fd2 d4bd
000001f0: 148e 9a3d 091a 04be 9d19 c83b 0250 c5bd
00000200: ee27 b3bc 53eb 44be 4d83 203d 146a 1abd
00000210: 9234 90bc e6cf b6bb 3ab2 903d 132d f63d
00000220: b1d7 a5bc e6a5 7d3e 80c2 66be 7dd9 26be
00000230: 56d0 143c 079a 7bbd fcc2 3b3d b917 913d
00000240: f983 b8bc 25e0 38be 2495 043e 02bb 2d3d
00000250: fad4 4cbc fcd5 9bbc cfa5 913d 7ec8 b43c
00000260: b781 cb3c 5bec 413d 0151 89be 8bec 24bd
00000270: 4dc1 edbc 130e 3cbd b15d ddbd 0e1e 4f3c
00000280: 1382 3abc fd5f a73d 24ca 213e 4920 d9bd
00000290: 70a0 8a3c 3598 843c d1d8 6f3d decd fabb
000002a0: 0a0c 673c 9d1c 13be b1e7 a6bd 5ef9 e4bb
000002b0: 3045 71bc cce1 7b3b 0b0b 7ebd 80e2 903d
000002c0: 7f82 963c 7cdc bf39 a629 0bbe 032b ebbd
000002d0: 7279 3cbc 9a82 8cbd 986a 863c 00e7 0cbd
000002e0: 5445 0abc ffc0 253e f4b6 1c3e d646 adbd
000002f0: 0fcb 9abc bef9 173d eeab a03d 3759 123d
00000300: 5d5b ccbc b1da 8ebc 53d6 7abe 7cec 2e38
00000310: 8290 8f3d 577b 0bbe 1bde 8abd 03e5 34b9
00000320: 2444 673c 0f1c 25bd b1c9 f33d 6b7d 5d3e
00000330: 12a0 bdbd 8ab9 2f3e 1390 d13c 60ab 933d
00000340: 577e a93c ee79 dfbd 0307 3d3d 3a4b 9ebd
00000350: cfd0 9ebc d322 50bd bd29 d2bc fb5e 0dbd
00000360: b608 3bbc 06c8 e63b b11f 4c3e d7ed 3d3d
00000370: abb8 d3bd 1a00 343e 80f7 603d 5bf4 65bd
00000380: d369 d1bc e3c6 1a3e 6b1a 00bd 1cc5 c5bd
00000390: 2b2a 9c3c 102f fd3c b108 4abc 7fbc 13bc
000003a0: 9177 6abb b7f0 0dbc fb94 6dbd cb47 ecbd
000003b0: 3bc8 2b3d 338d cd3b 311e 293d 9866 833d
000003c0: cc88 6f3c 816d f83c be5c e83c 1bd0 3cbd
000003d0: 5b22 803c e5d5 9dba 1c54 e93b 24cc c3bc
000003e0: ac64 f2bc 0ed9 fcbd 7702 433d 18bc 3c3c
000003f0: d9fc f3bc 4741 843d e246 013d cc87 a63c

model.0.bias f4 [32]
0.08395706 -0.15706296 -0.042367414 -0.17884576 0.13410853 0.04308199 -0.15233602 0.04318998
-0.011027489 0.011509794 -0.096898295 0.14979981 -0.100327194 -0.005727461 -0.048324235 0.12371889
-0.22999354 -0.2210738 -0.048989806 0.0378614 -0.10595105 -0.19344626 0.16221967 0.23405258
0.047173876 0.12937403 0.050980277 0.038069386 -0.047424823 -0.0009145889 0.108760804 -0.22409584
00000000: aef1 ab3d 1dd5 20be 7489 2dbd 5823 37be
00000010: bf53 093e be76 303d f9fd 1bbe fae7 303d
00000020: a4ac 34bc 9393 3c3c 9d72 c6bd 1f65 193e
00000030: 5878 cdbd 6dad bbbb a2ef 45bd 5460 fd3d
00000040: 6d83 6bbe 2c61 62be 89a9 48bd 8e14 1b3d
00000050: ddfc d8bd c716 46be ea1c 263e 7bab 6f3e
00000060: 6539 413d a07a 043e b2d0 503d a5ee 1b3d
00000070: 8840 42bd 06c1 6fba fcbd de3d 6179 65be

model.2.weight f4 [32]
0.959442 1.0532631 0.9858828 1.0010402 1.0181032 0.9190981 1.0119109 1.0175742
1.0040663 1.1092255 0.97931796 1.0331523 0.9483804 0.93549347 0.96737605 0.955203
1.0608256 0.9449678 1.0082264 0.99864954 1.0679145 1.0161235 1.0156728 0.9718153
0.9694123 1.0785041 0.93068707 1.0226271 1.0908575 1.0087389 0.9978754 1.0453715
00000000: fe9d 753f 53d1 863f d162 7c3f 1622 803f
00000010: 3551 823f 034a 6b3f 4c86 813f df3f 823f
00000020: 3f85 803f 1afb 8d3f 95b4 7a3f 563e 843f
00000030: 0fc9 723f 807c 6f3f f5a5 773f 2f88 743f
00000040: 22c9 873f 69e9 713f 900d 813f 7fa7 7f3f
00000050: 6cb1 883f 5610 823f 9101 823f e3c8 783f
00000060: 682b 783f 6c0c 8a3f 8241 6e3f 72e5 823f
00000070: 38a1 8b3f 5b1e 813f c374 7f3f bcce 853f

model.2.bias f4 [32]
0.01706734 0.053490154 0.0057352404 -0.029020917 0.005076156 0.0471719 0.0811664 -0.032016788
-0.029682165 0.01873567 0.08255196 0.04423572 -0.041925866 -0.023246905 -0.12084201 -0.07067334
0.08890105 0.0313287 0.07737353 0.027183121 -0.034777198 0.002571691 0.10122237 -0.041469496
-0.08177545 0.006406738 0.022491716 0.16412319 0.056037802 -0.014767255 -0.012869879 0.08058192
00000000: ced0 8b3c 7e18 5b3d afee bb3b 46bd edbc
00000010: e255 a63b 5237 413d 923a a63d 0924 03bd
00000020: 0328 f3bc 8c7b 993c 0111 a93d 8430 353d
00000030: 75ba 2bbd 4b70 bebc 047c f7bd 2fbd 90bd
00000040: c111 b63d 8652 003d 0376 9e3d 23af de3c
00000050: 8972 0ebd d189 283b ad4d cf3d ebdb 29bd
00000060: e379 a7bd 9def d13b 8c40 b83c e90f 283e
00000070: e587 653d 5bf2 71bc 2fdc 52bc 2208 a53d

model.2.running_mean f4 [32]
3.0287902 3.395636 3.5062764 3.6504507 3.5317352 4.2408276 3.4454308 3.4171205
3.5442722 3.418911 2.4568124 3.9024327 2.635692 3.626402 4.2988515 4.01487
3.5583596 3.437255 2.5021098 3.0460844 3.262256 4.842917 3.9218907 3.6305397
3.482349 3.7322838 4.059495 3.597248 3.3323317 3.9592197 4.1898074 2.6676133
00000000: b3d7 4140 1a52 5940 d566 6040 fca0 6940
00000010: f307 6240 dcb4 8740 f081 5c40 1ab2 5a40
00000020: 5bd5 6240 70cf 5a40 6a3c 1d40 75c1 7940
00000030: 2daf 2840 f816 6840 3190 8940 d179 8040
00000040: 2abc 6340 fcfb 5b40 9122 2040 0cf3 4240
00000050: cdc8 5040 2df9 9a40 4200 7b40 c35a 6840
00000060: cede 5e40 bddd 6e40 62e7 8140 5039 6640
00000070: ec44 5540 db63 7d40 e712 8640 2dba 2a40

model.2.running_var f4 [32]
39.172337 31.314436 32.465275 37.37537 41.005116 46.75683 36.42706 32.312584
29.168783 51.62371 22.059963 33.88365 21.443533 41.720234 43.978893 33.888203
74.916374 33.180275 20.325012 37.729336 31.749615 90.27336 50.46341 32.805508
29.135586 42.331127 45.83646 55.293785 37.767708 41.254185 63.721645 28.636574
00000000: 79b0 1c42 f783 fa41 71dc 0142 6180 1542
00000010: 3d05 2442 fe06 3b42 4fb5 1142 1640 0142
00000020: ab59 e941 ae7e 4e42 ce7a b041 dc88 0742
00000030: 5b8c ab41 85e1 2642 63ea 2f42 858d 0742
00000040: 2fd5 9542 9ab8 0442 a099 a241 d7ea 1642
00000050: 36ff fd41 f68b b442 88da 4942 d738 0342
00000060: ae15 e941 1353 2942 8958 3742 d62c 5d42
00000070: 2212 1742 4904 2542 f7e2 7e42 b417 e541

model.3.weight f4 [16, 32]
0.08958228 -0.22259173 0.017252948 -0.08978963 -0.09359842 0.026713682 -0.14843313 -0.0735933
-0.069633275 -0.09065535 0.04800046 0.089046374 0.038555074 0.05699742 -0.16625598 0.094390586
-0.14613353 -0.11847176 -0.040471315 -0.12002239 -0.0936273 0.020666838 -0.21135698 -0.06974439
-0.07900168 -0.07627117 0.15438893 -0.06040652 -0.24818751 -0.00068307784 0.022404073 -0.060167238
0.08038805 -0.09166995 0.094948865 -0.046729513 0.13017938 0.0743062 0.012244359 -0.17964466
0.13050885 0.16489899 0.11297099 -0.2347112 0.17198433 0.10367045 -0.11002639 0.031550653
-0.11267708 -0.13154662 -0.012755555 -0.1400268 -0.023474714 0.06584549 -0.013974254 -0.07711827
-0.11537375 -0.04757741 0.07718975 0.037580617 0.19591326 -0.2232549 0.11296945 -0.0043192906
-0.047633875 -0.11080684 -0.19111952 -0.21636206 0.13817997 0.095326416 -0.12584265 -0.076102845
0.1000651 -0.09411135 -0.12450371 0.13048929 0.08960295 -0.053014614 -0.12050227 -0.027413355
-0.032049805 0.03941316 -0.05984484 -0.07894019 -0.1591983 -0.22397786 -0.0033489482 -0.048481558
-0.024465334 -0.182021 0.062454563 0.07581748 -0.1672547 -0.044287384 0.103619136 -0.20730688
-0.089007236 0.034651246 0.15883598 -0.0403215 -0.12977389 -0.06564616 -0.04442456 0.032470107
-0.08180284 -0.12683612 0.0051137367 0.054031838 -0.0956378 -0.15175948 0.1035202 -0.12449871
-0.088158526 0.1246288 -0.06516136 0.069669254 0.07024279 0.104124464 -0.17867377 -0.0049170037
-0.017948901 0.010149664 -0.11750374 -0.108191125 -0.11205149 -0.124214984 -0.025382664 0.0077621895
0.18696636 0.07019961 0.013027293 -0.06500742 0.044417154 0.1437693 0.048158042 -0.091389276
-0.070236824 0.006484239 0.08762477 0.018590365 -0.08992556 -0.009510061 -0.086351804 -0.14902525
0.095834255 -0.11128824 -0.059395272 0.117305055 -0.012151251 0.002862209 0.031297006 -0.045861024
-0.18058875 0.059751708 0.09763854 0.078658454 -0.05931954 0.078320086 0.20209195 0.043959137
-0.026999416 -0.050851732 -0.0009807734 -0.035462983 0.053993627 -0.17776845 0.039381623 -0.012269607
0.023598885 -0.12084298 -0.013972017 -0.13963623 0.028893849 -0.08562724 -0.07339238 0.08724726
-0.19333427 -0.04423763 0.03577054 -0.038977426 0.07812318 -0.19688453 -0.03661275 -0.0908288
0.1516057 -0.03991741 -0.015209475 -0.09168646 0.008450649 -0.11698451 -0.29937282 -0.1599545
-0.10264286 -0.0056397296 0.16048129 0.1091363 0.16060963 0.15537 0.12449781 0.030970855
-0.1767702 -0.10536183 0.109625265 0.11614012 -0.0020378814 -0.13554668 -0.011327794 0.19097093
0.015367637 0.07343141 -0.0035960115 -0.06956031 0.01859522 -0.10535521 0.044343356 0.068259
-0.06945316 0.04555074 -0.09295033 -0.059939064 -0.097140126 0.17655131 0.1303223 -0.05428591
0.0286717 -0.16264035 0.08108827 0.1029009 -0.0411216 -0.1452417 0.12540723 -0.18382184
0.069991335 -0.18555652 0.030788925 -0.13994998 -0.0925245 -0.21460116 0.011550881 0.14298378
-0.03992652 0.14138995 0.11061911 -0.18723665 -0.062538944 -0.10842217 0.17783523 0.065412365
0.044267524 0.18661368 -0.010008515 -0.11548248 0.035491467 0.19456217 -0.12556802 -0.054220427
00000000: ea76 b73d 16ef 63be 0e56 8d3c a0e3 b7bd
00000010: 87b0 bfbd a7d6 da3c dbfe 17be 16b8 96bd
00000020: e49b 8ebd 83a9 b9bd 219c 443d f25d b63d
00000030: edeb 1d3d 2076 693d 023f 2abe da4f c13d
00000040: 07a4 15be 52a1 f2bd 40c5 25bd 4cce f5bd
00000050: abbf bfbd 804d a93c f76d 58be 26d6 8ebd
00000060: a2cb a1bd 0f34 9cbd 2218 1e3e d46c 77bd
00000070: de24 7ebe 9410 33ba bf88 b73c ec71 76bd
00000080: 7da2 a43d 74bd bbbd 8d74 c23d 7267 3fbd
00000090: be4d 053e d92d 983d 909c 483c c5f4 37be
000000a0: 1da4 053e 48db 283e 565d e73d 2258 70be
000000b0: a91c 303e 2c51 d43d 8455 e1bd 423b 013d
000000c0: 3ec3 e6bd 28b4 06be adfc 50bc 2f63 0fbe
000000d0: 0b4e c0bc 00da 863d 45f4 64bc 2ff0 9dbd
000000e0: 1349 ecbd 88e0 42bd a915 9e3d 22ee 193d
000000f0: 7c9d 483e ef9c 64be 875c e73d d688 8dbb
00000100: bd1b 43bd b2ee e2bd d6b4 43be 048e 5dbe
00000110: 0d7f 0d3e 7f3a c33d e5dc 00be cfdb 9bbd
00000120: eeee cc3d 74bd c0bd cdfb febd fc9e 053e
00000130: c081 b73d da25 59bd e5c9 f6bd f991 e0bc
00000140: a846 03bd b26f 213d dd1f 75bd 65ab a1bd
00000150: e104 23be 745a 65be 077a 5bbb 9994 46bd
00000160: 866b c8bc b763 3abe 5bd0 7f3d 3246 9b3d
00000170: d144 2bbe b066 35bd 4536 d43d 4148 54be
00000180: 6d49 b6bd 77ee 0d3d e6a5 223e 2828 25bd
00000190: 72e3 04be 7e71 86bd 87f6 35bd 60ff 043d
000001a0: 3f88 a7bd 54e1 01be 2291 a73b 7d50 5d3d
000001b0: c0dd c3bd d666 1bbe 6602 d43d 2ef9 febd
000001c0: 758c b4bd 623d ff3d 5273 85bd c1ae 8e3d
000001d0: 74db 8f3d 353f d53d 42f6 36be d11e a1bb
000001e0: 9309 93bc c74a 263c cda5 f0bd 4f93 ddbd
000001f0: 407b e5bd 6d64 febd 4eef cfbc f759 fe3b
00000200: 1c74 3f3e d0c4 8f3d 6d70 553c 9c22 85bd
00000210: c3ee 353d 4238 133e 5e41 453d 4d2a bbbd
00000220: 53d8 8fbd bd79 d43b 9e74 b33d d24a 983c
00000230: e42a b8bd 16d0 1bbc 37d9 b0bd 139a 18be
00000240: c044 c43d 17eb e3bd 7548 73bd a23d f03d
00000250: 0a16 47bc e693 3b3b 4a31 003d c5d8 3bbd
00000260: 42ec 38be 35be 743d b7f6 c73d af17 a13d
00000270: 0cf9 72bd 4866 a03d 31f1 4e3e 7f0e 343d
00000280: e12d ddbc e849 50bd 4b8d 80ba a241 11bd
00000290: 6c28 5d3d ef08 36be a04e 213d 7606 49bc
000002a0: 7352 c13c 867c f7bd e3ea 64bc cdfc 0ebe
000002b0: cbb2 ec3c 565d afbd be4e 96bd b1ae b23d
000002c0: 6bf9 45be 8432 35bd 2184 123d cba6 1fbd
000002d0: 0cff 9f3d 199c 49be 40f7 15bd 7304 babd
000002e0: 863e 1b3e 7080 23bd 2931 79bc 1cc6 bbbd
000002f0: 9774 0a3c 9395 efbd 6547 99be 1dcb 23be
00000300: 6b36 d2bd 7bcd b8bb 3555 243e da82 df3d
00000310: da76 243e 5019 1f3e b5f8 fe3d 97b6 fd3c
00000320: 3f03 35be f1c7 d7bd 3683 e03d dfda ed3d
00000330: fa8d 05bb c0cc 0abe 3698 39bc e28d 433e
00000340: 8bc8 7b3c 3563 963d 10ab 6bbb a375 8ebd
00000350: 0155 983c 79c4 d7bd 61a1 353d 60cb 8b3d
00000360: 753d 8ebd 6a93 3a3d be5c bebd aa82 75bd
00000370: 67f1 c6bd dec9 343e 3673 053e e75a 5ebd
00000380: eae0 ea3c 318b 26be 9b11 a63d b5bd d23d
00000390: 1f6f 28bd 3dba 14be c16a 003e cb3b 3cbe
000003a0: 9e57 8f3d 8702 3ebe 0e39 fc3c 0c4f 0fbe
000003b0: 7c7d bdbd 68c0 5bbe e83f 3d3c 576a 123e
000003c0: fe89 23bd 87c8 103e 468c e23d f7ba 3fbe
000003d0: 6b14 80bd 710c debd 701a 363e ebf6 853d
000003e0: dd51 353d a817 3f3e c1fa 23bc 1482 ecbd
000003f0: 805f 113d 4e3b 473e e794 00be 3d16 5ebd

model.3.bias f4 [16]
0.044166718 0.16136579 -0.083724946 0.13008907 0.17955448 0.22876902 0.10592143 0.0068043685
-0.07950751 0.028677085 -0.09094333 0.04471849 0.011249777 0.072794184 -0.16194358 0.14806086
00000000: 29e8 343d 133d 253e fc77 abbd 1236 053e
00000010: 21dd 373e 6d42 6a3e 56ed d83d 2ef7 de3b
00000020: d5d4 a2bd 35ec ea3c 7f40 babd bc2a 373d
00000030: fc50 383c 1e15 953d 8ad4 25be 449d 173e

model.5.weight f4 [16]
1.0473951 1.01857 1.0147891 0.92378676 1.0881011 0.82856643 0.99916023 0.95851654
0.98761195 0.92161286 0.9938339 0.9693579 1.0478967 0.96872735 0.92254573 1.1162815
00000000: 0b11 863f 8060 823f 9ce4 813f 4a7d 6c3f
00000010: e646 8b3f ee1c 543f f7c8 7f3f 5761 753f
00000020: 23d4 7c3f d2ee 6b3f e66b 7e3f d727 783f
00000030: 7b21 863f 84fe 773f f52b 6c3f 50e2 8e3f

model.5.bias f4 [16]
-0.15437944 -0.047856186 -0.12960477 -0.013292686 0.11166625 -0.1693184 -0.23287362 -0.04543495
-0.049389396 -0.064582124 0.01686654 -0.030197795 0.10753258 0.11349048 0.025337344 -0.063248076
00000000: a515 1ebe d904 44bd 1db7 04be 91c9 59bc
00000010: 46b1 e43d cd61 2dbe 6c76 6ebe 001a 3abd
00000020: 894c 4abd a243 84bd b32b 8a3c 5e61 f7bc
00000030: 0b3a dc3d b26d e83d 4390 cf3c 3588 81bd

model.5.running_mean f4 [16]
0.2643259 0.32082266 0.21367578 0.26714367 0.33261085 0.37469882 0.30620915 0.23424229
0.21428032 0.24622409 0.21365 0.22529934 0.24391742 0.2803874 0.18190765 0.4157978
00000000: b955 873e de42 a43e d3cd 5a3e 0ec7 883e
00000010: f84b aa3e 86d8 bf3e 72c7 9c3e 36dd 6f3e
00000020: 4d6c 5b3e 2b22 7c3e 11c7 5a3e dfb4 663e
00000030: 7dc5 793e f08e 8f3e 0046 3a3e 73e3 d43e

model.5.running_var f4 [16]
0.091672406 0.21064848 0.07801072 0.09078005 0.2132873 0.10469657 0.23079027 0.13369277
0.19985957 0.1514318 0.18970282 0.09649335 0.14588366 0.117044725 0.20826794 0.5087231
00000000: bebe bb3d 3cb4 573e 16c4 9f3d e4ea b93d
00000010: fc67 5a3e 286b d63d 4954 6c3e c2e6 083e
00000020: fda7 4c3e f010 1b3e 7541 423e 4e9e c53d
00000030: 8762 153e 25b5 ef3d 3144 553e ad3b 023f

model.6.weight f4 [8, 16]
0.0752519 -0.21993974 -0.02086668 -0.05670959 -0.009134593 -0.13570584 -0.025001092 0.021760382
-0.2703981 -0.20550601 -0.13271599 0.07333542 -0.36405328 0.16942334 0.00014177295 -0.09012111
-0.17620368 -0.22136489 -0.15517487 0.23619893 -0.14345133 0.0007359941 -0.11332219 0.2413166
-0.1112503 -0.16598468 0.12423733 0.16008943 0.011351547 0.051199898 0.082831256 -0.22672075
-0.0028153402 -0.15820113 -0.0011958391 -0.028719781 -0.22845481 -0.09405493 -0.053121746 0.027336543
-0.12908918 0.04344888 -0.06929127 0.038249627 -0.20938973 0.038278934 -0.066082515 -0.21833634
0.17812155 0.063073814 0.12187245 -0.14714839 0.10457847 -0.12623975 -0.11324759 -0.078168884
0.08052303 -0.09962183 0.042463705 -0.15363438 0.015676426 0.03220804 0.15032099 0.06282513
-0.066507556 -0.019780422 -0.29311514 0.18721314 -0.017420327 0.04471476 -0.014166741 0.18427284
0.07250925 -0.0748502 -0.31748816 0.17520966 0.032490175 -0.07188857 -0.21101478 -0.2266999
-0.14700535 -0.07607592 -0.1743392 0.13242319 0.30017686 -0.032686107 -0.05275892 -0.029378405
-0.12506972 -0.21628177 0.22909094 0.1160511 -0.026485134 0.29705432 -0.05354965 -0.019350683
-0.109349795 0.03961358 -0.107755266 -0.032611515 0.09665129 -0.14681828 -0.16292074 -0.12764567
0.09939945 -0.020099053 -0.07837662 -0.11168221 0.17513561 -0.09789408 0.05587796 -0.052179996
0.1507397 -0.13919519 0.17376967 -0.15691744 -0.09135666 0.008753632 0.040220175 -0.0020143755
0.0025871205 -0.13850753 0.079680435 0.1969161 -0.21382912 -0.019071292 -0.09334963 -0.25273818
00000000: ab1d 9a3d e237 61be 9af0 aabc 5148 68bd
00000010: 43a9 15bc 79f6 0abe 17cf ccbc d442 b23c
00000020: 9f71 8abe 2b70 52be b3e6 07be e130 963d
00000030: 3165 babe 507d 2d3e e3a8 1439 6b91 b8bd
00000040: bd6e 34be 7aad 62be 29e6 1ebe 22de 713e
00000050: e8e4 12be baef 403a 7715 e8bd b31b 773e
00000060: 33d7 e3bd e3f7 29be 2470 fe3d 7cee 233e
00000070: d7fb 393c fcb6 513d 6fa3 a93d 7c29 68be
00000080: 9281 38bb 7aff 21be b4bd 9cba bf45 ebbc
00000090: 0ff0 69be df9f c0bd 3096 59bd e3f0 df3c
000000a0: f42f 04be 74f7 313d 95e8 8dbd a4ab 1c3d
000000b0: 436a 56be 5fca 1c3d 4556 87bd 9093 5fbe
000000c0: 7f65 363e d82c 813d 4398 f93d 11ae 16be
000000d0: 3d2d d63d fe44 01be 5aee e7bd 0217 a0bd
000000e0: 42e9 a43d 8806 ccbd 6cee 2d3d 5552 1dbe
000000f0: d96b 803c 94ec 033d bfed 193e 76aa 803d
00000100: 1d35 88bd 8d0a a2bc 3013 96be cdb4 3f3e
00000110: 13b5 8ebc d326 373d 9e1b 68bc 05b2 3c3e
00000120: bb7f 943d 104b 99bd cf8d a2be 296a 333e
00000130: 6b14 053d 513a 93bd 4214 58be 0524 68be
00000140: 9288 16be b1cd 9bbd fa85 32be f299 073e
00000150: c8b0 993e dee1 05bd bd19 58bd fbaa f0bc
00000160: 4712 00be f878 5dbe d196 6a3e 33ac ed3d
00000170: 5af7 d8bc 8117 983e e156 5bbd 5385 9ebc
00000180: c9f2 dfbd d941 223d cbae dcbd a793 05bd
00000190: 1df1 c53d 8857 16be b2d4 26be 8cb5 02be
000001a0: f091 cb3d c5a6 a4bc ec83 a0bd a4b9 e4bd
000001b0: c056 333e b17c c8bd 4ae0 643d b1ba 55bd
000001c0: 825b 1a3e 2f89 0ebe adf0 313e f7ae 20be
000001d0: 3319 bbbd 656b 0f3c e9bd 243d 9d03 04bb
000001e0: ae8c 293b ebd4 0dbe 7f2f a33d 60a4 493e
000001f0: 05f6 5abe 663b 9cbc 172e bfbd e666 81be

model.6.bias f4 [8]
-0.16716148 0.022703767 0.062666744 0.22772299 0.28033087 0.42286053 0.18562111 0.026113557
00000000: 612c 2bbe 40fd b93c 6c57 803d 3730 693e
00000010: 8787 8f3e 2d81 d83e 7613 3e3e 19ec d53c

model.8.weight f4 [8]
1.4888554 1.4283215 1.5048091 1.5717597 1.5496873 1.6516871 1.5023458 1.4498746
00000000: d092 be3f 3dd3 b63f 969d c03f 6c2f c93f
00000010: 275c c63f 7c6a d33f de4c c03f 7e95 b93f

model.8.bias f4 [8]
0.04610549 0.06862046 0.14185657 -0.16114084 0.08988065 -0.13133775 -0.08363821 -0.06658772
00000000: 1cd9 3c3d e288 8c3d d942 113e 1b02 25be
00000010: 5913 b83d 677d 06be 834a abbd 245f 88bd

model.8.running_mean f4 [8]
0.20809817 0.31099012 0.31145388 0.3467396 0.46754384 0.5891281 0.36075032 0.2809562
00000000: b017 553e 193a 9f3e e276 9f3e da87 b13e
00000010: e861 ef3e 19d1 163f 44b4 b83e 7ed9 8f3e

model.8.running_var f4 [8]
0.050784275 0.14088942 0.07283017 0.13344562 0.2010583 0.26838923 0.14776832 0.1089463
00000000: 2c03 503d 5145 103e fc27 953d f8a5 083e
00000010: 3ae2 4d3e 506a 893e 9450 173e 3d1f df3d

model.9.weight f4 [4, 8]
-0.18413202 -0.40628177 -0.6401249 0.65467846 -0.45303 0.69880295 0.64815503 -0.22185339
0.47609267 -0.5776488 0.11188671 0.35443312 -0.4926166 -0.6695047 -0.51722527 0.59851885
-0.32478577 0.11966703 -0.09010024 -0.6159871 0.66086733 -0.635866 0.26791677 -0.5824288
0.66389984 0.6237368 0.36295596 -0.27859953 0.4063753 0.1062766 -0.5199711 0.11516762
00000000: 1b8d 3cbe 2a04 d0be 3adf 23bf 0299 273f
00000010: 8cf3 e7be c0e4 323f 7ded 253f 892d 63be
00000020: 6bc2 f33e cbe0 13bf dc24 e53d 4278 b53e
00000030: 3e38 fcbe a964 2bbf e068 04bf 8838 193f
00000040: 524a a6be fd13 f53d 7a86 b8bd 55b1 1dbf
00000050: 9a2e 293f 1dc8 22bf 632c 893e 0e1a 15bf
00000060: 57f5 293f 37ad 1f3f 5dd5 b93e 99a4 8ebe
00000070: 6c10 d03e 8ca7 d93d d31c 05bf 00dd eb3d

model.9.bias f4 [4]
0.1930946 -0.12526827 0.25537798 0.09902395
00000000: 97ba 453e 5346 00be e7c0 823e 12cd ca3d
