saved_models/MLP/ckpt__epoch100.ckpt (torch, 18336 bytes, 20 tensors)

model.0.weight f4 [32, 64]
00000000: 4bd1 6c3a 54ee b5bb 4ea7 34be a9d8 a23d
00000010: 299b 7e3c f29d 2ebd d0ac 4ebd da00 cdbc
00000020: a2f0 df3b e49f c0bd c6c2 bfbd 1196 8dbd
00000030: 0a26 b73c 000f 57bd 310f 02be 4188 48bb
00000040: 45d8 d4ba 3bee ddbb c444 973d 49a4 403c
00000050: 8c7c 27bc 3e93 ee3b 63d8 983d f180 c9bc
00000060: 4275 1dbc c529 81bd 58d1 763c c23d 33be
00000070: fa5d 773c 858b 8dbd a841 0ebe 76bb f63c
00000080: eba2 6bbc 58f5 9a3d 235d 28bd f135 e4bc
00000090: e32c a6bb 669d 6abd 6229 8f3e 9dfd bf3b
000000a0: 7994 5cbc 2779 77bd ca87 83bd 163f 9f3c
000000b0: 3944 6b3b b5ed 5ebb 8191 45bd 29fd 853d
000000c0: dfcf 47bc c79c b13b 006e b43d bbb1 0fbe
000000d0: 8add 3cbb d977 04bd 533e 01bd a86d 72bd
000000e0: 6fc5 73bc 335e 55bd 05b9 1ebe f359 4e3d
000000f0: 3fc2 f2bb 514e 8fbc f613 f7bd b8ef 9a3b
00000100: 7e1a a9bc 8cfc 0f3e 0be5 253e c987 233d
00000110: c39e 4dbd 7102 043e 6c64 ac3e 4403 f63c
00000120: 5501 3b3d 9281 55be a9fb b7bb 891f 083e
00000130: 952f 04ba 0913 043d e141 f3bd da0a 99bc
00000140: 3e7a 5e3d 3c90 90bd 0636 29be 2e68 4ebd
00000150: 4c1f dd3c c65c b83c e129 1b3d 5855 293d
00000160: a333 6c3c 0584 b2bc c794 59bd abc1 b9bd
00000170: f1fd db3c b5f0 14bc facb 913b 0bab 0b3c
00000180: 4645 813b fb31 833c 32c7 a73c fb0a e23d
00000190: e42a e6bc ea05 6b3d c0af d0bd 5fc5 9c3c
000001a0: 0433 c0bb cc72 de3d e927 09bd 5640 bc3d
000001b0: 5851 89bc 7703 9e3d 05f8 343d 4431 83bc
000001c0: e45d 02bc e543 f93d 3bc5 bc3d a6f5 823c
000001d0: 21e0 7cbc 5bec 773d 937a 143e 1987 9239
000001e0: 20bc c93c 16bb a73c 3962 06bd 3986 663d
000001f0: 3493 80bc 5711 113d 62f8 99bd d860 c83c
00000200: bc4a 423d 8abb 2cbb 3490 703b 3748 b9bd
00000210: d6b2 b4bc 9d8d a23c c2a5 a23c ba9b 9abd
00000220: 2b05 4d3d bc4b ca3c 1b05 153d 2d17 dc3c
00000230: 56c2 983d dad2 c4bc c108 05be 3cf4 6fbd
00000240: 3102 b33d 0a79 763d 4e39 e7bd 547f d0bd
00000250: a165 583d 4cad 0dbd 7f5e 6c3e ea84 8cbc
00000260: ad80 00be c85b 36bd e902 d1bd 816e 9b3d
00000270: a642 65bd 34e3 0abb 6964 d7bd cf2d dc3d
00000280: 3563 cc3d b575 f1bd ef5a 16bd dfd6 c4bc
00000290: 05e4 7f3c 6d2d 63bd cdc7 733c 2186 943b
000002a0: 5007 4fbd 3e42 b63c 4fdb 073c 1a0e adbd
000002b0: d18a 3cbd 26e1 013b 9f1d 5dbd c034 8cbc
000002c0: 56c4 e8bd 81cb 833d 137f b83b e2cc 10bd
000002d0: 2596 61bd be19 393d 87e6 f3bd b9ef a43d
000002e0: 2fde 133e ea00 703d 11d6 ee3d 8ebd 0dbd
000002f0: 1bf6 643b bac5 8bbc 98fb 963a 63e2 6abc
00000300: adfd b33c 5cd0 49bc 33f5 2ebd f074 463c
00000310: 32e2 0dbd 539b bbbb fa2e 3b3e 113b 3ebc
00000320: 83f5 16bb 4326 123d 4f5b b4bc ae32 b5bd
00000330: 3ce9 a03b be33 efbc 748b fc3d 4a46 81bb
00000340: 511f 4dbc ce0d 08bb 39c2 b63d 6e1e 68bb
00000350: 3472 283c 94c2 393c 233e c5bd e080 493d
00000360: 532f b7bc 4eab 013c 1a74 0a3d fbff 073d
00000370: f12c d13b b891 afbc f3a9 53be 4e88 573d
00000380: 39af b83c 9489 a9bd 4762 b6bd c084 c83d
00000390: 9165 93bc 651d 60ba 30a3 60be b5d1 ae3c
000003a0: fb21 15bd fb04 24bc f178 a9bd 55ab 7c3c
000003b0: a55e b63b 3cc5 8bbd a10f bb3d 936c 70bd
000003c0: 9fb9 c1bc 4b63 75bc 7944 a5bb 6cbc 09bd
000003d0: 1b4b 713b 54c1 c83c d05d 0ebe 674d f33c
000003e0: 84af af3c df5e 253c dc02 30bc 6575 8b3d
000003f0: f628 94bb e6f3 c03c 92c5 693e b12f 1abd
0.00090338726 -0.0055520926 -0.17641947 0.07951481 0.015539923 -0.042631097 -0.050457776 -0.02502482
0.0068341056 -0.09405497 -0.09363322 -0.069133885 0.022357006 -0.05250454 -0.12701108 -0.0030598792
-0.001623877 -0.006772784 0.07386163 0.011757919 -0.010222565 0.007280736 0.074631475 -0.024597617
-0.009610476 -0.06306795 0.01506456 -0.17504027 0.015098089 -0.06911377 -0.13892233 0.030118685
-0.014382104 0.07566327 -0.041104447 -0.027857753 -0.005071269 -0.057279013 0.2796126 0.0058590905
-0.013463133 -0.060418274 -0.06422384 0.019439261 0.0035898818 -0.0034016196 -0.048234466 0.06542427
-0.012195556 0.0054203006 0.08810043 -0.14032643 -0.002881857 -0.032340858 -0.031553578 -0.059186608
-0.014878615 -0.05209179 -0.15500267 0.05037875 -0.00740841 -0.017493399 -0.12064354 0.0047282837
-0.020642515 0.14061183 0.16200654 0.039924417 -0.050200235 0.12891556 0.33670366 0.030030854
0.045655567 -0.20850208 -0.005614717 0.1329328 -0.00050424907 0.032244716 -0.118778 -0.018681932
0.054315798 -0.070587605 -0.16524515 -0.050392322 0.026992463 0.022505175 0.037881736 0.041341156
0.014416608 -0.021791467 -0.0531204 -0.09070142 0.026854487 -0.009090592 0.0044493647 0.008524667
0.0039450256 0.016015043 0.020480726 0.110372506 -0.028096624 0.057378687 -0.10189772 0.019137083
-0.0058654565 0.108617395 -0.033485327 0.091919586 -0.01676242 0.077155046 0.044181842 -0.016014703
-0.007956956 0.12171153 0.09217306 0.015986275 -0.015434296 0.06052814 0.14499883 0.00027947946
0.024625838 0.020474952 -0.032808516 0.05628035 -0.015695192 0.035416927 -0.075180784 0.024460241
0.047434554 -0.00263569 0.0036707046 -0.09046977 -0.022057932 0.019842917 0.01985443 -0.07549234
0.050053757 0.024694316 0.036381822 0.02686652 0.07458942 -0.024026323 -0.1299162 -0.05858253
0.08740652 0.060174026 -0.11290227 -0.10180536 0.052831296 -0.034589097 0.23082922 -0.017153222
-0.12549086 -0.044521123 -0.10205633 0.07589436 -0.055971764 -0.0021192553 -0.105171986 0.10750925
0.0997986 -0.11790029 -0.036707815 -0.02402824 0.015618329 -0.055463243 0.014879179 0.004532591
-0.050544083 0.022248384 0.008292033 -0.08449955 -0.046030823 0.0019818037 -0.053983327 -0.017114997
-0.11365573 0.064353 0.005630383 -0.03535164 -0.05507483 0.045190565 -0.11909204 0.08053536
0.14440225 0.05859462 0.11661924 -0.0346046 0.003493673 -0.017062057 0.0011519073 -0.014336201
0.021971548 -0.012317743 -0.04271431 0.012112841 -0.034639545 -0.005725303 0.18279639 -0.011610762
-0.002303452 0.03568102 -0.022016196 -0.08847557 0.004910616 -0.029199477 0.12331286 -0.0039451467
-0.012519673 -0.0020760181 0.08923764 -0.0035418528 0.010281134 0.011337895 -0.09630992 0.04919517
-0.022361433 0.007914377 0.03380213 0.033203106 0.0063835313 -0.021431789 -0.20670299 0.052620225
0.02254449 -0.08278194 -0.08905464 0.09790945 -0.017992767 -0.0008549302 -0.21937251 0.02134023
-0.03640936 -0.010010953 -0.08275021 0.015421708 0.0055654817 -0.06824729 0.0913384 -0.058697294
-0.023648081 -0.014977287 -0.005043563 -0.03362696 0.0036818448 0.024506249 -0.13902974 0.029699994
0.021445997 0.01009342 -0.010742869 0.068095006 -0.0045214845 0.0235538 0.22829273 -0.03764314

model.0.bias f4 [32]
00000000: 0843 7b3d 0315 743d ce9f 033d 8e16 223d
00000010: e338 f0bd 3318 c93d 8616 db3d 3e63 7abb
00000020: 82eb dabd 3c95 3bbe d78d 6a3d 37be a0bd
00000030: d0cb 1b3e e00b 26be f056 e53d b31c 35be
00000040: 139b 313d 316b 17be 8ef8 f5bd 94ec bb3d
00000050: 49fc 133d 9cc9 013e 91ed f5bc 1373 e1bc
00000060: 1b6b 41be 5c2e 54bd 5872 f4bd c7fd 733d
00000070: e921 2bbd 961b 6bbd 78b3 66bc 9ce5 53bd
0.061343223 0.05959035 0.032134824 0.03957229 -0.117296 0.09819069 0.106976554 -0.0038206126
-0.10689451 -0.18318647 0.057264175 -0.078487806 0.15214467 -0.16215467 0.11198223 -0.17686729
0.04336078 -0.14786984 -0.12010299 0.09175983 0.03612927 0.12674564 -0.030020507 -0.027520692
-0.18888514 -0.051802024 -0.11935872 0.059568193 -0.041780386 -0.057399355 -0.014080875 -0.051732644

model.2.weight f4 [32]
00000000: 802b 8a3f d16b 873f 8c83 853f 07da 933f
00000010: 5bcd 813f 35ae 733f baac 7e3f 863e 7c3f
00000020: b701 7f3f 07f9 793f 1f59 733f 41a6 6e3f
00000030: c511 763f da13 863f ac5f 783f 2865 8a3f
00000040: 5025 7e3f 08f2 7c3f 71b8 7f3f 5ba0 813f
00000050: 3b40 7f3f a880 743f 6e35 7a3f 1bed 6e3f
00000060: d7eb 853f 1d3f 873f 9f60 6e3f 64ee 613f
00000070: 8aa2 8a3f 7314 7c3f 037f 7a3f d066 773f
1.0794525 1.0579778 1.043077 1.1550912 1.0140795 0.95187694 0.9948231 0.98532903
0.9961199 0.9764561 0.95057863 0.93222433 0.96120864 1.0474808 0.97020984 1.081212
0.99275684 0.9880681 0.9989081 1.0127062 0.9970738 0.95508814 0.9773778 0.93330544
1.0462598 1.0566136 0.9311618 0.8825438 1.0830853 0.98468703 0.97850055 0.96641254

model.2.bias f4 [32]
00000000: 0a05 1f3d 8efd 24bc b07c d4bc 3b33 8ebc
00000010: 6e9f c63c 6341 653d a8fc 84bc 2940 bc3d
00000020: 2249 733d 9c67 5ebc 1f56 1a3b ad57 9ebd
00000030: 3dd1 283d 3c16 823c 9a5a 3c3b c507 a33d
00000040: fa2f 78bd 4362 bdbd b808 cfbc b46f 823d
00000050: 54ab 813d 85f7 93bd 33f9 ddbd 1209 e63c
00000060: e10e 1e3d d68f 673d c2e2 f03d ef10 b6bd
00000070: cec4 193e 344b 263e aae9 c1bd 1668 1b3c
0.038823165 -0.010070218 -0.025938362 -0.017358413 0.024245944 0.05597056 -0.016233757 0.09191925
0.059395917 -0.013574507 0.0023549867 -0.077315666 0.04121517 0.015879743 0.0028740526 0.07960466
-0.06059263 -0.092472576 -0.025272712 0.06368962 0.06331506 -0.07224945 -0.108385466 0.028080497
0.03858841 0.056533657 0.117620006 -0.088899486 0.15016481 0.16239625 -0.09468396 0.009485265

model.2.running_mean f4 [32]
00000000: 58b5 7540 9946 7640 5cad 7540 a8e6 5c40
00000010: 2d17 3c40 f209 6940 32c1 3140 34a5 2540
00000020: d5e6 1e40 dd1b 4740 8ff2 3d40 85b7 5240
00000030: 0b41 8a40 6315 8240 b8b4 6540 3045 1140
00000040: fa63 8a40 8e8f 8240 dc66 2840 2ecf 2940
00000050: b459 8a40 f903 7840 9f33 7940 224c 3940
00000060: 217a 7e40 b83c 5e40 1b3c 5c40 8a24 5140
00000070: 3ad5 5c40 551b 6940 65c0 6b40 620e 8f40
3.8391933 3.848059 3.838706 3.4515781 2.9389145 3.641232 2.7774167 2.5882082
2.4828389 3.1110756 2.9679296 3.2924511 4.32044 4.0651107 3.5891552 2.2698479
4.324704 4.080024 2.631278 2.6532702 4.32345 3.8752425 3.8937757 2.8952718
3.9762042 3.472456 3.4411685 3.2678552 3.4505143 3.6422932 3.6836178 4.4705057

model.2.running_var f4 [32]
00000000: 8daf 5942 efc5 8442 4e8e 5842 73b2 7842
00000010: e114 0b42 8dfc 4742 d05d d641 c8b4 ad41
00000020: ba0d 9541 49cc 0942 bbf9 c841 87a9 1542
00000030: 98d4 8942 2931 a642 bbc8 fb41 ca5c c941
00000040: f383 3842 c968 2342 e430 d441 e110 a741
00000050: 5c16 a442 9933 0f42 8da7 fb41 9691 ab41
00000060: 46be 7642 dadc 6342 aa8f 1942 7460 c741
00000070: b498 4042 8c06 8142 e2cc 0142 ec1f 4242
54.421436 66.38659 54.13897 62.174267 34.77039 49.99663 26.795807 21.713272
18.631702 34.449497 25.121939 37.415554 68.91522 83.096016 31.473013 25.170307
46.128857 40.85233 26.523872 20.883242 82.04367 35.80039 31.456812 21.446087
61.685814 56.965675 38.390297 24.922096 48.149124 64.51279 32.45008 48.531174

model.3.weight f4 [16, 32]
00000000: 5f1f 1f3d 3973 b6bd 082d 4abe 02e4 4c3e
00000010: 4ffb 5dbd ebf4 8e3c e808 7d3d a253 b3bd
00000020: dc27 d3bc afe9 cdbd 6924 9d3c 4aa6 6cbd
00000030: 4e7b 74bd 40f4 3c3e 2e1f 2c3e f363 6fbd
00000040: abe8 533d d4cc 2fbc 7191 1b3c f4a1 bbbc
00000050: d140 4c3e ff83 d03d d7e9 c5bc 7088 c6bd
00000060: aefe 1a3d 12bb 173e 2501 193d 7245 8ebd
00000070: 63b2 3abe ffed 0a3e bbf8 3b3d f0ba b6bd
00000080: 7faf cb3d cf75 063e f5e7 83bd 9372 62bc
00000090: 399e 46be ab77 1b3e 7358 5cbd 71a4 de3c
000000a0: ceaa e23d 49c8 06be e803 cc3d b7cd fb3c
000000b0: e614 ac3d 5748 0bbe 01c1 173e bb00 1a3b
000000c0: da21 c83d 3348 163e 137f 97bd 1a0f f03d
000000d0: 2cc1 483e 189b 693d bffb 263e 30fb 0abe
000000e0: 99f9 f33d 367a b43d 3cbd 15bd ccd4 8cbc
000000f0: 55d6 afbd 73a9 2c3d 7048 173d 9e54 6d3e
00000100: d4d2 56bc 1445 2d3e c17d 90bd 31a2 2a3e
00000110: 7491 423c c7b6 093e b31b 68be b682 0cbe
00000120: d8f5 a6bc 9d13 00bd c255 b2bd b0af b33d
00000130: 3e89 073c c580 3fbd 9d3d 7e3b 7755 56be
00000140: 1fd3 e1bc 0db2 57bd 4609 893c 30a0 adbd
00000150: c3d2 54bb 3519 a7bc 76ab efbd b5bc 8dbd
00000160: 503c 563d 8244 573d a92f 35bd 0202 803d
00000170: 0ea1 6c3e 9a36 6b3e b577 aebd ee60 923d
00000180: a1ad 1c3e 110b 08be f9bc 1b3e 330f f4bc
00000190: 8c48 2c3e b72b 0d3d 40a6 18bd 3386 9abd
000001a0: 2458 09be ba67 2a3e a046 6abd 1ffa a3bd
000001b0: aa6e da3d 68a6 833d fe9f 63bd 28f3 bebc
000001c0: 0bd1 debd e3a9 06be 677a 8f3d 9681 14be
000001d0: ccef 013e 5cc7 a73c 0150 983c bc77 cdbd
000001e0: d1fa c13d 092b 8ebc 2d47 bb3d 0b2a dabd
000001f0: 05b5 05bd 2260 ccbd 3d7e 95bd 783d 0cbd
00000200: fd9c 1ebe 0b38 61be 6176 7f3d 566d c03c
00000210: 8622 7b3b ee07 17be eac7 b83d fc29 2fbb
00000220: fa0f 01be b037 5c3d 6175 9c3c 090d 34bc
00000230: 7379 19be e904 28be 9680 26be 6675 3ebd
00000240: 21cf 1ebd 639e f53d d9e5 d43c d282 3b3d
00000250: 4651 fdbd 419f 113d 0a0b 033d 6643 e83d
00000260: 2f53 69be 6145 be3b 91b0 35bd 964d c23d
00000270: e15a 55be e340 47be 2f69 903d 3c64 9b3c
00000280: a25c dd3d 5262 7d3d c789 a53d 8c7b 283e
00000290: 1d28 c93d 2694 b93c b061 39bd e2cd c2bd
000002a0: 1a2c c03d c46a af3d f2fe a0bd e914 ba3a
000002b0: 5778 cabd e7d7 053e 9671 15be ecab 553c
000002c0: 7ea3 7cbe e330 7d3c 0fa0 d5bd 95f2 8d3d
000002d0: 1e63 d2bd 9af4 52be f69e 813d fb3b 6a3c
000002e0: ba23 abbb 0153 5a3d 13b9 8c3d 20e3 56bd
000002f0: 081e 703d 44d9 48bd 1f1e d6bb adec 0fbe
00000300: e9bc 52bd b359 b9bd 1881 01be b3dd 3cbe
00000310: c9ab a8bd 6ab7 a1bd 9a9b edbd 10bf 063d
00000320: 72a0 a5bc 0e4e 03be 3029 f23d a79b a3bc
00000330: 844d 12be c9fd d93c 717e ee3d 7f3d 3d3c
00000340: b01a 253d 930d be3d ffa8 c23d 95fe 013e
00000350: df0f 7ebc 5d38 1abe c4ea 733d a0cb a73c
00000360: 8b60 25be 6b66 3bbd df96 66be 8060 283d
00000370: e2d6 39bc db91 97be b3c8 843d 8fc5 9dbc
00000380: bc5f 80be 19e2 c6bd bb9a 8abd 5f20 4ebe
00000390: 20be 0cbd 9a20 56bd 63b1 19be 3bd2 0c3e
000003a0: bab9 97bd 0ab1 fb3d 5c80 463d ef1a ac3d
000003b0: 23ae 3abd dca2 48be f0eb 2ebc fffa d33d
000003c0: bc3a 323c 7fa2 de3b 7e76 8dbc a29c 6e3c
000003d0: 5ddc 48be 99e7 11bc 4593 6d3d 93a2 1ebc
000003e0: 5cd4 e7ba 5140 6dbe d316 12bd adbf e3bc
000003f0: 2ee2 01be 2328 ef3c a406 1dbd 7f4a cd3d
0.038848277 -0.08908696 -0.1974374 0.20008853 -0.054194745 0.01745077 0.06177607 -0.08756186
-0.025775842 -0.10054337 0.0191824 -0.057775773 -0.059687905 0.18452549 0.16808769 -0.05844493
0.05173556 -0.010729987 0.009495125 -0.022904374 0.199466 0.10181426 -0.024159355 -0.09693992
0.037840538 0.14817455 0.037354607 -0.069468394 -0.18232112 0.13567351 0.045891505 -0.08922374
0.099455826 0.13130878 -0.06440727 -0.013821262 -0.19396295 0.15182368 -0.05379529 0.027178021
0.11067735 -0.1316234 0.099616826 0.03073774 0.084024236 -0.13601814 0.14819719 0.002349897
0.09772082 0.1467598 -0.07397284 0.117216304 0.19604939 0.057032675 0.16306971 -0.13572383
0.11912841 0.088123724 -0.03655742 -0.017191313 -0.085858025 0.042153787 0.036934316 0.2317681
-0.013111789 0.16920882 -0.07055236 0.16663434 0.011875499 0.1344863 -0.22666816 -0.13721737
-0.0203809 -0.031268705 -0.08707763 0.08773744 0.008272467 -0.046753664 0.0038794049 -0.2093104
-0.02756649 -0.052660037 0.016728055 -0.08477819 -0.0032474257 -0.020397762 -0.117026255 -0.06920759
0.052303612 0.05255557 -0.044234905 0.06250383 0.23108312 0.22970048 -0.08518926 0.07147394
0.15300609 -0.13285471 0.15208806 -0.029792404 0.1682455 0.034465518 -0.037267923 -0.07545128
-0.13412529 0.16641131 -0.05719626 -0.08006691 0.10665639 0.06428224 -0.055572502 -0.023309305
-0.108797155 -0.13150744 0.07005768 -0.14502558 0.12689131 0.020480804 0.018592836 -0.10032603
0.094716676 -0.017354505 0.09144435 -0.1065255 -0.032643337 -0.099792734 -0.07299469 -0.03423831
-0.15489574 -0.21994035 0.062368754 0.023489635 0.0038320138 -0.14749119 0.090225056 -0.0026727905
-0.12603751 0.053764045 0.01909894 -0.010989436 -0.14987735 -0.16408123 -0.16259989 -0.04649868
-0.038771752 0.119931005 0.025988506 0.045779057 -0.12369017 0.035552267 0.03199295 0.1134098
-0.22785638 0.0058066105 -0.04435784 0.094874546 -0.20835449 -0.19458346 0.07051312 0.018968694
0.10808684 0.061861344 0.080829196 0.1645338 0.09822104 0.02265365 -0.045259178 -0.09511925
0.09383412 0.08565286 -0.07861127 0.0014196906 -0.09886234 0.13070641 -0.14594111 0.013041478
-0.24671742 0.01545355 -0.104309194 0.069310345 -0.10272811 -0.2060112 0.063291475 0.014296527
-0.005222765 0.053301815 0.068712376 -0.052462697 0.05862239 -0.049035326 -0.0065343524 -0.14055128
-0.05144969 -0.09050312 -0.12646902 -0.18443947 -0.082358904 -0.078963116 -0.11601944 0.032897055
-0.020218108 -0.12822744 0.11824262 -0.019971682 -0.14287382 0.026610272 0.116452105 0.011550306
0.040308654 0.09279933 0.0950489 0.12694772 -0.015506714 -0.15060563 0.05955006 0.020482838
-0.1615011 -0.04575197 -0.2251849 0.041107655 -0.011342736 -0.29603466 0.06483593 -0.019259242
-0.2507304 -0.097110935 -0.06767794 -0.20129536 -0.034361005 -0.052277185 -0.15009074 0.13752072
-0.074084714 0.12289627 0.048462257 0.08403575 -0.045576226 -0.19593376 -0.010676369 0.10350608
0.010878261 0.0067942734 -0.017268416 0.014563711 -0.19615312 -0.008905315 0.058001775 -0.009682315
-0.0017687189 -0.23169066 -0.035666298 -0.02780136 -0.12683937 0.029193943 -0.03833641 0.100239746

model.3.bias f4 [16]
00000000: 1f60 3c3e f174 15bd a388 f83d a2b5 0fbe
00000010: b616 163c d927 6a3d 5df3 28be f0a0 0fbd
00000020: c6cd 323e f2c7 603d 8fd4 443d 07d3 0c3e
00000030: ffba be3d 9606 4dbc 5871 b03d f4e7 89bd
0.18396042 -0.036488477 0.121354364 -0.14034131 0.009160688 0.057166908 -0.16499086 -0.03506559
0.17461309 0.054878183 0.048054274 0.13752376 0.093130104 -0.012513777 0.086153686 -0.06733695

model.5.weight f4 [16]
00000000: 61eb 873f 0de5 6b3f 85e5 7e3f c608 873f
00000010: 9576 833f c040 7b3f dc9f 723f fbad 7f3f
00000020: e25d 6d3f fc2e 883f d240 863f 21c4 783f
00000030: bf9f 783f cdfb 5f3f 532b 7b3f aa39 5e3f
1.0618707 0.9214638 0.9956897 1.0549552 1.0270563 0.98145676 0.94775176 0.9987485
0.9272138 1.0639338 1.0488532 0.9717427 0.97118753 0.8749359 0.9811298 0.8680674

model.5.bias f4 [16]
00000000: c47f bc3d 30df dc3d 71cf d23c 39e0 6cbd
00000010: 5a4d 26be 1789 783d 76b6 e03c f8df 98bd
00000020: 6b72 c83c 6606 0fbe b7b0 4ebe 89de a03c
00000030: e26e a83d faec 693e 1d1f f6bd 577f 8a3d
0.09204057 0.10784757 0.025733681 -0.057831023 -0.16240445 0.060677614 0.027430754 -0.07464594
0.024468621 -0.13967285 -0.20184599 0.019637363 0.08224274 0.22844306 -0.12017653 0.067625694

model.5.running_mean f4 [16]
00000000: 62b5 953e 5256 613e 2275 9c3e a540 303e
00000010: 77bb 413e dba6 7f3e 8e8a 0e3e f788 603e
00000020: ce9f bd3e ff41 883e 131b 653e c017 8a3e
00000030: 4b58 a33e 70a1 953e 6396 843e 1147 4d3e
0.29239947 0.22005585 0.30558115 0.1721216 0.18919168 0.24965994 0.13920042 0.21927248
0.37035984 0.2661285 0.22373609 0.26971245 0.319033 0.2922473 0.25895986 0.20046641

model.5.running_var f4 [16]
00000000: 5442 7b3e fed3 4c3e bc3a 803e e519 643e
00000010: 5318 523d 6aae 403e 45c1 663d 9ab9 843d
00000020: 78df 273e 7921 d73d ddf2 513d c502 233e
00000030: 3afc 313e 8e89 593e 0d75 f13d 0a45 f43d
0.24537021 0.20002744 0.2504481 0.22275503 0.05129273 0.18816534 0.05633666 0.06480713
0.1639384 0.10504431 0.051257003 0.15919025 0.17381373 0.21243879 0.11789904 0.11927231

model.6.weight f4 [8, 16]
00000000: 998a a4be e02f a8bd 393e 9cbd 5ec6 b8bb
00000010: 581c 533e 6c76 63be ab64 2c3e 1cca 213e
00000020: 92fc 363d 18c0 f4bd 7aba 5a3c 4a63 1fbd
00000030: dc28 00be abe3 73be 69a5 03bd b836 21be
00000040: 3be0 24be 6d87 a7bb 2011 80be ada7 acbe
00000050: 1764 a83d d957 1bbe 20b6 243e 23de 223e
00000060: cb28 c63b 945e c93c e595 52be c948 0a3d
00000070: 7de1 753d 545b 083d 8397 d63d 056d edbd
00000080: b2b8 b7bd d48d aabc a3a8 6fbe 1539 83be
00000090: c184 473e adb1 0ebe 6869 8b3d 78c7 4b3e
000000a0: 62a0 ed3b affd 7dbb bc7b 6dbd e998 053d
000000b0: 98ac 3bbe 3b90 d03d 22a2 b03d 5314 8abd
000000c0: 5521 6fbe 735b 2dbe d07b 98bd 4945 ecbd
000000d0: 4f2d 233e 8936 a03d 167f d2bd f6a7 cdbc
000000e0: 1242 5d3e e899 1a3e 89a5 70be 6bd2 2cbe
000000f0: 9131 223e e82c 07bd 9396 2d3e 8da0 d93d
00000100: a857 1d3e 206a 87bd 7f06 70ba 31df 093e
00000110: 3da6 c4be 965f b13d 43e8 53be 90ac 3ebe
00000120: 4238 483e 1bd3 35bd eade 31bc 851d 113e
00000130: ae5b f33d c467 763d fb2c 63be a987 08be
00000140: 6100 313d d566 c4bd f2a1 0b3e 7aed b8bc
00000150: b1f5 c33d dae8 cdbc f8db 2b3e 4b2e b63d
00000160: 30aa 2c3d c508 98be 17b0 a8be d3fa efbd
00000170: a67f b3bd 985a de3d b9f3 0ebe 309f 303e
00000180: 5ba1 5fbd b254 913d 74df a4bd 365b 79bd
00000190: afa7 83bd d0de 7f3d 7be5 993d 0b47 783a
000001a0: f418 683e 0589 19be 4948 36be 6814 8b3c
000001b0: facf 76bd 8d92 f43c b166 27be 87d1 08bd
000001c0: d9c7 5dbe e42a b5bc d3d0 b7bd 044a 4ebe
000001d0: 7cd1 46be 6e3c 54be b06a e2bc fa76 12be
000001e0: 7bd4 0cbe 977f d03c edac 81bd 0e02 12be
000001f0: 3ae8 863c 2888 c6bd fc00 123d 54b9 663d
-0.32136992 -0.082122564 -0.076290555 -0.0056388816 0.20616281 -0.22213143 0.16835277 0.15799755
0.044674464 -0.119507015 0.013350124 -0.03891305 -0.12515587 -0.23817317 -0.03214017 -0.1574353
-0.16101162 -0.0051125796 -0.25013065 -0.33721676 0.082222156 -0.1517023 0.160851 0.15905051
0.0060473434 0.024581231 -0.20564993 0.03376082 0.060029496 0.033290222 0.10478117 -0.115930595
-0.08970775 -0.020819582 -0.23404174 -0.25629488 0.19484235 -0.13934965 0.06807214 0.1990031
0.007251785 -0.0038755944 -0.05797933 0.03261653 -0.18327558 0.1018376 0.086246744 -0.06742158
-0.23352559 -0.16929416 -0.0744549 -0.115366526 0.15935253 0.07822902 -0.10278146 -0.025104504
0.21607235 0.15097773 -0.23500647 -0.16877143 0.1583922 -0.03300181 0.16951971 0.10626326
0.1536547 -0.066120386 -0.00091562414 0.13464047 -0.3840808 0.0866081 -0.2069407 -0.18620515
0.1955271 -0.04439078 -0.0108563695 0.14171417 0.11882721 0.060157552 -0.22185127 -0.13333
0.043213252 -0.09589926 0.13635996 -0.022574175 0.09568346 -0.025135446 0.1678313 0.088955484
0.04215449 -0.2969419 -0.32946846 -0.11717763 -0.087645814 0.10857123 -0.1396016 0.17248225
-0.05459724 0.070962325 -0.08050433 -0.060878 -0.064284675 0.06246835 0.07514473 0.00094710354
0.22665769 -0.14993675 -0.17801012 0.016977504 -0.060256936 0.029855037 -0.16347767 -0.033402946
-0.21658267 -0.022115178 -0.08975377 -0.20145422 -0.1941585 -0.20726177 -0.027638763 -0.14303198
-0.1375293 0.025451465 -0.06331811 -0.14258596 0.016468156 -0.096939385 0.03564547 0.056329086

model.6.bias f4 [8]
00000000: dc67 76bc 5323 d93e 9a4a fdbd 7ad4 92bd
00000010: ed8e 87bd d72d bb3e 3d6f a43e 89fd b43c
-0.01503941 0.42409763 -0.12367745 -0.07169433 -0.06619058 0.3655841 0.32116118 0.022093551

model.8.weight f4 [8]
00000000: 72f3 c93f d3a9 bf3f f7c3 cc3f 5f90 bf3f
00000010: 7b80 cf3f 339c c33f 286d ce3f 1be6 d33f
1.5777419 1.4973701 1.5997304 1.4965934 1.6211084 1.5282043 1.6127062 1.6554598

model.8.bias f4 [8]
00000000: 03e9 92bd e182 383e e88b 48bd 9c18 ca3d
00000010: 8afd 0fbe 6702 0f3d a9c5 81bd 54b2 8a3e
-0.0717335 0.18018676 -0.04896155 0.09867975 -0.14061561 0.0349144 -0.06336529 0.2708918

model.8.running_mean f4 [8]
00000000: ee2f 6e3e 3ffd 103f e22b 443e aef7 313e
00000010: a398 db3e 4209 0f3f 5bd5 eb3e 5db8 463e
0.23260471 0.5663642 0.19157365 0.17379639 0.4288989 0.558735 0.46061215 0.19406267

model.8.running_var f4 [8]
00000000: 5c98 cc3d d3a4 433e fb4b 8b3d 9dbc 013e
00000010: 60d3 d83e e218 923e 36d7 243e 6c70 463d
0.09989998 0.19105844 0.068016015 0.12669607 0.42348766 0.2853461 0.16097721 0.048447058

model.9.weight f4 [4, 8]
00000000: 6bb6 e4be 9a8f 09bf ac71 a1be 3266 14bd
00000010: d9a3 4d3f f742 833e 075c 483f d0a6 23bf
00000020: a309 283f ef0d d73e 9f1d 4a3f 5120 d8be
00000030: 69f0 2dbe c2e2 bcbe 5680 cdbe 96b0 09bf
00000040: 7680 f6bd 0702 e73e 543c 093d b12f 4b3f
00000050: 3888 03bf cf35 e93e bce1 bb3e f643 103f
00000060: 216f fdbe 65fa 06be bd55 c9be 7810 19bf
00000070: 7351 6cbd 6295 2fbf d5b8 1fbf de54 cf3e
-0.44670424 -0.53734744 -0.31532037 -0.036230274 0.80328137 0.25637028 0.7826542 -0.6392641
0.65639704 0.42002818 0.7895145 -0.42212155 -0.1698624 -0.36891752 -0.40136975 -0.53785074
-0.12036221 0.45118734 0.0335048 0.79369646 -0.5137973 0.45548865 0.3669566 0.563537
-0.49498847 -0.13181455 -0.39323226 -0.59790754 -0.057694864 -0.68587315 -0.62391406 0.40494436

model.9.bias f4 [4]
00000000: 231d cb3b f495 13be e431 d13e af3f d23c
0.0061985417 -0.14412671 0.40858376 0.025665132
