saved_models/MLP/ckpt__epoch100.ckpt (torch, 18336 bytes, 20 tensors)

model.0.weight f4 [32, 64]
000000 92 9b 1d 3c 34 21 de 3c 76 dc 21 3e 72 76 a8 bd
       0.00961961 0.027115442 0.15806755 -0.08225717
000010 a0 8d 96 3c 56 79 03 3c b5 ee b6 3d 1d a0 a7 bd
       0.018378079 0.008024534 0.089322485 -0.08184836
000020 75 e6 9f ba 03 76 5c 3c 7d 64 bf bd da cb 3f 3d
       -0.0012199419 0.013455871 -0.093453385 0.046825267
000030 c6 94 de bc 5c e4 e1 3c 17 d9 7d bd e4 b2 6f 3d
       -0.02717055 0.02757471 -0.06197461 0.058520213
000040 ee 4d 8a bb c0 94 ea 3d 2b 8b 13 be 17 e1 23 bd
       -0.0042207157 0.11454153 -0.14408557 -0.040009584
000050 18 6b 93 ba 4c 2a b0 bc d5 13 c1 3d 5d 9b 06 3d
       -0.0011247126 -0.021504544 0.09427611 0.03286301
000060 bc 82 95 bd 0d 2e 4f 3e 1d 0d f6 3d b9 8e e1 3c
       -0.07300326 0.2023241 0.1201422 0.027533876
000070 a3 62 b5 3c 4a fd 7a 3d 7f fe f0 3d d9 22 f2 3c
       0.02214176 0.06127671 0.11767291 0.029557632
000080 75 e7 04 3c 4c d9 2b be fd e3 db bd 63 ec 84 3d
       0.008111824 -0.16782111 -0.10736845 0.064904
000090 40 3a 04 bc 22 15 9e 3d b9 90 a5 bd aa 85 e0 3d
       -0.0080705285 0.077188745 -0.08084244 0.109629944
0000a0 29 64 d6 3c 41 53 f5 bc 81 ff c0 3c 43 0b 5e bd
       0.026170807 -0.029946925 0.023559334 -0.05420996
0000b0 a3 13 fa bc f5 56 83 3d 37 84 ae bd f5 60 18 3b
       -0.030526942 0.0641307 -0.08521312 0.002325115
0000c0 95 a4 97 bc 98 69 09 3e fb e3 56 3e 02 ff 81 3c
       -0.018511096 0.13419187 0.20985405 0.015868668
0000d0 3b f5 48 3c 2f ac a2 3d e0 26 82 3b 2d 80 82 3d
       0.012265499 0.07942998 0.0039719194 0.06372104
0000e0 88 b3 1c 3d d8 f0 55 be 7d 78 c7 bd c0 a0 c4 bd
       0.03825715 -0.20892656 -0.09739778 -0.09600973
0000f0 31 b7 58 3d 91 e9 bb bd 1f b0 2e be 4e 67 14 bd
       0.05290908 -0.09175409 -0.17059372 -0.03623133
000100 0b 5f 3b bb 68 bf d5 bc 62 02 b2 ba 4c 71 56 3e
       -0.0028590586 -0.026092246 -0.0013581032 0.20941657
000110 72 82 c2 3c c2 12 99 3d 8d 9c 87 bd 1c 60 31 bd
       0.023743842 0.07474281 -0.066216566 -0.043304548
000120 62 10 94 3c 51 4a 0d 3d 2c a6 8a bd 0f e5 12 bd
       0.018074218 0.0344947 -0.06769976 -0.03586298
000130 b9 6f 34 3d 6c 65 07 be c3 04 94 bd 80 2b 97 bd
       0.04405186 -0.13222283 -0.07227471 -0.07381344
000140 81 0e 1d 3d da d1 32 bd f9 4b fe 3c 4e 43 95 bd
       0.03834391 -0.04365716 0.031042086 -0.07288228
000150 71 b5 0b 3a ab aa 45 3d de 90 d4 bd 4c aa 61 3d
       0.0005329466 0.048258465 -0.10379194 0.05509405
000160 79 e2 09 3d 7b af 09 3d 47 5d 1a bd b1 53 3f be
       0.033663247 0.033614617 -0.037686612 -0.1868427
000170 44 5e 1a 3d 9d 2e a8 3d 22 d6 33 be fa 05 e8 3d
       0.037687555 0.08212016 -0.17562154 0.11329265
000180 c0 66 38 3d 9c 08 c7 bc 99 3e 0c be b4 57 a0 bc
       0.045019865 -0.024296097 -0.13695754 -0.01957307
000190 22 8b b2 3d f8 e5 1f bc c4 5e 3d 3d 03 78 97 bc
       0.08717944 -0.009759419 0.046232954 -0.018489843
0001a0 76 80 50 3c 25 3c 4f bb a5 1b 10 3e 48 6e b6 3c
       0.01272594 -0.0031621542 0.14073046 0.022269383
0001b0 36 42 26 39 56 a1 42 3d a8 f9 4d 3d 16 53 f0 bd
       0.00015855659 0.047517143 0.05028692 -0.117345974
0001c0 12 16 0c 3b 86 94 12 3d 62 7d 91 bd e3 8e 90 3d
       0.002137546 0.035786174 -0.07103993 0.070585035
0001d0 55 c1 1d 3d 75 6b 11 bd e7 3d 4f 3e ad 17 60 bd
       0.038514454 -0.03550287 0.20238458 -0.05471008
0001e0 fd ea 0e 3c 66 9d f2 bc e2 fa 50 3c f6 45 cb bc
       0.008723018 -0.029616069 0.012755128 -0.024813633
0001f0 e6 c5 f2 b8 c9 24 47 bc e6 06 a1 3d ae bc 2a bd
       -0.00011576321 -0.012154766 0.07862644 -0.041683845
000200 38 0c 37 be a4 74 6b bc 24 9d 60 3e d6 01 ba bd
       -0.17875755 -0.014371071 0.21934944 -0.090823814
000210 45 af 03 3e 76 51 dd bc db b7 08 3d 8e 1b 0b bd
       0.12859829 -0.027016383 0.033378463 -0.033961825
000220 e4 09 7f 3c ae 6d dc bd 00 c4 8c 3d d3 e4 45 3c
       0.015566323 -0.10763107 0.068733215 0.012078482
000230 b0 73 2b 3c 89 3c ec bc 51 39 20 3e 1f 0b d7 bc
       0.010464594 -0.02883746 0.15646864 -0.02625042
000240 3a c1 92 3d bd c0 70 3e 0a 80 f1 bd e4 ba 2b 3d
       0.07165761 0.23511024 -0.11792 0.04192628
000250 da 8c f9 bc e5 99 22 3d 45 27 c1 bd f1 44 7b 3d
       -0.030462671 0.039697547 -0.09431318 0.061345045
000260 d3 94 0c 3d 70 8f 03 be df a3 04 bd aa cf 49 bb
       0.034321617 -0.12847686 -0.032382842 -0.0030793943
000270 66 b6 be ba 18 ae ad bb d4 1b 78 bc 6f 74 56 bd
       -0.0014550209 -0.0053002946 -0.0151433535 -0.052357133
000280 d6 79 dc bd 8d 4c 01 be d0 6e 58 bb cd 54 b8 3c
       -0.10765426 -0.12626858 -0.0033025034 0.022501374
000290 ab 37 80 3c 91 05 22 3d ff df f6 3c 24 ea 63 3c
       0.015651545 0.03955609 0.030136107 0.013910804
0002a0 b2 6f 87 3d c3 d2 b0 bd 9f b5 33 bd 24 b8 7a bd
       0.06613101 -0.086339496 -0.04387438 -0.061210766
0002b0 7a d5 40 bd 4b aa b5 3c 1e 1b ad 3d 5c 2c 9a 3c
       -0.047078587 0.022175929 0.08452438 0.01881998
0002c0 31 58 d4 3d 8c 4b 87 3d 05 a2 6d 3c 35 16 55 3c
       0.10368384 0.06606206 0.0145039605 0.013005783
0002d0 74 f6 56 bd f3 d0 0f 3d 9a 22 2e bc 8c 52 4c bd
       -0.05248113 0.03511138 -0.010628367 -0.04988341
0002e0 e8 a4 b5 bd 53 1b c6 3c 9d e2 33 3d a3 e6 e8 bc
       -0.08869344 0.024182951 0.043917287 -0.028430289
0002f0 a3 80 c9 bb 84 af 1d bd 79 1c b8 3d c5 c4 d3 3b
       -0.006149368 -0.038497463 0.08989806 0.0064626657
000300 d5 ee 89 3c 6f 27 89 3d a8 2a f8 3c 04 ca 3e bd
       0.016837517 0.066969745 0.030293778 -0.046579376
000310 81 0f 40 bd a9 55 21 3d 08 7b 01 be 86 aa 65 3c
       -0.046889786 0.039388333 -0.12644589 0.014017707
000320 47 05 89 3d 39 2a 92 be d5 ae f6 bd 2c 4f 9e 3c
       0.0669046 -0.28547838 -0.12045065 0.019324861
000330 8f 68 53 bc b3 bd 3c bd b5 b8 56 bd 9d 55 06 bd
       -0.012903347 -0.04607935 -0.052422244 -0.03279649
000340 76 89 f6 3c 5e f1 8c 3d 36 3d 88 3d 92 7f 5e bd
       0.030094843 0.06881975 0.066523 -0.05432088
000350 d9 a4 68 3c 30 9b b5 bb f4 a5 0a be 75 5e cc bc
       0.014199459 -0.0055421814 -0.13539869 -0.024947384
000360 e4 48 7a 3d 29 87 4d be 23 5c 7b bc 1d 8d fc 3c
       0.06110467 -0.20071091 -0.015341791 0.030829007
000370 46 e0 07 3c 11 71 cb 3c 43 c8 62 3d 4f 7b 95 3c
       0.008293217 0.024834188 0.055366766 0.018247275
000380 29 9f 6e 3d 13 0c 81 bd df b2 85 3d e5 88 91 3d
       0.058257256 -0.06301131 0.065282576 0.07106189
000390 46 37 e1 3c e1 f4 21 3d 6d cc b0 bd b9 dc 40 bd
       0.027492177 0.039540175 -0.08632741 -0.047085498
0003a0 a1 2f 89 bb e7 b5 97 3e cb 84 55 3d fc ee 74 3d
       -0.004186586 0.29630968 0.052128594 0.059798226
0003b0 bd 36 b0 3c aa 88 03 3d 07 a4 19 be 38 5f 15 bc
       0.021510476 0.032112755 -0.15003978 -0.00911694
0003c0 62 0b 04 bb 3d f0 be bd 35 80 c2 bd 6f 0b e4 3c
       -0.0020148386 -0.093231656 -0.0949711 0.027837483
0003d0 64 23 cd 3c 04 34 17 bc 1f b3 10 3e 9b 3e 44 bd
       0.02504129 -0.00922871 0.1413083 -0.047911268
0003e0 69 db e4 3b 6f 1e 12 3e 3d 0b 64 3b 31 0a 19 be
       0.0069841635 0.14269422 0.0034796738 -0.14945294
0003f0 22 5a 85 bc 0d f0 fc 3b 66 5d 9b 3d bc 83 6e bd
       -0.01627833 0.007719046 0.07586174 -0.0582311

model.0.bias f4 [32]
000000 f3 5a 88 3d 4e 1e f2 3c 76 9b c7 3d 9a 80 12 be
       0.06657972 0.029555466 0.09746449 -0.1430687
000010 b7 4d 2e 3e 2f a6 33 3d c3 3d 35 be d2 6f 15 be
       0.17021833 0.043859657 -0.17699341 -0.14593437
000020 ea f7 0b 3e aa 58 18 3e 3f 3f ec bd 6e 22 e2 3d
       0.1366879 0.14877573 -0.11535501 0.11041723
000030 5e ab 2b 3e 57 d9 f5 bd 1a a9 0a be 08 d6 88 3d
       0.1676459 -0.12004345 -0.1354107 0.06681448
000040 6f 22 36 bc b7 ce 98 bb 8c de 90 bb 91 ff 91 bd
       -0.011116608 -0.004663314 -0.004421061 -0.071288235
000050 32 ef 53 3e 6f ef 7b 3e 27 46 54 bd 07 55 22 3e
       0.20696715 0.24603055 -0.051824715 0.15852748
000060 a1 fe 7c 3e 9e c0 c6 bd 04 78 d6 3d 77 de 22 3d
       0.24706508 -0.097047076 0.1047211 0.03976294
000070 f6 b4 70 be e2 89 d6 bd 9b fd 89 bd 3b 71 fd 3c
       -0.23506531 -0.10475518 -0.067378245 0.030937782

model.2.weight f4 [32]
000000 88 63 76 3f b5 75 77 3f 2c 1f 73 3f f3 26 85 3f
       0.9624562 0.9666398 0.9496944 1.0402511
000010 c2 09 8d 3f b6 de 77 3f c4 09 86 3f 46 87 84 3f
       1.1018603 0.96824205 1.047173 1.0353782
000020 43 1d 71 3f 87 d4 81 3f 9b 03 86 3f 0b 7b 84 3f
       0.94185275 1.0142983 1.046985 1.035005
000030 45 5a 81 3f 43 01 83 3f e2 41 7b 3f 4f 91 76 3f
       1.0105673 1.023476 0.98147404 0.96315473
000040 9b 5f 82 3f 39 90 7d 3f bc d7 85 3f 6f 02 89 3f
       1.0185426 0.9904819 1.0456462 1.0703868
000050 ea 21 83 3f 85 03 88 3f 1e f6 6b 3f 17 e5 86 3f
       1.0244725 1.0626074 0.9217242 1.0538663
000060 70 22 6f 3f cf 1e 6a 3f 4e 10 71 3f 3c 97 7b 3f
       0.9341192 0.9145326 0.94165504 0.9827764
000070 b2 c8 8b 3f 31 ac 80 3f f3 59 81 3f 22 3e 85 3f
       1.0920622 1.0052549 1.0105575 1.0409586

model.2.bias f4 [32]
000000 52 83 4d 3a de cf c0 3c 92 0a 16 bd 4a d4 90 bc
       0.00078396976 0.023536619 -0.036631174 -0.017679352
000010 63 c1 8e 3d a4 18 02 3d c2 91 4f bd 04 3a ab 3c
       0.06970479 0.03176178 -0.050676115 0.020901687
000020 63 41 0c bc cf cf 94 3c 90 5d 39 bd 32 b7 90 3d
       -0.008560511 0.018165497 -0.045255244 0.07066192
000030 cb 96 5a bd 72 e6 da 3c aa 17 d0 bc 6f 7b e1 bc
       -0.053366464 0.026721213 -0.025401909 -0.027524678
000040 88 5b 51 bb 42 be 52 3d 18 28 9f 3c 07 1d e0 3c
       -0.0031945426 0.051450975 0.019428298 0.027357591
000050 04 68 8d bd 9a 2f 54 bd 91 e3 57 bc 0d 27 ea bc
       -0.06904605 -0.05180321 -0.013176815 -0.028583074
000060 57 58 d2 3c 3b 13 ce bb 9e 55 01 3d 5f 44 33 bd
       0.02567689 -0.0062889135 0.03157579 -0.043766376
000070 31 a8 be 3d 43 18 cf ba a9 1b c1 3b f2 01 b6 3d
       0.09309424 -0.0015800077 0.00589319 0.0888709

model.2.running_mean f4 [32]
000000 5c 82 76 40 e9 eb 4e 40 c3 38 4d 40 84 ba 57 40
       3.8517065 3.2331488 3.2065895 3.370759
000010 0a 2f 72 40 94 f9 86 40 e9 e7 66 40 0c 85 0d 40
       3.784121 4.217966 3.6079047 2.2112455
000020 10 65 73 40 cc 80 49 40 b4 9b 95 40 b5 96 84 40
       3.8030434 3.1484861 4.6752567 4.143397
000030 ce 2b 86 40 a1 fe 34 40 45 08 6f 40 13 57 89 40
       4.1928473 2.8280413 3.7348797 4.291879
000040 39 b7 4c 40 d2 4c 77 40 a4 37 1d 40 da 58 53 40
       3.198683 3.8640637 2.456521 3.302298
000050 30 02 72 40 5f 11 52 40 14 c0 98 40 52 56 86 40
       3.7813835 3.2823102 4.773447 4.198037
000060 f7 88 82 40 85 e0 43 40 54 53 84 40 cc 6b 6f 40
       4.0792193 3.0605786 4.135172 3.7409544
000070 a8 9b 5f 40 ce 68 61 40 8c 35 65 40 ba 93 37 40
       3.4938755 3.5220218 3.5813932 2.8683915

model.2.running_var f4 [32]
000000 a7 29 32 42 30 6a db 41 df 1d d4 41 38 c5 1f 42
       44.540676 27.42685 26.514585 39.942596
000010 13 10 42 42 8b 7a 10 42 f8 98 82 42 5c 19 94 41
       48.515697 36.11967 65.29877 18.512383
000020 d1 cc 16 42 89 57 da 41 24 a0 4a 42 40 ec 83 42
       37.700016 27.292742 50.656387 65.961426
000030 81 dd 93 42 12 6c 0b 42 6e fe 5d 42 16 89 30 42
       73.932625 34.855537 55.498466 44.133873
000040 e5 64 23 42 fd a0 85 42 04 c7 ad 41 38 7a 16 42
       40.84853 66.81443 21.722176 37.619354
000050 51 ec 1f 42 bc 69 03 42 34 bf 58 42 85 d0 7c 42
       39.980778 32.853256 54.18672 63.203632
000060 1a c9 1a 42 df 9b c2 41 fc 63 3a 42 45 d8 58 42
       38.69639 24.326109 46.59764 54.2112
000070 de 8a 8a 42 f3 19 06 42 68 2c 00 42 c5 28 f4 41
       69.271225 33.52534 32.043365 30.519907

model.3.weight f4 [16, 32]
000000 86 6a 08 3e 23 04 d4 3d 99 87 2b bd b0 52 1b be
       0.13321885 0.103523515 -0.041877363 -0.15168262
000010 5d d1 39 3e 48 3f 04 be f3 70 70 bd 78 31 89 3c
       0.18146272 -0.12914765 -0.058701467 0.016747221
000020 89 13 0c 3d d5 6c e5 3b 0a 98 8e 3d fe f9 d1 3d
       0.034198318 0.007001499 0.06962593 0.1025276
000030 a6 8e 4b bd 73 dd 1a 3e bf 85 d3 3c 32 5d 26 bc
       -0.049696587 0.15123539 0.025820611 -0.010154055
000040 9c a2 e0 bd b0 43 bb 3d a5 1a 69 3e 97 d2 95 bd
       -0.10968515 0.0914377 0.2276407 -0.073155575
000050 64 58 bf 3d 1c c9 9f bc 2b 1f f1 bd 5f 8f 3e be
       0.09343031 -0.019505076 -0.11773523 -0.18609379
000060 0e a0 85 bd 61 bd 9c 3c 69 fb ed 3d fa 21 79 be
       -0.06524669 0.019133272 0.11620218 -0.24329367
000070 ec 3a 30 3e 8e 2f f5 3d a9 9c 09 be 39 1e 9b 3c
       0.17209977 0.11971961 -0.13438667 0.01893531
000080 35 9a 11 3e c0 29 be 3c a6 44 3f be c2 ef ec 3d
       0.14218982 0.023213267 -0.18678531 0.11569168
000090 82 07 63 ba 1f 6a 8c bd 6e bf e1 3d c5 47 66 3e
       -0.00086604815 -0.068561785 0.110228404 0.22488315
0000a0 5b 12 77 3d 51 67 9c bd ae 90 60 3d ad b7 33 3c
       0.06032024 -0.076368935 0.054825477 0.010969085
0000b0 8e 77 05 3e 35 4b 17 3c a0 8e 19 be 30 07 cb bd
       0.13033888 0.009234239 -0.14995813 -0.0991348
0000c0 18 90 39 3d a2 26 fa bc 56 64 84 3d 6b 90 1e 3e
       0.045303434 -0.030536 0.0646445 0.15484779
0000d0 12 4b 06 be 99 de 2e be b2 ea ea bd d9 3c e4 bc
       -0.13114575 -0.17077102 -0.11470546 -0.027861046
0000e0 c0 ae 0c bd 26 e4 6b bc 84 56 cc bd 88 d2 78 3d
       -0.034346342 -0.014397657 -0.09977439 0.060747653
0000f0 7e db 27 3e 5b df 7c bd c4 26 f3 3d a6 90 e2 3d
       0.16392323 -0.061736446 0.11872628 0.11062746
000100 ae 5d 4b bc be 7a 33 3d 71 8b 89 bd fb 56 51 bd
       -0.012412472 0.043818228 -0.067160495 -0.05110834
000110 77 17 ae bd 9c 08 16 3e 46 7c fa 3c b4 8a 83 bd
       -0.08500569 0.14651722 0.030576836 -0.0642294
000120 7f 30 fd 3d e7 86 cc 3d 3d 01 ca 39 d9 63 67 be
       0.123627655 0.09986668 0.00038529365 -0.22596683
000130 b3 b9 dd bd b3 da 42 be 12 42 8a 3c 16 80 04 bc
       -0.10826435 -0.1902874 0.016877208 -0.008087179
000140 7c 66 76 bd ed 8a d0 3d 69 cb d7 bd 8f 33 c7 3c
       -0.06015633 0.10182748 -0.10536844 0.024316577
000150 bf 25 1a 3b 75 3f 33 be 77 26 06 3d 7b 16 48 3e
       0.0023521034 -0.17504676 0.032751527 0.19539826
000160 bf bb b8 bd 83 4d 1d be d2 8e ce 3d 43 bc 0a 3e
       -0.09020185 -0.153616 0.100858346 0.13548379
000170 80 64 16 3e 4b b7 38 ba 33 c6 4f 3d 12 f1 82 bd
       0.14686775 -0.0007046356 0.050726127 -0.06393637
000180 e4 88 42 be 9c 05 f8 bd d7 62 00 3e bc ce f3 bd
       -0.18997532 -0.12110445 0.12537704 -0.11904666
000190 7e c9 cd 3c bc 78 07 3e 9f 01 3b bd bf 5f 31 bd
       0.025120493 0.1322965 -0.045655843 -0.0433042
0001a0 1d e1 6c 3c f6 aa a9 bd eb 68 45 3d 9d f6 31 be
       0.014457968 -0.08284561 0.04819576 -0.17379232
0001b0 8f 05 e0 3c 98 53 08 be f8 3c 78 be 90 f3 1d 3e
       0.0273464 -0.13313138 -0.24242008 0.15424943
0001c0 ca 9b 6d bd e6 c1 fc bd e5 fe 52 3e 80 61 2d be
       -0.0580099 -0.12341671 0.20605047 -0.16931725
0001d0 0f fa 76 bd e1 12 01 3d b2 1a 10 3e 01 74 22 bd
       -0.06029707 0.031512145 0.14072683 -0.03966141
0001e0 9c 82 38 bd 03 a6 31 3d 72 ff 1e be 77 83 c8 3d
       -0.045046434 0.04337121 -0.15527132 0.097907
0001f0 6d 8b 41 be c1 a2 89 bc 0a f2 87 3d 6a 27 4c bd
       -0.18900843 -0.01680124 0.06637962 -0.049842276
000200 0d 64 b9 bd f2 84 f6 bd db 0e 0c 3e 00 24 ea 3d
       -0.09052286 -0.12037076 0.13677542 0.11432648
000210 e6 89 15 bd 01 25 09 3d 3b 37 53 3b 3d b8 f0 3c
       -0.036508463 0.033482555 0.0032228965 0.029384727
000220 ab 1d 10 be 7c c0 e9 bd 61 90 7a bd e6 be 27 3e
       -0.14073817 -0.114136666 -0.061172847 0.16381416
000230 6e 83 22 be 62 e3 d8 3d 3b 48 51 bd 2a 51 2f 3e
       -0.15870449 0.10590245 -0.051094275 0.17120805
000240 1e 2a 16 3d 5b 0c e6 3c d2 ec fc 3b e6 af 94 3d
       0.03666126 0.028082063 0.007718661 0.072601125
000250 cb 84 37 be c3 a5 f3 3c ee 2d 73 3c 84 d5 e4 3d
       -0.1792175 0.029742127 0.014842493 0.111735374
000260 45 8d 18 3e 74 b8 2c 3d 8d 18 ae 3d e6 bc 62 bd
       0.1489764 0.042168096 0.085007764 -0.05535593
000270 87 df 42 3d 9c 15 4c 3d 1f 9b 89 bc 11 50 cb 3d
       0.047576454 0.049825296 -0.0167976 0.09927381
000280 4f a4 48 3d f2 33 9b bd 08 89 1f 3b 8f e4 cb 3d
       0.048984822 -0.07578267 0.0024343152 0.099557035
000290 61 70 21 bd bb 93 7a bd 7f 44 ec 3d ab ef 0e bd
       -0.039413814 -0.061176043 0.11536502 -0.034896534
0002a0 e2 04 9a bd 6c 2e cd bd bc 04 07 bd 09 b3 d7 3d
       -0.075204626 -0.1001862 -0.0329635 0.10532195
0002b0 f8 b9 8c bd 4f 33 ab 3c b3 08 31 3c e1 5c f5 3d
       -0.06871408 0.02089849 0.010805297 0.11980606
0002c0 4f 7c 8d 3d de b2 fa bc 1b 2a db bd 40 bc d1 bc
       0.069084756 -0.030602869 -0.1070139 -0.02560246
0002d0 69 73 38 3e b6 78 15 bb 86 70 6c 3d d6 d9 1c 3d
       0.18012775 -0.0022807545 0.0577245 0.038293682
0002e0 5f fa 65 bd 49 1c 00 be 1d fb f3 3c 27 7e dc 3d
       -0.056146976 -0.1251079 0.029782826 0.10766249
0002f0 a1 bd 34 3e 38 ac c3 bd 7c bc a8 bd 24 8e 8f 3d
       0.17650463 -0.095543325 -0.082390755 0.07009533
000300 8e 9a cc bd 94 75 ae ba 40 5d a7 3c 9d 7c 59 3d
       -0.099904165 -0.0013310187 0.020430207 0.053097356
000310 77 a4 8e 3d e9 6e 4e be db 94 85 bd bd 4f 27 bd
       0.06964963 -0.20159496 -0.065225326 -0.04084753
000320 17 6d 79 bd 5c 30 b7 bb 76 a4 06 be f0 e7 2a 3d
       -0.06089505 -0.0055904817 -0.13148674 0.0417251
000330 d6 45 62 3e 20 7b 48 3d 60 6b ef bd 6f 0e 8e bd
       0.22096953 0.048945546 -0.11690402 -0.06936347
000340 d7 3a 7c 3d e7 34 a5 3d 11 1d 7a 3d 90 50 ef 3c
       0.06157955 0.08066731 0.061062876 0.02921322
000350 0b f1 a6 bd 63 04 d5 3d a9 d4 5e bd 7e 15 9f bc
       -0.08151444 0.10401227 -0.054402027 -0.019419428
000360 d9 56 30 be 08 c9 84 bd fa af 88 bc e8 ca 09 3e
       -0.1722063 -0.06483656 -0.016685475 0.13456309
000370 55 d2 ab 3d 69 fe 13 be aa 7c 25 be 72 30 81 bd
       0.08389727 -0.14452519 -0.16160837 -0.06308068
000380 15 1f ac 3d f5 4d f2 3c 81 06 28 bd dc 37 b0 bd
       0.08404366 0.029578188 -0.041021828 -0.08604404
000390 f2 e1 c5 bb 68 7b 38 be ed 56 59 3c 46 f4 06 bc
       -0.0060388977 -0.18015826 0.013265354 -0.00823695
0003a0 7a 5a 68 3c 62 d9 d4 3c 10 d1 99 bd 06 e4 f7 bd
       0.014181728 0.025982562 -0.07510579 -0.12104039
0003b0 b4 28 03 3e 6a 1f e0 3d 64 70 6b 3d d9 f6 77 bd
       0.12808496 0.10943492 0.05748023 -0.060538147
0003c0 ae ed 85 3e 2b 65 41 3e 4c 12 a5 3c 52 08 ca 3d
       0.26157898 0.18886249 0.020150326 0.09864868
0003d0 40 01 ae 3d 2c ad ad 3c 69 ea 15 be 87 2d 8b 3d
       0.08496332 0.021200739 -0.14640202 0.06795793
0003e0 fd a6 ae bd ee f2 c2 3c 92 19 99 3d 83 e6 d1 3d
       -0.08527944 0.023797479 0.0747558 0.10249045
0003f0 01 52 67 3e ab ce 1f bd c4 02 07 be 31 ad 22 bd
       0.22589876 -0.039015453 -0.13184649 -0.03971595

model.3.bias f4 [16]
000000 d0 cf 81 bd 68 5d 01 3e 2e 4e c2 bd a8 aa e8 3b
       -0.06338465 0.12633288 -0.09487568 0.007100422
000010 ac b0 d8 bd b2 44 c6 3d b7 06 09 bd 88 b5 57 3d
       -0.105805725 0.09681071 -0.03345367 0.052663356
000020 e4 06 b5 3d 23 cc 88 3d c1 3d 72 3d 52 3d 82 bd
       0.08839205 0.06679561 0.059140924 -0.06359352
000030 db e7 bd bb b9 f9 eb 3c f4 00 17 bd 94 a0 06 3e
       -0.0057954616 0.0288056 -0.036866143 0.13147193

model.5.weight f4 [16]
000000 01 3b 7e 3f ce 73 82 3f 2f f2 86 3f 0c c4 7a 3f
       0.9930878 1.0191591 1.0542659 0.97955394
000010 bd 25 74 3f 01 98 7b 3f 6c c3 7c 3f 36 64 95 3f
       0.95370084 0.98278815 0.9873569 1.1671207
000020 40 06 82 3f ca c4 6d 3f 9a d3 80 3f 9d 38 81 3f
       1.0158157 0.928784 1.0064576 1.0095402
000030 16 c0 7c 3f f8 3f 68 3f 79 09 76 3f 68 1e 80 3f
       0.987306 0.9072261 0.96108204 1.0009279

model.5.bias f4 [16]
000000 10 b7 24 3e 8f eb ad 3d 66 bc 05 3e c7 f5 31 be
       0.16085458 0.08492195 0.1306015 -0.17378913
000010 7f cd 3f 3e 4c e8 58 3b 43 25 08 be 91 ac 1f be
       0.18730734 0.0033097444 -0.13295464 -0.15593173
000020 b2 95 ea 3c 9d 52 6d bc 6b bc e7 bd 49 df fd 3d
       0.028635833 -0.014485029 -0.11315235 0.12396104
000030 8d 49 8f 3d fb f0 a3 be 44 16 12 3e 86 c7 f4 3d
       0.069964506 -0.3201979 0.14266306 0.119521186

model.5.running_mean f4 [16]
000000 14 b9 72 3e 8f bd a7 3e cf 68 24 3e a0 b7 66 3e
       0.23703414 0.3276181 0.16055606 0.22530985
000010 4e 12 2e 3e a0 be 6f 3e fa 6e 17 3e f1 e0 85 3e
       0.1699917 0.23412561 0.14788428 0.2614818
000020 83 cb 42 3e a8 b3 82 3e 4f cc 6b 3e b7 b8 3a 3e
       0.19022946 0.25527692 0.23027156 0.18234526
000030 ea 2e 31 3e 1c da 4f 3e 47 b1 93 3e 91 e3 98 3e
       0.17303053 0.20298046 0.2884619 0.2986112

model.5.running_var f4 [16]
000000 52 94 57 3e 49 ce 8c 3e 24 55 dd 3d 92 c0 95 3d
       0.21052673 0.27501133 0.10807255 0.073121205
000010 7f d0 0e 3e e7 8d 59 3e 5e 64 92 3d 70 e9 9c 3e
       0.13946722 0.21245538 0.0714805 0.3064685
000020 ee 25 e2 3d a0 3a 18 3e 65 3b 94 3e ef bb f6 3d
       0.11042391 0.14866114 0.28951564 0.12047564
000030 6c bf 40 3d 56 ce 6e 3d 8a 80 c9 3e 73 b3 b4 3d
       0.047057554 0.058302246 0.3935588 0.0882329

model.6.weight f4 [8, 16]
000000 f1 30 e2 bd 46 e9 99 be 29 79 9b bd f4 6e e4 3d
       -0.11044491 -0.30060786 -0.07591469 0.11153975
000010 49 d0 5e be 80 40 05 3d 5c 3c 11 be ba 84 52 bd
       -0.21759142 0.032532215 -0.14183182 -0.05139611
000020 0e 25 1d be 09 74 01 3d d8 0d 07 be 56 60 85 bd
       -0.15346166 0.0316048 -0.13188875 -0.06512515
000030 16 94 a8 3d f1 e5 19 3e c5 91 ba 3c 6b d8 be 3d
       0.0823137 0.15029122 0.022774586 0.09318622
000040 47 57 f4 3d 0d 03 e9 bd ad ac 7d 3e 07 c3 63 be
       0.11930709 -0.11377535 0.24772902 -0.22242366
000050 5b 0c 17 3e bc 2d 02 be 29 de 14 3e da 39 84 bc
       0.14750807 -0.12712759 0.14537872 -0.016140867
000060 58 4d 82 be 49 47 95 3d f6 8f 1a 3e f9 56 7b 3c
       -0.25449634 0.07288987 0.15093979 0.01534056
000070 bc 17 bc 3d 20 5c 34 be d2 30 8f bd 5a 44 5d 3e
       0.091842145 -0.17613268 -0.069917336 0.21608105
000080 5b e8 a4 bd c6 44 2a 3d 0c 10 b3 3c d1 0e 5e be
       -0.08052131 0.041569494 0.021858238 -0.2168534
000090 13 5d 6a 3d c2 6c 90 3d 98 57 6a 3e a4 de 6b 3e
       0.05721767 0.07051994 0.22884977 0.2303415
0000a0 cf 5a 6e bd ea ca 8d bd 90 e6 00 3e c4 82 06 bd
       -0.05819207 -0.069234684 0.12587953 -0.03283955
0000b0 81 76 b1 be ff 0b 92 3c cb 02 34 3d 45 67 35 be
       -0.34660724 0.017827986 0.043947976 -0.17715175
0000c0 26 d4 00 bc 60 0a 32 3e bd 6a 34 be 2d 1f 86 3c
       -0.00786308 0.1738677 -0.17618842 0.016372288
0000d0 78 a7 06 bc 1c cb 86 bd 13 ec 07 3e 6d 72 1b be
       -0.008218639 -0.06581709 0.13273649 -0.15180369
0000e0 23 c4 6e 3e e9 7a fd bd 80 49 1e be 91 da 8d 3d
       0.23317008 -0.12376959 -0.15457726 0.06926454
0000f0 0b 16 1c be cd dc a8 3b c4 84 c7 bd f2 18 35 be
       -0.15242784 0.0051532746 -0.0974212 -0.17685297
000100 a0 72 b7 bd e6 6b 36 be af 33 1f 3e 4a f7 88 bd
       -0.0895741 -0.17814597 0.1554706 -0.06687792
000110 0d 85 23 be 8d 1c 98 bc b0 22 89 be 3c 8e 14 3c
       -0.15968724 -0.018568302 -0.26784277 0.009067114
000120 de f4 aa bd 79 0f c3 3d 35 43 80 3d 5c 4f 6c be
       -0.08347486 0.095244355 0.06262819 -0.23077148
000130 4d bb d1 3d 45 2a 31 be 42 ba 6d be 51 4a 99 3d
       0.10240803 -0.17301281 -0.23215583 0.07484878
000140 3e d0 0e 3c 06 10 15 3d bb 59 f6 bd c5 64 d0 3c
       0.008716641 0.036392234 -0.120288335 0.025438676
000150 0e b7 1e 3e 53 0e 64 be 5a 4d db bd 8d 51 71 be
       0.15499517 -0.2227109 -0.10708113 -0.23566265
000160 15 96 9e b9 cf a5 20 3d 71 37 93 be d3 39 10 3d
       -0.00030247928 0.039220627 -0.28753236 0.035211395
000170 ec a0 e4 bc e4 94 09 bd 6c a8 97 bd ee 26 d2 bc
       -0.027908765 -0.03358926 -0.07405171 -0.025653329
000180 71 dd 71 3d 24 9e 41 bd 76 bf 84 bd af b2 5c 3d
       0.059049074 -0.047269955 -0.06481831 0.053881343
000190 f7 94 7d 3c 80 24 e6 bd 3e 77 24 be d2 bf 9a be
       0.0154774105 -0.112374306 -0.16061112 -0.30224472
0001a0 46 33 2d 3e 88 d4 c1 bc 0e 82 7b be c8 ed 74 3c
       0.1691409 -0.023660913 -0.2456133 0.01494927
0001b0 34 99 5a bd 1c c5 34 3d 8a 2b e3 bd 5a 14 15 be
       -0.053368762 0.04413329 -0.11092289 -0.14558545
0001c0 5f 46 7c be 95 83 51 be 03 94 4c be 46 72 30 3e
       -0.2463622 -0.20460351 -0.19978337 0.17231092
0001d0 f8 90 2d be ca 6b 68 be 03 72 d6 3d 1a 68 e0 3d
       -0.16949832 -0.22697368 0.10470965 0.10957356
0001e0 bb 4b 17 be 73 4b 8a 3d e2 ff dd 3c 39 3f 0c be
       -0.14774983 0.06752672 0.027099553 -0.13695993
0001f0 d2 9c 88 ba 0a 63 1b 3e a8 55 fb bd 96 85 b2 bc
       -0.0010422713 0.15174499 -0.12272197 -0.021792214

model.6.bias f4 [8]
000000 06 8b 93 3d c2 1f d6 3d 0e 65 30 3e 89 d1 3a 3e
       0.07204251 0.10455276 0.1722605 0.18243994
000010 48 c0 4f 3e a6 28 88 bd cf 37 22 bd 14 eb 86 bd
       0.20288193 -0.06648378 -0.039604004 -0.06587806

model.8.weight f4 [8]
000000 c1 74 c9 3f c0 b9 ae 3f 90 7a dd 3f e1 ba c3 3f
       1.5738755 1.3650436 1.7303028 1.5291406
000010 01 72 c7 3f b5 ee c2 3f 53 57 bf 3f 71 9e d8 3f
       1.5581666 1.5229098 1.4948524 1.6923352

model.8.bias f4 [8]
000000 f9 47 a7 3d 0d 16 79 bd bc 80 2c be 8f 80 f6 bd
       0.081680246 -0.060812045 -0.16845983 -0.12036239
000010 1a 6c 09 3e 40 8c 2f 3e 39 a9 30 3e 03 6c 1c be
       0.13420144 0.17143345 0.17252053 -0.15275578

model.8.running_mean f4 [8]
000000 b6 3d 97 3e 63 fd af 3e 5b 83 cc 3e 6b a4 86 3e
       0.2953927 0.34373006 0.39943966 0.26297316
000010 54 a1 d0 3e ce 19 86 3e 7d 86 86 3e 0c c8 e3 3d
       0.40748084 0.26191562 0.2627448 0.1112214

model.8.running_var f4 [8]
000000 16 91 e4 3d 11 da 13 3e a8 a1 d9 3e 79 b5 e9 3d
       0.111604854 0.14438654 0.42506146 0.11411566
000010 47 51 0e 3e 91 7c 3a 3d 38 d2 80 3d 11 5c 09 3d
       0.13898192 0.045528952 0.06290096 0.033535067

model.9.weight f4 [4, 8]
000000 7e c5 0d bf 6c ff c5 3e 59 63 28 3f 97 8b 9b 3e
       -0.55379474 0.38671434 0.6577659 0.30379936
000010 ec 5f 43 bf 56 51 4c bf 0d 15 37 bf f2 5a 57 be
       -0.7631824 -0.7981161 -0.71516496 -0.21030787
000020 f9 3f 00 3f 21 46 63 be 63 c4 48 be 53 6e 7c bd
       0.50097615 -0.22194721 -0.19606166 -0.06162865
000030 46 15 07 3e 89 92 7d 3e 4f 20 73 bd 5b d7 76 3f
       0.13191709 0.2476293 -0.059356984 0.96422356
000040 f1 e2 b6 be 7c 3c f0 be 01 29 99 be d8 fb 19 3f
       -0.35720018 -0.46921146 -0.29914096 0.6014991
000050 ba be 99 be 90 4c c4 3e b9 c0 0f 3f 15 52 0a bf
       -0.30028325 0.38339663 0.56153446 -0.540315
000060 b6 2c f5 3d 8b ac b1 3e a5 8d f3 be 82 87 cf be
       0.119714186 0.34701952 -0.47569004 -0.40533072
000070 68 69 dd 3e 7b d5 da bd 68 e9 9b be 8e c6 c1 be
       0.4324448 -0.106852494 -0.30451512 -0.37846798

model.9.bias f4 [4]
000000 7d f7 d6 be ce 1f 77 be 06 a4 70 be 12 ff 31 3e
       -0.41985694 -0.24133226 -0.2350007 0.17382458
