saved_models/MLP/ckpt__epoch100.ckpt (torch, 18336 bytes, 20 tensors)

model.0.weight f4 [32, 64]
0	0xbbf525fc	-0.0074813347
1	0xbcdea3fa	-0.0271778
2	0xbe846b33	-0.25863037
3	0xbdad2213	-0.08453765
4	0x3d7e21f9	0.062044118
5	0xbdd41336	-0.10355227
6	0xbd9cb05f	-0.076508276
7	0x3d1db4ab	0.038502377
8	0xbcb43cb7	-0.022001607
9	0x3d211a8e	0.039331965
10	0x3e8942a3	0.26808652
11	0x3c72264a	0.014779637
12	0x3c9f0a61	0.019414129
13	0x3d42ba33	0.047540855
14	0xbddd17a2	-0.10795523
15	0x3d9c65b9	0.076365896
16	0x3d4d51f7	0.050126996
17	0xbcb2945c	-0.021799259
18	0xbe1523ef	-0.14564489
19	0x3d2f738f	0.042834815
20	0xbbfe480c	-0.0077600535
21	0xbd72e196	-0.059297167
22	0x3cad45e0	0.021151483
23	0xbb3c85ec	-0.0028766347
24	0x3da5a0df	0.08087324
25	0xbd26a305	-0.04068281
26	0xbb80e89d	-0.0039339797
27	0x3e2264f6	0.15858826
28	0xbd95124d	-0.07278881
29	0x3d5d2a4b	0.05399541
30	0xbced4076	-0.028961401
31	0xbda5678b	-0.0807639
32	0x3d82ba11	0.063831456
33	0xbdffefcc	-0.124969095
34	0xbd9a49b6	-0.075335905
35	0xbd0b7996	-0.0340515
36	0xbd3b678e	-0.045753054
37	0x3cf10bf7	0.02942465
38	0x3dfffa63	0.12498929
39	0xbdba8b8e	-0.09108649
40	0xbc41e51d	-0.01183441
41	0xbdc33384	-0.0953131
42	0x3ae54f72	0.001749499
43	0xbde30bd8	-0.110862434
44	0x3d454d5e	0.048169486
45	0xbd926fea	-0.07150252
46	0xbcd17154	-0.025566734
47	0x3d3cb15e	0.046067588
48	0x3bae8f1a	0.0053271176
49	0x3e3e27b3	0.18569832
50	0xbcc79422	-0.024362627
51	0xbcc2fc6b	-0.023802003
52	0x3c0273eb	0.007962207
53	0x3c753e60	0.014968485
54	0x3d511da0	0.051053643
55	0xbdc5fe9e	-0.09667705
56	0x3b534725	0.003223845
57	0x3c790469	0.015198805
58	0xbdd383dc	-0.103278846
59	0xbe2e4125	-0.17017038
60	0x3da2b0ad	0.079438545
61	0xbe04d0cb	-0.12970273
62	0xbdfa6bc4	-0.12227586
63	0x3d209d48	0.039212495
64	0xbceb1a38	-0.028699026
65	0x3b979cb7	0.004626836
66	0x3c7f4f6a	0.015582899
67	0xbd68912d	-0.056779075
68	0xbcd9ec15	-0.02660183
69	0xbce5bcad	-0.02804407
70	0xbdf275ca	-0.11838873
71	0x3d5eee5c	0.054426536
72	0xbddc4297	-0.107548885
73	0xbca0c422	-0.019624773
74	0x3ddcf53e	0.10788964
75	0x3d73488b	0.059395354
76	0xbd18908f	-0.037247237
77	0xbd01606d	-0.0315861
78	0x3dd976af	0.1061834
79	0xbca10528	-0.019655779
80	0xbcbbae2d	-0.022910202
81	0xbbaebb58	-0.0053323917
82	0xbd832e8e	-0.06405364
83	0x3b889e68	0.004169274
84	0xbc06390f	-0.008192315
85	0xbcc188ce	-0.023624804
86	0xbb48311a	-0.0030546845
87	0xbd6a613d	-0.05722164
88	0x3b7b76df	0.0038370413
89	0xbd3103c8	-0.043216497
90	0x3e0ceaab	0.13761394
91	0xbda005c1	-0.078135975
92	0xbc978230	-0.018494695
93	0x3d9c3203	0.076267265
94	0xbd025b15	-0.031825144
95	0x3db82e5a	0.08993216
96	0x3bc1b2d9	0.005911213
97	0xbe0429cf	-0.12906574
98	0xbdd73442	-0.10508014
99	0xbe0af115	-0.13568528
100	0x3dde0706	0.10841183
101	0xbe40bdfe	-0.18822476
102	0xbc241eaa	-0.0100170765
103	0xbc8c6daf	-0.017142145
104	0xbd00bd09	-0.031430278
105	0x3d38a1d8	0.04507622
106	0x3df96e97	0.121792965
107	0x3cb9c2c0	0.022675872
108	0xbd50649c	-0.0508772
109	0x3e34dee5	0.17663153
110	0xbc9744c5	-0.018465409
111	0x3c8b34da	0.016992975
112	0x3d195586	0.037435077
113	0x3d240ce3	0.040051352
114	0x3e23f30e	0.16010687
115	0x3d5799ac	0.052636787
116	0x3d0ce43c	0.03439735
117	0x3db95afb	0.09050556
118	0xbe2aa6f8	-0.16665256
119	0xbd8b040f	-0.067878835
120	0x3ce140dc	0.027496748
121	0x3dfef101	0.124483116
122	0xbd580cff	-0.05274677
123	0x3e1f6d6c	0.15569085
124	0x3c0af542	0.008481326
125	0x3d40f3c3	0.04710747
126	0x3dba3af8	0.09093279
127	0xbbfad82f	-0.0076551656
128	0xbbb467ef	-0.005505554
129	0xbc632943	-0.013864818
130	0x3d94b608	0.07261282
131	0xbcf77a44	-0.030209668
132	0x3c4b26f5	0.012399425
133	0xbc616c6a	-0.013758758
134	0xbcc9a570	-0.02461502
135	0x3ccca17e	0.02497935
136	0xbd858593	-0.06519618
137	0x3c824d95	0.015906135
138	0x3d5b882b	0.053596657
139	0xbd6fe571	-0.05856842
140	0x3db5ae74	0.08871165
141	0xbe530340	-0.20606709
142	0xba0a11b3	-0.00052669196
143	0x3b9d7136	0.0048047556
144	0x3cdd3fda	0.027007986
145	0xbd0083a3	-0.03137554
146	0x3cc1c79f	0.023654757
147	0x3c817e73	0.015807366
148	0x3c9c66d0	0.019091994
149	0x3ddf6b10	0.109090924
150	0x3cf7ce15	0.030249635
151	0xbc40a397	-0.011757753
152	0x3d4a4960	0.049386382
153	0xbdad8978	-0.08473486
154	0x3d91359e	0.07090305
155	0x3c097d38	0.008391671
156	0xbd6dad2c	-0.058026478
157	0xbdf09ece	-0.117490396
158	0x3d8f5d23	0.07000186
159	0xbc7ac1ee	-0.0153050255
160	0x3d76b50e	0.06023126
161	0x3dbc1b53	0.09184899
162	0x3d637a08	0.0555363
163	0xba68e28c	-0.0008883856
164	0x3dd34400	0.10315704
165	0x3e2f185b	0.17099135
166	0xbcbbe98d	-0.022938514
167	0x3baf635e	0.0053524217
168	0xbd5460da	-0.051850177
169	0x3db71978	0.08940405
170	0xbbe5d0c8	-0.007013414
171	0xbd8c9a89	-0.06865413
172	0x3d568f8e	0.052383
173	0x3d76bfbb	0.060241442
174	0x3c8eda98	0.017438218
175	0xbd1a489e	-0.03766691
176	0xbd3aecc1	-0.045635942
177	0xbd5b9d68	-0.05361691
178	0xbd9440b9	-0.07238907
179	0x3c19c273	0.009384739
180	0x3c93bbdc	0.018033914
181	0xbe3a448d	-0.18190213
182	0xbc219fa1	-0.009864719
183	0x3d2868e5	0.04111566
184	0x3c96a52b	0.018389305
185	0xbce60328	-0.028077677
186	0xbd1e4b16	-0.038645826
187	0x3abfee23	0.0014643114
188	0xbd56f55c	-0.052480087
189	0xbd4ddfad	-0.050262142
190	0xbbccab49	-0.0062460047
191	0xbd75de94	-0.06002672
192	0xbc5e46dc	-0.013566699
193	0x3ddf98ef	0.10917842
194	0xbd13c83c	-0.03607963
195	0xbd535bf0	-0.05160135
196	0x3cbf0019	0.023315476
197	0xbba16502	-0.004925371
198	0xbdbb0205	-0.091312446
199	0x3b3a97d6	0.002847185
200	0xbd421852	-0.047386475
201	0xbd1b5415	-0.037921984
202	0xbe1ae294	-0.15125495
203	0x3c1a596c	0.009420734
204	0x3d0b8ef2	0.03407187
205	0xbd5aa36f	-0.05337852
206	0xbd053688	-0.03252271
207	0x3d2cfe68	0.04223481
208	0xbbfcd8a5	-0.0077162557
209	0xbe4ef052	-0.20208862
210	0xbd681f49	-0.05667046
211	0x3d9f57b1	0.07780398
212	0x3b896b9f	0.0041937376
213	0xbcdd9eb7	-0.02705322
214	0x3ca28116	0.019836944
215	0x3d24dbc2	0.04024864
216	0xbc3a4cb9	-0.011370831
217	0x3e97b802	0.29632574
218	0x3d665412	0.05623252
219	0x3d0f434e	0.034976296
220	0xbd02828b	-0.031862777
221	0x3cf22805	0.029560098
222	0x3c90a2bf	0.017655728
223	0x3cabd723	0.020976609
224	0x3c111c56	0.0088568535
225	0xbea385f6	-0.31938142
226	0xbc9a4436	-0.018831354
227	0x3d43b764	0.047782317
228	0xbcad3db4	-0.021147586
229	0xbc62cee9	-0.013843277
230	0x3c4cf011	0.012508408
231	0x3d275e70	0.040861547
232	0xbd409734	-0.0470192
233	0x3e9f2c6b	0.31088576
234	0xbd5137cd	-0.051078606
235	0x3c69da3e	0.014273224
236	0xbccd5350	-0.02506414
237	0x3d499b47	0.04922035
238	0xbd88b9e3	-0.0667608
239	0x3d6acf28	0.057326466
240	0xbd7296fb	-0.059226017
241	0x3d623b06	0.05523207
242	0xbdd5d6fa	-0.10441394
243	0x3b9ad5f0	0.0047252104
244	0x3d0c0a1b	0.034189325
245	0xbd4915ac	-0.049092934
246	0xbd69371e	-0.05693733
247	0x3d998051	0.074951775
248	0xbbbff1ab	-0.0058576665
249	0x3d84d346	0.0648561
250	0x39e69fc1	0.00043988044
251	0x3d1963f1	0.037448827
252	0x3c9570d2	0.018242273
253	0xbc024a6c	-0.007952314
254	0xbbecc80e	-0.007225997
255	0x3d4a227b	0.04934929

model.0.bias f4 [32]
0	0x3d718ce3	0.05897225
1	0x3e2262f6	0.15858063
2	0xbc46f37e	-0.012143014
3	0x3df13717	0.11778086
4	0x3cc2858f	0.023745326
5	0xbd9cfc47	-0.076653056
6	0x3d84b5cb	0.06479987
7	0x3c81667b	0.015795937
8	0xbce7f0cd	-0.028313065
9	0xbe7c09a9	-0.2461306
10	0xbdb20b09	-0.08693511
11	0x3d5f2fa3	0.05448879
12	0xbdd16337	-0.10224002
13	0xbe35685e	-0.17715594
14	0x3e822e11	0.2542577
15	0xbe46e30a	-0.19422546
16	0x3e09c3c3	0.13453583
17	0xbd073f45	-0.033019323
18	0x3cc83b3d	0.02444231
19	0xbe15fac5	-0.14646442
20	0xbd405848	-0.04695919
21	0xbe08066f	-0.13283704
22	0xbdbcf770	-0.092268825
23	0x3d504376	0.050845586
24	0x3e15412f	0.14575647
25	0xbcc45521	-0.023966374
26	0xbcb11170	-0.02161476
27	0xbccb82bc	-0.024842612
28	0x3d3ed685	0.0465913
29	0x3d66f953	0.056390118
30	0xbd3abe7e	-0.045591824
31	0x3d1b3983	0.037896644

model.2.weight f4 [32]
0	0x3f80edad	1.0072533
1	0x3f859fd9	1.0439407
2	0x3f80c3e6	1.0059783
3	0x3f7aaa10	0.97915745
4	0x3f7fccaa	0.9992167
5	0x3f8a984d	1.0827729
6	0x3f8212b1	1.0161954
7	0x3f7e7c0b	0.99408025
8	0x3f81b419	1.0133086
9	0x3f80e51f	1.0069922
10	0x3f88d42f	1.0689753
11	0x3f6b6bd6	0.9196142
12	0x3f88b7f6	1.068114
13	0x3f835aa6	1.0262039
14	0x3f7139a8	0.942286
15	0x3f89f702	1.0778506
16	0x3f7be32f	0.9839353
17	0x3f7fba52	0.9989368
18	0x3f8270e8	1.0190706
19	0x3f81639d	1.0108525
20	0x3f78f5db	0.97250146
21	0x3f6e3740	0.93053055
22	0x3f7213b8	0.9456134
23	0x3f76df1e	0.964342
24	0x3f8036a1	1.0016671
25	0x3f758a5e	0.95914257
26	0x3f803920	1.0017433
27	0x3f7cceec	0.9875324
28	0x3f7bde67	0.98386234
29	0x3f8db68f	1.1071337
30	0x3f7180a7	0.9433693
31	0x3f8511b4	1.0396028

model.2.bias f4 [32]
0	0x3ce35583	0.027750736
1	0xbc375ad3	-0.011191088
2	0xbd04b8cc	-0.0324028
3	0x3d9c97cb	0.0764614
4	0xbcd4e9ad	-0.025990332
5	0xbcc78036	-0.024353128
6	0x3d65a0f6	0.056061707
7	0x3de0dfeb	0.10980209
8	0xbca886cf	-0.020572094
9	0x3d5a34cd	0.05327301
10	0x3ca57c17	0.020200772
11	0xbd365483	-0.04451419
12	0x3d30f5f3	0.043203305
13	0x3cebb8ae	0.028774586
14	0x3d3abb84	0.045588985
15	0xbdfcaaf1	-0.12337292
16	0xbc870e2e	-0.016486254
17	0xbd8f358b	-0.069926344
18	0x3d3d4ea1	0.046217564
19	0xbd964a33	-0.07338371
20	0x3cc6d122	0.024269644
21	0xbd3abda6	-0.04559102
22	0x3c555ee2	0.01302311
23	0xbdba4290	-0.09094727
24	0x3c84f075	0.01622794
25	0xbd4caf0d	-0.04997163
26	0xbcf98ada	-0.030461717
27	0xbd3f9eb9	-0.04678223
28	0x3dd6a890	0.104813695
29	0x3d2d1f82	0.042266376
30	0x3dc1f44c	0.09470424
31	0x3b86807d	0.0041046725

model.2.running_mean f4 [32]
0	0x407cc2d3	3.9493911
1	0x407b58a9	3.9272864
2	0x40991857	4.784221
3	0x4054d6b7	3.3256052
4	0x4083c6c3	4.118013
5	0x40392525	2.8928921
6	0x406c948a	3.696566
7	0x4057fab3	3.3746765
8	0x403fd6bc	2.9974813
9	0x4048d919	3.1382506
10	0x40293f7a	2.6444993
11	0x404a3560	3.1595078
12	0x40871d96	4.2223616
13	0x4021fbff	2.5310056
14	0x405f2a67	3.486963
15	0x404cb568	3.1985722
16	0x406d1ad2	3.704762
17	0x408ad4c1	4.338471
18	0x4031aff3	2.776364
19	0x403594d1	2.837208
20	0x405d169e	3.4545054
21	0x40868506	4.203738
22	0x40461641	3.0951083
23	0x406688de	3.6021037
24	0x4089ca85	4.3059716
25	0x4074e85a	3.8266816
26	0x404db233	3.2140014
27	0x4022bcc4	2.5427713
28	0x405f2665	3.4867184
29	0x40515726	3.270944
30	0x403c650a	2.943667
31	0x403c08e8	2.9380436

model.2.running_var f4 [32]
0	0x420c50fa	35.07908
1	0x42321116	44.516685
2	0x424df405	51.4883
3	0x4214c3df	37.19128
4	0x42236c5d	40.855824
5	0x41dd6a38	27.676865
6	0x420b2497	34.785732
7	0x424c9eab	51.15495
8	0x42082136	34.032433
9	0x421aa0b8	38.65695
10	0x41ce5e40	25.79602
11	0x41de14b9	27.760118
12	0x4242a5eb	48.66203
13	0x41c84ade	25.036556
14	0x41f5df07	30.7339
15	0x420a832c	34.628098
16	0x422c517f	43.079586
17	0x423dc0f2	47.438423
18	0x41f313f4	30.384743
19	0x41b22f85	22.273203
20	0x422b0677	42.756313
21	0x423b900a	46.890663
22	0x41d80ffc	27.007805
23	0x42162af4	37.541946
24	0x423faab4	47.916702
25	0x421d4950	39.321594
26	0x42122259	36.533543
27	0x41a2a17d	20.328852
28	0x4209f766	34.4916
29	0x42445b90	49.089417
30	0x41c6181b	24.76177
31	0x41e54c98	28.6624

model.3.weight f4 [16, 32]
0	0x3e46c753	0.19411974
1	0x3da03ffd	0.07824705
2	0xbd097579	-0.033559296
3	0xbd88ec92	-0.06685747
4	0x3e0b99ab	0.13632838
5	0xbe6290a0	-0.22125483
6	0xbde39f24	-0.11114338
7	0x3c5a3b96	0.01331987
8	0x3cc19407	0.023630155
9	0xbe5b72a2	-0.21430448
10	0xbd83da01	-0.06438065
11	0x3e01838d	0.12647839
12	0x3c921d60	0.017836273
13	0x3d645fa0	0.055755258
14	0x3c0140f1	0.007889018
15	0xbccf6bb0	-0.025319904
16	0xbe22264c	-0.15834922
17	0x3d1331e0	0.035936236
18	0x3dabb3ea	0.08383925
19	0x3e50082a	0.20315614
20	0xbdfaa586	-0.12238602
21	0xbd5a3338	-0.053271502
22	0xbdb61ea6	-0.088925645
23	0x3c8de865	0.017322728
24	0x3e54a132	0.20764616
25	0xbe4b1898	-0.198336
26	0xbde5b18c	-0.11215505
27	0x3ca866f8	0.020556912
28	0x3e18dee6	0.14928779
29	0xbddcf983	-0.10789778
30	0xbd662c2d	-0.056194473
31	0x3d340445	0.043949384
32	0xbd9c3885	-0.07627968
33	0xbe2fddaf	-0.1717441
34	0xbe1261c6	-0.1429511
35	0xbd9cdbc9	-0.07659108
36	0xbdc607aa	-0.096694306
37	0xbceb4cbe	-0.028723117
38	0xbd9b25cb	-0.07575568
39	0x3e204a55	0.15653355
40	0x3e54874d	0.20754738
41	0xbda2311a	-0.07919522
42	0x3e0c5458	0.1370405
43	0x3da519d9	0.08061571
44	0xbde19f9d	-0.11016772
45	0x3e338318	0.17530477
46	0xbc8421f0	-0.016129464
47	0x3e3e207d	0.18567081
48	0xbe53225c	-0.20618576
49	0xbd21d12f	-0.039506134
50	0x3e034816	0.12820467
51	0x3ded257e	0.11579417
52	0x3e153b16	0.14573321
53	0xbd853bfe	-0.06505583
54	0xbcebf568	-0.028803542
55	0x3d00d9c8	0.031457692
56	0xbe14c27a	-0.14527312
57	0x3d7c7a65	0.061640162
58	0x3dedda4f	0.11613905
59	0x3e0518eb	0.12997787
60	0xbe3cc291	-0.18433596
61	0xbca9aaa9	-0.02071126
62	0x3e1f4246	0.15552625
63	0x3d4c1264	0.049822226
64	0xbce5f99f	-0.02807313
65	0x3db87d81	0.09008313
66	0x3e25cdff	0.16191863
67	0xbe1201ba	-0.14258471
68	0x3dc5a8b2	0.09651317
69	0xbe44d3ca	-0.19221416
70	0x3d2dfee5	0.042479414
71	0xbe36655a	-0.178121
72	0xbdda9d13	-0.10674491
73	0xbe10e9a3	-0.14151625
74	0xbe6e4bfe	-0.23271176
75	0xbcf7efbe	-0.030265685
76	0xbc321255	-0.0108686285
77	0xbe37198d	-0.1788084
78	0x3ce4e362	0.027940456
79	0xbc8b369a	-0.01699381
80	0xbd2d60e9	-0.04232875
81	0x3dd5e656	0.10444324
82	0xbe7bc422	-0.24586537
83	0xbcc21876	-0.023693305
84	0xbd6fd689	-0.058554206
85	0x3e0a7c6a	0.13524023
86	0x3d881637	0.06644862
87	0x3dcc09da	0.099628165
88	0xbd144280	-0.03619623
89	0x3d6f1e64	0.058378592
90	0xbb3ecea3	-0.0029114864
91	0xbc370939	-0.011171632
92	0xbd0442c1	-0.032290224
93	0xbd92bad5	-0.07164542
94	0xbd6cc213	-0.05780227
95	0xbc3ad89e	-0.011404185
96	0xbd80381f	-0.06260704
97	0x3d904ea6	0.07046251
98	0xbde56dbf	-0.11202573
99	0x3d06de17	0.032926645
100	0xbe3d4bad	-0.184859
101	0x3d1d183d	0.038353194
102	0x3e415c48	0.18882859
103	0x3e2b080d	0.1670229
104	0x3c9d4e94	0.019202508
105	0x3deead3f	0.11654138
106	0x3bbf37c4	0.005835505
107	0xbda64a75	-0.0811967
108	0x3e2bb4a9	0.16768135
109	0x3d52a154	0.051423386
110	0x3d593df0	0.053037584
111	0xbe1e5296	-0.15461192
112	0x3cef6edc	0.029227667
113	0xbe29fa82	-0.16599467
114	0x3d83e5cc	0.06440315
115	0xbd86f3d4	-0.06589475
116	0x3d8d33ab	0.068946205
117	0x3c760582	0.015015962
118	0x3d90467e	0.07044695
119	0xbe3006e3	-0.17190127
120	0x3d8d31ec	0.068942875
121	0x3cb5acfd	0.022177214
122	0x3d8b2476	0.06794064
123	0xbe0659fe	-0.13120267
124	0x3e5aeabc	0.21378607
125	0x3de1f739	0.11033482
126	0x3d0be164	0.034150496
127	0xbd5862c6	-0.052828573
128	0x3e1e512d	0.15460654
129	0x3e137b1a	0.14402428
130	0x3c1b9dae	0.009498043
131	0x3e1caba3	0.15299849
132	0x3d2fcc07	0.042919185
133	0x3cd9a5b9	0.02656828
134	0xbb091628	-0.0020917747
135	0x3de74676	0.11292736
136	0xbe52f671	-0.20601822
137	0x3e09e45b	0.13466017
138	0xbdbed102	-0.09317209
139	0xbb83eb3a	-0.004025844
140	0x3ccdefc8	0.02513875
141	0xbc9ee284	-0.01939512
142	0x3d82d40d	0.06388102
143	0xbe4042cf	-0.18775485
144	0xbdd958c0	-0.10612631
145	0x3ded7226	0.11594038
146	0x3d632800	0.05545807
147	0xbd020fe1	-0.031753425
148	0xbdc54be9	-0.09633619
149	0x3d1da095	0.03848322
150	0x3cc7a71c	0.024371676
151	0xbe30c86b	-0.17263953
152	0xbd26eb8b	-0.040751975
153	0xbdf206fe	-0.1181774
154	0xbdeafe88	-0.11474329
155	0x3db0e03a	0.08636518
156	0x3dcf04af	0.10108315
157	0xbdc24386	-0.09485535
158	0x3d1a7b9e	0.037715547
159	0x37a5934a	1.973812e-05
160	0xbc61305e	-0.013744442
161	0xbe229599	-0.1587738
162	0xbd7e1456	-0.062031113
163	0xbd9d745b	-0.07688209
164	0xbdbf9286	-0.09354119
165	0xbdb18669	-0.08668215
166	0xbe0fac20	-0.14030504
167	0x3c5fea6f	0.013666733
168	0xbcc37277	-0.023858292
169	0x3c8317f2	0.016002629
170	0x3d8375eb	0.064189754
171	0x3db51d82	0.08843519
172	0xbde99080	-0.11404514
173	0xbd0c1786	-0.03420212
174	0xbd8e9f01	-0.06963921
175	0x3d631c02	0.055446632
176	0x3dc0c09a	0.09411736
177	0x3dc90c5e	0.09816812
178	0xbd9db683	-0.07700827
179	0xbd9d950e	-0.076944456
180	0x3e227ae0	0.15867186
181	0xbd8ee78f	-0.0697776
182	0x3da38f10	0.079862714
183	0xbcc8912e	-0.02448329
184	0x3e12376b	0.14278953
185	0xbdaf234f	-0.085516565
186	0xbe2c3cff	-0.16820143
187	0xbc944f21	-0.018104138
188	0x3e46620a	0.19373336
189	0x3d30f0c5	0.043198366
190	0xbdae6ba6	-0.08516626
191	0xba13753e	-0.00056250754
192	0xbbf2324f	-0.007391251
193	0xbe080da2	-0.1328645
194	0x3e005c89	0.125353
195	0x3d66b938	0.056328982
196	0x3c1f2386	0.009713059
197	0xbe23f069	-0.16009678
198	0x3e40dcbb	0.18834202
199	0x3c901b59	0.017591165
200	0xbe167e2c	-0.14696568
201	0x3cd45c96	0.025923055
202	0x3d19faea	0.037592806
203	0x3dd00a8d	0.101582624
204	0x3e3ae6d8	0.18252122
205	0xbdf5b934	-0.11998215
206	0xbcbe3a8d	-0.023221279
207	0xbd99f77c	-0.07517907
208	0x3c404cb5	0.011737038
209	0xbd5fb00e	-0.05461126
210	0x3d9aa062	0.07550122
211	0x3d974131	0.07385481
212	0x3d1d7ba5	0.038447995
213	0x3d127de3	0.035764586
214	0xbe004a11	-0.12528254
215	0xbdf76a82	-0.12080862
216	0xbd3b9cb7	-0.04580375
217	0xbc54ab7f	-0.012980341
218	0xbe38e3dd	-0.18055673
219	0x3da96000	0.08270264
220	0xbd2e1cff	-0.04250812
221	0xbdd9bf7e	-0.10632227
222	0xbc128124	-0.008941922
223	0xbdad7eaa	-0.08471425
224	0x3d9ab791	0.07554544
225	0xbe0c126b	-0.13678901
226	0x3d90e161	0.070742376
227	0x3d1556b3	0.036459636
228	0x3da4dd5e	0.08050035
229	0xbe10ee95	-0.14153512
230	0xbd84f7ff	-0.06492614
231	0x3d855a44	0.065113574
232	0xbda9c2ad	-0.082890846
233	0x3d59b181	0.053147797
234	0x3de1b1fc	0.11020276
235	0xbd36ed40	-0.044659853
236	0xbde2e18d	-0.11078177
237	0x3dfbb636	0.12290613
238	0x3d3acb8a	0.045604266
239	0xbde8ef23	-0.11373737
240	0xbd59ce4b	-0.053175252
241	0x3e37d7af	0.1795337
242	0xbdb77e6d	-0.08959661
243	0xbdcc6ec4	-0.09982064
244	0xbd9a149a	-0.07523461
245	0xbe2466ef	-0.16054891
246	0x3dfc8807	0.12330633
247	0xbcae0cec	-0.021246396
248	0xbb9d4f68	-0.0048007257
249	0xbe1fecf6	-0.15617737
250	0xbde2641c	-0.110542506
251	0x3ae16e3c	0.001719899
252	0x3c57170a	0.0131280515
253	0x3dc33f44	0.09533551
254	0x3dcc3295	0.09970585
255	0x3e1211a9	0.1426455

model.3.bias f4 [16]
0	0xbd9004cb	-0.07032164
1	0xbdebafea	-0.11508162
2	0x3e075c3d	0.1321878
3	0x3cf98bf6	0.030462246
4	0xbca2057f	-0.019778011
5	0x3e216c08	0.15763867
6	0x3c37419b	0.011185075
7	0x3d38cbee	0.045116358
8	0xbe193ff6	-0.14965805
9	0xbcd63f79	-0.026153313
10	0x3cd4b48c	0.025964998
11	0x3c86328e	0.016381528
12	0xbb478f15	-0.0030450274
13	0xbd6307df	-0.05542743
14	0xbd22efd6	-0.039779507
15	0xbdadadf1	-0.08480442

model.5.weight f4 [16]
0	0x3f59d75b	0.8509423
1	0x3f8cc519	1.099765
2	0x3f93bdc2	1.1542284
3	0x3f87aac0	1.0598984
4	0x3f68efb8	0.9099078
5	0x3f8421b2	1.0322783
6	0x3f6ba921	0.92054945
7	0x3f679e8c	0.904763
8	0x3f73f331	0.95292956
9	0x3f7029b3	0.9381363
10	0x3f90f0c2	1.1323473
11	0x3f751292	0.9573146
12	0x3f6a887a	0.91614497
13	0x3f7eebfe	0.99578846
14	0x3f665ff0	0.8999014
15	0x3f68483d	0.90735227

model.5.bias f4 [16]
0	0xbe0bfc79	-0.1367053
1	0xbdba26cd	-0.09089432
2	0xbd99b2b2	-0.075047866
3	0x3cb91e4f	0.02259746
4	0x3de34f52	0.110991135
5	0xbe12440b	-0.14283769
6	0x3e39b330	0.18134761
7	0x3e3e8519	0.1860546
8	0x3d8c2c57	0.06844395
9	0xbdb77a50	-0.08958876
10	0xbd2bfbf3	-0.041988324
11	0x3dd858d9	0.10563821
12	0x3e5cc912	0.21561077
13	0x3e8075e0	0.2508993
14	0x3d424fc5	0.047439355
15	0xbd562095	-0.052277166

model.5.running_mean f4 [16]
0	0x3e318787	0.17336856
1	0x3e5643cc	0.209243
2	0x3e98f3d8	0.29873538
3	0x3eaf173c	0.34197414
4	0x3e67faae	0.2265422
5	0x3e942f7d	0.2894248
6	0x3e6839f7	0.22678362
7	0x3e9e4579	0.30912378
8	0x3e40591f	0.18783997
9	0x3e855fa4	0.2604953
10	0x3e976db1	0.29575875
11	0x3e40c4aa	0.18825021
12	0x3e6ad9d0	0.22934651
13	0x3e195024	0.14971977
14	0x3e75fce9	0.24022259
15	0x3e5e29c0	0.21695614

model.5.running_var f4 [16]
0	0x3db0c259	0.08630819
1	0x3e947e46	0.2900259
2	0x3db59acf	0.08867418
3	0x3eb4b52e	0.3529448
4	0x3dd6e3cf	0.1049267
5	0x3df4723a	0.119358495
6	0x3ddf68c7	0.109086566
7	0x3e41667f	0.18886755
8	0x3da1e65e	0.07905267
9	0x3de02988	0.109454215
10	0x3eba262e	0.36357254
11	0x3db704a2	0.089364305
12	0x3e0d38f7	0.13791262
13	0x3d8154d3	0.06315007
14	0x3dcf2cf4	0.10115996
15	0x3e2c6a1e	0.16837355

model.6.weight f4 [8, 16]
0	0xbda03a9e	-0.0782368
1	0xbe92d8b2	-0.2868095
2	0x3e1229aa	0.14273706
3	0xbe3e3662	-0.18575433
4	0x3d0ff385	0.035144348
5	0xbbf3a198	-0.007435035
6	0x3e229438	0.15876853
7	0x3cc493ac	0.023996197
8	0x3df4b4fe	0.11948584
9	0xbd6f7178	-0.05845782
10	0xbe261da4	-0.16222245
11	0x3df128a5	0.117753305
12	0x3dd154bb	0.10221239
13	0x3e7db441	0.24775793
14	0xbbdde1ef	-0.006771318
15	0xbd983e78	-0.0743379
16	0xbe26569d	-0.16243978
17	0x3d0d3f8f	0.034484442
18	0xbea821d5	-0.32838312
19	0xbdb416fa	-0.08793445
20	0x3e38bab0	0.18039966
21	0xbe11f809	-0.14254774
22	0x3da82881	0.082108505
23	0x3c394a64	0.01130924
24	0xbbaf4d8e	-0.0053498214
25	0xbe3896b6	-0.18026242
26	0xbdeb75d6	-0.11497085
27	0xbd85c5f3	-0.065318964
28	0xbcd63bf7	-0.02615164
29	0xbb4bff48	-0.0031127501
30	0xbda6e189	-0.08148486
31	0xbbf1cb83	-0.007378997
32	0xbbcaf37a	-0.0061935754
33	0x3cd3e220	0.02586466
34	0xbe808d05	-0.2510759
35	0x3c9c00ee	0.019043412
36	0x3dedc5bf	0.11609983
37	0xbbc33a87	-0.0059579047
38	0xbc7132ea	-0.0147216115
39	0x3daffd4a	0.08593233
40	0xbd91702d	-0.07101474
41	0x3cf219c2	0.029553298
42	0x3e245b7f	0.16050528
43	0x3c0455aa	0.0080770645
44	0x3dcdfaf8	0.10057634
45	0x3d8eb963	0.069689535
46	0xbc6a578b	-0.014303098
47	0x3d9c6ec0	0.076383114
48	0x3d0f3a0d	0.03496747
49	0x3ca3f6ca	0.02001514
50	0x3d22757e	0.03966283
51	0x3df21a0d	0.11821375
52	0xbde74565	-0.11292533
53	0x3d8f85fd	0.07007978
54	0xbe21704e	-0.15765497
55	0xbcb3a253	-0.021927988
56	0xbd9b16a4	-0.07572678
57	0x3e177ce6	0.14793739
58	0x3dc471b7	0.09592002
59	0xbe1936c4	-0.14962298
60	0xbe05019d	-0.12988897
61	0xbe1e2494	-0.15443641
62	0xbe846c10	-0.25863695
63	0x3c8d8bb9	0.017278539
64	0x3c45172c	0.01202945
65	0xbe7618e0	-0.24032927
66	0xbe39393c	-0.1808824
67	0xbd913c1d	-0.07091544
68	0x3adcc091	0.0016842057
69	0xbe75d3cf	-0.2400658
70	0x3e27a47f	0.16371344
71	0x3e210c8e	0.15727445
72	0x3d8b03bf	0.06787824
73	0xbe490d3a	-0.19633952
74	0xbe958381	-0.29201892
75	0x3cafe330	0.021470636
76	0x3e05fd5f	0.13084935
77	0x3df3c981	0.11903668
78	0x3dca2f0d	0.098722555
79	0xbdc1d3f0	-0.09464252
80	0x3aa37914	0.0012471997
81	0x3e21a434	0.15785295
82	0xbea0d90b	-0.3141559
83	0x3e43fd63	0.19139628
84	0xbe6333af	-0.22187684
85	0x3db071c5	0.0861545
86	0xbe1e95f5	-0.15486892
87	0xbc803c95	-0.015653888
88	0x3d379dae	0.04482811
89	0x3d13d13b	0.03608821
90	0x3cc19306	0.023629677
91	0xbe62d055	-0.22149785
92	0xbdf338ff	-0.118761055
93	0xbde14ba7	-0.11000758
94	0xbe3c1d32	-0.18370512
95	0xbd837784	-0.0641928
96	0x3d0b63a4	0.03403057
97	0xbe7cff17	-0.24706684
98	0x3db9ce3c	0.09072539
99	0xbe9e71d0	-0.30946207
100	0xbe2f1067	-0.17096101
101	0x3da7fa0f	0.08201992
102	0xbdb63cdf	-0.08898329
103	0xbe4faaff	-0.20280074
104	0x3cd3cccc	0.02585449
105	0xbda99c79	-0.08281798
106	0xbe4baddf	-0.19890545
107	0xbe091f10	-0.13390756
108	0xbe750abf	-0.2392988
109	0xbe32ddc1	-0.17467405
110	0x3da67048	0.08126885
111	0x3e08ff6b	0.13378684
112	0xbe473e03	-0.1945725
113	0xbe50542e	-0.20344612
114	0xbe4d2578	-0.20033824
115	0x3d4b2d20	0.04960358
116	0xbe4ed9b3	-0.20200233
117	0xbe2d8358	-0.16944635
118	0xbdc0276c	-0.09382519
119	0x3e2f57a1	0.17123272
120	0x3e61f03f	0.22064303
121	0xbe151bd9	-0.14561404
122	0xbe57dcdb	-0.21080343
123	0x3d4ab37e	0.049487583
124	0xbd82a63d	-0.06379364
125	0x3d66212e	0.056183986
126	0x3d3ca07e	0.046051495
127	0x3d5aa1d7	0.053377

model.6.bias f4 [8]
0	0x3ed491e5	0.4151756
1	0x3db7e60f	0.08979427
2	0x3edf0da4	0.43565094
3	0x3eb4b2e0	0.3529272
4	0xbd94b364	-0.072607785
5	0x3d33f6ed	0.04393666
6	0xbe4b70dc	-0.19867271
7	0xbe4dfa5f	-0.2011504

model.8.weight f4 [8]
0	0x3fbe099c	1.4846683
1	0x3fc555cf	1.5416812
2	0x3fc7dbb7	1.5613927
3	0x3fcf7321	1.620701
4	0x3fc37f59	1.5273238
5	0x3fcaf8ac	1.5857139
6	0x3fdb668a	1.7140667
7	0x3fcacf94	1.5844598

model.8.bias f4 [8]
0	0x3e2cd0c2	0.1687651
1	0xbe13350c	-0.14375705
2	0xbd1b39e5	-0.03789701
3	0xbe44fd65	-0.19237287
4	0x3e3812cf	0.17975925
5	0xbdc4ee3b	-0.09615751
6	0xbd925f27	-0.07147055
7	0xbd8ceed1	-0.06881488

model.8.running_mean f4 [8]
0	0x3f3b9bf1	0.7328482
1	0x3e9f8ede	0.31163687
2	0x3f05f491	0.52326304
3	0x3ea2e577	0.31815693
4	0x3eb21865	0.34784237
5	0x3e8ddbf6	0.2770688
6	0x3dd36e32	0.103237525
7	0x3e012cbd	0.12614723

model.8.running_var f4 [8]
0	0x3e8d1e2d	0.27562085
1	0x3e0ab5a7	0.13545857
2	0x3e70afe1	0.23504592
3	0x3e168d53	0.14702348
4	0x3e105da8	0.14098227
5	0x3e571fc1	0.21008207
6	0x3cff1ef9	0.031142699
7	0x3d45192c	0.04811971

model.9.weight f4 [4, 8]
0	0xbf0cf7e8	-0.55065775
1	0x3e2f0a2c	0.17093724
2	0x3f31d712	0.69468796
3	0x3f3e9cac	0.7445781
4	0xbf332139	-0.6997257
5	0x3f60d85f	0.87830156
6	0xbf048703	-0.5176851
7	0x3db94711	0.09046758
8	0x3e779140	0.24176502
9	0xbe73cdc6	-0.23808965
10	0xbe89171a	-0.26775438
11	0x3e8f5a69	0.27998665
12	0xbf3d5561	-0.739584
13	0xbe4c75d0	-0.19966817
14	0x3f285ef8	0.6576991
15	0xbe6bd246	-0.23029432
16	0x3e84b8b8	0.2592218
17	0x3ed5c452	0.41751343
18	0x3e69b16d	0.22821589
19	0xbe20a9c5	-0.15689762
20	0x3f0e41ff	0.5556945
21	0xbea7a1c1	-0.32740596
22	0xbec08d88	-0.3760798
23	0x3f2e5e3b	0.68112534
24	0x3f2a1e8f	0.6645288
25	0xbf18fb9b	-0.5975892
26	0xbcd10315	-0.025514165
27	0xbda4e7e4	-0.08052042
28	0x3e623e1c	0.22094005
29	0xbde7791d	-0.113023974
30	0xbf1579dd	-0.58389074
31	0xbf06598b	-0.5248038

model.9.bias f4 [4]
0	0xbeeb9e0a	-0.46019012
1	0xbe9f3b68	-0.3110001
2	0xbe192c74	-0.14958364
3	0xbd824ea8	-0.06362659
