saved_models/MLP/ckpt__epoch100.ckpt (torch, 18336 bytes, 20 tensors)

model.0.weight f4 [32, 64]
-0.034562342 0.023178687 -0.03264059 0.068855934 0.05104001 -0.07285467 -0.14719999 0.12634736
0.0015767625 -0.010218635 -0.037380263 0.083593905 0.0032496196 -0.0052947924 0.07948379 0.09222844
-0.026686478 0.21243842 -0.011486938 0.118370034 -0.013487043 -0.027160095 0.04740058 -0.0118975
-0.07508864 0.0054693506 -0.084628664 0.024567654 -0.063799545 -0.0015210884 0.0487201 0.07063484
-0.014223035 -0.09029955 0.04648019 -0.113895416 0.01456577 -0.13421841 -0.022911679 -0.00903284
-0.018931044 -0.08111993 0.0038357773 0.013491038 0.053584136 -0.09281198 -0.038928185 0.029617833
-0.06333153 0.003332099 0.050779585 -0.0025344375 0.006365882 -0.045624044 0.095912926 0.08824934
-0.060324423 -0.015275405 -0.13492787 -0.19646972 0.09590165 -0.2081617 -0.04494772 -0.01286728
-0.027880492 0.2099703 0.11866889 -0.028814169 0.01776965 0.04244642 0.06818415 -0.023454435
-0.033563275 0.25708362 0.09480775 -0.022065364 -0.0075640655 0.038234804 0.1339511 -0.04703155
0.023942418 -0.10751085 -0.08965784 0.016096584 0.014648108 -0.01969714 0.046454314 -0.030066703
0.029357813 -0.20011675 0.06054363 0.020710565 -0.008014095 -0.021318749 0.13256234 -0.029866422
-0.01501968 0.07861826 -0.035119493 -0.08207501 0.0021534848 -0.009285936 -0.05024898 -0.010025091
0.010604449 -0.13314113 0.0026049311 -0.0765825 0.018509505 -0.025753614 0.13712728 0.009058012
-0.027213203 0.14206794 0.01897688 0.019935215 -0.0008235962 -0.009928879 0.114521004 -0.014744162
-0.037917197 0.041356873 0.114919215 0.048266504 -0.021662325 0.030337283 -0.0697878 0.041997142
0.045698274 0.013948664 0.11166438 -0.0034201595 -0.0102439765 0.05622398 -0.32126498 -0.07068193
0.042811397 -0.048319455 0.081428245 -0.070744134 -0.017829573 0.023013748 0.104427606 -0.017516766
-0.0149450665 -0.01537632 -0.04500867 -0.013348327 -0.008366677 0.0383743 -0.08403752 0.016535792
0.008398712 -0.0055399947 -0.018986085 -0.024528805 0.00844078 -0.0021360193 0.06671011 0.06421789
0.043088067 -0.031411268 0.068292856 0.010897859 -0.0061997212 0.05972507 0.10866351 0.042624973
0.004689231 -0.04129106 -0.14733554 -0.072081655 0.0041507017 -0.016313514 -0.19678319 0.044822436
-0.01703218 0.020449162 -0.0339173 -0.0012885655 0.02913752 0.0007687446 0.1848945 0.041756514
-0.01980116 0.042272583 -0.08575445 -0.01394965 -0.021157963 0.048646517 -0.10879893 0.024409795
-0.048811037 0.12583928 -0.034292012 0.018946879 0.009987141 0.02220205 -0.09554437 0.010764111
-0.00543918 -0.09136085 0.1263186 -0.064759895 -0.06922916 0.012583333 -0.0720394 0.0023249285
-0.043484278 -0.0015346716 -0.018449219 -0.06548362 -0.024061436 0.0148838 0.0042695007 0.038653564
0.06342109 -0.013418295 -0.07210359 -0.03318428 0.02011273 -0.060620297 0.01728056 -0.08020025
0.05617849 -0.00959632 -0.024730263 -0.09219909 0.07603125 0.04053838 -0.097176865 -0.00479821
-0.009542094 0.012715654 -0.08787575 -0.049313914 0.048325777 -0.040020652 0.19453397 -0.021924607
0.084418595 -0.03681651 0.054776616 0.08429975 0.005401965 -0.012406384 -0.12653454 0.03457892
0.00095535355 0.00802229 0.02015211 -0.0093534095 0.009620555 0.03794492 -0.19819078 -0.001326013
00000000: 3e91 0dbd 3be1 bd3c 24b2 05bd 5704 8d3d
00000010: 540f 513d d434 95bd 98bb 16be 3461 013e
00000020: 5fab ce3a 106c 27bc 0c1c 19bd 4833 ab3d
00000030: 92f7 543b f07f adbb 66c8 a23d 44e2 bc3d
00000040: 9a9d dabc 7589 593e b633 3cbc fd6b f23d
00000050: c2f8 5cbc d97e debc 1c27 423d bbed 42bc
00000060: 13c8 99bd 3d38 b33b cb51 adbd 1b42 c93c
00000070: 56a9 82bd 425f c7ba ba8e 473d 00a9 903d
00000080: bc07 69bc f8ee b8bd 0362 3e3d 0042 e9bd
00000090: 44a5 6e3c 8d70 09be 46b1 bbbc 7afe 13bc
000000a0: 4715 9bbc 3522 a6bd aa61 7b3b 8409 5d3c
000000b0: 0a7b 5b3d 3514 bebd 2973 1fbd 19a1 f23c
000000c0: f6b3 81bd 585f 5a3b 41fe 4f3d ce18 26bb
000000d0: e498 d03b 47e0 3abd ff6d c43d 12bc b43d
000000e0: be16 77bd b145 7abc 882a 0abe 5c2f 49be
000000f0: 1668 c43d 5728 55be 1a1b 38bd 49d1 52bc
00000100: a165 e4bc 7402 573e ad08 f33d b10b ecbc
00000110: a891 913c 4cdc 2d3d 22a4 8b3d 8423 c0bc
00000120: a579 09bd 77a0 833e 912a c23d 6cc2 b4bc
00000130: fbdb f7bb 199c 1c3d 7a2a 093e 28a4 40bd
00000140: e422 c43c a62e dcbd 889e b7bd fcdc 833c
00000150: 9efe 6f3c e65b a1bc e146 3e3d 724e f6bc
00000160: cc7f f03c 68eb 4cbe 99fc 773d 34a9 a93c
00000170: 8d4d 03bc a8a4 aebc 6cbe 073e 6daa f4bc
00000180: 1b15 76bc 9c02 a13d 75d9 0fbd f116 a8bd
00000190: 7b21 0d3b 0a24 18bc e0d1 4dbd 4740 24bc
000001a0: 48be 2d3c 2656 08be 7eb7 2a3b 49d7 9cbd
000001b0: 3fa1 973c 3ef9 d2bc 186b 0c3e 0e68 143c
000001c0: 39ee debc 427a 113e 6775 9b3c 2d4f a33c
000001d0: 9be6 57ba bdac 22bc fd89 ea3d 7f91 71bc
000001e0: 104f 1bbd d365 293d c45a eb3d 19b3 453d
000001f0: 3075 b1bc e585 f83c e8ec 8ebd 3205 2c3d
00000200: 1d2e 3b3d f088 643c 4bb0 e43d c124 60bb
00000210: 5ad6 27bc 1e4b 663d d87c a4be b0c1 90bd
00000220: 015b 2f3d 9fea 45bd dac3 a63d 4de2 90bd
00000230: 530f 92bc 5487 bc3c 24de d53d 527f 8fbc
00000240: 27dc 74bc f6ec 7bbc 035b 38bd f1b2 5abc
00000250: 6314 09bc 5f2e 1d3d dd1b acbd 1276 873c
00000260: c09a 093c d888 b5bb b588 9bbc a2f0 c8bc
00000270: 334b 0a3c 75fc 0bbb 4f9f 883d ab84 833d
00000280: 1d7d 303d 1aa9 00bd 20dd 8b3d ef8c 323c
00000290: 0827 cbbb 46a2 743d f98a de3d 8697 2e3d
000002a0: 1fa8 993b d120 29bd 21df 16be 8c9f 93bd
000002b0: 9c02 883b eba3 85bc 8881 49be bb97 373d
000002c0: 1287 8bbc 0085 a73c deec 0abd 15e5 a8ba
000002d0: cfb1 ee3c 9485 493a fc54 3d3e e108 2b3d
000002e0: 0b36 a2bc 0426 2d3d 07a0 afbd 138d 64bc
000002f0: 7753 adbc 9241 473d f9d1 debd 0df7 c73c
00000300: 15ee 47bd 03dc 003e c875 0cbd 7c36 9b3c
00000310: 1ba1 233c 13e1 b53c c4ac c3bd f45b 303c
00000320: 263b b2bb 661b bbbd aa59 013e d6a0 84bd
00000330: 05c8 8dbd 532a 4e3c 6589 93bd d45d 183b
00000340: 921c 32bd 0927 c9ba d122 97bc 471c 86bd
00000350: 7d1c c5bc 2fdb 733c 2be7 8b3b 3353 1e3d
00000360: ebe2 813d 69d8 5bbc 0cab 93bd 3dec 07bd
00000370: 74c3 a43c fd4c 78bd f68f 8d3c 0740 a4bd
00000380: 6b1b 663d e239 1dbc 1f97 cabc e0d2 bcbd
00000390: 46b6 9b3d 930b 263d aa04 c7bd 4e3a 9dbb
000003a0: 7156 1cbc 5255 503c 34f8 b3bd 63fd 49bd
000003b0: 40f1 453d b2ec 23bd ea33 473e 3c9b b3bc
000003c0: a8e3 ac3d e9cc 16bd 725d 603d 59a5 ac3d
000003d0: f802 b13b 2544 4bbc 4592 01be a0a2 0d3d
000003e0: b170 7a3a ec6f 033c 0a16 a53c 0b3f 19bc
000003f0: 889f 1d3c 226c 1b3d 86f2 4abe 9dcd adba

model.0.bias f4 [32]
-0.075778104 -0.079221874 0.09953455 -0.1006124 -0.31988785 -0.07590284 -0.12200756 -0.1847946
-0.16354626 0.13905875 0.009576267 -0.1251477 0.11302916 -0.0132064875 -0.08770283 -0.11104232
0.20731889 -0.036164787 -0.077703126 0.16272546 0.032376174 0.14147547 0.01743004 -0.021672113
0.07343342 0.11963447 0.009429451 -0.031885553 -0.07991984 -0.14575171 -0.033788223 0.06338625
00000000: 8d31 9bbd 143f a2bd c5d8 cb3d e00d cebd
00000010: 57c8 a3be f372 9bbd 1adf f9bd cc3a 3dbe
00000020: ac78 27be 6b65 0e3e c6e5 1c3c b826 00be
00000030: d57b e73d 0660 58bc 8b9d b3bd 286a e3bd
00000040: 674b 543e 8721 14bd d122 9fbd 81a1 263e
00000050: e19c 043d f2de 103e 71c9 8e3c b789 b1bc
00000060: 4364 963d eb02 f53d fc7d 1a3c 6d9a 02bd
00000070: 03ad a3bd f03f 15be 8565 0abd a6d0 813d

model.2.weight f4 [32]
0.9734203 0.9873408 1.0293422 1.0780488 1.0100164 1.0536543 0.96145093 1.0816516
1.038369 0.94099396 0.95640194 1.0832412 1.0026878 0.9358778 0.99173665 1.0236573
0.8909837 1.017188 1.0176668 0.96750474 0.946488 0.96921915 1.0991933 0.9389828
1.0058125 1.052145 1.0249988 1.0332289 0.8846798 0.992441 0.9163088 1.0584337
00000000: 1332 793f 5ec2 7c3f 7cc1 833f 81fd 893f
00000010: 3848 813f 25de 863f a621 763f 8f73 8a3f
00000020: 47e9 843f fbe4 703f c2d6 743f a6a7 8a3f
00000030: 1358 803f b095 6f3f 74e2 7d3f 3407 833f
00000040: 8217 643f 3733 823f e842 823f 64ae 773f
00000050: 0a4d 723f bf1e 783f 5eb2 8c3f 2d61 703f
00000060: 77be 803f b0ac 863f 2933 833f d840 843f
00000070: 607a 623f 9d10 7e3f 3793 6a3f c17a 873f

model.2.bias f4 [32]
0.020930506 0.06370245 0.121018626 -0.030714598 0.014087497 0.10601941 -0.015368251 0.08704936
0.07971213 0.016723042 0.102907285 -0.009235955 0.015697371 0.09587593 0.05413288 0.14819539
0.03854619 0.027396342 -0.015775904 -0.028686218 -0.025422933 0.022063572 -0.034380127 0.0012296375
0.043229904 -0.053304635 0.015100324 0.09122733 -0.004827193 0.031911444 0.12550086 -0.051852096
00000000: 7476 ab3c 6e76 823d 9dd8 f73d 2e9d fbbc
00000010: 3fcf 663c b420 d93d 1ecb 7bbc ef46 b23d
00000020: 1d40 a33d c3fe 883c 0ec1 d23d 6752 17bc
00000030: c697 803c 995a c43d 70ba 5d3d 88c0 173e
00000040: 9ce2 1d3d 4b6e e03c 783c 81bc 5cff eabc
00000050: c143 d0bc aabe b43c 2dd2 0cbd ca2b a13a
00000060: d711 313d f655 5abd 5967 773c 65d5 ba3d
00000070: 6e2d 9ebb 93b5 023d 4c83 003e dd62 54bd

model.2.running_mean f4 [32]
3.3709385 2.5658062 4.04314 3.470301 4.174341 3.5809922 3.8473082 3.8900828
2.6079266 3.906215 2.8003745 3.2666667 3.7239184 3.7432263 2.1665227 3.5206594
3.4741242 3.2862356 5.1329403 3.4109285 3.9564826 3.8930511 3.5259311 3.8944125
4.39859 3.4748712 3.1356711 4.2375216 4.2949166 3.0471797 4.962225 2.7051196
00000000: 75bd 5740 2b36 2440 6761 8140 6919 5e40
00000010: 3494 8540 fa2e 6540 4c3a 7640 1ef7 7840
00000020: 45e8 2640 6dff 7940 5639 3340 1111 5140
00000030: ae54 6e40 0591 6f40 4fa8 0a40 7c52 6140
00000040: 0d58 5e40 af51 5240 0c41 a440 a74c 5a40
00000050: 0337 7d40 c027 7940 dba8 6140 0e3e 7940
00000060: 40c1 8c40 4a64 5e40 d6ae 4840 c799 8740
00000070: f56f 8940 fe04 4340 8cca 9e40 ae20 2d40

model.2.running_var f4 [32]
32.47024 26.61355 83.41486 35.729942 44.398914 64.68195 40.375256 81.81741
27.540966 38.40636 32.11848 37.872547 56.6019 37.502953 17.003391 53.51891
31.670113 36.793507 56.639797 32.087772 49.368893 39.495358 68.23387 35.304413
65.28048 42.560997 36.723236 61.00494 40.88984 38.55906 52.776154 25.539125
00000000: 87e1 0142 8de8 d441 69d4 a642 76eb 0e42
00000010: 7d98 3142 295d 8142 4380 2142 84a2 a342
00000020: e653 dc41 1da0 1942 5379 0042 7d7d 1742
00000030: 5868 6242 0603 1642 f206 8841 5d13 5642
00000040: 645c fd41 8d2c 1342 278f 6242 e159 0042
00000050: bf79 4542 3ffb 1d42 be77 8842 b837 0d42
00000060: 9b8f 8242 763e 2a42 98e4 1242 0f05 7442
00000070: 328f 2342 7a3c 1a42 c81a 5342 2150 cc41

model.3.weight f4 [16, 32]
0.11782718 -0.0039234194 -0.054137353 -0.18669899 -0.028847072 0.20988618 0.14593671 0.014432196
0.09812847 0.12729271 -0.020475471 -0.063193396 0.1008475 -0.09185711 -0.06833218 0.056454726
-0.15318614 -0.005146844 0.0080895405 0.03583488 0.13779986 -0.12589169 -0.03207795 -0.06988773
-0.20126513 0.08109813 0.18025447 -0.063664734 -0.014259904 0.005056408 0.103092775 0.2290694
-0.078816146 0.058801714 0.1393234 0.109986976 -0.13092591 0.05761224 0.025853338 0.048607532
-0.04719194 0.027018258 0.09568847 -0.07475625 0.044296555 -0.07701453 -0.008258528 0.11508018
0.14819832 0.1818619 -0.14082386 -0.0573355 0.007290052 -0.055158496 0.18049519 -0.09404275
-0.02110987 -0.0023457515 -0.023491075 -0.0652448 -0.11834793 -0.06170529 -0.020941146 -0.0013627748
-0.08726979 -0.0058204103 0.08501822 0.026438717 0.020634957 0.14101951 0.13126545 0.022117376
0.06497011 0.17827821 0.061370287 0.103952974 -0.10485831 0.10999006 0.01950767 0.096865214
0.10018379 0.07612768 -0.0964125 -0.06287862 -0.05543064 -0.061872736 -0.18096031 0.024266686
0.076306805 -0.17196901 -0.0683129 -0.0412787 -0.067597575 0.17553577 -0.07061469 -0.14923613
-0.16969642 0.07192874 0.035234056 0.0034126618 -0.13439918 -0.00749572 -0.0165092 0.039273955
0.23169453 -0.09158049 0.0012856093 0.10451284 -0.0034049628 0.112952456 0.18307702 0.12533167
-0.09633551 0.08230824 0.13551803 -0.04887103 -0.08340223 -0.10417714 0.049835607 -0.12010321
0.13703364 -0.091361105 0.14988251 0.06867528 0.07524921 0.055067483 -0.025678152 0.1424183
-0.038520686 -0.070219435 0.09356015 0.16438237 -0.04546407 0.22126323 0.06895475 0.18454883
-0.042583793 -0.05287992 0.02114412 -0.014615294 0.14558662 0.0640935 -0.072775446 -0.13996674
-0.13400097 0.17218368 -0.10277609 0.13326739 0.04361372 -0.09748836 -0.054978367 -0.02748975
0.11685948 0.021704597 0.061188743 -0.079415776 -0.036976628 0.09342979 -0.07658484 0.0076583917
0.03284844 -0.042968746 0.06423152 0.13798988 0.01925691 -0.05996507 0.16438735 -0.19449499
-0.18999448 -0.07582384 -0.094848685 -0.23455624 0.07018451 0.048566457 0.099972315 0.08576487
0.004800932 -0.07274867 0.14415735 -0.20169902 0.115875125 -0.026450783 -0.13572922 0.076104105
0.07130535 -0.028473701 0.09583543 -0.13238162 0.21931808 -0.1977775 0.08336411 0.01154218
0.016819265 -0.06576438 -0.03899738 -0.1778167 0.005344666 0.08459731 -0.105701216 0.047441088
0.09473932 0.045660824 -0.032265145 0.19635482 -0.17935994 0.050816473 -0.07841348 0.023473123
-0.14900188 -0.15234138 -0.014776365 -0.1534235 -0.080703676 0.19086985 0.11974323 0.089689925
0.071701206 0.0043489444 0.042712633 0.017605262 -0.08411313 -0.093136825 0.15873167 0.12665829
0.10643664 0.120591536 -0.17955357 -0.27963805 0.034460362 -0.1594211 -0.02830594 -0.09896504
-0.03267982 0.029834734 -0.056891926 0.118855335 0.124644086 -0.13085075 0.030954083 0.04836281
0.012845752 0.12339341 0.07310853 0.06918133 -0.099989176 -0.0006768662 -0.15018326 0.15627444
-0.16594096 -0.067994356 -0.0021019112 0.15902042 0.07462938 0.052357737 -0.07789786 -0.005926035
00000000: 604f f13d 0790 80bb 21bf 5dbd 052e 3fbe
00000010: b250 ecbc 67ec 563e 6f70 153e 0475 6c3c
00000020: 94f7 c83d 0559 023e 2dbc a7bc 8a6b 81bd
00000030: 2289 ce3d 951f bcbd bef1 8bbd 123d 673d
00000040: d4dc 1cbe dba6 a8bb fe89 043c 98c7 123d
00000050: 681b 0d3e c0e9 00be 2b64 03bd 4c21 8fbd
00000060: 7218 4ebe c716 a63d a194 383e a862 82bd
00000070: 5fa2 69bc 39b0 a53b 4e22 d33d 2b91 6a3e
00000080: 5c6a a1bd 11da 703d cbaa 0e3e da40 e13d
00000090: 7111 06be d0fa 6b3d 61ca d33c b118 473d
000000a0: 564c 41bd 6555 dd3c 51f8 c33d ce19 99bd
000000b0: 4e70 353d cbb9 9dbd c74e 07bc 28af eb3d
000000c0: 4dc1 173e 023a 3a3e 2134 10be a1d8 6abd
000000d0: 63e1 ee3b e0ed 61bd bbd3 383e 7c99 c0bd
000000e0: 9bee acbc 2ebb 19bb 5b70 c0bc 119f 85bd
000000f0: 6660 f2bd b0be 7cbd c48c abbc 229f b2ba
00000100: 81ba b2bd 24b9 bebb 081e ae3d 0296 d83c
00000110: a40a a93c 6b67 103e 736a 063e 802f b53c
00000120: 0d0f 853d 908e 363e 695f 7b3d 4ce5 d43d
00000130: f4bf d6bd 7842 e13d 8dce 9f3c 4561 c63d
00000140: 292d cd3d d4e8 9b3d eb73 c5bd 82c6 80bd
00000150: 3d0b 63bd 446e 7dbd a94d 39be eeca c63c
00000160: be46 9c3d a518 30be a2e7 8bbd db13 29bd
00000170: 9970 8abd a6bf 333e 6f9e 90bd 5bd1 18be
00000180: e6c4 2dbe 604f 933d 9651 103d f7a6 5f3b
00000190: f09f 09be a89e f5bb 4d3e 87bc badd 203d
000001a0: 5541 6d3e 8d8e bbbd e481 a83a d40a d63d
000001b0: cc25 5fbb 9e53 e73d 8b78 3b3e f256 003e
000001c0: 8d4b c5bd 3991 a83d 3dc5 0a3e fd2c 48bd
000001d0: cace aabd d35a d5bd 6c20 4c3d acf8 f5bd
000001e0: 8c52 0c3e 881b bbbd cd7a 193e a0a5 8c3d
000001f0: 421c 9a3d 718e 613d fd5a d2bc 1ad6 113e
00000200: dec7 1dbd 35cf 8fbd 779c bf3d da53 283e
00000210: 8838 3abd d492 623e 2638 8d3d 5efa 3c3e
00000220: 586c 2ebd 9d98 58bd 6f36 ad3c fc74 6fbc
00000230: a914 153e 7443 833d 4b0b 95bd 7153 0fbe
00000240: 8d37 09be eb50 303e 457c d2bd 3f77 083e
00000250: 4da4 323d faa7 c7bd ff30 61bd 2f32 e1bc
00000260: 0654 ef3d d7cd b13c 0ca1 7a3d bda4 a2bd
00000270: ce74 17bd 1e58 bf3d 83d8 9cbd 3ff3 fa3b
00000280: 168c 063d ffff 2fbd d18b 833d 384d 0d3e
00000290: abc0 9d3c ef9d 75bd 2855 283e b229 47be
000002a0: ea8d 42be 8849 9bbd 0740 c2bd 832f 70be
000002b0: e5bc 8f3d 9fed 463d 49be cc3d 7ea5 af3d
000002c0: 2351 9d3b 41fd 94bd fc9d 133e 308a 4ebe
000002d0: f04f ed3d 50af d8bc 9afc 0abe 78dc 9b3d
000002e0: 8a08 923d ae41 e9bc 5e45 c43d 0c8f 07be
000002f0: eb94 603e 2f86 4abe cdba aa3d 691b 3d3c
00000300: 8ec8 893c 7aaf 86bd b7bb 1fbd 9515 36be
00000310: 4f22 af3b 5b41 ad3d e179 d8bd 9651 423d
00000320: b006 c23d d806 3b3d 7528 04bd 3d11 493e
00000330: 22aa 37be ef24 503d 3f97 a0bd b54a c03c
00000340: f393 18be 61ff 1bbe 9118 72bc 0d1b 1dbe
00000350: f847 a5bd 6373 433e f03b f53d 5aaf b73d
00000360: 15d8 923d 9781 8e3b 71f3 2e3d e938 903c
00000370: 8143 acbd 85be bebd 8e8a 223e b6b2 013e
00000380: 74fb d93d b2f8 f63d e4dc 37be b82c 8fbe
00000390: 4f26 0d3d 493f 23be dce1 e7bc 2fae cabd
000003a0: 46db 05bd f967 f43c 8207 69bd 6d6a f33d
000003b0: 6645 ff3d bdfd 05be 6b93 fd3c 1518 463d
000003c0: fd76 523c afb5 fc3d edb9 953d f1ae 8d3d
000003d0: 20c7 ccbd b96f 31ba a4c9 19be 6806 203e
000003e0: 6dec 29be a040 8bbd 38c0 09bb 40d6 223e
000003f0: 4ad7 983d 1175 563d ea88 9fbd 2f2f c2bb

model.3.bias f4 [16]
0.07863102 -0.17163104 -0.019909985 0.16078398 0.004463506 -0.12360404 0.019420668 0.076860756
-0.0019724858 0.1128807 -0.21374734 0.22287947 0.003466444 0.19128084 0.23158841 0.04305255
00000000: 4d09 a13d 0cc0 2fbe 441a a3bc 8ea4 243e
00000010: 9a42 923b 1d24 fdbd 1818 9f3c 2c69 9d3d
00000020: d244 01bb ff2d e73d 95e0 5abe 843a 643e
00000030: 482d 633b 20df 433e 8325 6d3e df57 303d

model.5.weight f4 [16]
0.94225794 1.0342213 0.9755271 0.8997892 1.0569618 0.9161922 0.8232372 0.8585266
1.0786878 1.105585 1.1595329 0.9126493 0.83495855 1.1326356 1.0771314 0.8721658
00000000: d137 713f 5d61 843f 25bc 793f 9658 663f
00000010: 864a 873f 928b 6a3f acbf 523f 66c8 5b3f
00000020: 7112 8a3f cf83 8d3f 936b 943f 62a3 693f
00000030: d8bf 553f 34fa 903f 71df 893f 4246 5f3f

model.5.bias f4 [16]
-0.06392291 0.020559045 -0.045834493 -0.03354237 -0.025449801 -0.07080926 0.118498355 -0.0307979
0.07278715 0.028257033 -0.122578055 -0.007176998 -0.013798128 0.1376685 0.11615995 -0.043045886
00000000: 04ea 82bd 716b a83c f3bc 3bbd b963 09bd
00000010: 1a7c d0bc 7204 91bd 44af f23d e14b fcbc
00000020: 6e11 953d 4b7b e73c 340a fbbd 062d ebbb
00000030: 8b11 62bc f9f8 0c3e 45e5 ed3d e250 30bd

model.5.running_mean f4 [16]
0.26897964 0.14364125 0.23659319 0.3546224 0.21623519 0.17675984 0.21653506 0.24163425
0.23653167 0.2543258 0.090520464 0.4055745 0.19942208 0.36463416 0.35793734 0.31279358
00000000: b3b7 893e b116 133e 7c45 723e 1191 b53e
00000010: c26c 5d3e 8800 353e 5ebb 5d3e f86e 773e
00000020: 5c35 723e fe36 823e cb62 b93d 76a7 cf3e
00000030: 4d35 4c3e 54b1 ba3e 9043 b73e 7b26 a03e

model.5.running_var f4 [16]
0.27245417 0.1517244 0.16307765 0.24203901 0.24805535 0.11186065 0.11076391 0.10541567
0.29845044 0.24458364 0.021511858 0.36628088 0.072963744 0.097357884 0.22859447 0.19052629
00000000: 1d7f 8b3e a45d 1b3e d4fd 263e 13d9 773e
00000010: 3902 7e3e 3217 e53d 30d8 e23d 2ce4 d73d
00000020: 7fce 983e 2274 7a3e a339 b03c 2b89 bb3e
00000030: 046e 953d 9263 c73d ab14 6a3e 5319 433e

model.6.weight f4 [8, 16]
-0.15245037 -0.28581396 0.065139264 -0.027214987 -0.11166307 0.09904857 0.12160031 0.047435466
0.12640396 -0.00090542133 -0.10807016 0.058416262 0.11492822 0.3087539 0.014617056 0.09117704
0.06622656 -0.16134818 0.13789363 -0.021051638 -0.20562878 -0.074701235 0.07795006 0.084899835
-0.15827326 -0.20315495 -0.018897355 -0.22759077 0.051535822 -0.16713485 -0.19742808 0.117379494
0.08456427 0.023277737 0.11231853 0.06923665 0.04932406 -0.13780116 -0.097632445 -0.29727992
0.29882407 0.211725 -0.11053801 -0.056099165 -0.028709633 -0.21500865 0.26750007 -0.17905332
-0.07587017 -0.15210353 -0.15422109 -0.034233853 0.04036542 -0.016741242 0.14560962 -0.07143874
-0.099318475 -0.23759462 -0.30044764 0.022099577 -0.15301058 0.038088813 -0.037895203 0.1560347
-0.09150626 -0.3670243 -0.20727195 0.059974443 -0.15721546 0.083188824 -0.04424894 0.10974326
-0.1337215 -0.27222887 -0.34460682 0.19267777 -0.12617125 0.099280715 0.034039833 0.0493101
-0.1676682 0.028565165 -0.3746571 0.012603238 -0.20352781 -0.05597879 -0.14942668 -0.017455498
-0.11803681 -0.058794737 0.028593998 -0.17234218 -0.037602775 0.25730613 -0.12250846 0.110437274
-0.17132632 0.16632237 -0.1147457 -0.26311147 0.101542525 0.19411874 -0.046525948 0.04321628
-0.17411786 -0.028693955 0.26736274 0.04176616 0.12639782 0.23946676 -0.17909585 -0.09200968
0.014729784 0.096443705 0.09877025 -0.061479356 -0.05430882 -0.054206118 0.00943204 -0.050651383
0.0877009 0.083462 -0.2998148 -0.1336282 -0.043728784 0.044843905 0.121154256 -0.09753951
00000000: f31b 1cbe 3556 92be bc67 853d f7f1 debc
00000010: 9caf e4bd fad9 ca3d 9509 f93d b14b 423d
00000020: 0a70 013e cc59 6dba e353 ddbd e445 6f3d
00000030: 7d5f eb3d fe14 9e3e 607c 6f3c 07bb ba3d
00000040: caa1 873d 7538 25be fd33 0d3e 7c74 acbc
00000050: 5a90 52be f6fc 98bd 48a4 9f3d f7df ad3d
00000060: 6312 22be da07 50be a0ce 9abc 8e0d 69be
00000070: 3a17 533d 6625 2bbe 962a 4abe a964 f03d
00000080: 0830 ad3d f4b0 be3c 4207 e63d f2cb 8d3d
00000090: 0708 4a3d bf1b 0dbe 85f3 c7bd 1335 98be
000000a0: 78ff 983e 70ce 583e c161 e2bd 3dc8 65bd
000000b0: 7730 ebbc 3a2b 5cbe c5f5 883e c159 37be
000000c0: d261 9bbd 07c1 1bbe 22ec 1dbe cc38 0cbd
000000d0: 3656 253d ee24 89bc b01a 153e 794e 92bd
000000e0: 7c67 cbbd 014c 73be 46d4 99be 2c0a b53c
000000f0: ceae 1cbe 0403 1c3d 0038 1bbd 8fc7 1f3e
00000100: a267 bbbd 9cea bbbe 193f 54be c3a7 753d
00000110: 17fd 20be e75e aa3d 603e 35bd 13c1 e03d
00000120: 4aee 08be 9561 8bbe 4e70 b0be 524d 453e
00000130: 0933 01be b053 cb3d 5a6d 0b3d 63f9 493d
00000140: 36b1 2bbe 7e01 ea3c 0ed3 bfbe d07d 4e3c
00000150: 9869 50be 044a 65bd 4f03 19be d5fe 8ebc
00000160: 48bd f1bd c0d2 70bd f63d ea3c 787a 30be
00000170: 5e05 1abd a1bd 833e b7e5 fabd f02c e23d
00000180: 2b70 2fbe 6950 2a3e cbff eabd 8cb6 86be
00000190: 87f5 cf3d 10c7 463e fe91 3ebd 8e03 313d
000001a0: f44b 32be 960f ebbc c5e3 883e fe12 2b3d
000001b0: 6e6e 013e c636 753e e764 37be 926f bcbd
000001c0: 3155 713c 4784 c53d 0f48 ca3d c7d1 7bbd
000001d0: ed72 5ebd 3c07 5ebd d888 1a3c d377 4fbd
000001e0: 889c b33d 20ee aa3d 5381 99be d5d5 08be
000001f0: f41c 33bd 3eae 373d b91f f83d cbc2 c7bd

model.6.bias f4 [8]
-0.11274953 0.02203808 0.25001365 0.043690775 0.20073579 -0.078676224 0.16328864 0.33320227
00000000: 3ae9 e6bd 3489 b43c ca01 803e 19f5 323d
00000010: af8d 4d3e 0021 a1bd 2335 273e 7d99 aa3e

model.8.weight f4 [8]
1.3614233 1.6967258 1.6223356 1.4943547 1.5636152 1.437037 1.5493424 1.4202121
00000000: 1e43 ae3f 502e d93f b1a8 cf3f 0447 bf3f
00000010: 8b24 c83f d4f0 b73f da50 c63f 83c9 b53f

model.8.bias f4 [8]
0.19168727 0.15551144 -0.20622422 0.14925016 0.20888932 0.07333289 -0.016908946 0.008917041
00000000: ab49 443e 643e 1f3e 712c 53be 09d5 183e
00000010: 15e7 553e 8e2f 963d a184 8abc c818 123c

model.8.running_mean f4 [8]
0.1950648 0.21606521 0.4998518 0.25837305 0.44670963 0.32201222 0.4029985 0.47195897
00000000: 11bf 473e 3340 5d3e 93ec ff3e 7949 843e
00000010: 20b7 e43e c9de a43e d255 ce3e 9ba4 f13e

model.8.running_var f4 [8]
0.08191564 0.05516626 0.6489588 0.08294669 0.17840384 0.12304616 0.22775616 0.15614769
00000000: 63c3 a73d 04f6 613d 2a22 263f f4df a93d
00000010: 7faf 363e a0ff fb3d e938 693e 2ee5 1f3e

model.9.weight f4 [4, 8]
-0.4268856 -0.89123565 0.58957875 -0.5066865 -0.52733785 -0.3409398 -0.6190006 0.6350146
-0.22114763 -0.051820572 -0.21654817 -0.7188123 -0.29197428 0.15001066 0.7910869 -0.6579742
0.063403845 0.78997236 -0.27374038 0.02338374 0.40079725 -0.29212195 -0.69090986 -0.041792218
0.5591387 -0.6398263 -0.32064912 0.30651343 0.58532137 0.35608417 0.24559778 0.20965695
00000000: c090 dabe 0528 64bf a2ee 163f 35b6 01bf
00000010: 9dff 06bf a98f aebe d376 1ebf 5190 223f
00000020: 8674 62be cf41 54bd cebe 5dbe 1504 38bf
00000030: a77d 95be 659c 193e ac84 4a3f ff70 28bf
00000040: e0d9 813d a13b 4a3f b327 8cbe 428f bf3c
00000050: 4c35 cd3e 0291 95be 78df 30bf 512e 2bbd
00000060: b723 0f3f a8cb 23bf 1f2c a4be 54ef 9c3e
00000070: 9fd7 153f aa50 b63e fc7d 7b3e 50b0 563e

model.9.bias f4 [4]
-0.30408415 -0.28635946 -0.120075 -0.12550354
00000000: ebb0 9bbe b59d 92be e2e9 f5bd 0084 00be
