saved_models/MLP/ckpt__epoch100.ckpt (torch, 18336 bytes, 20 tensors)

model.0.weight f4 [32, 64]
0	0x3def70df	0.1169145
1	0x3c92d606	0.01792432
2	0x3dacaf4b	0.08431872
3	0x3d62b64f	0.055349644
4	0xbd168fef	-0.03675836
5	0x3cb1e5eb	0.021716079
6	0xbd6ef1c4	-0.058336034
7	0xbd928f70	-0.07156265
8	0x3d18762e	0.03722208
9	0x3de492d7	0.1116082
10	0xbd82e033	-0.06390419
11	0x3d80da1a	0.062915996
12	0xbd35495d	-0.044259418
13	0xbce3c881	-0.027805569
14	0x3e095a4f	0.13413356
15	0x3d07cbb3	0.033153247
16	0xbdc14c7f	-0.094384186
17	0x3da12977	0.07869237
18	0xbd63e72d	-0.05564039
19	0x3c1be4d8	0.00951501
20	0xbdcfdb40	-0.101492405
21	0x3d00dfc7	0.03146341
22	0xbdbd58b8	-0.092454374
23	0xbda033cd	-0.0782238
24	0x3daf072b	0.08546289
25	0xbd081a13	-0.03322799
26	0xbc66874e	-0.014070345
27	0xbde344b0	-0.110970855
28	0x3d8e7852	0.06956543
29	0xbaa83147	-0.0012832069
30	0x3d351dd6	0.044217907
31	0x3c242376	0.01001822
32	0xbe274058	-0.16333139
33	0xbdb682a1	-0.08911634
34	0xbccb52ac	-0.024819694
35	0x3d9035ef	0.07041537
36	0xbc583e4f	-0.013198449
37	0x3d237608	0.039907485
38	0xbe63bb21	-0.22239353
39	0xbd25de16	-0.040495
40	0xbdad1c29	-0.08452637
41	0x3e120a74	0.142618
42	0x3cb4ed63	0.022085851
43	0x3c8a41d4	0.016877092
44	0x3c9f59a7	0.01945193
45	0xbbd1adf7	-0.006398912
46	0xbd3fb673	-0.046804857
47	0xbd2bd83b	-0.04195426
48	0x3da387ac	0.07984862
49	0xbbba962a	-0.0056941705
50	0x3dabf593	0.08396449
51	0x3d90ff78	0.07079977
52	0x3c222b21	0.009897978
53	0xbb1ef099	-0.0024252294
54	0xbcd4f45b	-0.025995424
55	0xbd908933	-0.07057419
56	0x3e38da45	0.18052013
57	0x3dbf105a	0.09329291
58	0x3d186460	0.0372051
59	0xbdaad0a7	-0.083405785
60	0xbc92d7d6	-0.017925184
61	0x3c9b50b5	0.018959383
62	0x3dda2649	0.106518336
63	0xbd4167ca	-0.04721812
64	0xbd25d653	-0.0404876
65	0x3e4fb117	0.20282398
66	0xbe568c49	-0.20951952
67	0xbdd73b3e	-0.105093464
68	0x3d1227bf	0.035682436
69	0xbdcb783d	-0.09935043
70	0xbd784d7d	-0.060620774
71	0x3d85fb14	0.0654203
72	0xbc837e40	-0.016051412
73	0x3defca52	0.117085114
74	0x3e61d3ac	0.22053403
75	0x3de4bb55	0.11168543
76	0xbd571f08	-0.052519828
77	0x3db440dc	0.088014334
78	0x3d2b7fad	0.041869808
79	0xbd3e2800	-0.046424866
80	0x3be35387	0.0069374475
81	0xbdf9aafa	-0.12190814
82	0x3e084ac2	0.13309768
83	0xbbf77ed3	-0.0075529604
84	0xbd16bac1	-0.036799196
85	0x3bc02868	0.005864192
86	0x3d8b0cfc	0.06789586
87	0xbd5617a9	-0.052268658
88	0xbc23e219	-0.010002636
89	0xbae92453	-0.0017787315
90	0xbcc47266	-0.02398033
91	0xbbb102cf	-0.005401946
92	0x3c5dfdcb	0.0135492785
93	0xbc7eb4fb	-0.015546079
94	0x3d1f7a9e	0.038935296
95	0x3d6467b3	0.055762958
96	0xbd1a598c	-0.037683055
97	0x3e2a0548	0.16603577
98	0xbdf67ab4	-0.120351225
99	0xbcbd04cb	-0.023073575
100	0x3d1213f0	0.035663545
101	0xbd9dac55	-0.07698885
102	0xbd71f3f0	-0.059070528
103	0x3cdc5b32	0.026898954
104	0xbce41909	-0.027843969
105	0x3d308b3a	0.043101527
106	0x3df72720	0.120680094
107	0x3e0d44c1	0.13795759
108	0xbbb34332	-0.005470657
109	0x3ddc7ef9	0.107664056
110	0x3aaacb74	0.0013030604
111	0x3d5a9912	0.053368635
112	0xbcbd13b5	-0.023080686
113	0x3d135a15	0.03597458
114	0x3aa52ac6	0.0012601248
115	0x3d9bf8af	0.07615792
116	0x3c74999a	0.0149292
117	0x3cf404cb	0.029787442
118	0x3dcb4051	0.09924377
119	0xbdb05407	-0.08609777
120	0xbc8f906b	-0.017524919
121	0xbe020922	-0.12698796
122	0x3d9840f1	0.074342616
123	0xbc9992a6	-0.018746685
124	0xbad44ecc	-0.00161978
125	0x3c5ef5df	0.013608425
126	0xb944fc1f	-0.00018785939
127	0x3c64f74c	0.013974976
128	0xbb566f7b	-0.0032720256
129	0x3d6ecdba	0.058301665
130	0xbc94672e	-0.018115606
131	0x3d22590e	0.03963571
132	0xbc78a283	-0.015175465
133	0x3e18f42b	0.14936893
134	0xbd52da1a	-0.05147753
135	0x3d5174bd	0.05113672
136	0x3c91dada	0.017804552
137	0x3c3a5795	0.01137342
138	0xbe9e1741	-0.30877116
139	0xbdb49a10	-0.088184476
140	0x3cde0c4d	0.027105475
141	0xbe0cedd7	-0.13762604
142	0x3ca9776c	0.020686828
143	0x3d3fad17	0.04679593
144	0x3d044a3d	0.03229736
145	0x3d0baafa	0.034098603
146	0x3c9846a7	0.018588377
147	0x3c09ddd7	0.008414707
148	0xbd47ad8b	-0.048749488
149	0xbc27c342	-0.010239424
150	0x3d4e2445	0.050327558
151	0x3ccbcd8a	0.024878282
152	0x3d5eebee	0.05442422
153	0xbd9fc0ca	-0.078004435
154	0x3e09d1cb	0.13458936
155	0x3e392e07	0.18083964
156	0xbda5b704	-0.08091548
157	0x3e3528dc	0.17691368
158	0xbb225f53	-0.0024776056
159	0x3dc5fc51	0.09667266
160	0x3c08ade2	0.008342238
161	0x3dd1cb3e	0.102438435
162	0xbcd3f328	-0.025872782
163	0xbd72b9ad	-0.059259105
164	0x3d39c33e	0.045352213
165	0xbd8850ae	-0.066560134
166	0x3c8dceb4	0.017310478
167	0xbbf52341	-0.0074810092
168	0x3d2fa4b0	0.042881668
169	0xbe29cb37	-0.16581427
170	0xbc51950d	-0.012791884
171	0xbd821fd9	-0.06353731
172	0x3cba0ca1	0.0227111
173	0xbc72c37a	-0.014817113
174	0xbcef770c	-0.02923157
175	0x3d1e0afd	0.038584698
176	0x3b459f15	0.0030154635
177	0x3dc0a921	0.09407259
178	0x3e135537	0.14387976
179	0x3cd85688	0.026408449
180	0xbceee277	-0.029160721
181	0x3d9359cb	0.07194861
182	0x3d256ec4	0.040388837
183	0x3d37ec09	0.044902835
184	0xbbd91f5c	-0.006626053
185	0xbd512ffb	-0.05107115
186	0xbe0608ba	-0.13089266
187	0xbb825977	-0.00397795
188	0x3ce2b2a9	0.027673082
189	0xbd9ce3ca	-0.07660635
190	0x3b2366b5	0.0024933044
191	0x3cdf4b50	0.027257591
192	0xbcb3bd06	-0.02194072
193	0xbab0eac5	-0.0013497701
194	0x3e37d45d	0.17952104
195	0x3d9bffe0	0.07617164
196	0xbd88d851	-0.06681884
197	0x3e092e62	0.133966
198	0xbca398b2	-0.019970272
199	0xbc9f4069	-0.019439893
200	0x3cd98561	0.026552858
201	0xbe153f98	-0.1457504
202	0x3df57867	0.119858555
203	0x3db34118	0.0875265
204	0xbd84dbba	-0.06487222
205	0x3e2be793	0.16787557
206	0x3db6cb12	0.08925451
207	0x3b2d8fb2	0.0026483354
208	0xbb52cca5	-0.0032165435
209	0x3ca40b28	0.020024851
210	0xbe4284c1	-0.18995954
211	0xbe1eaba0	-0.15495157
212	0x3cfea37b	0.031083813
213	0xbdd689b8	-0.104754865
214	0xbc6595e2	-0.014012786
215	0xbd05cf63	-0.032668483
216	0x3d2a33a8	0.04155317
217	0x3caf13b6	0.021371704
218	0xbdbf8356	-0.09351222
219	0xbd60006e	-0.05468791
220	0x3d8802d9	0.06641168
221	0xbd8abf57	-0.067747764
222	0xbd62c6e7	-0.05536547
223	0xbd0ac58d	-0.033879805
224	0x3c2bd39a	0.010487461
225	0x3cecb91b	0.028896859
226	0xbd4c372a	-0.049857296
227	0x3c3e0980	0.011598945
228	0xbbeb0c21	-0.0071730767
229	0xbb8283c5	-0.0039829933
230	0x3ca6fe13	0.020384824
231	0xbd9d002d	-0.07666049
232	0x3c4e2948	0.012583084
233	0xbc94633e	-0.018113729
234	0xbe5eb9e1	-0.21750595
235	0xbd0b7cd3	-0.03405459
236	0x3d80c3a5	0.06287316
237	0xbdd6bfa7	-0.104857735
238	0x3c5b1b60	0.013373226
239	0xbd744001	-0.05963135
240	0x3c96ca4f	0.018407015
241	0x3ac0cc1b	0.0014709266
242	0xbb8ece49	-0.004358087
243	0xbc11da61	-0.008902163
244	0x3d0ea36b	0.034823816
245	0xbc76a16c	-0.015053134
246	0xbd4062ea	-0.04696933
247	0xbcd7d1d1	-0.026345165
248	0xbc8a77aa	-0.016902763
249	0x3e405b6a	0.18784872
250	0x3cb90289	0.022584217
251	0x3d394e5c	0.045240745
252	0xbbb18ac4	-0.0054181535
253	0x3ccb5469	0.024820523
254	0x3c8c4ef8	0.017127499
255	0xbd40e758	-0.047095627

model.0.bias f4 [32]
0	0xbd8da2d0	-0.0691582
1	0xbd55f5a5	-0.052236218
2	0xbc87980b	-0.016551992
3	0xbd01a497	-0.031651106
4	0x3d9f5b17	0.07781046
5	0xbd3a6b94	-0.04551275
6	0x3e2c9fb7	0.16857801
7	0x3e5513a7	0.20808278
8	0x3d765f35	0.06014939
9	0x3d5fdcbc	0.054653868
10	0x3cd76332	0.026292417
11	0x3e68f357	0.22749077
12	0x3d91b6bf	0.07114934
13	0xbb998c72	-0.004685932
14	0x3e64377e	0.22286794
15	0x38d4a0ca	0.00010138897
16	0x3c180bd4	0.009280164
17	0x3d31c2c7	0.043398645
18	0xbd9c96a2	-0.076459184
19	0xbdd9ee72	-0.10641183
20	0xbcd7eb3a	-0.026357282
21	0x3cdf8b66	0.02728815
22	0xbd471828	-0.04860702
23	0x3e0ab75d	0.1354651
24	0x3df39615	0.1189386
25	0xbe065464	-0.1311813
26	0xbe5fb1db	-0.2184519
27	0x3d991d3b	0.074762784
28	0x3ce627de	0.028095182
29	0x3d4374ed	0.04771893
30	0x3e0587e1	0.13040115
31	0x3dbd4f43	0.092436336

model.2.weight f4 [32]
0	0x3f7ab7d2	0.9793674
1	0x3f811e3a	1.008735
2	0x3f639995	0.8890622
3	0x3f804a6d	1.0022713
4	0x3f6ee122	0.93312275
5	0x3f829795	1.0202509
6	0x3f781d61	0.9691983
7	0x3f6ee6b2	0.93320763
8	0x3f733bd4	0.95013165
9	0x3f8a16b4	1.0788178
10	0x3f89110d	1.0708328
11	0x3f8cc8d3	1.0998787
12	0x3f7e00fb	0.99220246
13	0x3f85b084	1.0444493
14	0x3f86de4b	1.0536588
15	0x3f811813	1.0085472
16	0x3f887050	1.0659275
17	0x3f6c6943	0.92348117
18	0x3f7287ac	0.9473827
19	0x3f88e3b7	1.0694493
20	0x3f6dd72f	0.9290647
21	0x3f783d06	0.96968114
22	0x3f74430c	0.95414805
23	0x3f76fc9e	0.96479213
24	0x3f7c139f	0.9846744
25	0x3f836447	1.0264977
26	0x3f73f0a0	0.9528904
27	0x3f892339	1.0713874
28	0x3f8037ce	1.001703
29	0x3f7e3c22	0.99310505
30	0x3f79bce6	0.9755386
31	0x3f883cd7	1.0643567

model.2.bias f4 [32]
0	0x3cbe6e1a	0.02324586
1	0x3dfcb75f	0.12339663
2	0xbcba9bf1	-0.022779437
3	0xbc529f3e	-0.012855349
4	0x3d354fd3	0.04426558
5	0x3c3244c1	0.01088065
6	0xbd9ee673	-0.077587985
7	0x3cb215ab	0.021738848
8	0x3ba890c1	0.005144209
9	0xbcb8a292	-0.022538457
10	0xbc3223ac	-0.010872763
11	0x3d5e33c3	0.054248583
12	0x3d5d5564	0.054036513
13	0x3d86b324	0.06577137
14	0x3dbdd6cf	0.09269487
15	0xbb847a89	-0.0040429276
16	0x3cd04fcc	0.025428675
17	0x3d721cac	0.059109375
18	0x3d81456b	0.063120686
19	0x3d8f1d98	0.069880664
20	0x3c8399b1	0.016064497
21	0x3ca62ce2	0.020285074
22	0xbd1b926e	-0.037981443
23	0x3ca0f78e	0.019649293
24	0xbd9033b2	-0.0704111
25	0x3d9c1131	0.076204665
26	0xbcedc16c	-0.029022895
27	0x3d84668b	0.06464871
28	0x3c2f5375	0.01070105
29	0xbc50af75	-0.012737145
30	0xbc83f153	-0.016106283
31	0xbd348759	-0.04407439

model.2.running_mean f4 [32]
0	0x40718c8c	3.7742033
1	0x402985bb	2.6487873
2	0x4059eaad	3.4049485
3	0x404ec802	3.2309575
4	0x408daeae	4.427573
5	0x4082482c	4.07131
6	0x4085079c	4.157179
7	0x40464905	3.0982068
8	0x40728a58	3.7896938
9	0x403adcb6	2.9197211
10	0x404718bb	3.1108844
11	0x4082b46e	4.084525
12	0x406f5e3d	3.7401268
13	0x404ae1a3	3.1700218
14	0x4058fe08	3.3905048
15	0x409506bc	4.657072
16	0x4068de56	3.6385703
17	0x408fccf6	4.4937696
18	0x4074b9fc	3.8238516
19	0x404d580d	3.2084992
20	0x402e7823	2.7260826
21	0x409389dc	4.6105785
22	0x40421b13	3.0329025
23	0x4077a5f7	3.8695047
24	0x4080baad	4.0227876
25	0x40840784	4.1259174
26	0x402bd650	2.6849556
27	0x405d272e	3.4555163
28	0x405129ad	3.2681687
29	0x4056517b	3.3487232
30	0x408ab46c	4.334524
31	0x404607af	3.094219

model.2.running_var f4 [32]
0	0x424ee294	51.721268
1	0x41ad05e4	21.627876
2	0x41f90800	31.128906
3	0x41d6762c	26.807701
4	0x4240a42a	48.160316
5	0x4222ed2e	40.73162
6	0x421c9d9b	39.15391
7	0x41c89f10	25.077667
8	0x4209a5ad	34.411793
9	0x41d6833a	26.814075
10	0x4213fc52	36.996407
11	0x428bcddf	69.90209
12	0x4242ba22	48.68177
13	0x421351e1	36.82996
14	0x41ea2d09	29.27199
15	0x425aa91b	54.665142
16	0x4283b06a	65.84456
17	0x42359d8e	45.403862
18	0x42326c62	44.605843
19	0x426597e4	57.39833
20	0x419237e6	18.277294
21	0x423fd127	47.95425
22	0x41e0c924	28.098213
23	0x4235a56c	45.411545
24	0x422a7321	42.61243
25	0x42aacf32	85.40468
26	0x41c6dd5c	24.858086
27	0x42107617	36.115322
28	0x423d30d9	47.297703
29	0x420a96e3	34.64735
30	0x423cf249	47.236607
31	0x420c1deb	35.029217

model.3.weight f4 [16, 32]
0	0xbdb3dec0	-0.087827206
1	0x3c31961e	0.010839013
2	0x3d19f9f2	0.037591882
3	0x3d0d0df1	0.034437124
4	0x3d61ef57	0.055159893
5	0x3d746800	0.059669495
6	0x3de1a7f2	0.11018361
7	0x3db4143c	0.08792922
8	0x3d9b3c3a	0.07579847
9	0xbe062d73	-0.13103275
10	0xbe2c1b6d	-0.16807337
11	0xbe4fa5f8	-0.20278156
12	0x3c8cab50	0.017171532
13	0xbd208037	-0.039184775
14	0xbdbe24f5	-0.09284393
15	0x3e1e6a42	0.15470222
16	0xbe3c1c1c	-0.18370098
17	0x3d95a705	0.07307247
18	0xbe2c9767	-0.1685463
19	0xbe423551	-0.18965651
20	0x3d56b3d4	0.05241759
21	0x3d69a59f	0.057042714
22	0xbde9f526	-0.114237115
23	0xbcbaa5f7	-0.022784216
24	0xbc5611f6	-0.013065806
25	0xbe68ca49	-0.22733416
26	0xbe2237db	-0.1584162
27	0xbd901613	-0.0703546
28	0xbe6d0887	-0.23147784
29	0xbd4ec420	-0.050480008
30	0x3e0f36ec	0.13985795
31	0xbe5fc827	-0.21853696
32	0xbc3dac20	-0.011576682
33	0x3d4fd009	0.050735507
34	0x3dd45aff	0.10368919
35	0x3de4aae1	0.11165405
36	0xbde7ce34	-0.11318627
37	0x3d23fc1d	0.040035356
38	0x3c57ecfb	0.013179059
39	0x3d0c2f36	0.03422471
40	0xbe16f824	-0.14743096
41	0xbc8fe7d6	-0.017566603
42	0x3dfcafa8	0.12338191
43	0xbe759262	-0.23981622
44	0xbb85fb77	-0.004088815
45	0xbd468faa	-0.048476852
46	0x3cb690f2	0.022285912
47	0x3cdf6399	0.027269172
48	0x3da407c4	0.08009294
49	0x3d23e4b1	0.04001302
50	0xbd8fda28	-0.07024032
51	0x3b7c5251	0.0038501213
52	0xbdf6e8df	-0.120561354
53	0xbe2086ca	-0.15676418
54	0xbe130506	-0.14357385
55	0xbd9692b9	-0.07352204
56	0xbddfd15f	-0.10928606
57	0xbdb45eba	-0.0880713
58	0x3e19e485	0.1502858
59	0x3d5fa6ca	0.05460242
60	0x3cb15ab9	0.021649705
61	0xbd92aa73	-0.07161417
62	0xbbf28083	-0.0074005737
63	0x3df66cbb	0.120324574
64	0xbc73aa22	-0.014872106
65	0xbc86d3c2	-0.016458396
66	0xbdf40036	-0.11914103
67	0xbc4d070d	-0.012513888
68	0xbe18542f	-0.14875863
69	0xbdbca7dc	-0.09211704
70	0xbdf3ae5d	-0.118984915
71	0xbb57d760	-0.003293477
72	0x3e5fc717	0.2185329
73	0xbca35a47	-0.019940509
74	0xbd9150bd	-0.07095478
75	0x3db524c7	0.08844905
76	0xbc987f7f	-0.018615482
77	0xbd1892c3	-0.037249338
78	0xbd4c7fd2	-0.049926586
79	0xbdb9b35d	-0.09067414
80	0x3dee2764	0.11628607
81	0xbcac90c2	-0.02106512
82	0x3e06b20a	0.13153854
83	0x3d84fe4f	0.06493818
84	0xbd8e0243	-0.06934025
85	0x3dd4bb67	0.10387307
86	0xbe0ae8b6	-0.13565335
87	0x3c716fba	0.01473611
88	0x3dd95763	0.10612371
89	0x3dec4ac7	0.115377
90	0xbd801745	-0.06254438
91	0xbe1182a3	-0.1420999
92	0x3b9bbf8b	0.0047530583
93	0xbd892afd	-0.066976525
94	0xbdc737c2	-0.09727432
95	0x3e34e624	0.17665917
96	0x3d3afe81	0.04565287
97	0x3e2348be	0.15945718
98	0xbdaf6f46	-0.085661456
99	0x3ab74385	0.0013981914
100	0xbe0cc56c	-0.13747185
101	0x3d9d3fd3	0.07678189
102	0x3d259cf1	0.040432874
103	0xbe542d48	-0.20720398
104	0x3d9d7e14	0.07690063
105	0x3dbb7cd2	0.09154667
106	0x3e02dd30	0.12779689
107	0xbc9fa4b6	-0.01948772
108	0xba8b646b	-0.0010634785
109	0xbe8b599e	-0.2721681
110	0x3e08645b	0.13319533
111	0x3dd5b25a	0.104344085
112	0xbc50743e	-0.012723027
113	0xbc908b96	-0.017644685
114	0x3d5379e7	0.051629927
115	0xbdb00ed8	-0.08596581
116	0x3dc65043	0.096832775
117	0x3d466d4c	0.048444077
118	0xbc8492a6	-0.016183209
119	0xbb896d8e	-0.004193968
120	0x3e3627b4	0.17788583
121	0xbdf78543	-0.120859645
122	0x3ccbd6de	0.02488273
123	0x3e215a19	0.15757026
124	0xbe144b78	-0.14481914
125	0x3cdbf50e	0.02685025
126	0xbd661f6c	-0.05618231
127	0xbdcd4997	-0.10023802
128	0xbdd16b21	-0.10225511
129	0x3dc96149	0.09833009
130	0x3e0049a9	0.12528099
131	0x3de86b6c	0.11348614
132	0x3d7e467c	0.062078938
133	0xbdd72580	-0.105051994
134	0xbe15448d	-0.14576931
135	0x3ce80d0f	0.02832654
136	0xbd0604b4	-0.03271933
137	0xbda9c4c3	-0.082894824
138	0xbd1db678	-0.038504094
139	0xbd258f7e	-0.040420048
140	0xbd02c895	-0.03192957
141	0x3e0638fb	0.13107674
142	0x3e2d3fd2	0.16918877
143	0xbd199af5	-0.037501294
144	0x3c42dddd	0.011893717
145	0x3dea31fc	0.11435315
146	0x3d9ff58e	0.07810508
147	0x3ca3268f	0.019915847
148	0x3d375aa1	0.044764165
149	0xbcd64244	-0.026154645
150	0xbd651b7d	-0.055934418
151	0x3c25299d	0.010080722
152	0xbe55aedd	-0.20867486
153	0x3dbe661f	0.09296822
154	0xbb49b53b	-0.0030778188
155	0xbd081d4e	-0.033231072
156	0x3aebb2ab	0.0017982324
157	0xbdfc4b07	-0.12318998
158	0x3d9e09eb	0.077167355
159	0xbe16727a	-0.14692107
160	0x3d9ebf52	0.07751335
161	0xbd0c7f3d	-0.03430103
162	0x3dbdeb25	0.09273366
163	0xbddb2199	-0.106997676
164	0xbd651d9a	-0.055936433
165	0xbc489329	-0.012242117
166	0x3c357e14	0.011077423
167	0xbe5e187e	-0.2168903
168	0xbd96f7e0	-0.07371497
169	0xbe3aea39	-0.18253411
170	0x3cc8d8be	0.024517413
171	0xbdaf18a4	-0.08549622
172	0xbd539bdd	-0.051662315
173	0x3de56fb7	0.112029485
174	0xbd263d0b	-0.04058556
175	0xbe054ec0	-0.13018322
176	0x3d8b6eb0	0.06808221
177	0xbd059f84	-0.03262283
178	0xbe114969	-0.1418816
179	0x3e3b5f56	0.18298087
180	0xbd271001	-0.040786747
181	0xbd934e4f	-0.071926706
182	0xbd9b2253	-0.07574906
183	0x3d570548	0.05249527
184	0xbc278b41	-0.010226072
185	0x3e1197bf	0.14218043
186	0xbdb828ef	-0.089921825
187	0x3e46a384	0.19398314
188	0x3ded80ab	0.11596807
189	0xbd30631c	-0.043063268
190	0xbdefec7c	-0.11715028
191	0x3d01cd06	0.031689666
192	0x3e47d3d1	0.19514395
193	0xbdcd4d89	-0.10024554
194	0xbd658a98	-0.056040376
195	0xbdd86cc3	-0.1056762
196	0x3db6731f	0.08908676
197	0xbe3447dc	-0.17605537
198	0xbdb702e2	-0.08936097
199	0xbd727ddb	-0.059202056
200	0x3c01c149	0.007919618
201	0x3be1ef23	0.0068949624
202	0xbd94bea6	-0.07262926
203	0xbd70cb96	-0.058787905
204	0x3cb2fa22	0.021847788
205	0xbe00e1b4	-0.12586099
206	0xbe3bf8df	-0.18356656
207	0xbdd6a66a	-0.1048096
208	0xbe4d50ba	-0.20050326
209	0x3cff9eb7	0.03120361
210	0xbd65997a	-0.05605457
211	0xbdfe02ad	-0.12402854
212	0x3d9e5f11	0.07732976
213	0xbbef0b28	-0.007295031
214	0xbd6af469	-0.057361994
215	0x3dc9890e	0.09840594
216	0x3daf2bc4	0.085532695
217	0xbd99a5e8	-0.07502347
218	0x3d3de035	0.0463564
219	0x3d97299e	0.07380985
220	0xbd7eec95	-0.06223734
221	0xbdcc48da	-0.09974833
222	0xbdfd65ab	-0.12372907
223	0x3e06e499	0.1317314
224	0x3d943086	0.072358176
225	0x3d305df7	0.04305836
226	0x3e0dbb79	0.13841046
227	0xbd570e19	-0.05250368
228	0x3dea8777	0.11451619
229	0xbe0ae719	-0.1356472
230	0x3d0a3406	0.03374102
231	0xbe0e082a	-0.13870302
232	0x3d95a8a6	0.07307558
233	0x3e0bd263	0.13654475
234	0xbe881987	-0.26581976
235	0x3d177ec5	0.03698613
236	0xbdf686ab	-0.120374046
237	0x3e45ac12	0.19303921
238	0xbe5293b2	-0.20564154
239	0xbc983e50	-0.0185844
240	0xbe454433	-0.19264297
241	0x3ce6916c	0.028145514
242	0x3c5a35f2	0.013318526
243	0xbcdf86eb	-0.027286014
244	0x3d843050	0.064545274
245	0x3dd210ad	0.10257087
246	0x3d435874	0.047691777
247	0xbdf86dd2	-0.121303216
248	0xbdd8da9c	-0.105885714
249	0x3d9d75bc	0.07688472
250	0x3e350281	0.17676736
251	0x3b4dcb4d	0.0031401694
252	0x3e1a26b7	0.15053831
253	0xbde42b0f	-0.11141025
254	0xbd33d135	-0.043900687
255	0xbe521f52	-0.2051976

model.3.bias f4 [16]
0	0x3d71ed32	0.059064098
1	0xbe1c8432	-0.15284804
2	0x3cbc96ff	0.02302122
3	0x3e2c8580	0.16847801
4	0x3dc8a150	0.09796393
5	0x3c117ff6	0.008880606
6	0x3e203cf3	0.1564825
7	0xbd105c16	-0.03524407
8	0x3e2dec5a	0.16984692
9	0x3e25fda3	0.16210036
10	0xbc1f0506	-0.0097057875
11	0x3d9dfab3	0.07713833
12	0xbc3da330	-0.011574551
13	0xbe3526c2	-0.17690566
14	0x3e2d54a8	0.16926825
15	0x3a10759d	0.000551069

model.5.weight f4 [16]
0	0x3f88c605	1.0685431
1	0x3f6c6fd5	0.9235814
2	0x3f822149	1.0166408
3	0x3f5a482e	0.8526639
4	0x3f79a498	0.97516775
5	0x3f73f6c3	0.95298404
6	0x3f768ef1	0.9631186
7	0x3f834ed6	1.0258434
8	0x3f808064	1.0039182
9	0x3f826cc6	1.0189445
10	0x3f8e44a1	1.1114694
11	0x3f85dd02	1.0458071
12	0x3f7662ae	0.96244323
13	0x3f63f7d8	0.89050055
14	0x3f6e589a	0.93103945
15	0x3f84f7d0	1.0388126

model.5.bias f4 [16]
0	0xbe979357	-0.296046
1	0xbde7ac59	-0.113121696
2	0x3e41442e	0.18873665
3	0xbe3c603b	-0.18396084
4	0x3c01cb9b	0.0079220785
5	0xbd5a3941	-0.053277258
6	0xbc8b274c	-0.016986512
7	0x3e3389a4	0.17532974
8	0xbd472f4e	-0.048629098
9	0x3e6c07cc	0.2304985
10	0x3cccd930	0.025005907
11	0xbdb2a73b	-0.08723303
12	0xbe1bb5b0	-0.15206027
13	0x3da4dddc	0.08050129
14	0x3cef352c	0.029200159
15	0xbc71e0fb	-0.014763112

model.5.running_mean f4 [16]
0	0x3ea97c5b	0.33102688
1	0x3ddba0a4	0.10723999
2	0x3e59f7d4	0.21285945
3	0x3e99b653	0.30021915
4	0x3e8839dd	0.26606646
5	0x3e54b81c	0.20773357
6	0x3e956fa2	0.29186732
7	0x3e641682	0.22274211
8	0x3ea654a7	0.3248646
9	0x3ea32555	0.3186442
10	0x3e7ee229	0.24890961
11	0x3e72b9a9	0.23703636
12	0x3e356925	0.1771589
13	0x3e11558a	0.14192787
14	0x3e90ad65	0.2825729
15	0x3e6ce386	0.23133668

model.5.running_var f4 [16]
0	0x3ddfaf3a	0.10922094
1	0x3d4170d9	0.04722676
2	0x3e4d78c0	0.20065594
3	0x3e03a7c5	0.12856968
4	0x3db7376e	0.08946119
5	0x3e0c46ad	0.13698836
6	0x3db87d59	0.09008283
7	0x3e1ba4da	0.15199605
8	0x3e2521e4	0.1612621
9	0x3ebed16d	0.37269154
10	0x3ea61fd1	0.3244615
11	0x3e0a0d2e	0.1348159
12	0x3d780607	0.060552623
13	0x3d9f869e	0.07789348
14	0x3e26069a	0.16213456
15	0x3e5fc8c2	0.21853927

model.6.weight f4 [8, 16]
0	0xbda9cb0e	-0.08290683
1	0xbe181035	-0.14849932
2	0xbd170572	-0.036870427
3	0xbd389c23	-0.04507078
4	0xbe01046a	-0.1259934
5	0x3e3c5214	0.18390685
6	0x3e6dba50	0.23215604
7	0xbdc23587	-0.09482866
8	0xbddf36c0	-0.108991146
9	0x3e4d56be	0.20052621
10	0x3e1e3c17	0.1545261
11	0x3d98e83a	0.07466169
12	0xbe7e4fe9	-0.24835171
13	0xbd845f51	-0.06463493
14	0xbe33d33c	-0.17561048
15	0x3daf7f82	0.08569242
16	0xbe555120	-0.20831728
17	0x3e69035f	0.22755192
18	0xbe33bd54	-0.17552692
19	0xbe22ab6f	-0.15885709
20	0xbce18a40	-0.027531743
21	0xbdb376a0	-0.0876286
22	0xbce21028	-0.027595595
23	0x3e1a4430	0.15065074
24	0xbda359f9	-0.07976145
25	0xbd166777	-0.036719766
26	0xbe94fc4e	-0.29098743
27	0x3d950131	0.07275618
28	0xbdb42d8a	-0.087977484
29	0xbda40b82	-0.080100074
30	0x3dd57f71	0.10424698
31	0x3d61ea08	0.05515483
32	0xbe8aaa89	-0.27083233
33	0xbe4503f7	-0.19239794
34	0x3e0749b8	0.13211715
35	0xbdca7a14	-0.09886566
36	0xbc535333	-0.012898254
37	0xbd45b8c3	-0.048271906
38	0xbe1f9963	-0.15585856
39	0xbdb1f76b	-0.08689769
40	0x3db52a5e	0.088459715
41	0x3e0541b8	0.13013351
42	0x3d8a4d0c	0.06752977
43	0xbe357eca	-0.17724147
44	0x3e12d37d	0.14338489
45	0x3dd00ee1	0.10159088
46	0x3da7fdd4	0.08202711
47	0xbd439c76	-0.047756635
48	0xbe2673ed	-0.1625516
49	0x3c92bf71	0.017913552
50	0x3e2091db	0.1568064
51	0xbd8cbdfe	-0.06872176
52	0xbe34d772	-0.17660311
53	0xbd8de630	-0.069286704
54	0x3db5d924	0.08879307
55	0x3ec3e960	0.38263988
56	0x3d08d8e5	0.03340997
57	0xbd9eae08	-0.077480376
58	0x3d6d141b	0.057880502
59	0x3df5debd	0.120053746
60	0xbe62dae3	-0.22153811
61	0xbca86f5c	-0.020560913
62	0xbd82d2fc	-0.06387898
63	0xbe886696	-0.26640767
64	0xbde9acbd	-0.114099
65	0xbd0de911	-0.034646098
66	0xbdac0946	-0.08400206
67	0x3dc8de86	0.09808068
68	0x3e5d7b1b	0.21628992
69	0xbe71f3fa	-0.23628226
70	0xbe01dbc5	-0.12681492
71	0x3d720dba	0.059095122
72	0xbcbb2b8d	-0.022847915
73	0xbdd07984	-0.10179427
74	0xbe9763bc	-0.2956828
75	0xbe08ec17	-0.13371311
76	0xbe0b2ee5	-0.13592108
77	0x3db02a0e	0.08601771
78	0x3d397037	0.045273032
79	0xbdff962b	-0.12479814
80	0xbeade6aa	-0.33965045
81	0x3e1a4237	0.15064321
82	0x3e26390a	0.16232696
83	0xbde6103f	-0.112335674
84	0x3d1dee29	0.038557205
85	0x3e14e974	0.1454218
86	0xbd3c0d37	-0.04591104
87	0x3bbfe7eb	0.005856504
88	0xbd695689	-0.056967292
89	0x3d1c28a3	0.03812469
90	0x3e245d86	0.16051301
91	0x3de943a6	0.11389856
92	0xbe764c35	-0.24052508
93	0xbcf30558	-0.029665634
94	0xbdaf0aab	-0.08546957
95	0x3e0f9a5e	0.1402373
96	0xbdbc417a	-0.09192176
97	0x3d29dc52	0.04146988
98	0x3d473d7b	0.048642617
99	0xbd8892e3	-0.066686414
100	0x3de015ed	0.10941682
101	0xbe675950	-0.22592664
102	0xbdc50e1a	-0.0962183
103	0x3c00d699	0.007863664
104	0x3e11948b	0.14216821
105	0xbdf37ab5	-0.11888639
106	0xbe1f7359	-0.15571345
107	0xbe07f821	-0.13278247
108	0x3dff9761	0.12480045
109	0x3bb79f49	0.005603705
110	0x3d1c8f2d	0.03822248
111	0xbe860dcb	-0.26182398
112	0x3dbe191a	0.092821315
113	0xbde79e13	-0.11309447
114	0xbe2e7917	-0.1703838
115	0x3dbc6712	0.091993466
116	0xbde75a32	-0.112965
117	0x3dabf10a	0.08395584
118	0x3c5a4624	0.013322387
119	0x3d1fe2c1	0.03903461
120	0xbdfaa8b6	-0.1223921
121	0xbe7556d1	-0.23958899
122	0xbe82b9da	-0.25532418
123	0x3dd0d1c4	0.101962596
124	0xbda25524	-0.079263955
125	0x3d8b00bb	0.06787249
126	0xbe108e9a	-0.14116898
127	0xbd8dc93b	-0.06923147

model.6.bias f4 [8]
0	0xbc4053f2	-0.011738764
1	0x3e1ac132	0.1511276
2	0x3ea09cb4	0.31369555
3	0xbcf22f54	-0.029563583
4	0xbda2e0cf	-0.07953035
5	0x3e64c3aa	0.22340265
6	0x3e9f3683	0.31096277
7	0xbe33a756	-0.17544302

model.8.weight f4 [8]
0	0x3fb6f55d	1.4293629
1	0x3fd84c68	1.6898317
2	0x3fc138b7	1.5095433
3	0x3fabef1d	1.3432347
4	0x3fb5e229	1.4209644
5	0x3fd68b60	1.6761284
6	0x3fcf79e0	1.6209068
7	0x3fcc146d	1.5943733

model.8.bias f4 [8]
0	0xbe5b8dce	-0.21440813
1	0x3d6d7327	0.057971146
2	0x3e0c9375	0.13728125
3	0xb99fcb2c	-0.00030478218
4	0x3e3b3a0f	0.18283866
5	0x3d082bfb	0.033245068
6	0x3e4f62cc	0.20252532
7	0xbdebac67	-0.115074925

model.8.running_mean f4 [8]
0	0x3e92eeee	0.28697914
1	0x3e8eba1e	0.2787637
2	0x3effb9dc	0.49946487
3	0x3e8dea13	0.27717647
4	0x3e5cf75b	0.21578734
5	0x3f09f6e6	0.5389236
6	0x3ee652d6	0.44985074
7	0x3d8f1eef	0.06988322

model.8.running_var f4 [8]
0	0x3e3bba6a	0.1833283
1	0x3dfe487c	0.12416169
2	0x3e29d46d	0.1658494
3	0x3e3e66f4	0.18593961
4	0x3db80026	0.08984403
5	0x3ed8eb26	0.42366904
6	0x3df1a93a	0.117998555
7	0x3c755cc5	0.014975731

model.9.weight f4 [4, 8]
0	0x3f1767d5	0.5914281
1	0x3e04c908	0.12967312
2	0x3f251185	0.6447986
3	0x3e6c5389	0.23078741
4	0xbf25e9d6	-0.6480993
5	0x3f201022	0.62524617
6	0xbf38c387	-0.7217335
7	0xbf281133	-0.65651244
8	0x3e62eb74	0.2216013
9	0xbef3b5ec	-0.47599733
10	0xbf3a9db3	-0.7289688
11	0xbe48e118	-0.19617116
12	0xbf226a98	-0.634439
13	0xbf27cfbb	-0.65551347
14	0xbedb5249	-0.42836216
15	0x3ef3310b	0.47498354
16	0xbf0fb298	-0.5613189
17	0x3f1c10cb	0.60963124
18	0x3ce43263	0.027856058
19	0x3eddff40	0.43358803
20	0x3f042806	0.5162357
21	0xbe474da0	-0.19463205
22	0x3eb2e3d8	0.34939456
23	0xbe917813	-0.28411922
24	0xbe83760f	-0.2567601
25	0xbf4e7ed2	-0.8066226
26	0x3e8db161	0.27674392
27	0xbf1e0ae5	-0.61735374
28	0x3e164bf6	0.14677414
29	0xbf171fb9	-0.5903278
30	0x3eba6459	0.36404684
31	0xbf2310c7	-0.63697475

model.9.bias f4 [4]
0	0xbe807cc2	-0.25095183
1	0xbcba646b	-0.022752961
2	0x3e4e15c7	0.20125495
3	0x3e366115	0.17810471
