saved_models/MLP/ckpt__epoch100.ckpt (torch, 18336 bytes, 20 tensors)

model.0.weight f4 [32, 64]
00000000: ebe6 6cbd 209d 1e3d 5834 083d 0f27 97bd
00000010: 3c92 cc3b 1746 debc 3653 79bd a6d2 863c
00000020: 9162 0fbd 3be6 c2bc fbb8 9fbd ae1f 2abd
00000030: 55d9 913d 2829 50bd 04c3 cfbd c21d 713c
00000040: ffa2 893d 84bc fb3d 1b17 a1bd 65de 99bd
00000050: 945a 6ebd 3b42 563d b01a 413b 447c 97bd
00000060: 920e ec3c f161 79bd 7419 d53d cb4a 263e
00000070: 56d5 81bd e8e9 1b3e 1453 b73b fe68 c7bd
00000080: 3c3d 27bd 6152 0e3e ba7d 35bd 856f bebb
00000090: 169d 1dbd 3eb3 ca3c 38ed c63d 43db be3b
000000a0: 9927 1f3d 03e8 39be b29a 3a3e 7f5e 7d3d
000000b0: da4c 82bd 2296 d03d 0215 263d 93ca 763d
000000c0: 713c 32bd a955 0cbe c19c 8dbb fb6a 9c3d
000000d0: b9c4 95bd bd92 4d3d 0fce 4d3d 340a b63d
000000e0: af09 833d a08b b7bd b21d 803d abd1 a9bd
000000f0: 580b c3bc c8a2 ca3b 1181 d63d fdf6 85bd
00000100: dd10 e53c 6a6a cdbc c183 8abb 912c 48bd
00000110: 1c50 453d f2e4 69bd 4c51 8f3d 4d28 51bd
00000120: 6f7a 6dbc 5467 763c 259d 5abd d393 d93c
00000130: 8fc8 bc3c eff0 2fbe 63bf 8e3c 77e6 8f3c
00000140: 892b a7bc e444 e53c 1ecc da3c 34a9 873c
00000150: dedc 9cbd 13ac 583e 7a22 023d 76ba 2dbd
00000160: 8b4d 57bd b2e2 39bd ee6c 863d d954 823c
00000170: 9427 d4bc b015 41bd 7512 26bc c911 54bd
00000180: f0a8 22bd d4f0 b0bd 3e86 ab3d 1f05 f93c
00000190: 0679 01bd 6a95 673d 7f93 843d fa4e 16bc
000001a0: 0cb4 323d 33c4 2abd ed9b 28bd af3c f93c
000001b0: ab78 80bb 0ce4 0ebe 7445 583d 29b5 03bb
000001c0: 868b 943d 37e2 f8bd 9e1e 403d 68b8 72bb
000001d0: d938 a0bd a9a7 063e 7576 923d 3fea 033d
000001e0: 7ad8 223d 85bc 313d e6d5 8ebd 5cc0 103d
000001f0: 7547 6dbd ecbb 4fbe b461 e3bb c34b 24bb
00000200: 48d5 27bd 668a 2c3d 178e 9d3c 1dfd c63d
00000210: 1905 94bd 3d79 babd feb2 fcbb 1a09 7bbd
00000220: 1d2a a63d df30 26bc 5d24 1ebd 4c50 44bc
00000230: e9d2 313d 2aa4 b63d 7db7 dfbd ee2e edbc
00000240: 6663 ac3b aeda bc3d 5eb3 97bd 81e1 533c
00000250: 1683 843c 273f 5a3c 0fcf 96bd c54a 92bc
00000260: 9e9a fbbb 7db0 383c a387 1bbd 1a59 e73c
00000270: 9d71 3a3e a7e6 0ebb f415 3f3e fce9 57bd
00000280: 5d5a d6bd a741 e6bc ab27 15bd 119e eabc
00000290: a48e 563d e611 e8bd 23d1 18bd f639 1f3d
000002a0: 7391 89bd 49f7 3cbd 84ce f03d f4e1 cdbd
000002b0: db40 483d 079c 35bd 733c 06be a7b1 b43c
000002c0: 4d94 bb3c 7118 cabd b1bc 3f3d 63f8 d1bc
000002d0: c3b6 f83c 0004 a93c e851 5fbd 3e06 c73c
000002e0: 23ce babc db81 75bc 749d d6bb b96b 6abd
000002f0: 6c82 3d3d 1801 acbd a035 053e 30af 6d3d
00000300: ec56 f73d 550a 8fbd ef31 43bc e924 9dbc
00000310: a5d5 3cbd 7523 b7bb 7268 343e 29b9 33bd
00000320: 1ffa 59bc eb4d 61bc c742 5a3d 85aa e33c
00000330: f057 81bc 2b15 f03c 3780 63be a381 8dbd
00000340: bfc0 133c 2f1a 513d c2e3 11be 71f8 14be
00000350: bb43 8b3d 070f 2b3d fe4d 4bbd a841 f93a
00000360: 3d6a 7d3b 62b5 a33b 656f c03c 5e83 ad3d
00000370: 0a40 b4bb e34d ca3c 23ed 17bd 736b ce3c
00000380: 3293 0ebd 1ffb e0bc 687b 993c 6bf7 f83c
00000390: 58ab 1abd 9c8f 0dbd 1e52 153e d8b1 c43c
000003a0: 8f3d 103e 5252 af3c 9d7b 933d 0d7c 69bd
000003b0: 6d59 cdbd 52bb 4abd 71a1 e53d ca4f 0d3d
000003c0: 313e 213e ae9a 69bb fa1a a33d c8e9 b03c
000003d0: fb44 f4bd dba8 2c3a 47db 973c 4c7f 223d
000003e0: e746 4f3c 1890 43bc 5fb2 a63d d400 073e
000003f0: fbb7 07bd 543f 9abd e197 a43d e631 d7bc
-0.057837408 0.038724065 0.033253044 -0.07380497 0.0062430184 -0.02713303 -0.06087037 0.016457867
-0.03500611 -0.023791423 -0.07798954 -0.04153412 0.07121531 -0.0508205 -0.10144618 0.0147165675
0.06720542 0.12291816 -0.07865735 -0.075131215 -0.05819185 0.052309256 0.002946537 -0.07396749
0.028815541 -0.06088442 0.104052454 0.16239469 -0.06339519 0.15225947 0.0055946205 -0.097368225
-0.040829882 0.13898613 -0.044309355 -0.005811634 -0.038479887 0.024743672 0.09713215 0.005824478
0.038856123 -0.18154912 0.18223074 0.061857697 -0.063623145 0.101848856 0.04054738 0.060251784
-0.043514673 -0.13704552 -0.004321665 0.076375924 -0.073129125 0.05018877 0.05024534 0.08888665
0.063983314 -0.08962178 0.06255664 -0.08291944 -0.02380912 0.006183956 0.10473836 -0.0654125
0.027962143 -0.025075156 -0.004227132 -0.048870627 0.0481721 -0.057103105 0.06997928 -0.051063824
-0.0144945225 0.015039284 -0.05337252 0.026559746 0.023044853 -0.17181753 0.017425245 0.017565949
-0.020406501 0.027986951 0.026708659 0.016560175 -0.076593146 0.21159391 0.03177116 -0.04241415
-0.052564185 -0.04538221 0.065637454 0.0159096 -0.025897779 -0.047139823 -0.010136236 -0.051774774
-0.039711893 -0.08639684 0.08375214 0.03039795 -0.031609558 0.056538977 0.06473445 -0.009174103
0.043628737 -0.041691016 -0.041164327 0.030424444 -0.0039206347 -0.1395418 0.05280061 -0.0020096994
0.072531745 -0.12152522 0.0469042 -0.0037036184 -0.07823343 0.13149895 0.071515 0.032205816
0.03975723 0.043392677 -0.06974392 0.0353397 -0.057929475 -0.2028653 -0.0069391374 -0.0025069572
-0.040974885 0.042124175 0.019232793 0.09716246 -0.07227535 -0.091051556 -0.007711767 -0.061287977
0.08113501 -0.010143488 -0.038608897 -0.011982035 0.04341403 0.089180306 -0.109236695 -0.028953042
0.0052608727 0.09221397 -0.074072585 0.012932182 0.016175788 0.013320721 -0.07363712 -0.017857919
-0.007678344 0.011272547 -0.03797115 0.02824073 0.18207403 -0.002180496 0.18660718 -0.05271338
-0.10466454 -0.028107477 -0.036414783 -0.028639825 0.052382126 -0.11331539 -0.037308823 0.038873635
-0.06717195 -0.046134267 0.1175814 -0.10052863 0.048889976 -0.044338252 -0.13108997 0.022057367
0.022897864 -0.09867943 0.04681081 -0.025631135 0.030360585 0.02063179 -0.05452147 0.024294969
-0.022803372 -0.014984573 -0.0065495316 -0.05723164 0.046266958 -0.08398646 0.13008738 0.0580284
0.12077126 -0.069843926 -0.011913761 -0.01918264 -0.046102185 -0.0055889436 0.17617968 -0.043877754
-0.013304262 -0.013751487 0.05328634 0.027791271 -0.015789002 0.029306969 -0.22216879 -0.06909492
0.009018122 0.05105036 -0.14247039 -0.14547898 0.06800028 0.041762378 -0.049634926 0.001901676
0.003866806 0.0049959878 0.023490617 0.08472322 -0.005500798 0.024695342 -0.037091386 0.02519772
-0.034808345 -0.027463494 0.018735602 0.030391416 -0.037761062 -0.034560785 0.14582106 0.024010584
0.14085983 0.021401558 0.07201312 -0.05700307 -0.10026822 -0.04949505 0.11212433 0.03449992
0.1574638 -0.0035645175 0.0796413 0.02159585 -0.119272195 0.0006586441 0.018537177 0.03967218
0.012651182 -0.01193621 0.0813949 0.1318391 -0.03313444 -0.0753161 0.08036781 -0.02626891

model.0.bias f4 [32]
00000000: cb84 303e 0b09 843d 5261 f43d c64c 003d
00000010: 4712 3c3d 9d02 2c3c ef4f e73d c38f dd3d
00000020: 3de7 803d 26fe 5e3d 2edf 67bd fc3f 2bbe
00000030: 9392 a53d f68c 803d 08f5 663c f41f 39bd
00000040: 9fd3 88bc e830 adbd eac3 c3bd 8454 0cbc
00000050: 700e 41be b62e 703d ff86 2eba 6b0f df3d
00000060: 1c9e 97bd 58f7 a7bd fcf2 e2bd 1f4c 68be
00000070: b463 aebd 1f61 653c 747b d83c 92f2 973d
0.17238156 0.06447037 0.11932625 0.031323217 0.045915868 0.01049867 0.11294543 0.10818436
0.06294105 0.054441594 -0.056609325 -0.16723627 0.080845974 0.06276886 0.014096506 -0.04519649
-0.016702471 -0.08456594 -0.09558852 -0.008565072 -0.18853164 0.058638297 -0.0006657689 0.108916126
-0.07403204 -0.08201474 -0.11081502 -0.22685288 -0.085151106 0.014000206 0.026426055 0.074193135

model.2.weight f4 [32]
00000000: e6b1 813f e8ac 803f 4b4c 803f 406a 7c3f
00000010: ce9e 843f eec7 7c3f 1d17 833f dc86 7a3f
00000020: b464 6d3f 0077 7d3f bc6d 773f 4c17 803f
00000030: f46b 873f 670b 893f b6b1 823f afc4 853f
00000040: 5d36 783f 92e7 753f 53f7 7d3f cddb 7f3f
00000050: c7eb 763f 9403 8f3f 9b8b 853f 8431 893f
00000060: 219a 853f 3c86 743f 4c0c 713f 13f4 803f
00000070: 176e 883f cf5d 7c3f 5df5 7b3f ade4 6e3f
1.0132415 1.0052767 1.0023283 0.98599625 1.0360963 0.9874257 1.0241429 0.9786203
0.92731786 0.99009705 0.96651816 1.000711 1.057982 1.0706605 1.0210483 1.0450648
0.9695795 0.96056473 0.9920551 0.99944764 0.9645352 1.1172967 1.0433229 1.0718236
1.0437661 0.95517325 0.9415939 1.0074486 1.0658597 0.9858064 0.9842127 0.9331768

model.2.bias f4 [32]
00000000: c0d4 903d 630a cebc 0e10 9b3d 66fa 05bc
00000010: 6d11 283d b04c d2bb 489b 89bc 84f9 e83d
00000020: 423b 8b3d 19aa 90bd 7051 62bc 471b 13bc
00000030: a47b 07bd af66 af3c fffd 96bd b940 e9bb
00000040: c289 873d f047 79bb 8b1b edbc 8e84 35bd
00000050: 9731 1e3d 77ac ddbd a131 bbbc 3fff 5a3d
00000060: ee35 5dbd c299 8d3d 3dd2 d23c 5945 4fbc
00000070: 3686 06bd 2eeb 05bd 0268 75bd c3f6 d03c
0.07071829 -0.025151437 0.075714216 -0.008177375 0.041032244 -0.0064178333 -0.016797677 0.11375716
0.06798412 -0.070636936 -0.0138133615 -0.008978671 -0.033076897 0.021411268 -0.07372665 -0.0071183112
0.06618072 -0.0038037263 -0.028943798 -0.044315867 0.03862151 -0.10823911 -0.022850813 0.053466078
-0.05400651 0.069140926 0.025735015 -0.012650811 -0.032842837 -0.032694988 -0.059913643 0.02550829

model.2.running_mean f4 [32]
00000000: 4905 3a40 f88b 8b40 68f8 7b40 dbf3 5440
00000010: fdad 8f40 4595 7740 922d 2140 5ede 8a40
00000020: 3f94 7840 4bb5 4540 0f5b 8240 a2a0 6440
00000030: 5ef4 6b40 d39e 7740 48b6 4240 ffae 5640
00000040: 2074 7b40 e116 5f40 c4cd 5e40 c704 5340
00000050: b21f 6640 f62b 2f40 bea4 2840 b9d9 9640
00000060: 059a 3f40 ac95 8140 d5de 5c40 a9f2 3740
00000070: 9298 2f40 bca7 4240 2440 3140 56a0 7d40
2.9065726 4.360836 3.9370365 3.3273838 4.489989 3.8684857 2.5184064 4.3396444
3.8840482 3.0891902 4.0736156 3.5723042 3.68679 3.8690689 3.0423756 3.354431
3.9289627 3.4857714 3.481309 3.2971666 3.5956845 2.7370582 2.635055 4.7140775
2.9937756 4.0495205 3.4511006 2.8741858 2.7436872 3.0414877 2.7695398 3.9629111

model.2.running_var f4 [32]
00000000: 5af1 b041 e473 4142 bbc8 1c42 d52a 1342
00000010: 70b0 8242 6dd9 5542 cfd2 af41 6334 6e42
00000020: d9fd 1042 510a 2b42 47cb 2c42 0df6 1442
00000030: f03d 6242 29b5 1b42 9806 f641 a3ba 1042
00000040: 24fc 3542 38d0 0b42 3ffa ee41 2137 c841
00000050: 2518 0242 2aa5 1442 cd50 eb41 46b0 7f42
00000060: 2f26 1b42 15e1 1e42 5f51 0642 2c67 1842
00000070: 927b d841 0e81 c041 3726 ac41 88b6 2042
22.117847 48.363174 39.196026 36.79183 65.344604 53.46233 21.977934 59.55116
36.2479 42.760075 43.198513 37.240284 56.560486 38.926914 30.75322 36.182262
45.49623 34.95334 29.87219 25.026918 32.52358 37.161293 29.414454 63.922142
38.78729 39.719807 33.579464 38.100754 27.060337 24.063015 21.51866 40.178253

model.3.weight f4 [16, 32]
00000000: 35d0 8a3d 5d4a fdbd 95a6 af3d c0dc e13d
00000010: acf5 cd3d 26c1 dd3d 45c9 a1bc c57a ad3d
00000020: f3b2 9fbd aa00 2b3c 1f71 7b3c 22cd 38be
00000030: cb77 fd3d a1f9 053e dfae 0b3e 277b eebc
00000040: eca6 293e 16f9 d7bd 1bcd 0abe b27e 23be
00000050: c841 84bd 2339 ca3d 7546 97bc 9f7d 163e
00000060: 2145 523d c1f5 4bbe 0a15 8f3c 25ce ab3d
00000070: 94bd b03c 9653 f9bc 0ba2 27bd dfef c33d
00000080: 813e 98bd e129 70bd 40c8 593d b84b 033e
00000090: 3ad5 d3bd 3619 08bb fa40 24be 654f dc3d
000000a0: 288d 7d3d a5db 3bbe 1350 cebd e5ec 11be
000000b0: debb 323d f034 fe3c b7c6 e5bd d1f6 eebd
000000c0: 9289 453d db6f 8e3d 17a2 b23c a5a5 b6bd
000000d0: a322 81bd b89e 3ebe 8739 e1bd 5a86 a2bc
000000e0: 722a 4abe 6101 0a3e 75cc 023e 789f ae3d
000000f0: 0106 00be 0068 71bd 8ec8 bfbd 645f b5bd
00000100: 9435 63be 3382 2d3d 950f 493e 5ce5 a4bd
00000110: 1e1e a13d 32e0 89bd 0fd1 bbba 8162 2e3d
00000120: f631 033e acf0 cfbc 5686 22be 5b69 133e
00000130: cc27 b1bd bf59 bebc 55e6 9ebd 41bb b93d
00000140: dd36 26bd 931a 003e 0ab7 27be 34f3 a33d
00000150: 9369 043e a585 38bc 4553 2abe cc80 0a3d
00000160: b892 7c3c dfa3 ab3d 1ada 22be df52 27be
00000170: a23f e8bd bb33 c0bc ea5a bd3d 0cd0 21be
00000180: ce13 263d d9fc 44be 37a9 093e 0255 563c
00000190: 2953 6e3d c842 ab3c 6977 adbd ea00 4f3e
000001a0: 9dd5 113d c9f8 d73d b808 373d 9d41 d5bd
000001b0: 9d0c 90bd 7c0a 0ebe 9856 eebd 5cee 713e
000001c0: a765 a23c 30a8 19bd 0c00 56bd 711e 26be
000001d0: c0b6 013e d96a 2cbe 3788 cc3d 55bf df3d
000001e0: b06a 583d 5951 883d fb34 db3c 6ec2 3b3e
000001f0: 4360 5abc 25d2 07be cded 20bd 2dc2 cfbd
00000200: 2325 533d f7f0 083e 9ffe 8bbd fbf9 3c3d
00000210: b34c 3c3d 983b 7abd 514d 36bd 6c8c 78bd
00000220: d1a8 df3d f03e f4bd 2192 5b3c 4b01 88bd
00000230: 905a 143e adaa 9fbd 067f 143d e85e 09be
00000240: 15a7 573d d737 e5bb 53bb 513d 0e88 203d
00000250: 8b35 8ebd 3a9b 073e 1a2c 7bbd e945 02be
00000260: c200 50be 949e 98bd ec71 363d 7183 44be
00000270: 1fd5 e6bd 9c42 3ebd 7a18 94bd e85d abbb
00000280: 5f0c 683e 527f efbd 762c c63d 09ac 05be
00000290: 08dd 2fbe cb22 06bd c87b 583d 34ad 1d3e
000002a0: a866 f7bc d5c7 01bd 3a4c 37bd 057d 033e
000002b0: bb32 84bd dcff 5bbd c7b1 50be cf1f d0bd
000002c0: a698 35be 1732 fb3d 33bd 123d f7df 643e
000002d0: 3964 183e 5b3b 11be a764 a4bc d2b0 51bd
000002e0: 337c 9cbc 81da 9abd 5a02 213d 0e32 0dbe
000002f0: 4688 743c 4c0d 1c3e 8a29 613d 7019 943d
00000300: f41c 32bc 901b 5c3d 2e93 273e e049 903d
00000310: 1d4f 93bd 69a2 9d3d cc01 9dbd fe81 32be
00000320: 97d7 583d f707 0d3c 1614 c33c 64c9 e63d
00000330: fc8a 09be 9f9b 20bd 7102 2d3e 62c5 f8bd
00000340: 7180 33bd ff21 2fbe bdfb 6b3d 9b84 923d
00000350: 198c 14be a46b 1ebe 4d60 0fbe 8245 99be
00000360: 3a58 dbbd 147e c1bc f231 7b3d 881e 72bd
00000370: 597f 2d3d f077 1bbe d11d 103e da24 dcbd
00000380: 5caf 2abd e172 12be 3a18 f43d 6bbc db3c
00000390: d4f5 10be 52ef a1bd 72c2 d93d b1c8 41bd
000003a0: 3a78 33be 4e33 163e feaa 3c3d 4975 0e3d
000003b0: 0f85 f83d 20fe 3f3e fdee 5f3e 8210 25be
000003c0: e917 dcbd 6140 e7bc 1556 48bd eed6 f3bd
000003d0: b216 05be c320 c23d d911 a13d dfdb a0bd
000003e0: 0197 e8bd b625 ad3d c71f 0dbe c826 393e
000003f0: 45cb f73d 136e 0abe 8e09 f33d 5523 d4bd
0.067779936 -0.12367699 0.08576695 0.11028433 0.10056624 0.10827856 -0.019749293 0.08470682
-0.07797804 0.01043717 0.015346794 -0.18047002 0.12376364 0.13083507 0.13640927 -0.029111458
0.16567582 -0.10545556 -0.13554804 -0.15966299 -0.06457859 0.09874179 -0.018466214 0.14696358
0.051335458 -0.19917966 0.017466087 0.08388928 0.021574773 -0.030435365 -0.04092602 0.09567236
-0.07433797 -0.05863369 0.05316949 0.12821853 -0.10343404 -0.002076698 -0.16040412 0.10757331
0.061902195 -0.18345506 -0.10073867 -0.14250524 0.043636195 0.031031102 -0.112195425 -0.1166817
0.0482269 0.069549285 0.021805806 -0.08918313 -0.063054346 -0.18615234 -0.109973006 -0.019839454
-0.19742754 0.13477089 0.12773307 0.0852651 -0.1250229 -0.058937073 -0.09364425 -0.08856085
-0.22188407 0.042360496 0.1963485 -0.08051559 0.078670725 -0.06732215 -0.0014329272 0.04257441
0.12812027 -0.025383316 -0.15871558 0.14395659 -0.08650169 -0.023236154 -0.07758776 0.09068919
-0.040579665 0.12510137 -0.16378418 0.08005372 0.12930898 -0.011262332 -0.16633327 0.033814237
0.01541584 0.08380865 -0.15903512 -0.16340207 -0.11340262 -0.023462167 0.09245856 -0.1580202
0.04054623 -0.19237079 0.13443457 0.013081791 0.058184776 0.020905867 -0.08470041 0.20215192
0.035604108 0.10545499 0.04468605 -0.10412905 -0.07033656 -0.13871187 -0.1163761 0.23626083
0.019823862 -0.03751391 -0.05224614 -0.1622255 0.1266737 -0.16837634 0.099869184 0.109251656
0.05283612 0.06656141 0.026758661 0.18335888 -0.013328615 -0.13263758 -0.039289284 -0.10144458
0.05154909 0.13373171 -0.068356745 0.046136837 0.045971584 -0.06109199 -0.04450733 -0.06068079
0.10920871 -0.11926067 0.013401539 -0.066408716 0.14487672 -0.07796226 0.03625395 -0.1341511
0.052649576 -0.006995182 0.051204037 0.03919225 -0.06943806 0.13242808 -0.061321355 -0.12721981
-0.20312789 -0.074521214 0.044542238 -0.19190766 -0.112711184 -0.046450242 -0.07231231 -0.0052297004
0.22660969 -0.11694206 0.09676449 -0.13053907 -0.1717416 -0.032748025 0.052852422 0.15398103
-0.030200318 -0.031684715 -0.04475043 0.1284066 -0.064549886 -0.053710803 -0.20380317 -0.10162317
-0.17734012 0.12265413 0.035824966 0.22351061 0.14881982 -0.14182799 -0.020067526 -0.05119402
-0.019102192 -0.075612076 0.039308883 -0.13788626 0.014925068 0.15239447 0.054971255 0.07231414
-0.010871161 0.053737223 0.16364738 0.070453405 -0.07192824 0.07696993 -0.07666358 -0.174324
0.052939977 0.008607856 0.023813289 0.11268881 -0.13431925 -0.03921091 0.16895463 -0.12147023
-0.043823663 -0.17102812 0.057613123 0.07154199 -0.14506568 -0.15470749 -0.1400158 -0.29935843
-0.10710187 -0.023619689 0.06132693 -0.059111148 0.042357776 -0.15182471 0.14073874 -0.107492164
-0.041671142 -0.14301635 0.11918683 0.026823243 -0.14156276 -0.07906975 0.106327906 -0.047310535
-0.17526332 0.14668009 0.04606151 0.03477982 0.12134754 0.18749285 0.2186851 -0.16119578
-0.10746748 -0.02822894 -0.04891022 -0.11906229 -0.12996939 0.09478905 0.07864732 -0.07854437
-0.11356927 0.084544584 -0.13781653 0.180812 0.120993175 -0.13518552 0.11867057 -0.103583016

model.3.bias f4 [16]
00000000: 65ee f13d a0ef bc3d 534d 23bd fbaa f23c
00000010: 4b2e cc3d efed d7bd 6e35 62bd da5f dc3d
00000020: 2bec fd3d fcae a6bd ec9c 653c 0513 8a3d
00000030: f790 9dbc b5dd 19be a148 3a3c 506d a4bb
0.11813048 0.09225392 -0.039868664 0.029622545 0.09969767 -0.10543429 -0.055226736 0.1076047
0.12398561 -0.08138844 0.014014464 0.06741909 -0.019234164 -0.15025981 0.011369855 -0.005017914

model.5.weight f4 [16]
00000000: e7e5 973f 8b4e 803f 041a 7a3f 0fca 883f
00000010: 3fa9 693f cee9 723f 9139 5a3f bf61 873f
00000020: 5035 843f 42e2 783f f247 5d3f 4458 613f
00000030: f932 893f f8bb 803f b34e 713f f46e 843f
1.1867036 1.002397 0.97695947 1.0686663 0.91273874 0.9488801 0.8524409 1.0576705
1.032877 0.9722024 0.86437905 0.8802531 1.0718681 1.0057364 0.9426071 1.034636

model.5.bias f4 [16]
00000000: 415b 71bc 09a9 ad3d fba5 e8bd abe4 aebd
00000010: 5df5 013b 06e2 4abd 9210 333e bc1c b2bd
00000020: 8482 f7bc e691 7b3c 7b68 003e 8a7b 0d3c
00000030: 1c63 acbc ceb0 62bb 564f a33c 2853 2cbd
-0.014731229 0.084795065 -0.11359783 -0.08539709 0.0019830086 -0.04953196 0.1748679 -0.08696887
-0.030213602 0.015354609 0.12539856 0.008635411 -0.021043353 -0.0034590247 0.019935291 -0.04207149

model.5.running_mean f4 [16]
00000000: 76bb 8e3e c32f b73e ccd3 503e 69e6 8b3e
00000010: 52cd 8d3e 9dc0 653e ac78 423e 9afd 883e
00000020: d4aa 7f3e d412 613e b7a8 5f3e 7bb7 8b3e
00000030: 1015 203e 00de 043e dbff 483e 274a 453e
0.27877396 0.35778627 0.20393294 0.27324226 0.2769571 0.22436757 0.18991345 0.26755983
0.2496751 0.21979839 0.21841703 0.27288422 0.15633035 0.12975311 0.19628851 0.19266568

model.5.running_var f4 [16]
00000000: 22bb 893e 6a2f d83d 90c0 ab3d e6e5 773e
00000010: 139c c53d de49 153e 0946 993d e9f5 733e
00000020: c9db 803e b878 983d 2fcb 433e b2ec 1a3e
00000030: b97f fb3d 35af c73d 123f 983d 9056 203e
0.26900584 0.105559185 0.08386338 0.24208793 0.096489094 0.1457896 0.07484061 0.23824276
0.25167683 0.074449 0.19120477 0.15129355 0.122802205 0.09750215 0.07433905 0.15658021

model.6.weight f4 [8, 16]
00000000: 083a 2dbd 0c33 543e f36a 423d be6b 94be
00000010: e72c 263e 2edc 053e fda8 863c 9c6d a53d
00000020: 4b4d 95bd 1a02 203e 516c fcbd 9d80 2c3d
00000030: eaab f7bd 601e 84be 90f6 ea3d 06b0 43be
00000040: 71d2 e63d 712f 463e 6f6c bd3d 1b61 a9be
00000050: ffc6 0c3e d353 4ebd ee47 a9bc fb77 0e3d
00000060: 0319 2cbd af8c 463e c246 22bd 5350 0dbd
00000070: b3ed 843c b26c 11be fb06 983d fa0b cbbd
00000080: 443c bebe eb59 6cbe 816c c4bd 7c8a 96bd
00000090: aa70 143d 459d 1a3d da65 08bd 3562 3cbd
000000a0: e33b 92be c696 f5bd b040 83be ff02 a6bd
000000b0: cb03 2bbe e835 d23d d38e 09be e32c 5c3d
000000c0: fc3b 2abe 47db cdbd 124a bb3d c992 1f3d
000000d0: 430e a73c 563f b13d 0693 fcbd 7ade 05be
000000e0: ad48 dc3d fda8 813c 186c 343d 1b20 8c3d
000000f0: 41aa 87be 6ce4 06be 00e7 50bd 1f91 1dbe
00000100: a589 9c3e 5527 013e 51d9 4dbe a1a1 483e
00000110: 3ffe 2e3d 1c7d 37be b6f0 5b3d 9fe7 e43d
00000120: 1138 f23d b7fa 16be b062 403c 6e43 9e3d
00000130: aaa0 553d e221 d1bd 71d1 b93d fe8c 2abd
00000140: 5363 13be 7c7e 5cbd 15cf 0c3e 4f10 15be
00000150: 0e55 8fbd 671f 053e 8153 9d3d 770f 13be
00000160: 9d2a 5dbe bf0d 21be 0760 93bd 1fd4 d43d
00000170: 3e4c b7be 6d78 b23d ea1e 54be b201 2abe
00000180: 0d3a 8bbe 86ab 353e a402 813c e03a 59be
00000190: cd2d a8bb 2c7c adbc 121c 223e 6925 63be
000001a0: 32c9 9dbc 1c84 503e 581f fd3c 06d5 d13d
000001b0: feee 30be 90cd 0cbe a2cd 173e 0a81 c1bd
000001c0: 626a ed3c 6813 b33d 6225 81be 0add 41bd
000001d0: 9da4 93bd 66b2 4ebe ca95 2d3e 3c10 90bb
000001e0: 106a 80bd f901 12bd 3ccb 803d 1be7 c4bd
000001f0: f245 983d 893f d53d b8f1 03bb a75f f43c
-0.04229167 0.20722598 0.047465276 -0.2898845 0.16228066 0.13072273 0.016438002 0.08077547
-0.07290133 0.15625802 -0.12325347 0.042114843 -0.12093337 -0.25804424 0.11472809 -0.19110116
0.11270607 0.19354035 0.09249198 -0.33081898 0.13747786 -0.05037291 -0.020664182 0.03478239
-0.04201604 0.19389604 -0.03961826 -0.03450043 0.016226625 -0.1420162 0.074232064 -0.09914394
-0.37155354 -0.23081176 -0.09591008 -0.073506325 0.036240257 0.03774764 -0.03330026 -0.045992095
-0.28561315 -0.119916484 -0.2563529 -0.0810604 -0.16700666 0.10264188 -0.1343339 0.053753745
-0.16624445 -0.100515895 0.09144987 0.038958345 0.020392543 0.086546585 -0.1233273 -0.1307315
0.10756049 0.01582765 0.0440484 0.06842061 -0.2649708 -0.13173074 -0.05100155 -0.1538739
0.30573764 0.1261266 -0.20102431 0.19592907 0.042722937 -0.17918819 0.053696357 0.11176991
0.118271 -0.14744078 0.011742279 0.07727705 0.052155174 -0.10211541 0.09073151 -0.041638367
-0.14393358 -0.053831562 0.1375087 -0.14557002 -0.06998645 0.1300026 0.07681943 -0.14361368
-0.21598287 -0.157279 -0.0719605 0.103920214 -0.35800356 0.08714376 -0.20714918 -0.16602209
-0.27192727 0.17741212 0.01574833 -0.21213865 -0.005132413 -0.021177374 0.1583102 -0.2218224
-0.019260976 0.20362896 0.030898735 0.10245709 -0.17278668 -0.13750291 0.14824536 -0.094484404
0.028981391 0.08743936 -0.25223833 -0.04732994 -0.07209132 -0.20185241 0.16951671 -0.0043964665
-0.0627023 -0.035646413 0.06288764 -0.09614392 0.07435216 0.10412509 -0.002013309 0.029830767

model.6.bias f4 [8]
00000000: c7fe 1a3d 94e3 503e 6901 0c3e b78b a6bb
00000010: 2807 773e 86bf c13e e4a6 623e af52 813e
0.03784063 0.20399314 0.13672413 -0.0050825733 0.24123824 0.37841433 0.22133976 0.25258395

model.8.weight f4 [8]
00000000: 9dd3 c13f 23ba b23f 3981 be3f 3f29 ce3f
00000010: 2a52 c93f 833b b53f e452 c33f e5dc b93f
1.5142704 1.3963054 1.4883186 1.6106337 1.57282 1.4158787 1.5259671 1.4520537

model.8.bias f4 [8]
00000000: 5759 25bd bcaf eebd 3a14 223e bd72 fc3d
00000010: 3cbf 11be e7b7 1c3e 0ceb 1c3e 29a6 51bd
-0.040368404 -0.116546124 0.15828028 0.12326572 -0.14233106 0.15304528 0.15324038 -0.051183853

model.8.running_mean f4 [8]
00000000: 5ace bf3e 52cc c73e 1288 cf3e 4bb6 203e
00000010: 2fa0 da3e a157 273f 0a5d 133f 57eb c23e
0.3746212 0.39023072 0.405335 0.15694539 0.42700335 0.65368086 0.5756384 0.38070175

model.8.running_var f4 [8]
00000000: 93ff 1c3e dfec ff3d b42e 1b3e edd5 263d
00000010: b742 f93e a82d 783e d8e7 833e 564c 923d
0.15331869 0.124963515 0.15154535 0.04073136 0.48683712 0.24236166 0.2576282 0.07143466

model.9.weight f4 [4, 8]
00000000: e05a b2be 47fc 263d 5f08 3dbf 7ae7 0cbf
00000010: 1142 373f 3d4f 16bf 9fb1 49bf 1fed 0f3f
00000020: aff8 313f f74d 313f 616b b5be de63 10bf
00000030: 618d 39be 9680 39be fd9b 243f 28fd fe3e
00000040: bea6 23bf be4a 02bf cacf 0f3f 4064 023e
00000050: 5bd1 eabe cbdc c73e dcdd 8abe 803d 19bd
00000060: a284 cc3e b498 853e 6825 fabc 6599 023f
00000070: 2341 c6be e0fa 9e3e e26b bb3e 2544 1abf
-0.34834957 0.040767934 -0.738409 -0.55040705 0.71585184 -0.5871466 -0.78786653 0.56221193
0.69520086 0.6925959 -0.35433486 -0.56402385 -0.18120338 -0.18115458 0.6430052 0.49802518
-0.63926303 -0.508953 0.56176436 0.12733555 -0.4586285 0.3903564 -0.2712239 -0.037412167
0.3994494 0.26093066 -0.030535415 0.5101531 -0.3872157 0.31050777 0.36605746 -0.6026023

model.9.bias f4 [4]
00000000: 9925 afbd 4077 c03d 7b34 80bd 7a14 1e3e
-0.08552093 0.09397745 -0.0626001 0.15437499
