saved_models/MLP/ckpt__epoch100.ckpt (torch, 18336 bytes, 20 tensors)

model.0.weight f4 [32, 64]
00000000: 1fa6 15bd cc09 2abc c743 8e3d 1878 ae3d
00000010: ce82 67bd 89fa 9e3d c72c 173e 303e 923c
00000020: 2dae a8bc c5f4 7b3c 5722 2d3e 1175 263d
00000030: 9ff7 39bd be39 da3d 7ce1 773d fd02 6e3d
00000040: c262 3dbc b865 6a3d f296 f5bd 99c1 92bc
00000050: 82a9 7d3c f304 37bc 24d7 19bd 39bf c7bc
00000060: 12ab 43bc ef73 ee3c 5273 0dbc f3c6 aa3d
00000070: 9e32 d9bc b14b b73d ac9b 9ebe a7fa 06bd
00000080: 79c9 ae3c 34d1 37bd 0373 33be d1f8 c6bc
00000090: fe2d 87bb e362 c1ba 8f22 8b3d 549f 86bd
000000a0: 4350 dfbb ce19 873d 9265 aebc 49c9 2d3d
000000b0: a474 5cbc 918c 623d 2dde f83d 9c97 7ebd
000000c0: 2931 4dbc 50d4 cf3d 631e e03a 4c70 363d
000000d0: 16a7 c8bb 5bcb 833d 5352 133e 2dd7 433d
000000e0: 1238 8b3b 8fbe 113d ca99 c2bd c1e1 f23c
000000f0: 992e 583c 844a 0339 7918 b5bb e83a 823d
00000100: e2f8 a03c 4e66 053d fecd a4bd 4659 5d3d
00000110: 13f3 3bbb 79ea 3a3c 59a1 083e cdce ec3b
00000120: ac3e 833c c4c3 20bd bc71 6dbd c99d bb3d
00000130: eda8 bb3c 0a25 c93c 0107 4e3c f36a d93c
00000140: 2fae e4bc 0198 f23c d013 2dbd 7f42 fcbd
00000150: 4187 a2bc 8fa3 473d 3439 5d3e 5362 483d
00000160: 12d7 6dbc dbd4 4a3d 5d77 9ebd 7099 1abe
00000170: 59cd 9d3c 3334 b63c 948e 09be a170 9f3d
00000180: 357c b43a 3cc9 363d 733c b63d 1723 e5bc
00000190: 66fe 16bd 3da5 7a3d 44f7 533e b5f0 2c3c
000001a0: bafe f43c c2a0 913c 360d 4d3d bbb4 0b3d
000001b0: c61c e9bc db6b ad3d bd8b d73d dd65 2c3d
000001c0: a818 e73c bc57 0e3d 1170 e33d 9b56 85bc
000001d0: b009 d0bc 614a b93d 7e50 75bd 13bf d739
000001e0: 45bc 273c 8c19 773d 96d8 efbc f5d9 0e3c
000001f0: 1778 64bc 08b7 753d 946b 69bd 844d e4bb
00000200: 59e2 0f3e ccd3 633e f08d e13c 3b17 0ebd
00000210: 4d48 d1bd f256 7ebd 197d 3f3e 4e01 2c3d
00000220: 0a57 7dbd aeae b5bd c44a 983d 1c71 3a3d
00000230: 8620 6b3d 32f9 41bd 9d0e 013d a200 a13d
00000240: 6bbe 163e 9849 2abd a78b f2bd 424f d5bc
00000250: 25d3 a1bd 8e7a eabb 6544 89ba 33b0 bcbb
00000260: 53c3 bfbd ef59 043d 2089 d1bc 5642 e9bd
00000270: a487 0c3e e771 9e3c 2282 29be dbcb 4e3d
00000280: 006b 8dbd f315 c1bd 10b4 82bd 6372 913d
00000290: cdcd aa3d 517a 2bbd b06b 8c3c 1bdc eb3c
000002a0: 07b9 00be 8409 2c3c 3cb0 61bd c8eb ff3d
000002b0: f4d3 b2bd 372f b83c 96f8 643d c240 87bb
000002c0: 66d6 fe3d de3d 0dbd 42d6 053d 46fe a9bd
000002d0: f780 09bd 8e71 a43c 82bf 09be 87de 3e3d
000002e0: fc07 00bd 3400 243c f566 74bd 3de8 c03c
000002f0: 01e2 a03c 9f15 0e3c b536 ff3c 68ef 053e
00000300: 31e0 cbbd d150 a3bd 8c60 aebc c3aa 1cbd
00000310: 4bd3 ce3d cebd cf3b 893e 253d 00a5 9dbc
00000320: 47f6 cbbc d05b 67ba 8a1e b3bb 26d1 4b3d
00000330: a3ab 673d f444 053e eecd e1bc 3eb9 e63c
00000340: 5cb5 33bc d336 c4bc 27e9 083d 120f c63c
00000350: cbab a7bc fa68 66ba a43e a9bd 5f75 d93c
00000360: 9e4d ae3d 6959 413d 7346 cc3b 9179 e93c
00000370: 7039 c63d 7b74 1b39 b0f1 b13d f1db ffbc
00000380: 6390 b83d 185e 86bd 13a9 ff3c 215e c83a
00000390: 2a39 873d 2357 12be 5788 edbc ddf7 5cbd
000003a0: baaf a0bd 12ed a53d ec10 6a3c 678d 2fbc
000003b0: bae5 30bc 8b5e 51bd 942a 90bd 6817 17bc
000003c0: 83b4 d5bd 84d5 933d 01ab f5bd b644 3dbc
000003d0: 584e 573e dc69 0c3e c19b 653d b1c7 773d
000003e0: f316 463d e2c2 14bd 882c d6bc 2dc7 a63d
000003f0: 151b a23d 95c5 75bd cce3 8abc 9969 7a3d
-0.03653538 -0.010378312 0.06946521 0.08519 -0.05652123 0.077626295 0.14763175 0.017851919
-0.020590866 0.015378182 0.16907631 0.040638987 -0.045402166 0.10655545 0.060517773 0.05810832
-0.01155919 0.057225913 -0.11991681 -0.01791458 0.015482308 -0.011170614 -0.03755869 -0.024383174
-0.011942642 0.029108016 -0.008633452 0.08338728 -0.026513394 0.08949984 -0.30978143 -0.032953884
0.021336304 -0.044877246 -0.17524342 -0.024288567 -0.0041253557 -0.0014754202 0.06793701 -0.06573358
-0.006814988 0.06596719 -0.021288667 0.04242829 -0.013455544 0.055309836 0.12151752 -0.062156305
-0.012523928 0.10147917 0.00170989 0.04454069 -0.006123434 0.06435271 0.14386873 0.04781263
0.0042486275 0.03558212 -0.09501989 0.029648663 0.0131947035 0.00012520893 -0.005526599 0.06358892
0.019649927 0.03256827 -0.080471024 0.054040216 -0.002867882 0.011408442 0.13342799 0.007226801
0.016021095 -0.039249197 -0.057969794 0.091609545 0.022907699 0.024553794 0.012574912 0.026540255
-0.027915088 0.029613497 -0.042255223 -0.123173706 -0.019839885 0.048739966 0.21603853 0.048921894
-0.014516609 0.0495194 -0.077376105 -0.15097594 0.019262956 0.022241687 -0.13433295 0.07785154
0.0013769927 0.044625506 0.088982485 -0.027970834 -0.036863707 0.06119274 0.20699793 0.010555436
0.02990662 0.01777685 0.050061427 0.034107905 -0.028456103 0.084678374 0.105247 0.042089332
0.02821 0.03475164 0.11105359 -0.016276648 -0.025395244 0.0904739 -0.059891216 0.00041150357
0.010237758 0.060327098 -0.02927808 0.008718957 -0.013944647 0.059989005 -0.05698736 -0.0069672484
0.14051189 0.22248763 0.027533501 -0.034690123 -0.102188684 -0.062094636 0.18700065 0.04199343
-0.061850585 -0.08871208 0.074361354 0.045518026 0.057404064 -0.04735679 0.031508077 0.07861449
0.14721076 -0.04157409 -0.11843043 -0.02603877 -0.07901601 -0.007155723 -0.0010472654 -0.0057583093
-0.09363427 0.03231233 -0.025578082 -0.11389606 0.13723618 0.019341422 -0.16553548 0.05048738
-0.06905174 -0.094280146 -0.063820004 0.07101896 0.08340035 -0.041864697 0.017141193 0.028791478
-0.12570582 0.010500316 -0.05509971 0.124961436 -0.08731833 0.022483451 0.055901133 -0.004127593
0.12443237 -0.03448283 0.032675035 -0.08300452 -0.033570256 0.020073678 -0.1345196 0.046598937
-0.031257614 0.010009814 -0.0596685 0.02354824 0.019639017 0.008672147 0.031154016 0.13079607
-0.099548705 -0.07974399 -0.021286272 -0.03824879 0.10098895 0.006339765 0.04034284 -0.019243717
-0.024897708 -0.0008825632 -0.005466287 0.049760006 0.05656017 0.13014585 -0.027564015 0.028164502
-0.010968532 -0.023951923 0.033425476 0.024177108 -0.02046766 -0.00087894464 -0.08263901 0.026545225
0.08510898 0.04720441 0.006233984 0.02850035 0.09678924 0.00014825344 0.08688676 -0.031232806
0.090119146 -0.06560916 0.03120855 0.0015286842 0.066027 -0.14291053 -0.028995676 -0.05394732
-0.07846017 0.08101858 0.014286261 -0.010714865 -0.010796959 -0.051115554 -0.07039371 -0.009221889
-0.104348205 0.07218459 -0.11995507 -0.0115520265 0.2102598 0.13712257 0.05605674 0.060493175
0.04836173 -0.036318667 -0.026144281 0.081434585 0.07915322 -0.060002882 -0.016954325 0.061135862

model.0.bias f4 [32]
00000000: 5157 823c 5a20 0b3e b14e b7bd 9c9f aebd
00000010: 9cfc 36be 243f c33c a44e 27bc e777 30be
00000020: f8f5 2b3e 8472 903d 4702 b93c 2b2b 34bd
00000030: 0b47 fe3d 5b56 31bd 6e11 abbc 5833 00be
00000040: 49e7 22be aefe 073b 1a77 843b 2416 6f3d
00000050: aa5b 04be 09c9 0bbd 952d 64bc d8d2 a53c
00000060: 90d0 13bc dfc4 083e 77a9 e73d c28c 36be
00000070: ed1a abbd 9a38 16be 04b5 ddbd 366d 7cbd
0.015910776 0.1358656 -0.08950556 -0.08526537 -0.178698 0.023833819 -0.0102116205 -0.17233239
0.16793048 0.07053092 0.022584094 -0.04398648 0.12415894 -0.043295246 -0.020882335 -0.12519586
-0.15908541 0.0020751166 0.0040425183 0.058370724 -0.12925592 -0.03412727 -0.013926883 0.02024214
-0.009021893 0.1335635 0.1131162 -0.17827132 -0.08354745 -0.1467003 -0.108255416 -0.06162759

model.2.weight f4 [32]
00000000: aa48 853f 8a23 7f3f 733d 703f 1f1c 823f
00000010: 0ce7 873f 27d4 7e3f c7a6 6b3f 1145 853f
00000020: 974f 703f 00ae 793f 59a9 853f 4db9 8a3f
00000030: ab3c 803f 972f 783f b89c 813f 6aa4 6f3f
00000040: 3428 883f 9aa2 843f 72d5 653f e23b 853f
00000050: 9d11 883f 85db 7c3f 1478 7a3f 83dc 783f
00000060: ed72 883f 1b4f 663f de08 733f 8dc7 8b3f
00000070: 3073 703f 16cb 7c3f bf99 833f 1069 823f
1.04128 0.99663603 0.93843764 1.0164832 1.0617385 0.9954247 0.9205136 1.0411702
0.93871444 0.9753113 1.0442306 1.0837799 1.0018514 0.96947616 1.0125952 0.9361025
1.0637269 1.0362122 0.89778817 1.04089 1.0630375 0.9877246 0.97839475 0.97211474
1.0660073 0.89964455 0.94935405 1.0920273 0.9392576 0.98747385 1.0281295 1.0188313

model.2.bias f4 [32]
00000000: b7a9 b83d cb81 a73c 788b 3ebb 2c09 c2bd
00000010: e006 223b 765f bebd a675 a3bd 2af0 b83d
00000020: c88b d9bc 169a f43d a795 803c ea7a 583d
00000030: 1f8b b33d e676 aebc 2990 2a3d 5745 ed3d
00000040: 0e57 c93b a2de 0ebc a0d4 d3bc fb03 dcbc
00000050: c312 293d 3e58 dc3d 67e7 ae3d c17f 00be
00000060: 086d 9b3d 1f10 32bd 104a 93bd 67a9 fdbc
00000070: 67d5 72bd e8c6 c53d b36a 6e3d 198e 753d
0.090167455 0.020447632 -0.002907483 -0.09474406 0.0024723336 -0.092955515 -0.07981424 0.09030183
-0.02655591 0.11943452 0.01569636 0.052851595 0.087667696 -0.02129693 0.041641388 0.11585491
0.006144411 -0.008720072 -0.025858223 -0.026857367 0.04127766 0.10759018 0.0854023 -0.12548734
0.075891554 -0.043472406 -0.07191861 -0.030964566 -0.059285548 0.09657079 0.058207225 0.059949968

model.2.running_mean f4 [32]
00000000: b0fe 4e40 4bb5 2b40 e6f9 8740 1a6e 8a40
00000010: 7c68 5340 1cf2 7a40 8c36 7140 73f3 0e40
00000020: 50f0 5640 8db1 6040 bc9f 7640 228e 5840
00000030: b240 3f40 e04d 6540 e1f3 4c40 9a5c 6040
00000040: e18e 1e40 7a1d 8140 4c19 3040 bd66 5240
00000050: b1e0 7840 ea74 6d40 0aec 4b40 3a0f 9c40
00000060: 81a1 4240 3bf2 7e40 70fc 6e40 4b74 8040
00000070: d95f 3440 a229 8b40 8313 6740 be59 4540
3.234295 2.6829402 4.249255 4.32594 3.3032522 3.9210272 3.7689543 2.233609
3.3584175 3.5108368 3.8534994 3.383675 2.9883237 3.582878 3.2023852 3.505652
2.4774706 4.034848 2.751544 3.2875206 3.888714 3.7102609 3.1862817 4.8768587
3.0411074 3.9835346 3.7341576 4.014196 2.81835 4.348832 3.610566 3.0836024

model.2.running_var f4 [32]
00000000: 1ffc 4142 a64d 0c42 2f9d 3f42 5279 3442
00000010: b209 8842 5e49 f941 ffd9 2e42 c32f 9741
00000020: 0f5a 0942 f0e5 3e42 61cc 2042 caa1 1642
00000030: 7851 f441 1ca3 2942 0145 1f42 49e8 1a42
00000040: d253 b141 4607 3842 1f65 de41 24f2 2b42
00000050: 9822 1a42 5f26 1c42 a9de ff41 f9ef 5942
00000060: 9f11 ff41 3f34 1842 83cd 0442 d904 b142
00000070: 9c0a e041 8e19 b342 ae3d 8242 3f53 1c42
48.496212 35.07583 47.9035 45.118477 68.018936 31.160824 43.712887 18.898321
34.337948 47.72455 40.19959 37.657997 30.53978 42.409286 39.817387 38.72684
22.165928 46.007103 27.799376 42.986465 38.533783 39.03747 31.98372 54.48435
31.883604 38.05102 33.200695 88.50947 28.00518 89.54991 65.12047 39.081295

model.3.weight f4 [16, 32]
00000000: e5b8 1abd 1fae 05be 450a 99bd b7c3 5f3d
00000010: bb29 8f3b abe9 6dbe 7ace 34bd 7a1f 88bd
00000020: 2991 8c3d 4e21 02bd 9e5d 6a3d a256 fb3d
00000030: 0108 a0bd de7b ed3c ff74 73bd 16e9 703d
00000040: 0be8 edbb 5933 f83d e9f9 edbb 76dd ea3d
00000050: fc63 11be b3c3 bd3d 7d96 e53d 1685 9ebe
00000060: 9308 03bc 7f94 2dbd 4e7f 02be 36f6 053e
00000070: 5edc 5bbd cf1c bf3d ce9b e93d 7c6a 8ebd
00000080: bfdf 923d c256 bbbb d78f d13d ea28 d13c
00000090: 0cd1 76bd 8629 7abd 35d9 9bbd 72f8 85bd
000000a0: 6629 8e3d 4c19 a1bd 6907 05be 3d1d b73b
000000b0: 5c18 56bc 8a57 2f3e 98bc 013e 7d5f 3d3d
000000c0: c9ca cc3c 4072 07be a693 0d3d db9e ea3d
000000d0: d3da e1bd 148f 8dbd df0e 633e 5c46 05be
000000e0: 1657 24be c1e5 113d fab1 aabd 9271 b0bd
000000f0: dc33 afbd 370c ec3c cce6 f3bd 194e 183d
00000100: 6c03 2a3b 53be 24bd cf1b 153d 07c7 39bb
00000110: c0e0 2fbd 8a64 013c 17dd f33d 1c1b 8bbd
00000120: f5c4 08bd 58ae c4bd 764e a73d 1387 a9bd
00000130: d696 a23c 1bbf c2bc 6a49 9d3d 76c6 06be
00000140: 1e5d 873d 6037 3c3d e73b 3c3d d478 643e
00000150: 71d8 933c 85aa 673d fd86 1d3a 661a 4bbd
00000160: 3487 24be 7d01 29bc 44b5 0dbe ef4f 6b3d
00000170: 6cac 853d 5996 e1bd 4bcd 623d f9d2 1e3e
00000180: 8784 423e 3d30 6c3c c969 1abc 4e18 04be
00000190: d388 a33d 15da 933d e185 2fbd 005d 1c3e
000001a0: 4cb7 633d 8ccb dd3d dc8a a0bd 177d d0bd
000001b0: 22e2 133d c4c2 1abe dc27 ea3c 1fed a03d
000001c0: b81d 063d 3d9e 81bc 4531 073e 1324 babd
000001d0: 0851 cb3c c082 8fbd 2d1b cc3c 36bb 8bbd
000001e0: dc7c 2a3d b415 e7bd 221b d3bc 6b36 193e
000001f0: 0326 c9bd 7299 5e3e cb90 8639 216f 1bbe
00000200: 9463 d7bd 7921 543d 569b c7bd 2290 e53b
00000210: 93f9 053e 380b 2e3e 4abe 17be 54fc 35bd
00000220: 375e 203e b6ac a93d 532a c93c f643 cf3c
00000230: 3cb7 55bc f937 af3c c810 38be b3b5 9cbd
00000240: 82ce 71be 8623 bd3d 0074 833d 7976 46be
00000250: dd60 303e 1219 c23d f151 96bc a837 7f3d
00000260: 9101 b93d a299 eb3d a624 7e3c 7a8a 0dbe
00000270: aa93 96bc 395e 1abe ae23 7cbd 0eda 9fbd
00000280: 9880 4fbe cfc9 cabd 0a16 e9bd 1200 9dbd
00000290: 973d 10bc 37dd a4bd 93de fe3d 1478 30bd
000002a0: 2209 063e 73d7 c13c bd0a 20bd 52ee 1b3e
000002b0: 1de8 82be 750d 77bc b3fe 2b3e 7e1e d9bb
000002c0: 152a c5bd 24dd c5bd c577 433d 4e41 5fbd
000002d0: 8b5f 07be cd06 d93c 8f8d f8bd 2274 39be
000002e0: c80a 45be b7da 66bc b0e0 9e3c 7fbe 033c
000002f0: f50e 553d e7fd f23d deb6 1d3e b312 0a3e
00000300: 8fe6 3c3e 15f6 ef3c 7307 3dbe fbd5 36bc
00000310: de33 fe3b 3773 24bd 3dee 65bc 2059 d0bd
00000320: e3b1 3bbe 57d0 83bd b4c8 e6bd 8b4e 533d
00000330: 4bea 703d 1b84 12be 0ac5 ddbd bea1 94bd
00000340: ec30 9dbd e707 e03c d488 1d3d bd4a 59be
00000350: b3a4 abbd 39fc 6fbd 3c23 12be 4422 493e
00000360: 05d1 fbbd f3a3 04bd c62c ba3c 5de6 be3d
00000370: ca6f 73bd 5655 f1bd 7a67 ec3d 86b5 c2bd
00000380: 8bd6 fbbd ef33 3cbe c0a5 ef3c 2183 393d
00000390: 476b 3ebe 272e a6bd a425 1e3d 65aa 133e
000003a0: 9cec eabd 081e 1fbe 96e4 eabc 4c2d e6bc
000003b0: f0eb 033e 026e 8fbd bf8b 8cbd c8d2 10bc
000003c0: 2998 eb3c e04c 9bbc 33bf 1b3d 0afb cfbd
000003d0: 2e20 173e 168b 823c 1cc4 ecbc a48e 063d
000003e0: 1b91 ad3d 0201 2f3d 1e8f 20bc bc9f 49be
000003f0: 58c0 c03d b18e bebd b11c 5fbe 9cba 9ebd
-0.037773985 -0.13054703 -0.07472662 0.054630008 0.0043689883 -0.23233669 -0.044142224 -0.06646629
0.068636246 -0.031770043 0.057218187 0.12272383 -0.078140266 0.028989729 -0.059437748 0.058816038
-0.0072603277 0.12119169 -0.0072624576 0.114680216 -0.14198297 0.09265842 0.11210344 -0.30960912
-0.00799765 -0.042377945 -0.12743875 0.13082203 -0.053676955 0.09331667 0.114066705 -0.06953904
0.071715824 -0.0057171294 0.102325134 0.025532205 -0.060257956 -0.061074756 -0.07609788 -0.06541528
0.0694149 -0.07866153 -0.12991108 0.0055882023 -0.013067331 0.17123237 0.12669599 0.046233643
0.02499904 -0.13227177 0.034564637 0.114560805 -0.110280655 -0.069120556 0.22173642 -0.13015121
-0.16048846 0.0356195 -0.083347276 -0.08615412 -0.08554813 0.028814418 -0.119092554 0.037183855
0.002594198 -0.04022057 0.036403473 -0.002834739 -0.042938948 0.007897506 0.11907404 -0.0679228
-0.033390958 -0.09603566 0.08169262 -0.082777165 0.019847315 -0.023772767 0.07680018 -0.13161644
0.066095576 0.045951247 0.045955565 0.22311717 0.018047543 0.056559104 0.00060091895 -0.049585722
-0.16067201 -0.010315296 -0.13838679 0.057449277 0.065270275 -0.11015005 0.055371564 0.15510167
0.18995868 0.014415798 -0.009424635 -0.12899897 0.079850815 0.0721933 -0.042852286 0.15269852
0.055594727 0.10829839 -0.07838985 -0.10180109 0.03610433 -0.1511336 0.02858346 0.07857727
0.032743186 -0.015822524 0.13202389 -0.09088912 0.024818912 -0.070073605 0.024915302 -0.06822817
0.04162298 -0.112834364 -0.025769774 0.14962165 -0.09821703 0.21738222 0.0002566635 -0.15179111
-0.1051704 0.051789735 -0.09746425 0.0070057074 0.13083486 0.16996467 -0.14818683 -0.044430092
0.1566094 0.08284895 0.024556315 0.025300961 -0.013044175 0.021388995 -0.17975152 -0.07651844
-0.23613933 0.09235291 0.064186096 -0.19381131 0.1722445 0.09477438 -0.01834962 0.062308937
0.09033502 0.115039125 0.015511667 -0.13822356 -0.018380959 -0.15075006 -0.061557464 -0.078052625
-0.20263898 -0.09901773 -0.11381157 -0.07666029 -0.008803747 -0.08050006 0.124447964 -0.043083265
0.13089421 0.023662305 -0.03907274 0.1522763 -0.25567713 -0.015078892 0.16796379 -0.0066259494
-0.09627167 -0.0966132 0.047721643 -0.05450564 -0.1322004 0.0264925 -0.12136375 -0.18110707
-0.19242394 -0.014090232 0.019394249 0.008041023 0.052016217 0.11864834 0.1540179 0.13483696
0.18447326 0.029292146 -0.18459873 -0.011159415 0.007757648 -0.04014894 -0.014033851 -0.10173249
-0.18329577 -0.06436222 -0.1126875 0.051588576 0.05881719 -0.14308207 -0.10828598 -0.072574124
-0.07675347 0.027347518 0.038460568 -0.21219917 -0.08381023 -0.058590148 -0.14271253 0.19641978
-0.12295727 -0.032382917 0.022726428 0.09321282 -0.059432782 -0.11783855 0.11543174 -0.09507279
-0.1229678 -0.18379186 0.02925384 0.04529107 -0.1859561 -0.081142716 0.038610116 0.14420469
-0.11470911 -0.155388 -0.028673451 -0.028097771 0.12882972 -0.07003404 -0.06862592 -0.008839317
0.028759079 -0.018957555 0.03802414 -0.10155304 0.1475837 0.015935462 -0.028902106 0.032850876
0.08474942 0.04272557 -0.009799747 -0.1968984 0.09411687 -0.0930456 -0.21788289 -0.07750437

model.3.bias f4 [16]
00000000: 9c89 3c3e b9dc d5bc d475 983d 108a 133e
00000010: cdda a33d 1f2f ddbd 9695 5fbe 3995 14bd
00000020: 4d27 3fbd 84e2 173e ad36 b43d 5073 3cbe
00000030: ae59 49bd 4eff 993d f2dc d63b 5960 393e
0.18411869 -0.026106225 0.07444349 0.14408135 0.08000717 -0.10800003 -0.21834406 -0.036275122
-0.04666834 0.14832503 0.08799491 -0.18403363 -0.04915779 0.07519399 0.0065571005 0.1810316

model.5.weight f4 [16]
00000000: 202b 843f 694a 6c3f 2684 743f 3398 793f
00000010: ccc0 753f e8cd 803f cc93 643f 6253 973f
00000020: 92e6 903f c9f0 693f 1d62 8c3f 2421 763f
00000030: af13 843f c714 7d3f 4090 713f 2f82 4e3f
1.0325661 0.9230104 0.9551414 0.9749786 0.9599731 1.0062838 0.8928802 1.1822321
1.1320364 0.91383034 1.0967442 0.9614432 1.0318507 0.9885983 0.94360733 0.80667394

model.5.bias f4 [16]
00000000: be74 313c 71d4 0d3e ba19 aa3d e512 d63b
00000010: 1d69 d1bd aeff 013e 50bb d6bc 67a1 5cbc
00000020: d7c4 92bd 797a 2bbc 2741 e03d c869 7b3e
00000030: 17e6 0a3e 1c94 c2bd a5e3 283e a1fa 193e
0.010831056 0.13850571 0.08305688 0.006533014 -0.10225127 0.1269519 -0.026212364 -0.013466216
-0.071664505 -0.0104662115 0.10949927 0.24552071 0.13564335 -0.09500906 0.1649309 0.15037014

model.5.running_mean f4 [16]
00000000: 2c65 cc3e 7073 2d3e 5443 393e df0e b23e
00000010: 90c3 583e ffb4 2f3e ae4b c83d e90a 523e
00000020: 1a7c 1b3e 0716 be3e 96d6 973e 3d56 c83d
00000030: a227 193e 3075 983e ee3f 5f3e 6af5 a23e
0.39920938 0.16938567 0.1809209 0.3477697 0.21168351 0.17158888 0.0978006 0.20511974
0.1518406 0.3712618 0.29655904 0.09782074 0.14956525 0.29776907 0.21801731 0.3182786

model.5.running_var f4 [16]
00000000: 0b3a 873e b8f8 c43d d4a3 d03d 042f 903e
00000010: 05a4 a13d a708 0a3e 79cb 083d 6f72 5e3d
00000020: 36bf 353d 0c47 0a3e f284 883e be52 4c3d
00000030: 6f34 a53d 8ca8 b13d ac71 2c3e 1d1f 433e
0.2641147 0.09617752 0.10187498 0.2816087 0.07892612 0.13479863 0.03339717 0.05430835
0.044371806 0.13503665 0.2666393 0.049883597 0.080666415 0.08674726 0.16840237 0.19054838

model.6.weight f4 [8, 16]
00000000: bae0 073d 92ad 0d3e 4904 22bd 78d4 8ebe
00000010: 3327 2ebe e25b 76be 5cc3 c63b 2443 a53d
00000020: b130 823e 2164 3e3e 9fa2 cbbc e92f 60be
00000030: e5ce ee3d d5c6 50bd 43ae 17be 0d18 eabd
00000040: eaee 803e e55a f53d 6bb5 c93c 11f5 333e
00000050: 893b 05be 057e 1f3e f23c 2abe 0127 c1bd
00000060: f336 0bbc 3c42 9bbd a284 103e 2f94 46bb
00000070: 8442 833d 67f5 ecbd df04 ed3d 3304 59be
00000080: a4b5 173e 03dd fd3d f6e5 673d c27d 003e
00000090: fac2 1fbe 0a95 643d 3d8e cb3d 090c 1fbe
000000a0: cb6e 193d b536 b9bd 7f20 7d3e 7479 123d
000000b0: 93c5 4dbe a0f6 21bd 46a8 59bd 0a71 1abe
000000c0: f476 3cbd 732f 49be 9032 cd3d 54d8 e73c
000000d0: 1bfa 07be 61ca 85be c15b 1cbd d083 5b3d
000000e0: 0aee aebe 2e23 4c3e 3a3f 0dbe 1525 e2bd
000000f0: ca1d 963d 25a5 4fbe 3b0a 64be ae92 973d
00000100: 738d 33be aec9 183e 561a b7bd 9421 80be
00000110: 2638 1fbe 37d0 2dbe 8861 aa3b b9f1 243e
00000120: 9c37 a23e 0369 493e 7f96 56be 4f1f 5fba
00000130: 124f 28be 6779 253e 9796 febd e3a6 0c3e
00000140: 4284 ee3c c8a9 96be 9df8 84be 4f4d 963d
00000150: 8457 343e 5351 93bd faec 223c a2f6 3bbe
00000160: ee06 8dbd bab1 81bd c196 99be 37c9 3e3c
00000170: 2605 8bbe 246a 6c3e 3e4e 8bbc 6172 11bd
00000180: f2da dc3c 0709 4bbd 14b3 27be f165 6abd
00000190: dfaa ed3c 6d9b 703d 3093 91bc b20e b2be
000001a0: c545 56be 2f77 04bd a20c 44bd b180 af3d
000001b0: ad2e f23c 2ca0 773d 43c1 d03d 8e06 acbd
000001c0: 48f6 b03d 4cad 9d3c 5b35 413e 58aa 213e
000001d0: 44ec 06be 291d cd3d 833b 7cbe a07a a3be
000001e0: 230d 5e3d 57b0 5d3d 241b 243e 5eff a3bd
000001f0: 8974 563c 9715 ad3d e461 2d3d a39a 2bbd
0.0331733 0.13835743 -0.039554868 -0.27896476 -0.17007141 -0.24058488 0.006065769 0.08069447
0.25427774 0.18592884 -0.024857817 -0.21893276 0.11660556 -0.05097087 -0.1481257 -0.114303686
0.25182277 0.119802274 0.02462264 0.17573954 -0.13010992 0.15575416 -0.16624811 -0.094312675
-0.008496988 -0.075809926 0.14113095 -0.0030300727 0.06409171 -0.11570244 0.11573195 -0.21193008
0.14815384 0.1239567 0.056615792 0.12547973 -0.15601721 0.055806197 0.09939239 -0.15531935
0.037459176 -0.09043638 0.24719428 0.035760358 -0.200949 -0.03954184 -0.053138994 -0.15082183
-0.04601188 -0.19647007 0.1001941 0.028301395 -0.13279001 -0.26130965 -0.03817344 0.053592503
-0.34165984 0.19935295 -0.1379365 -0.11042229 0.073299006 -0.20277841 -0.22269528 0.07401024
-0.17534427 0.14920685 -0.0894057 -0.25025618 -0.15548763 -0.16973959 0.005199615 0.16107835
0.31683052 0.19668965 -0.20955847 -0.000851144 -0.16436413 0.16159593 -0.124310665 0.13735537
0.0291158 -0.29426408 -0.25970927 0.07338964 0.1761151 -0.07193246 0.009944195 -0.18355802
-0.06886087 -0.06332727 -0.2999783 0.011644653 -0.27152365 0.23087364 -0.017005082 -0.03550947
0.02695987 -0.049569156 -0.16376907 -0.057226125 0.029012142 0.058741976 -0.01777038 -0.34776837
-0.20925052 -0.032340225 -0.04786361 0.08569468 0.029563272 0.060455486 0.10193112 -0.08399688
0.086407244 0.019247673 0.1886801 0.15787637 -0.13176066 0.100153275 -0.24632077 -0.31929493
0.054211747 0.05412325 0.16025978 -0.08007692 0.013089308 0.084513836 0.042329684 -0.04189552

model.6.bias f4 [8]
00000000: 0cf9 f8bd 1fba 213e fcd3 d8bb 3242 333e
00000010: 07ef c5bd eec9 653c 2056 743e 87ad e1bc
-0.12156877 0.15793656 -0.0066170674 0.1750572 -0.096647315 0.014025195 0.23860979 -0.027548565

model.8.weight f4 [8]
00000000: 606c c63f 1899 d03f b04a c23f 3876 c83f
00000010: cbdc c53f 6fe9 cd3f 1c63 bd3f db64 ca3f
1.5501823 1.629672 1.5179043 1.5661077 1.5458006 1.6086863 1.4795871 1.5812029

model.8.bias f4 [8]
00000000: 3f70 e8bd e02e 48be 84fb 13bc 9b73 c63d
00000010: 14aa 5bbd dccf 2f3e b4d5 a33d e8b4 6abe
-0.11349534 -0.19549131 -0.009032134 0.09690019 -0.053628996 0.17169136 0.07999745 -0.22920573

model.8.running_mean f4 [8]
00000000: 2002 343e a3ae c43e b0c6 793e 52f1 a63e
00000010: 59f3 9e3e 0f68 463e 57bf c43e 70f5 893e
0.17578936 0.38414487 0.243922 0.32605988 0.31045035 0.19375633 0.3842723 0.26945066

model.8.running_var f4 [8]
00000000: bcf1 983d 5cfd ba3e 7a5d 423e 4d17 593e
00000010: 41c8 573e 9eaf b23d ac78 143e c418 4b3e
0.07467982 0.36521423 0.18980971 0.21200295 0.21072485 0.087249026 0.14499158 0.19833666

model.9.weight f4 [4, 8]
00000000: f864 50be 7d13 4d3f 08ee d83e 7e9b 07bd
00000010: 1374 02bf 2848 07bf f46a c83e cc33 6c3f
00000020: c6d8 143f 2997 ffbd 189f e8be a13a 06bf
00000030: 670b 4e3f 5d52 e1be 3781 12bf 9b24 403e
00000040: 5711 76be 3a33 a4be fb3a 0cbf e3d2 4b3f
00000050: d265 0dbf 4688 c6be c9b9 54be 3952 a0be
00000060: 5a6e 0cbf 5b00 d8be 6138 34be bcec 0fbf
00000070: a734 87bb 64af 5c3f 3c1f f43d e158 5bbe
-0.20351017 0.8010786 0.42369103 -0.033107273 -0.50958365 -0.52844477 0.391441 0.92266536
0.5814327 -0.124800034 -0.4543388 -0.5243321 0.8048615 -0.4400815 -0.57228416 0.18763964
-0.24030052 -0.32070333 -0.547775 0.7961866 -0.5523349 -0.38775843 -0.20773996 -0.3131273
-0.54855883 -0.4218777 -0.17599632 -0.56220603 -0.0041261497 0.86205125 0.1192002 -0.21420623

model.9.bias f4 [4]
00000000: 7740 e1bd f5a3 abbd 23a7 abbc 5578 e7bd
-0.10998624 -0.08380882 -0.02095372 -0.113022484
