saved_models/MLP/ckpt__epoch100.ckpt (torch, 18336 bytes, 20 tensors)

model.0.weight f4 [32, 64]
000000 bd 16 95 3c 2a 52 14 bd 1a f8 a6 3d ff 04 d7 3d
       0.018199319 -0.03621117 0.0815279 0.10499
000010 6c 60 db 3b 81 4a d7 bb 57 da b3 3b fc 68 d5 3c
       0.006694844 -0.006570161 0.0054886746 0.026051037
000020 0a f3 e7 3b d7 98 47 3d c6 b8 26 3d 07 f5 97 bd
       0.007078533 0.048729744 0.040703557 -0.07419782
000030 f0 0b 3e bc e9 9a 6b bc 33 bd 14 be 3e 43 41 bd
       -0.011599526 -0.014380195 -0.14525299 -0.047183268
000040 45 cd 9c 3b b6 3d bd bc 78 08 f9 bc 0d 5c 81 ba
       0.004785212 -0.023100715 -0.030399546 -0.0009869352
000050 5e 26 b2 3c ef da c6 bc 1e 43 a8 3d e2 b7 5b bc
       0.02174681 -0.024274318 0.082159266 -0.01341054
000060 98 8b 0a 3d a9 06 0b 3d 88 75 12 3d ac 5f 48 3d
       0.033824533 0.0339419 0.035756618 0.048919365
000070 08 30 18 3d 52 67 81 bd bb 50 37 3e f6 c0 57 bd
       0.03715518 -0.06318535 0.1790189 -0.052674256
000080 ad 59 7e bc 06 2c 6f bc 62 b8 df bd 23 7d 34 be
       -0.01552431 -0.014597898 -0.1092384 -0.17625861
000090 dd 7e 64 3d ce 9e b0 bd e2 d6 48 be be 81 83 3c
       0.05578505 -0.086240396 -0.19613221 0.016053077
0000a0 b0 7a e5 bc 54 07 41 bd 87 3c 40 be 8c 9e 85 bc
       -0.028012604 -0.04712613 -0.1877309 -0.016310953
0000b0 9a b3 fd bb 1d 28 1b bd d1 7b de bd 8b 28 3c bd
       -0.0077423574 -0.037880052 -0.1086346 -0.045937102
0000c0 a6 4a 48 3b d4 2f 2c bd 9c 90 01 3e b7 a7 0c 3d
       0.0030562072 -0.0420378 0.1265282 0.034339633
0000d0 2c 6d 18 3d 26 ce 10 bd bc 22 6d 3e 0e b9 8e bc
       0.03721349 -0.03535285 0.23157781 -0.017422225
0000e0 27 bc e3 3c cd 97 ba bd 8d 68 7a bd e8 7e 0d 3e
       0.027799679 -0.09110985 -0.061134864 0.13817942
0000f0 fa 50 26 3d c1 32 35 bd e5 79 6f be 78 44 a5 bd
       0.04060457 -0.044237856 -0.23386343 -0.080697
000100 e2 dd dc 3b 18 d5 95 3b fe b9 9d 3d 6d 6f be bd
       0.0067403177 0.004572522 0.07701491 -0.092985965
000110 7f 84 e8 bc f9 90 c7 3c dd db 18 bd d6 90 24 bd
       -0.028383492 0.02436112 -0.037319053 -0.04017719
000120 bc 5f 07 bd fb a6 1b 3d 70 e6 af 3d 03 c3 67 3e
       -0.033050284 0.03800104 0.08588874 0.22632985
000130 e6 d7 2e bd 06 41 b0 3d 6d 1d 50 3e 04 d6 72 3c
       -0.042686366 0.08606152 0.20323725 0.014821533
000140 a6 29 a4 bc 5c 6e 7d 3c 3c dc a5 3d dc 67 c9 3d
       -0.02003939 0.015468206 0.08098647 0.09834263
000150 d0 99 9c bb 84 af aa 3d be c3 ae 3d 51 3b 93 bd
       -0.004779078 0.08334258 0.085334286 -0.07189048
000160 31 88 cf bc 12 ec a6 3d 3f 8d 04 bd e3 3a 8d 3d
       -0.025333496 0.081504956 -0.032361265 0.068959974
000170 4e 60 e1 3c 36 ba 13 3d 86 76 83 bd 8f cd 8c 3c
       0.027511742 0.036066256 -0.06419091 0.017187862
000180 38 57 01 bd 0b 53 f7 3c 4e 7b 71 bd dc e0 24 be
       -0.03157732 0.030190965 -0.058955483 -0.16101402
000190 52 e2 8c 3d b2 52 48 bd e0 45 86 bd 37 03 9d 3d
       0.06879105 -0.04890699 -0.06556296 0.07666629
0001a0 cc d9 c6 3b 09 66 9c bc 87 e7 1d 3c 33 8a be 3d
       0.006068444 -0.019091623 0.00963772 0.09303703
0001b0 e9 82 9b 3c ad f5 29 bb 7f 40 a6 bd e8 00 ac 3d
       0.018983321 -0.0025933788 -0.081177704 0.0839861
0001c0 ca 5c d0 3b 2f 77 9c bc 6c 33 60 bd bb 8d be bd
       0.0063587176 -0.0190998 -0.05473654 -0.09304377
0001d0 6f 2e 95 bb 25 02 92 bc 8c 8b 73 3e 0c 00 89 bb
       -0.0045526545 -0.017823288 0.23783702 -0.004180914
0001e0 cc 36 8f 3c d9 1c a5 bd 2f c5 7a bd 06 14 ce 3c
       0.017482184 -0.08062143 -0.061223205 0.025156032
0001f0 43 d3 22 3c a1 6a 92 bb a2 fc b5 bd 3b cb be 3d
       0.009938064 -0.0044682776 -0.088860765 0.09316107
000200 4c 6e 2a bd 8b 14 86 bd ef 56 0f 3e 0b db 61 bd
       -0.041609094 -0.06546887 0.13998006 -0.055140536
000210 10 cf 17 bc fb 29 6d 3c d5 fa be 3b 2e 29 4d 3c
       -0.009265676 0.014475341 0.0058282414 0.012522025
000220 c9 8a df 3c df a3 69 3c 64 20 b0 3d 0a eb 80 bd
       0.027287858 0.014260261 0.08599928 -0.0629483
000230 4e 56 58 bd 17 30 77 bc 58 d8 8b 3d 77 e3 41 bc
       -0.05281668 -0.015087149 0.06828374 -0.011834017
000240 96 f0 08 3d 7b cd ea 3d da c6 7c 3d cb b9 3f bd
       0.033432566 0.114649735 0.061713077 -0.046808045
000250 0d b8 7e 3d 38 15 d3 3b ab 0b 04 3e cd fe ae bd
       0.062187243 0.0064417385 0.12895076 -0.08544693
000260 4b c3 b0 3c 4a ad 2b 3d 20 59 dd bc c4 22 1e bd
       0.021577498 0.04191331 -0.027020037 -0.038607374
000270 c2 2b c2 3d 8a a0 55 bc 25 e7 c6 3c d0 21 3b 3d
       0.094810024 -0.013038764 0.02428014 0.045686543
000280 4d 1c a2 3d 5a 91 2b be be 28 0a 3e a9 ce f5 3c
       0.07915554 -0.16754666 0.13492104 0.03000577
000290 86 39 99 3d b8 29 e2 bb 03 a8 a6 bd 1a 0e 9e bb
       0.07481675 -0.006901946 -0.081375144 -0.0048234584
0002a0 44 2a 95 3c 59 50 d5 bd 7a b8 07 bb d3 49 2f be
       0.01820863 -0.10415716 -0.0020709322 -0.17118005
0002b0 63 23 14 bd 90 50 a7 3c 5e 77 33 3e 42 3b 11 3c
       -0.03616656 0.020424157 0.17526004 0.008864226
0002c0 39 5a 7f 3d 59 2b 74 bd 8e eb 9c 3d 92 70 bc 3d
       0.062341902 -0.059611652 0.07662116 0.092011586
0002d0 55 55 e7 bd 91 b7 be bc d1 16 2d 3e 39 16 37 bd
       -0.11295573 -0.02328089 0.16903235 -0.044698928
0002e0 fb 54 82 bc 66 7d 4a 3c 4d ff 0b 3d 6f 3f b3 3c
       -0.015909662 0.012358999 0.03417902 0.021880833
0002f0 83 48 1a bd e7 ba 81 bd c1 34 26 3e 94 55 11 3c
       -0.03766681 -0.06334477 0.16231062 0.008870501
000300 1e 5a c7 3d 19 58 45 bd 41 c1 8a bd e3 74 fd bb
       0.09733985 -0.04817972 -0.067751415 -0.0077348812
000310 58 2b ca 3c a1 dc b4 bc b0 fc 03 3e 40 1f d4 bb
       0.024678871 -0.02207786 0.12889361 -0.006473452
000320 7f a0 79 3d e6 61 c6 3c 24 86 1a 3e 4b 9b f8 bd
       0.060944077 0.024216603 0.15090233 -0.12138995
000330 62 3f d1 bb 11 34 e4 3c 7d 11 ee bd 0d 0b c4 3d
       -0.0063857296 0.027856858 -0.116244294 0.0957242
000340 98 e5 d1 3d 68 45 f5 3c 2b 72 9e 3b 14 2b 75 3d
       0.1024887 0.029940322 0.004835387 0.059855536
000350 be 7b 21 bd bf fd e5 3c 0d 76 b0 3c 94 33 78 3c
       -0.03942465 0.028075097 0.021540666 0.015149016
000360 9e 7d f1 3c 1c 6f 99 3d a6 eb 84 bd 97 27 bd 3d
       0.029478844 0.074918956 -0.06490259 0.09236067
000370 d6 99 eb bc 0f 64 db bc f0 51 a3 3d 84 ea 3a 3c
       -0.028759878 -0.02678111 0.07974613 0.011408452
000380 82 21 56 bd 0e da 81 3c 27 af 43 bc db 05 9f 3d
       -0.05227805 0.015851047 -0.011943615 0.07764789
000390 88 85 64 bd c5 5f 45 bc a6 0f d2 3c c2 b2 82 bc
       -0.055791408 -0.012046759 0.025642227 -0.015954379
0003a0 0a df 9b bd 3d 70 9f ba a4 24 14 3e 7e ea b2 3d
       -0.07610901 -0.0012164187 0.14467102 0.08736132
0003b0 dc 5f 7b 3b fc fd 90 3c 8b 24 bc bd c0 b5 c4 3c
       0.0038356697 0.017699234 -0.091866575 0.024012446
0003c0 d1 bb 12 3d 26 41 0a be 53 b9 90 3d bb 3d 09 3d
       0.035823647 -0.13501415 0.07066598 0.033506136
0003d0 62 51 80 bd d2 c8 91 3d 73 9f 3e be 55 9b 71 bd
       -0.062655225 0.071183816 -0.18615513 -0.058986027
0003e0 ac c2 04 be c7 f2 8c 3d e4 b1 de 3a fd 44 d5 bd
       -0.12964886 0.068822436 0.0016990271 -0.10413549
0003f0 55 b8 53 3d bf 50 f9 bc 51 ca 0d 3e 34 21 27 3d
       0.051689465 -0.03043401 0.13846709 0.04080315

model.0.bias f4 [32]
000000 ac cb 2b bd 5c f6 d1 bd 7a 35 8c 3e 89 b3 07 be
       -0.041942284 -0.102520674 0.2738455 -0.13252081
000010 15 ad 03 3c ed d7 58 3d dd 88 23 3d d0 73 26 3c
       0.008036871 0.052940298 0.039925445 0.010159448
000020 6d 1c bd 3d 02 c1 87 bc 6f ba 49 3e b3 ce 78 3b
       0.092339374 -0.016571525 0.19700025 0.0037965
000030 d2 98 0c be a4 40 7f 3d b7 eb e3 bd b9 29 95 bc
       -0.13730171 0.062317505 -0.111289434 -0.018208371
000040 3c 08 6a 3c 24 24 ab bd 6f bf 30 3e 49 df da bd
       0.01428419 -0.08356503 0.17260526 -0.106871195
000050 84 75 d6 bc a3 ba 86 bd 32 de b8 3d 61 bf ba bd
       -0.026179083 -0.06578567 0.090267554 -0.09118534
000060 25 b1 b4 3d 19 07 2f bd 30 b7 83 3c d2 cd 61 3d
       0.0882285 -0.04273138 0.016078562 0.055127926
000070 46 6d 5f 3b fb 86 1e be 27 35 b0 3d e7 82 76 be
       0.0034092232 -0.15481178 0.08603888 -0.24073373

model.2.weight f4 [32]
000000 7f ee 8f 3f 12 0c 87 3f a2 c2 7b 3f 8c c6 7f 3f
       1.1244658 1.0550559 0.9834386 0.99912333
000010 6c 3f 6b 3f f5 91 83 3f 51 60 82 3f 73 4c 79 3f
       0.9189365 1.0278918 1.0185643 0.9738228
000020 2e a5 74 3f 96 92 87 3f b5 cb 8d 3f 67 28 74 3f
       0.95564544 1.059161 1.1077791 0.9537415
000030 15 94 7f 3f f4 60 80 3f 2c a2 80 3f 49 a3 70 3f
       0.9983533 1.0029588 1.0049491 0.93999153
000040 bf 2b 71 3f 41 5b 6e 3f c1 d6 7f 3f 38 60 7d 3f
       0.94207376 0.9310799 0.99937063 0.98974943
000050 0c fe 85 3f 9a 9c 83 3f 43 ca 6b 3f 63 67 77 3f
       1.0468154 1.0282166 0.921055 0.9664213
000060 96 bd 89 3f 99 fa 6e 3f 11 aa 81 3f 09 b7 84 3f
       1.0760982 0.9335113 1.0130025 1.0368358
000070 9b ea 79 3f 2b 7c 7c 3f 1a 09 8c 3f 9c 58 74 3f
       0.97623605 0.98626965 1.0940278 0.9544771

model.2.bias f4 [32]
000000 cf 6a e3 3d 61 75 c6 3d 2d 63 96 bc cc 1d 00 3d
       0.111043565 0.09690357 -0.018357838 0.031278417
000010 b0 86 f2 3c 94 ea 3c 3d 65 eb 2b 3d 25 c7 f6 bd
       0.02960524 0.04612215 0.041972537 -0.120497026
000020 ae 06 be bc 21 2d f2 bc 98 10 40 3e 64 de 9d ba
       -0.023196544 -0.029562535 0.1875633 -0.0012044427
000030 c1 74 35 bd 9b 01 88 bd 2c 4b 78 bb ab 8f 53 bd
       -0.0443008 -0.06640931 -0.0037886603 -0.051650684
000040 21 2c 8f 3d 6b 8e b4 bc 55 7c 24 3e 7f 65 9d bd
       0.06990839 -0.022040566 0.16063054 -0.076853745
000050 45 c0 94 3d af 5b 36 3d cf 56 6a bc fb 80 68 3d
       0.07263235 0.04452103 -0.014302923 0.05676363
000060 c7 d6 4a bd ac c9 b6 bc 57 28 ee 3c 9c a8 89 3d
       -0.049521234 -0.022312962 0.02907197 0.06721613
000070 27 6a c4 3c f7 65 1d bd ce 7f 97 3d 78 cc 17 3d
       0.023976399 -0.03842732 0.07397424 0.03706023

model.2.running_mean f4 [32]
000000 60 14 85 40 6d d7 3a 40 db 56 31 40 e3 6a 31 40
       4.158737 2.9193985 2.7709262 2.7721488
000010 21 85 2d 40 be a8 62 40 a2 0c 79 40 fc a2 8f 40
       2.7112505 3.5415492 3.891396 4.4886456
000020 f5 eb 53 40 ec 2e 35 40 6f 54 47 40 1c f2 4a 40
       3.3112767 2.830989 3.1145284 3.1710272
000030 4c ff 97 40 58 6d 35 40 4e bf 69 40 65 30 81 40
       4.749914 2.8347988 3.6523013 4.0371575
000040 1f 51 7a 40 be 99 5d 40 0a 2f 89 40 61 8d 61 40
       3.9112012 3.4625087 4.286992 3.524254
000050 3a d8 5b 40 ab 9d 5c 40 48 16 80 40 8f 88 88 40
       3.4350724 3.4471233 4.00272 4.2666698
000060 56 11 2a 40 3c a7 5d 40 a6 8d 3f 40 83 92 87 40
       2.657308 3.4633322 2.9930205 4.2366347
000070 d3 be 73 40 0f 0d 4b 40 d0 81 4a 40 2f e9 82 40
       3.808522 3.172672 3.1641731 4.090965

model.2.running_var f4 [32]
000000 61 40 8e 42 38 cc 24 42 c4 3f be 41 4f ea 0f 42
       71.12574 41.199432 23.781136 35.978817
000010 a5 ba cd 41 0f cb 31 42 81 9f 3c 42 7d 64 38 42
       25.716135 44.4483 47.155766 46.098133
000020 a7 d5 10 42 ef 4d 1b 42 b8 3d 36 42 7d 54 14 42
       36.208645 38.826107 45.560272 37.082508
000030 7d 36 6b 42 b3 0b e3 41 13 ac 1e 42 5b b5 26 42
       58.80321 28.380713 39.66804 41.677105
000040 80 2e 1b 42 66 e8 fe 41 90 93 5b 42 71 94 10 42
       38.79541 31.863476 54.894104 36.144962
000050 26 42 20 42 06 5e 4f 42 25 63 0c 42 c5 ee 32 42
       40.064598 51.84182 35.09682 44.733173
000060 f8 e4 b8 41 65 25 ee 41 83 28 00 42 79 d0 5c 42
       23.111801 29.76826 32.039562 55.203587
000070 27 43 0d 42 79 e4 0f 42 e0 c4 0d 42 32 49 12 42
       35.31558 35.973118 35.44226 36.57148

model.3.weight f4 [16, 32]
000000 8a 92 dc 3d 02 ba a8 bb fc b1 f3 3c 6f e6 d2 3d
       0.107701376 -0.005149127 0.029747956 0.10297858
000010 19 bc 28 bc da 33 e4 3d 1b 91 88 bd 5d 0e 61 3d
       -0.010298752 0.111427024 -0.06668302 0.05494534
000020 c1 cb bf 3d 01 8e ec 3c 4f 76 2d 3c 7e 38 4b be
       0.09365035 0.028876306 0.010587289 -0.19845769
000030 e2 82 12 be 40 fc 09 3e 1a d0 15 bd 70 9f 82 3d
       -0.1430774 0.13475132 -0.036575414 0.063780665
000040 1a 2f 91 3d e9 dd 9e 3c 21 a1 85 be 3d 55 0a be
       0.07089062 0.019392924 -0.26099494 -0.13509078
000050 14 75 54 bd 20 bb 6c 3d 2a 13 2a be 31 5c 2c 3d
       -0.051869467 0.057795644 -0.16608873 0.042080108
000060 f4 fb f1 bd 3f 4a b8 3d 3e 94 09 be 39 32 54 bd
       -0.11815634 0.08998536 -0.13435456 -0.05180571
000070 0d b2 90 bc e5 04 6c 3d 60 a3 0c be 22 c1 00 be
       -0.017663026 0.057621855 -0.13734198 -0.12573674
000080 2c 67 3f 3e 3e 15 eb 3d d6 34 b9 bd e6 5c eb 3d
       0.186917 0.11478661 -0.09043281 0.11492328
000090 01 57 16 be 8a 04 11 bd ca 18 e1 3c ea 35 d4 bc
       -0.14681627 -0.03540472 0.02747764 -0.025904614
0000a0 db 61 5f bd 8d 1a d8 3d 6a 7f c8 3d 8f 79 04 be
       -0.05453668 0.10551939 0.09789927 -0.12936996
0000b0 dd af 2b be ce f1 35 bd d3 f1 57 bd 82 76 b2 bd
       -0.16766305 -0.044420056 -0.052720856 -0.0871401
0000c0 fc 8a 00 3e f5 a5 88 3d 6a de 83 3d 82 ee fa bd
       0.12553018 0.06672279 0.064389065 -0.12252523
0000d0 1a fb 9f bd f0 61 12 be 24 0f f2 3d 77 bc e5 bc
       -0.07811566 -0.14295173 0.11819294 -0.028043969
0000e0 80 94 f0 bd 3c 7e 31 bc 80 78 ac bc 6c 9e 4f 3e
       -0.11747074 -0.010833319 -0.021053553 0.20275277
0000f0 fe 48 a9 bd 6d 62 bf bd 51 f3 15 bd 30 ca 8f bd
       -0.08265875 -0.09344945 -0.036608998 -0.07020986
000100 29 93 ca bd 04 9d 76 bd db 0a 9c 3d 2d eb c1 3d
       -0.0989135 -0.060208336 0.07619258 0.09468684
000110 37 0a 84 3d f9 2a 25 bb 3a 0e 3c 3b 8a 75 86 3d
       0.06447261 -0.0025202616 0.0028695003 0.065653875
000120 3d ef c3 3d 3f 91 25 be bf 4a c1 bd 40 fa 0e 3e
       0.095671155 -0.16168688 -0.09438085 0.1396265
000130 82 09 a5 bd b9 6e e5 3d dd 82 8b bd c3 b9 36 3d
       -0.08058454 0.11202759 -0.068120696 0.04461075
000140 bd 6e 6d 3d cd 14 ca bd d8 d8 5a 3d c2 20 21 be
       0.057966936 -0.09867249 0.053429455 -0.15735152
000150 bd 8b bc bd f6 11 ef bb 15 4a 5b 3d b6 a9 f4 3c
       -0.092063405 -0.0072958423 0.053537447 0.02986608
000160 0e d8 bf bb d3 3e 3f 3a be c6 b5 bd 19 01 b3 3a
       -0.005854613 0.00072954333 -0.08875798 0.0013656943
000170 ae d1 a0 bd 06 cf 5e bd 76 b8 92 3c 9f 73 bb bd
       -0.07852493 -0.05439665 0.017910223 -0.09152912
000180 c1 17 d6 bd 7a af b7 3b ba 87 15 bd 1d 26 e7 bc
       -0.104537494 0.0056056352 -0.036506392 -0.028216416
000190 9c fd d7 bd 92 5a 25 3d 04 67 bd bd 21 c7 b8 3b
       -0.10546419 0.040369578 -0.09248164 0.0056389724
0001a0 4c 3f c3 3c dc d0 53 be aa 05 03 3e 28 60 9c 3d
       0.023833893 -0.20685142 0.1279513 0.07635528
0001b0 c1 46 9f 3d 95 86 ec bd 45 0d 2b 3c 99 96 bd 3d
       0.07777167 -0.11549107 0.010440175 0.0925724
0001c0 d5 84 61 3d 29 03 e3 bd 64 01 85 3b 9d af 37 bd
       0.05505832 -0.11084587 0.0040590037 -0.044845212
0001d0 be ff 8f bd 9f 67 05 3d 5b 2b b3 3a 3c 2d 33 3d
       -0.07031201 0.032569524 0.0013669537 0.04374431
0001e0 e1 0d 74 be 09 d4 7f 3d 01 43 36 be d1 f7 e3 bd
       -0.2383342 0.06245807 -0.17798997 -0.111312516
0001f0 95 8d 02 3e c7 44 22 be 1c c9 f0 bc 06 8a 8e 3d
       0.12749322 -0.15846549 -0.029392771 0.0695992
000200 4d b5 ca bc 04 d7 74 bd cc 6e da bd 00 42 ad bc
       -0.024744654 -0.059775367 -0.10665664 -0.021149635
000210 06 4c a9 3d cc 44 6f 3c b6 bd 3b 3e a0 29 f8 bd
       0.082664534 0.014603805 0.18334088 -0.12117314
000220 04 da b2 3c 6a 1c 0e 3d d4 00 03 3e 77 fb 42 3c
       0.021832474 0.034695067 0.12793285 0.011900774
000230 97 bf c2 3d 97 75 08 3e 04 ee a7 bc a7 b0 a1 3c
       0.09509199 0.13326107 -0.020499237 0.019737555
000240 ce 23 31 be 78 34 55 bc 43 f4 94 bd 4f 72 9f 3d
       -0.17298815 -0.013012998 -0.07273152 0.077854745
000250 72 86 4a be 0b 4f a8 bc 35 dc 03 bd 3a d3 05 be
       -0.1977785 -0.020545503 -0.032192428 -0.13068858
000260 4c 15 d4 bd 24 0b a6 3d a7 f8 18 3e 16 8a 4a be
       -0.103556246 0.08107594 0.14938603 -0.19779238
000270 0d ff 00 3d 9c 2e d6 3d 33 12 83 3d e7 ed 4b 3d
       0.031493235 0.10458109 0.063999556 0.04978743
000280 d3 1a be bc 66 1d 07 be b4 60 4a be db 03 0e 3e
       -0.02320615 -0.13194808 -0.19763452 0.13868658
000290 a0 77 4d 3e 59 18 82 3d d3 20 1e 3d c8 0a b1 bd
       0.20065165 0.063523 0.038605522 -0.086446345
0002a0 6b 9b f5 3c 30 9f 06 3d ed dc 7e be 32 92 f7 bd
       0.029981336 0.032866657 -0.24888964 -0.120884314
0002b0 66 de 2a be 54 d2 01 be 5e df ca bd 05 d0 2d be
       -0.16686401 -0.1267789 -0.09905885 -0.16973884
0002c0 cd 1f 7e 3c 16 36 3e bc 9c e0 91 bd 05 c2 1a bc
       0.015510512 -0.011609575 -0.07122919 -0.009445672
0002d0 0c 73 3a 3d 29 07 37 3d c4 cc 1d 3e 9c 58 45 3d
       0.045519873 0.044684563 0.15410143 0.048180208
0002e0 3f 9d 25 3e 7e 74 0e 3e b4 7a 4e bd 81 e2 2e 3d
       0.16173266 0.13911626 -0.050409988 0.04269648
0002f0 14 94 49 be ba 1a 92 3d a3 9e 10 3d 53 a9 c3 bd
       -0.19685394 0.07134004 0.035307538 -0.095537804
000300 fb fb 0f 3e f3 aa 52 3d ba d6 4d bd c5 37 a5 bd
       0.14060967 0.05143256 -0.050253607 -0.08067278
000310 72 49 a6 3d b2 d7 25 3e a2 65 40 be 27 da 05 3d
       0.08119477 0.16195562 -0.1878877 0.03267875
000320 03 40 20 be eb df 45 be 4d 5f 3d 3e b7 ae 8e bb
       -0.15649419 -0.19323699 0.18493386 -0.0043543237
000330 e2 c0 0a be 42 59 30 be 78 4d 2c bd 03 32 bf 3a
       -0.13550141 -0.17221549 -0.042066067 0.0014587048
000340 59 58 4c 3d 5a a2 50 3c 6e 5d 1b 3e 71 92 84 bd
       0.049888942 0.01273402 0.1517236 -0.06473244
000350 62 18 66 3b 49 da f3 3d 8b 52 ef 3d 7f b2 cd 3c
       0.0035109748 0.11906869 0.11685666 0.025109528
000360 e5 23 59 be 56 4a a6 bd 36 3e 85 3d f3 26 0d 3e
       -0.21205099 -0.08119647 0.065060064 0.13784389
000370 34 8a 92 3c 5c ce 8b 3c 9b e0 5f 3d b8 27 f7 3d
       0.017888166 0.017066173 0.05465756 0.120681226
000380 5c 78 c1 bd 83 51 2b be c3 35 82 bd fc 9c b0 bd
       -0.09446785 -0.16730313 -0.063579105 -0.086236924
000390 38 ee f6 ba 88 82 d8 3c 3f 0f b4 bd 33 4c 21 3e
       -0.0018839305 0.02642943 -0.087919705 0.15751724
0003a0 35 da 93 3d ce bd 31 be 2d 56 22 be 3b 57 5c bc
       0.07219354 -0.17357561 -0.15853186 -0.013448532
0003b0 ca 0a 27 bd 56 e2 2e be 99 3f 32 3c 33 29 b2 3d
       -0.040781774 -0.17078528 0.010879421 0.086992644
0003c0 40 fd fa 3d 0d 4c 34 bd 99 39 fb bd 2d 8d 5a 3d
       0.12255335 -0.04401784 -0.12266845 0.053357292
0003d0 46 b7 16 bc 88 a4 2a be 2d d9 b5 3d 70 12 eb 3d
       -0.009198969 -0.16664326 0.088793136 0.11478126
0003e0 04 1a f7 bd 86 e7 ec 3d 38 7e da bd 3b 32 e1 bd
       -0.12065509 0.11567597 -0.106686056 -0.10995909
0003f0 db 44 7a bd 40 c3 1f be 7e d6 84 be 94 6e bf bd
       -0.061100822 -0.15601826 -0.25944895 -0.09347263

model.3.bias f4 [16]
000000 ea 67 52 3b 7e b7 cc 3d 22 57 31 3e c3 3f 8d bc
       0.0032105395 0.09995936 0.17318395 -0.017242318
000010 b7 bb 65 3d a6 c7 08 be bb aa 0a 3e 89 56 dc 3d
       0.056087222 -0.1335741 0.13541691 0.10758693
000020 8e 25 0e be 85 82 bd bd 51 15 cf bd d2 80 25 3d
       -0.13881513 -0.0925341 -0.10111488 0.040406056
000030 4b 87 c3 3d 33 48 ee bc f7 1f ac bd f3 9d 25 3d
       0.095472895 -0.029087162 -0.08404534 0.040433835

model.5.weight f4 [16]
000000 51 d7 81 3f dc 1e 81 3f c9 96 8a 3f c1 d0 75 3f
       1.0143834 1.0087543 1.0827266 0.9602166
000010 c2 e9 72 3f d3 53 6c 3f 2e 4f 64 3f 8b b4 81 3f
       0.94887936 0.92315406 0.8918332 1.0133222
000020 3f 0a 8a 3f a5 bb 66 3f 67 07 75 3f 3d 96 7a 3f
       1.0784377 0.9013007 0.9571442 0.97885495
000030 ac 4c 99 3f 5d a7 83 3f b0 f5 83 3f 55 23 64 3f
       1.1976523 1.028545 1.0309353 0.8911641

model.5.bias f4 [16]
000000 ef 99 57 bd 84 d2 15 3d 2d c3 b9 3b a3 d6 43 be
       -0.052637037 0.036577716 0.0056690187 -0.19124846
000010 88 2c f9 3d 95 e7 26 3e 15 63 35 3e e4 c1 c7 bd
       0.12166697 0.16299279 0.17713578 -0.097537786
000020 81 f2 25 3b 64 31 14 3e 1a 12 75 bd c5 f4 07 be
       0.0025321546 0.14471966 -0.059831716 -0.13276966
000030 68 41 1a 3e 50 c2 5c be d0 7b 02 3e b5 4e c1 3d
       0.15064013 -0.215585 0.12742543 0.0943884

model.5.running_mean f4 [16]
000000 c3 0b 3a 3e 36 c4 92 3e 3f e0 70 3e a4 00 6f 3e
       0.18168549 0.28665322 0.23523043 0.23340088
000010 b1 7c 45 3e 79 a8 30 3e c3 c6 bc 3e 6a cf 9f 3e
       0.19285847 0.17251767 0.36870393 0.31212932
000020 a6 c8 32 3e 02 43 38 3e 8d 81 83 3e a5 63 63 3e
       0.17459354 0.17994311 0.25684777 0.2220598
000030 a5 aa 92 3e 3a 45 8d 3e 40 7e 30 3e 12 45 5f 3e
       0.28645816 0.27591878 0.1723566 0.21803692

model.5.running_var f4 [16]
000000 6c 79 a2 3d 90 74 09 3e ab 27 72 3d 8c 68 75 3d
       0.07933316 0.13423371 0.05911986 0.059914157
000010 44 63 f6 3d 92 54 03 3e 7a f5 4c 3e 7b 7e d3 3d
       0.12030652 0.1282523 0.20015517 0.103268586
000020 17 9c 3e 3e dc d0 a1 3d 9f a9 9d 3e 9c bb cf 3d
       0.18614231 0.07901165 0.30793473 0.101432055
000030 b5 34 90 3e dc fd 8a 3e 09 ff e1 3d 23 45 8b 3d
       0.28165212 0.27146804 0.11034972 0.06800296

model.6.weight f4 [8, 16]
000000 ed 09 e7 3d e7 df 3f 3e e5 86 f4 3d ed 3d 17 be
       0.1128119 0.18737756 0.119397916 -0.14769717
000010 61 20 8e bd 73 3f 78 3d a1 79 02 3e 65 27 34 be
       -0.069397695 0.060607385 0.1274171 -0.17593153
000020 d9 b1 1b 3e 58 d7 81 3c 0f 02 44 be 39 f6 55 be
       0.15204562 0.015849754 -0.1914141 -0.20894708
000030 c0 17 b0 3e cd 79 f1 3c e6 79 db 3c 35 95 9d bd
       0.3439312 0.029477024 0.026791524 -0.076944746
000040 82 4c 5b be 6b f7 68 3e 73 28 75 bd 55 d5 89 3d
       -0.21415904 0.22750632 -0.05985303 0.06730143
000050 dd 71 62 3e a1 76 33 3e a3 7c d8 bd 8f ce 8f 3c
       0.22113748 0.17525722 -0.105706476 0.01755455
000060 91 7d 66 be 10 cb 9c bd a1 05 b1 3e 9d a8 a8 bd
       -0.22508837 -0.076559186 0.34574607 -0.082352854
000070 f0 1a c1 3e 99 e4 8d bd d4 f6 dd 3d 36 55 e5 3d
       0.37715864 -0.06928367 0.10838094 0.11197893
000080 b7 26 13 3e 2b ee 52 3e d0 5d 19 3e b3 47 d0 3d
       0.14370237 0.20598666 0.14977193 0.101699255
000090 f4 7e 82 bd 11 67 38 bc 40 24 d3 bc c0 a9 05 bd
       -0.06371871 -0.011255042 -0.025774121 -0.03263259
0000a0 20 70 54 3e 0e 04 e2 3d b5 c8 00 3e a2 67 97 be
       0.20745897 0.110359296 0.12576564 -0.29571253
0000b0 12 00 e8 3d be 52 2b be 02 72 33 3c 27 0a 80 be
       0.113281384 -0.16730782 0.010952475 -0.25007746
0000c0 e7 ee 9d 3d 4d 8b 8a be ae cf b2 3c e2 97 a9 be
       0.07711583 -0.27059403 0.021827545 -0.3312369
0000d0 5d ff cb bc c2 25 5c 3e fb 91 b6 3d 6f 95 ab 3c
       -0.02490204 0.21498778 0.08914562 0.020945279
0000e0 a1 0e 0a 3d 74 17 14 be 8c 7e 36 3e ad 82 36 bd
       0.033705357 -0.14462072 0.17821711 -0.044558216
0000f0 b0 fa 9c 3c 69 54 15 be 37 46 a0 3d cc 02 95 3d
       0.019162506 -0.14582981 0.078258924 0.07275924
000100 89 32 28 bd 37 1c c8 bd af 4b 93 be 8b 98 77 be
       -0.04106382 -0.097710066 -0.2876868 -0.24179284
000110 9b bd bd 3d c1 5a f3 bd f4 9a 90 3e 2f a4 e1 bc
       0.0926468 -0.11882544 0.2824322 -0.02754411
000120 f4 2e af be 79 94 2e 3e 73 b9 3a be 64 8d b7 bd
       -0.3421551 0.17048825 -0.18234806 -0.08962515
000130 92 40 f0 bd 24 11 34 be 02 5c 2c bd 04 a1 41 3e
       -0.11731066 -0.17584664 -0.042079933 0.18909079
000140 a8 2d 07 bd c0 6c 0c be ea d5 65 3b 31 97 d5 bd
       -0.033002526 -0.1371336 0.003507013 -0.10429228
000150 a6 01 1d 3e f0 f2 9c 3d 71 ff 55 bd 08 c9 89 be
       0.1533266 0.07663524 -0.05224556 -0.26911187
000160 83 dd 5f be 72 10 3d 3e 81 56 f0 bd 86 13 07 3e
       -0.21861844 0.18463305 -0.11735249 0.13191041
000170 0e ca b6 be 04 54 30 be 23 37 f4 3d c5 14 d3 3d
       -0.3570103 -0.1721955 0.11924579 0.10306696
000180 ea 32 25 be 8d 1c 26 3e f4 6b 80 be fa 6a 2c 3e
       -0.16132703 0.16221829 -0.25082362 0.16837683
000190 1a c9 31 be b0 58 32 be 58 95 46 3d bc 4b 63 3d
       -0.1736187 -0.17416644 0.04848227 0.055492148
0001a0 fb ac b5 bd 01 23 0a bc ac 2b 80 3d b8 03 0b 3d
       -0.08870884 -0.008431197 0.0625833 0.033939093
0001b0 a4 66 e5 3c d0 20 eb bd d7 73 a7 be 76 82 00 3e
       0.028003044 -0.11480868 -0.32705566 0.12549767
0001c0 d7 7a 4b bd 04 44 b0 3d 2f 1b 2a bd 33 58 87 bd
       -0.049677696 0.08606723 -0.04152983 -0.066086195
0001d0 23 28 fb 39 82 9f 03 3c 15 3b 85 3d c9 13 9e be
       0.00047904355 0.008033635 0.0650541 -0.3087447
0001e0 0b c6 bd 3d 6d be e1 3d 54 71 dd bd 5d b0 b6 3c
       0.09266289 0.11022649 -0.10812631 0.022300893
0001f0 8e 52 92 3d 8a 00 46 be 1c 72 03 3c d7 2d 0e 3d
       0.07144652 -0.19336143 0.008022811 0.034711685

model.6.bias f4 [8]
000000 2f 17 31 3e 7c 85 45 bd ee cf 8b 3e e2 b5 4f bb
       0.17294 -0.048223004 0.27307075 -0.0031694104
000010 c5 9b 9d bd f5 d5 44 3c 51 fd 10 3d 7b 04 bb 3e
       -0.07695726 0.012013902 0.03539783 0.36526856

model.8.weight f4 [8]
000000 3e 45 d4 3f 91 6e ad 3f 0b e7 cd 3f aa 1e af 3f
       1.6583631 1.3549367 1.6086134 1.3681233
000010 13 05 c2 3f 67 f6 ca 3f 31 bd c7 3f 39 f5 ce 3f
       1.5157799 1.5856446 1.5604612 1.6168586

model.8.bias f4 [8]
000000 83 f7 47 be 5f 09 0b 3e 0f 74 81 be 59 ee e3 3d
       -0.19528012 0.13577794 -0.25283858 0.111294456
000010 64 b1 91 3e 13 90 83 3e 75 be 5c 3e 3b e6 27 3e
       0.2845565 0.25695857 0.21557029 0.1639642

model.8.running_mean f4 [8]
000000 3e 97 e8 3e 90 eb 99 3e 0e 7d d7 3e 18 e8 70 3e
       0.4542789 0.30062532 0.42087597 0.23526037
000010 c3 dc a7 3e 15 77 a4 3e 54 f4 5f 3e b8 e3 04 3f
       0.32785615 0.32122102 0.21870548 0.5190997

model.8.running_var f4 [8]
000000 ae 6d ea 3e 7b f7 f9 3e 86 6b 70 3e 96 4a dd 3d
       0.45786804 0.48821625 0.23478517 0.10805242
000010 04 c0 16 3e 9d ec 08 3e c5 7f af 3d 1b c5 e0 3d
       0.14721686 0.13371511 0.08569292 0.10975095

model.9.weight f4 [4, 8]
000000 9d e8 22 3f 2a ef 0c 3f 3c 51 15 3f 3c f6 f5 3e
       0.6363619 0.55052435 0.5832708 0.48039424
000010 f3 73 c8 be eb 09 0c bf f9 6c 20 bf 01 53 3a 3f
       -0.39150962 -0.54702634 -0.6266628 0.72782904
000020 5b 77 05 bf 52 0c e2 be f2 4b 6b 3c d2 73 13 bf
       -0.52135247 -0.44150025 0.0143613685 -0.575986
000030 10 bb 51 bf 0d 9e 23 bf c4 e9 17 be 5f 96 36 bf
       -0.8192606 -0.6391304 -0.14835268 -0.713232
000040 45 b3 04 bf 18 12 f3 3d d1 71 f2 be e2 e3 f9 3e
       -0.51836044 0.118686855 -0.4735246 0.48806673
000050 cf ab ec 3e e6 bb 4a 3f cf 9c 08 bf ae 77 ed 3e
       0.4622483 0.7919296 -0.5336427 0.4638037
000060 a1 59 03 bf bc 3c 9e bd f4 a1 a6 be a1 85 af be
       -0.5130864 -0.07726428 -0.32545435 -0.34281638
000070 7e dd f1 3e e0 a0 a1 3d 0c 97 49 3f 71 11 02 3e
       0.47239298 0.078920126 0.78746104 0.12701966

model.9.bias f4 [4]
000000 1b b1 95 3d 3e 93 f7 3c f5 c6 19 be 29 3a 34 3c
       0.07309171 0.030221578 -0.15017302 0.011000195
