saved_models/MLP/ckpt__epoch100.ckpt (torch, 18336 bytes, 20 tensors)

model.0.weight f4 [32, 64]
0.033174116 -0.034808945 0.05921029 0.025470389 0.011231252 0.042770453 0.098086454 -0.063156895
0.069604225 -0.05496059 0.033097863 -0.04313406 -0.10074487 -0.059222773 -0.029822797 -0.062163305
0.09957507 0.021013008 -0.0095600635 -0.062247343 0.0029658373 -0.029713519 -0.06781131 -0.039320234
0.026219197 -0.030228706 -0.15815946 -0.13566536 0.15001832 -0.050009795 -0.056197032 -0.014862036
0.018277828 0.06555134 -0.023884129 0.056437947 0.0566791 0.20511594 -0.061424587 -0.049393646
-0.00508986 0.11160033 -0.015761668 0.10106279 -0.034268323 0.05363227 0.014878204 0.06871528
0.067246 -0.033522166 0.006427812 0.0450903 -0.06692845 -0.11168504 -0.025965739 0.029808862
-0.02096913 0.005509233 0.026126375 0.04733019 -0.060633767 -0.13721587 0.046835482 -0.015657347
0.05699901 0.10546949 0.012804788 -0.06268629 -0.009575689 -0.056274723 -0.060902476 0.039418347
0.052876607 0.14172022 0.029936591 -0.060882993 0.09961886 0.22938603 -0.0061963154 -0.01490234
-0.011562785 -0.040074255 -0.06446275 0.0075990334 0.058649283 -0.045938976 -0.033909153 0.06595395
0.022868505 0.05564635 0.07966082 -0.09002272 0.04679143 -0.03708953 -0.018289011 0.05058565
-0.0044532837 0.024062565 0.12694895 -0.012902876 0.022170383 -0.18511863 0.049981736 -0.032868527
0.042346913 0.008756963 0.018569289 -0.06533159 -0.10798426 -0.039982952 -0.0059435368 0.011421487
0.014203699 -0.015632644 -0.077549495 -0.08191593 0.024750737 0.05412456 0.070028685 -0.02710543
0.10329488 -0.019585604 0.029082894 -0.037094794 -0.016406264 0.04213164 -0.028040377 0.027975941
0.005469918 0.025230879 -0.033439014 0.07212447 0.0057354732 -0.009058258 -0.18290988 0.024478884
-0.009130204 -0.053020198 -0.026698317 -0.010669182 0.0043030865 -0.009148201 -0.107493065 0.03139505
-0.007303238 0.02894159 -0.013560106 -0.03363115 -0.0022725111 -0.012887645 0.008152545 0.027543986
-0.01431383 0.12050287 0.07266374 -0.0035367503 -0.021198377 0.03498017 0.22692935 -0.0073723965
0.0032044093 0.028750254 0.104104824 0.041671827 -0.018223679 0.0372068 0.16437756 -0.006224358
-0.0034026501 -0.026917739 -0.10435534 0.07189406 0.0123128025 0.0014627567 -0.05884388 -0.033163927
0.013917861 0.01297351 -0.048157204 -0.07875973 0.028442295 -0.011446272 -0.21518563 -0.0003643319
-0.008241788 0.13078256 0.028173495 -0.087554015 0.005495152 0.00657768 0.088924594 -0.02649762
-0.040586725 0.12932755 0.008072935 -0.035757024 -0.10572133 -0.09370213 -0.12626521 0.036796708
0.0034125089 -0.0681123 -0.101361215 -0.0053945105 -0.06330736 0.0021957955 -0.023064803 -0.0020178652
-0.021194242 -0.023099054 -0.047178958 -0.12706132 0.08434381 0.15367462 0.04501826 0.069830164
-0.044850383 -0.030536098 -0.084779665 -0.09204262 -0.03391923 -0.07045533 -0.13674657 0.067814335
-0.0076401313 0.03267099 -0.09819356 -0.041307807 -0.061471097 -0.029632475 0.024751052 0.06522514
0.028418673 0.041791312 -0.12191234 0.120688416 -0.017758956 0.024014773 0.17439565 -0.08814172
0.12950963 -0.16353412 0.08744404 0.07475611 -0.1075321 -0.13622609 0.06209855 0.01815078
-0.00954441 0.07215531 -0.103034355 -0.10580382 0.06295435 0.06480377 -0.057818446 -0.040899526
00000000: 95e1 073d d393 0ebd 7d86 723d 47a7 d03c
00000010: 4903 383c 1230 2f3d 8de1 c83d 6758 81bd
00000020: a98c 8e3d 5b1e 61bd a091 073d 57ad 30bd
00000030: 5453 cebd 9493 72bd f04e f4bc f39e 7ebd
00000040: 04ee cb3d 7923 ac3c d0a1 1cbc 12f7 7ebd
00000050: 7e5e 423b c469 f3bc a8e0 8abd 410e 21bd
00000060: a4c9 d63c 31a2 f7bc 8ef4 21be dceb 0abe
00000070: 679e 193e 12d7 4cbd dc2e 66bd e67f 73bc
00000080: 62bb 953c c83f 863d a6a8 c3bc 7a2b 673d
00000090: 5828 683d ea09 523e 5998 7bbd fe50 4abd
000000a0: d7c8 a6bb b78e e43d 9d1e 81bc 02fa ce3d
000000b0: f15c 0cbd 83ad 5b3d b6c3 733c 99ba 8c3d
000000c0: 45b8 893d 8a4e 09bd 65a0 d23b 9bb0 383d
000000d0: c811 89bd 20bb e4bd 1ab6 d4bc b731 f43c
000000e0: 74c7 abbc cc86 b43b fb06 d63c 4ddd 413d
000000f0: 1d5b 78bd 5182 0cbe 90d6 3f3d d643 80bc
00000100: cb77 693d 6300 d83d 2ccb 513c ab61 80bd
00000110: 5ae3 1cbc 5380 66bd e074 79bd 2275 213d
00000120: 2495 583d 1b1f 113e 953d f53c 7260 79bd
00000130: f904 cc3d 2ce4 6a3e 760a cbbb f228 74bc
00000140: d671 3dbc e724 24bd 0c05 84bd 5001 f93b
00000150: 3b3a 703d 822a 3cbd 53e4 0abd dd12 873d
00000160: bb56 bb3c 6ded 633d 3625 a33d d55d b8bd
00000170: 5fa8 3f3d 31eb 17bd d6d2 95bc e632 4f3d
00000180: daec 91bb db1e c53c e8fe 013e 9666 53bc
00000190: aa9e b53c bd8f 3dbe a6b9 4c3d 26a1 06bd
000001a0: f573 2d3d 5d79 0f3c 9f1e 983c 92cc 85bd
000001b0: da26 ddbd 2ac5 23bd 00c2 c2bb 3021 3b3c
000001c0: a2b6 683c 0810 80bc 45d2 9ebd 8ac3 a7bd
000001d0: 0fc2 ca3c b7b1 5d3d 336b 8f3d 350c debc
000001e0: 448c d33d fd71 a0bc 403f ee3c b6f0 17bd
000001f0: 6e66 86bc 3a92 2c3d efb4 e5bc cd2d e53c
00000200: ff3c b33b fdb0 ce3c 59f7 08bd feb5 933d
00000210: a3f0 bb3b 1669 14bc ba4c 3bbe f187 c83c
00000220: da96 15bc b52b 59bd 6eb6 dabc cbcd 2ebc
00000230: e800 8d3b 56e2 15bc 5325 dcbd 1998 003d
00000240: 0050 efbb ea16 ed3c 352b 5ebc d1c0 09bd
00000250: 69ee 14bb b326 53bc 4192 053c eda3 e13c
00000260: 8e84 6abc 35ca f63d bad0 943d d3c8 67bb
00000270: 38a8 adbc 5e47 0f3d 2b60 683e 2594 f1bb
00000280: 1101 523b a785 eb3c e934 d53d 14b0 2a3d
00000290: d349 95bc 2866 183d 9752 283e b3f5 cbbb
000002a0: fffe 5ebb 9782 dcbc 41b8 d5bd 313d 933d
000002b0: a3bb 493c f8b9 bf3a 4806 71bd e6d6 07bd
000002c0: bd07 643c d88e 543c 7d40 45bd c84c a1bd
000002d0: d1ff e83c 2589 3bbc 9f59 5cbe cd03 bfb9
000002e0: 9008 07bc ddeb 053e 1acc e63c 854f b3bd
000002f0: ad10 b43b 9489 d73b 191e b63d 8911 d9bc
00000300: 443e 26bd 716e 043e 5844 043c f575 12bd
00000310: 6d84 d8bd e7e6 bfbd ab4b 01be 25b8 163d
00000320: 66a4 5f3b 767e 8bbd 7896 cfbd 6fc4 b0bb
00000330: 4aa7 81bd 56e7 0f3b 66f2 bcbc 293e 04bb
00000340: 8c9f adbc 3a3a bdbc b93e 41bd 5d1c 02be
00000350: 73bc ac3d e15c 1d3e 1165 383d 1e03 8f3d
00000360: 09b5 37bd d726 fabc f6a0 adbd d780 bcbd
00000370: e4ee 0abd e24a 90bd 4b07 0cbe 3ee2 8a3d
00000380: 115a fabb 04d2 053d b519 c9bd 6032 29bd
00000390: 1ec9 7bbd cebf f2bc b8c2 ca3c c294 853d
000003a0: 47ce e83c 5e2d 2b3d 2dad f9bd 7d2b f73d
000003b0: 3b7b 91bc a1ba c43c c694 323e a583 b4bd
000003c0: 2c9e 043e 7d75 27be dc15 b33d bb19 993d
000003d0: ca39 dcbd da7e 0bbe 0d5b 7e3d f2b0 943c
000003e0: 2860 1cbc 2ac6 933d ad03 d3bd acaf d8bd
000003f0: 36ee 803d d7b7 843d 09d3 6cbd 4386 27bd

model.0.bias f4 [32]
-0.11782506 0.15172087 -0.03998346 0.1563019 0.13560678 0.17419021 0.011750698 -0.17772079
-0.023251513 -0.043557655 -0.06726501 0.041065224 -0.11601254 0.033809144 0.20158134 -0.12809825
0.091312595 0.054057308 5.534331e-05 0.17527375 0.02795681 -0.016759919 0.1063097 0.16602144
-0.20372033 -0.012164476 -0.20565166 -0.12602118 0.026939087 0.05697977 0.02823833 -0.1475175
00000000: 444e f1bd b75c 1b3e b2c5 23bd 9b0d 203e
00000010: 81dc 0a3e eb5e 323e 0086 403c 70fc 35be
00000020: f579 bebc 8369 32bd 3dc2 89bd 0234 283d
00000030: fc97 edbd 757b 0a3d 576b 4e3e 302c 03be
00000040: 1902 bb3d 326b 5d3d 6d20 6838 f67a 333e
00000050: ae05 e53c 194c 89bc e6b8 d93d 8601 2a3e
00000060: 109c 50be 834d 47bc 5996 52be b20b 01be
00000070: 5caf dc3c 9f63 693d 1254 e73c d40e 17be

model.2.weight f4 [32]
0.8982596 0.9462582 1.1022713 0.97894657 0.9149878 1.1368331 0.997919 1.0199236
1.0578102 0.94448286 0.986442 1.0429634 0.8944868 1.0671586 0.98190796 0.9485263
1.045993 0.958943 1.0402702 0.965548 1.0002224 0.9486602 1.041905 0.95388347
1.0025872 0.9926953 1.0510349 0.95525855 1.028065 1.0429327 0.9238435 1.1255283
00000000: 57f4 653f fa3d 723f 3a17 8d3f 3e9c 7a3f
00000010: a43c 6a3f bf83 913f 9f77 7f3f db8c 823f
00000020: 5366 873f a1c9 713f 7787 7c3f d37f 853f
00000030: 16fd 643f a798 883f 525e 7b3f 9fd2 723f
00000040: 19e3 853f 4a7d 753f 9327 853f 272e 773f
00000050: 4a07 803f 65db 723f 255d 853f b531 743f
00000060: c754 803f 4721 7e3f 5088 863f d38b 743f
00000070: a297 833f d27e 853f 0281 6c3f 5011 903f

model.2.bias f4 [32]
-0.03397015 -0.022193136 0.16704984 0.009083877 -0.009879421 0.004471306 -0.021200333 0.13391085
0.025718477 0.05764771 0.002477092 -0.048368815 -0.06239511 0.071199045 0.11762171 0.020924898
0.087755896 -0.026417116 0.044480324 -0.069261804 -0.058313515 0.09632181 0.029184893 0.042187236
-0.036547404 0.026640132 0.12311833 0.05157807 0.042352036 0.09906443 -0.036568515 0.099336155
00000000: 4924 0bbd 61ce b5bc 1d0f 2b3e 8bd4 143c
00000010: 4cdd 21bc 0984 923b 52ac adbc ed1f 093e
00000020: 8eaf d23c 0120 6c3d b556 223b 611e 46bd
00000030: 0492 7fbd ced0 913d a7e3 f03d b16a ab3c
00000040: 5db9 b33d b568 d8bc 0031 363d 22d9 8dbd
00000050: 27da 6ebd 5e44 c53d 2815 ef3c 86cc 2c3d
00000060: bbb2 15bd 683c da3c 7725 fc3d 8743 533d
00000070: 5479 2d3d 4be2 ca3d dec8 15bd c170 cb3d

model.2.running_mean f4 [32]
4.3400106 3.9457684 3.2942498 5.2198834 4.6309834 3.3525813 4.1109157 3.7289069
3.6355834 3.362211 4.263258 4.837767 3.6710248 4.5799923 4.1429424 3.3754723
3.486572 4.0392118 4.109708 3.3813996 3.4344344 3.8705943 3.321257 3.2926774
3.026757 2.2840352 2.5711432 3.3396425 4.2590575 2.9429798 3.3943477 3.2906232
00000000: 5ee1 8a40 7887 7c40 fdd4 5240 4909 a740
00000010: 0431 9440 b190 5640 9f8c 8340 69a6 6e40
00000020: 66ad 6840 772e 5740 9c6c 8840 fdce 9a40
00000030: 12f2 6a40 4c8f 9240 fc92 8440 bd07 5840
00000040: ff23 5f40 3941 8140 ba82 8340 da68 5840
00000050: c6cd 5b40 d1b7 7740 7a8f 5440 3abb 5240
00000060: 63b6 4140 a22d 1240 9c8d 2440 b4bc 5540
00000070: 334a 8840 c859 3c40 fe3c 5940 9299 5240

model.2.running_var f4 [32]
40.30119 42.111137 50.392673 57.785545 43.721874 38.3407 42.487026 53.385918
34.623566 37.79623 58.800106 58.336617 34.711174 64.8423 64.777855 28.490383
35.958813 44.380726 76.04641 28.328394 34.165585 41.950222 30.705547 28.875261
35.46779 19.367542 29.670229 28.379381 63.555817 40.82493 33.130493 73.0715
00000000: 6b34 2142 ce71 2842 1992 4942 6624 6742
00000010: 33e3 2e42 e05c 1942 b7f2 2942 2e8b 5542
00000020: 887e 0a42 572f 1742 4f33 6b42 b258 6942
00000030: 3ed8 0a42 42af 8142 438e 8142 4eec e341
00000040: d3d5 0f42 dd85 3142 c317 9842 8da0 e241
00000050: 8fa9 0842 07cd 2742 f6a4 f541 8900 e741
00000060: 04df 0d42 baf0 9a41 a15c ed41 f908 e341
00000070: 2839 7e42 ba4c 2342 a085 0442 9c24 9242

model.3.weight f4 [16, 32]
-0.0739667 0.08867126 0.043802865 -0.1272362 -0.13205981 0.11839444 0.15187024 0.021275925
-0.0036384042 -0.158646 -0.12248855 0.10753018 -0.07297615 -0.107400686 0.10456381 0.054996964
0.13685606 0.05350255 0.027192358 0.014476658 0.051035326 -0.09134436 -0.09489866 0.11131747
-0.15407199 0.054258734 0.08359819 -0.066721015 -0.032637462 -0.13353425 0.023969283 -0.09757987
0.03123449 -0.04924829 0.006233752 -0.025275627 0.012601216 -0.14895967 -0.08139723 -0.13273951
0.05860902 -0.08223642 -0.010706512 -0.026090104 0.05917796 -0.2732498 0.032530352 -0.014046508
-0.17445607 -0.022790624 -0.0058585503 -0.07117671 -0.01197457 0.064763024 0.01554602 0.16981882
-0.09173829 0.0683127 0.18869016 0.15991141 -0.010703913 0.119268656 0.0441439 -0.24454094
-0.1115717 -0.0025487018 0.07237513 -0.10461788 -0.14510031 -0.19309919 0.07606675 0.08538299
-0.13332647 -0.018289339 -0.007067461 -0.07617789 0.20749776 0.034350324 -0.105675414 -0.09385047
-0.074929565 0.13603014 -0.123361394 0.06948756 0.11954957 0.023123948 0.12791346 -0.050129686
-0.015940027 0.10110858 0.14329189 0.1271925 0.16383345 -0.0012906863 -0.04683701 -0.002045051
-0.16929054 0.07770913 0.12654757 0.05852915 -0.12617168 -0.04128042 -0.072236024 0.13474308
-0.020370638 -0.102019325 0.13124673 0.0032285096 -0.082138814 0.17531782 0.13572754 -0.10515969
0.15194191 0.12958528 0.1174029 -0.22046095 -0.038261548 0.22305542 0.14204665 0.10802078
-0.037392024 0.10959855 0.008014524 0.038876437 -0.055486266 0.041688114 -0.036076985 0.19060664
0.116797335 -0.13000296 0.026773378 -0.0748779 -0.08556554 -0.15371592 0.0055366824 0.019861985
-0.011124408 -0.05935025 0.15386194 -0.09608527 -0.014103126 -0.22170563 0.07356483 -0.006999476
0.19596682 -0.0593849 -0.026480483 0.02866772 -0.032775205 -0.030549698 -0.14659533 0.011509831
-0.008687802 0.04974875 -0.08728934 -0.053560536 -0.12645286 0.27701616 0.02919898 0.06355576
-0.053326573 0.054872766 -0.39717552 0.06753328 -0.058905352 -0.11809735 -0.044804037 -0.19213112
-0.098879255 0.042769972 0.05997437 -0.019794736 0.067301385 -0.030150479 -0.08124648 0.047201734
-0.1151485 0.10592354 -0.15637328 0.040215053 0.01675544 -0.16212034 0.06260974 0.07589447
0.059267703 -0.076372474 -0.05527449 -0.088312015 -0.20228846 -0.19357835 -0.027396591 -0.2187399
-0.042731676 -0.15832055 -0.0576685 0.14800707 -0.09335909 0.09064171 -0.2315018 0.023547003
0.13036764 0.083373584 -0.020177336 0.11223793 -0.12631288 0.015449502 -0.06560582 -0.03375444
0.06987259 0.0072965086 0.043924715 -0.0667825 -0.060263634 -0.021752108 -0.15278995 -0.0039452636
-0.052558497 -0.17775293 -0.020959245 -0.06633769 0.09073026 0.13378415 -0.20701398 0.080680706
0.05865326 0.025442554 -0.06380993 0.12647468 -0.016213888 -0.03224289 0.015378216 0.0068042623
0.016398314 -0.010126762 -0.0949805 0.025249992 -0.018395156 -0.11060432 0.07466294 0.1935455
0.21701363 -0.045204222 -0.121617645 -0.14640254 -0.088136554 0.057714563 -0.11607546 0.17492482
-0.17683895 -0.14869227 0.09374409 0.13911606 0.033108845 0.15177183 -0.12777354 -0.038614225
00000000: da7b 97bd 4799 b53d a26a 333d 354a 02be
00000010: b03a 07be c978 f23d df83 1b3e d94a ae3c
00000020: 4b72 6ebb 1974 22be 47db fabd c838 dc3d
00000030: 8574 95bd e4f4 dbbd 8d25 d63d 7f44 613d
00000040: ff23 0c3e 7d25 5b3d 82c2 de3c 812f 6d3c
00000050: 6b0a 513d c012 bbbd 3b5a c2bd 6afa e33d
00000060: 0cc5 1dbe 683e 5e3d 8735 ab3d 07a5 88bd
00000070: dcae 05bd 34bd 08be 3b5b c43c f4d7 c7bd
00000080: 79df ff3c 93b8 49bd 8044 cc3b d50e cfbc
00000090: 5575 4e3c e288 18be 97b3 a6bd deec 07be
000000a0: 0310 703d 916b a8bd 5e6a 2fbc eaba d5bc
000000b0: 9764 723d 66e7 8bbe 8c3e 053d 5323 66bc
000000c0: 9da4 32be 67b3 babc 15f9 bfbb 18c5 91bd
000000d0: fd30 44bc 7aa2 843d bcb4 7e3c fce4 2d3e
000000e0: 49e1 bbbd 87e7 8b3d fe37 413e d1bf 233e
000000f0: 775f 2fbc 2043 f43d 3cd0 343d f168 7abe
00000100: b47f e4bd 1f08 27bb 6a39 943d e641 d6bd
00000110: 2d95 14be cbbb 45be e2c8 9b3d 47dd ae3d
00000120: bc86 08be 86d3 95bc 2996 e7bb 2703 9cbd
00000130: 4b7a 543e edb2 0c3d 5a6c d8bd ad34 c0bd
00000140: ac74 99bd 7c4b 0b3e e6a4 fcbd 7e4f 8e3d
00000150: 68d6 f43d 6f6e bd3c bffb 023e c954 4dbd
00000160: a994 82bc 0412 cf3d 1cbb 123e c03e 023e
00000170: f5c3 273e 3f2c a9ba 2ad8 3fbd 4306 06bb
00000180: 805a 2dbe f725 9f3d b095 013e 43bc 6f3d
00000190: 2633 01be a815 29bd 7bf0 93bd 17fa 093e
000001a0: 53e0 a6bc 82ef d0bd 8b65 063e 6795 533b
000001b0: 6538 a8bd 8486 333e 29fc 0a3e f75d d7bd
000001c0: a996 1b3e 01b2 043e ee70 f03d 84c0 61be
000001d0: 24b8 1cbd a468 643e ad74 113e 003a dd3d
000001e0: 6128 19bd 3475 e03d 5a4f 033c e63c 1f3d
000001f0: 9145 63bd 28c1 2a3d 76c5 13bd 632e 433e
00000200: 7133 ef3d 7f1f 05be d853 db3c 9659 99bd
00000210: fc3c afbd b567 1dbe 0f6d b53b 9ab5 a23c
00000220: 2643 36bc 3f19 73bd fc8d 1d3e 5bc8 c4bd
00000230: cc10 67bc cd06 63be 28a9 963d dc5b e5bb
00000240: 87ab 483e 953d 73bd 99ed d8bc 91d8 ea3c
00000250: 4b3f 06bd 5c43 fabc 161d 16be bb93 3c3c
00000260: 4857 0ebc 58c5 4b3d c1c4 b2bd 4b62 5bbd
00000270: dc7c 01be 10d5 8d3e b332 ef3c 8629 823d
00000280: f76c 5abd 44c2 603d 975a cbbe e34e 8a3d
00000290: bd46 71bd 06dd f1bd 7084 37bd 05be 44be
000002a0: 3581 cabd 912f 2f3d afa7 753d 9228 a2bc
000002b0: 4fd5 893d 23fe f6bc 8e64 a6bd 9b56 413d
000002c0: fad2 ebbd 71ee d83d 5120 20be 8ab8 243d
000002d0: b442 893c e002 26be 8939 803d 8f6e 9b3d
000002e0: b1c2 723d 2c69 9cbd 8167 62bd eedc b4bd
000002f0: b524 4fbe 6739 46be d16e e0bc 5afd 5fbe
00000300: 6907 2fbd c81e 22be ce35 6cbd 2a8f 173e
00000310: 0d33 bfbd 5ca2 b93d cf0e 6dbe a5e5 c03c
00000320: 187f 053e c5bf aa3d f14a a5bc 00dd e53d
00000330: 2a58 01be e81f 7d3c 585c 86bd 1842 0abd
00000340: 5c19 8f3d 8d17 ef3b 67ea 333d 43c5 88bd
00000350: 00d7 76bd 7a31 b2bc f874 1cbe 4547 81bb
00000360: 9447 57bd dd04 36be b9b2 abbc 0edc 87bd
00000370: c9d0 b93d b6fe 083e 79fb 53be ed3b a53d
00000380: 673e 703d e76c d03c c8ae 82bd 9482 013e
00000390: fdd2 84bc 1f11 04bd eaf4 7b3c 4af6 de3b
000003a0: c255 863c b8ea 25bc 2385 c2bd 12d9 ce3c
000003b0: 70b1 96bc 8584 e2bd e2e8 983d cb30 463e
000003c0: d238 5e3e 1028 39bd ac12 f9bd 8cea 15be
000003d0: f080 b4bd 1b66 6c3d f9b8 edbd 7e1f 333e
000003e0: 4515 35be c942 18be e7fc bf3d 7174 0e3e
000003f0: 249d 073d 136a 1b3e 11d7 02be f329 1ebd

model.3.bias f4 [16]
0.067918874 -0.08333736 -0.0026987086 -0.015921848 0.020799823 -0.10593768 0.14125635 -0.0881903
0.17915754 -0.06167003 0.18562956 0.21866107 -0.05752831 0.022610892 -0.078888424 0.124736495
00000000: 0d19 8b3d c7ac aabd d1dc 30bb 896e 82bc
00000010: 6464 aa3c dbf5 d8bd 81a5 103e 1e9d b4bd
00000020: 1375 373e b799 7cbd ad15 3e3e b0e8 5f3e
00000030: cea2 6bbd 7a3a b93c 4190 a1bd d975 ff3d

model.5.weight f4 [16]
0.8949824 0.98465097 0.9442602 1.0170431 0.97583634 1.1104196 0.92418414 0.9890889
0.93678933 0.9487127 1.1420916 0.9403513 0.9667059 0.99282753 0.83634907 0.99534345
00000000: 911d 653f 1612 7c3f 09bb 713f 782e 823f
00000010: 69d0 793f 3b22 8e3f 5597 6c3f ee34 7d3f
00000020: 6dd1 6f3f d6de 723f 0f30 923f ddba 703f
00000030: 0a7a 773f f229 7e3f f91a 563f d4ce 7e3f

model.5.bias f4 [16]
0.15605457 0.023719072 0.16794036 0.08408334 0.13614558 -0.1504306 0.25778735 -0.041519154
-0.24214174 0.21911727 0.11590891 0.16936268 0.1898997 -0.06575192 0.119915016 -0.215319
00000000: c5cc 1f3e 804e c23c 8ff8 2b3e e333 ac3d
00000010: bf69 0b3e 7b0a 1abe b4fc 833e fd0f 2abd
00000020: 01f4 77be 4760 603e a761 ed3d 696d 2d3e
00000030: 1175 423e f1a8 86bd 0196 f53d 957c 5cbe

model.5.running_mean f4 [16]
0.2137094 0.16291653 0.2099764 0.34378737 0.22775903 0.12885994 0.33127272 0.17996481
0.2820636 0.21964608 0.30500954 0.29940045 0.19551422 0.19001861 0.1735214 0.22524545
00000000: a3d6 5a3e 97d3 263e 0e04 573e e604 b03e
00000010: aa39 693e dcf3 033e 949c a93e b248 383e
00000020: a46a 903e e7ea 603e 362a 9c3e 044b 993e
00000030: e134 483e 3d94 423e 98af 313e bea6 663e

model.5.running_var f4 [16]
0.09664245 0.085291855 0.1239844 0.4454237 0.11232043 0.03391242 0.21054086 0.0889805
0.093563266 0.16330719 0.17834601 0.103068225 0.12523608 0.046415143 0.09295975 0.061216317
00000000: 7aec c53d 7fad ae3d 88eb fd3d 930e e43e
00000010: 4108 e63d c0e7 0a3d 0698 573e 693b b63d
00000020: 199e bf3d 003a 273e 56a0 363e 6f15 d33d
00000030: e33d 003e ce1d 3e3d ae61 be3d f6bd 7a3d

model.6.weight f4 [8, 16]
-0.22336406 -0.2027601 -0.24420998 0.005325361 -0.16984944 0.11839838 -0.17894712 -0.25488287
-0.15032081 -0.00575141 0.08220475 0.20369641 0.19430825 -0.065375686 0.04798242 0.19332851
0.1320739 0.11082912 0.05805508 -0.15309183 0.11012835 -0.10784466 0.08203113 -0.026696093
-0.082026996 -0.047039073 0.15387148 0.15053979 0.22394514 -0.21270399 -0.04734003 -0.14800999
0.03524025 -0.1510423 -0.03141785 0.17627579 -0.10175044 -0.22755495 0.20303512 0.06790761
-0.10840712 0.19119212 -0.03565325 0.07420531 -0.20260833 0.1753397 -0.11523008 -0.0385372
-0.03324335 0.037055675 -0.030182919 0.14052211 -0.00020714781 0.16320945 0.131687 -0.079095155
-0.12639822 0.25552544 0.10991434 0.039887358 0.1045349 -0.04348965 0.12632409 0.011396068
0.10732687 -0.1319056 0.124524206 0.08718901 0.03428327 -0.2517714 0.16734308 0.0067158267
-0.31481817 0.12366133 0.009046155 0.14730392 0.11224137 -0.024581749 0.003406093 -0.1353568
0.052313384 0.015493395 -0.020814782 -0.08495932 -0.22659624 0.30760828 -0.12753351 -0.17609523
-0.1164598 -0.07931351 -0.24517226 -0.058339678 -0.12718743 0.052799363 0.14085096 0.17217138
-0.03583264 -0.16232865 0.095256306 0.060832996 0.035883278 -0.07386168 0.16128668 -0.14452694
-0.17936967 0.007538847 -0.0802713 0.03427061 0.034947965 0.2576332 0.021907743 -0.27128297
-0.13275659 -0.16866851 -0.16243373 -0.08839515 -0.035999995 0.008223829 0.055146713 -0.10220637
0.008623955 0.07689582 -0.40892535 -0.14454448 -0.35216436 0.093482174 -0.061647322 -0.039016347
00000000: 8cb9 64be 58a0 4fbe 2e12 7abe 5e80 ae3b
00000010: 03ed 2dbe da7a f23d ea3d 37be 0280 82be
00000020: b3ed 19be 5376 bcbb f75a a83d cb95 503e
00000030: bef8 463e b0e3 85bd 3789 443d e9f7 453e
00000040: 613e 073e 61fa e23d 2acb 6d3d 1bc4 1cbe
00000050: f98a e13d a9dd dcbd f0ff a73d c4b1 dabc
00000060: c5fd a7bd 0bac 40bd 7c90 1d3e 1a27 1a3e
00000070: e051 653e 13cf 59be 9fe7 41bd ee8f 17be
00000080: 1558 103d d5aa 1abe 01b0 00bd a481 343e
00000090: 8962 d0bd 2a04 69be 70e8 4f3e 2513 8b3d
000000a0: 8d04 debd dec7 433e 2409 12bd f4f8 973d
000000b0: 8f78 4fbe 408c 333e c0fd ebbd 2fd9 1dbd
000000c0: 2e2a 08bd b1c7 173d 2b42 f7bc 07e5 0f3e
000000d0: d135 59b9 6120 273e f5d8 063e a4fc a1bd
000000e0: 896e 01be 3bd4 823e c51a e13d ed60 233d
000000f0: 6516 d63d 3422 32bd 1a5b 013e 93b6 3a3c
00000100: 31ce db3d 4312 07be 8c06 ff3d 2790 b23d
00000110: 9d6c 0c3d 2ee8 80be fc5b 2b3e 7010 dc3b
00000120: d92f a1be 2742 fd3d 5336 143c d7d6 163e
00000130: cede e53d aa5f c9bc c238 5f3b f99a 0abe
00000140: 8f46 563d 02d8 7d3c c383 aabc 27ff adbd
00000150: d808 68be d57e 9d3e 2598 02be 4f52 34be
00000160: 7a82 eebd 1f6f a2bd 700e 7bbe 96f5 6ebd
00000170: 6c3d 02be 2544 583d 3c3b 103e b24d 303e
00000180: 3fc5 12bd 7b39 26be bd15 c33d 052c 793d
00000190: 58fa 123d cb44 97bd 5628 253e dffe 13be
000001a0: afac 37be 6f08 f73b 4865 a4bd 575f 0c3d
000001b0: 9925 0f3d 80e8 833e de77 b33c 9ae5 8abe
000001c0: 58f1 07be 70b7 2cbe 0755 26be 8408 b5bd
000001d0: bb74 13bd 3dbd 063c 85e1 613d 9351 d1bd
000001e0: 7d4b 0d3c 8e7b 9d3d aa5e d1be 7803 14be
000001f0: e34e b4be 9573 bf3d e781 7cbd 9bcf 1fbd

model.6.bias f4 [8]
0.13033268 0.22667181 0.34941763 0.23362586 0.17566417 0.16194122 0.05753152 0.14005072
00000000: ee75 053e a81c 683e dee6 b23e 9e3b 6f3e
00000010: 4fe1 333e ebd3 253e 2ca6 6b3d 7569 0f3e

model.8.weight f4 [8]
1.5786948 1.5734771 1.6381235 1.6798046 1.5413855 1.3919626 1.4930158 1.5057759
00000000: ac12 ca3f b367 c93f 08ae d13f d603 d73f
00000010: 1f4c c53f d52b b23f 241b bf3f 44bd c03f

model.8.bias f4 [8]
-0.14099856 0.072312236 0.026095746 -0.092201814 0.095911 -0.09562478 -0.013281168 -0.1446691
00000000: ed61 10be 7018 943d bfc6 d53c 4ed4 bcbd
00000010: fd6c c43d edd6 c3bd 4299 59bc 2324 14be

model.8.running_mean f4 [8]
0.28731087 0.5188208 0.4972706 0.42354807 0.5835671 0.34439301 0.33880714 0.31850204
00000000: 691a 933e 71d1 043f 419a fe3e 4bdb d83e
00000010: a764 153f 4854 b03e 2178 ad3e b312 a33e

model.8.running_var f4 [8]
0.12927361 0.28123197 0.2013691 0.17449938 0.3874613 0.23851018 0.13833418 0.10502193
00000000: 4d60 043e a3fd 8f3e b433 4e3e f7af 323e
00000010: 5461 c63e 033c 743e 7aa7 0d3e bd15 d73d

model.9.weight f4 [4, 8]
0.46637392 0.67993426 0.7064302 0.98169047 0.5916763 -0.48632756 0.50589144 -0.19800465
0.7969831 -0.53841585 -0.41182077 0.2572215 -0.5104983 0.6038911 -0.37873316 0.24290447
-0.46281487 0.4392319 -0.38897982 -0.52696973 -0.1537244 -0.22363742 -0.57643485 -0.6316616
-0.6064844 -0.7234594 0.40182889 -0.6656274 -0.18663658 0.054934632 0.32704356 0.4155708
00000000: 90c8 ee3e 2c10 2e3f 9cd8 343f 1150 7b3f
00000010: 1978 173f edff f8be 1a82 013f bbc1 4abe
00000020: 1607 4c3f 9fd5 09bf 2cda d2be 89b2 833e
00000030: 04b0 02bf 9b98 1a3f 50e9 c1be f3bb 783e
00000040: 12f6 ecbe 01e3 e03e 5d28 c7be 7de7 06bf
00000050: ee69 1dbe 3501 65be 3c91 13bf 93b4 21bf
00000060: 9042 1bbf a334 39bf 84bc cd3e 8f66 2abf
00000070: a91d 3fbe 2303 613d 4172 a73e b2c5 d43e

model.9.bias f4 [4]
-0.3303597 -0.37354544 -0.14893472 0.07385141
00000000: e824 a9be 5941 bfbe 5882 18be 683f 973d
