saved_models/MLP/ckpt__epoch100.ckpt (torch, 18336 bytes, 20 tensors)

model.0.weight f4 [32, 64]
00000000: 3103 bcbd 27b8 7e3e 2271 4e3d 88c8 b63c
00000010: 756c 62bd a58b a83d 7892 20be cb02 e7bd
00000020: 932d 1fbc 95d4 c0bd f831 8d3c 4763 f5bc
00000030: 7171 c9bc ef0b 313d 4266 ac3d fc5f 163c
00000040: d671 94bd 94cb 4c3d 2587 08be 174f 9d3d
00000050: 11af 983c 153d 003d a993 843d a77e 163c
00000060: 570f c5bc f157 23bc c493 9ebb ee7f 86bd
00000070: fa70 a6bc 0579 8f3c 7655 2f3d d139 633c
00000080: 8a13 ebbd 172a 5d3e 7199 07bc 0e51 233d
00000090: f021 2e3d 7bf0 82bc 4bab d83c 4614 84bc
000000a0: e31a 0bbd d9cc 113d 26bf 2f3e c86a 283e
000000b0: 7a23 843d ba0a 523c 5a68 f83d f7ad 123d
000000c0: 8c61 75bc 7d9d 4d3e 1d9f 833c 4851 3b3d
000000d0: 080f 8a3d c48b 843c e47d 9ebc bbb4 ab3d
000000e0: bd63 0abd ec31 00be 8374 b73d 53fe 8dbd
000000f0: 8351 34bc 8968 863d a680 dbbd 34cf afbd
00000100: 91d3 01be 4893 123c 95dd a33d b6d2 a23d
00000110: dcdd bdbd 16f9 d23c 6a47 6fbd 5b72 1c3d
00000120: 46dd 8a3d de37 393d 74cc c83d 888a db3d
00000130: 358e cdbd 180f 0dbd 3174 9abd b638 e7bc
00000140: df53 bb3d 7977 d7bd ab19 d1bd c1ae 38ba
00000150: 7ff5 123e 2f35 dbbc 2115 fc3d 4e76 63bc
00000160: 68e7 c43d cf83 b8bd 67b9 3ebc a213 fdbc
00000170: dc2d 923d ee0b 633d b4d1 a43c 9b34 b13d
00000180: 3aad 5bbd 9dda 30bd 55eb c4bd 3d1b 5ebd
00000190: 6cb8 783d 7bb4 3c3d 7ea8 89bd d030 833d
000001a0: adfa 9c3d d982 823d e159 153e 5188 043e
000001b0: 7ef9 0bbe 77ca 07bd 9ef8 22bd 708e c23c
000001c0: e5d1 ef3d 638e 2dbd fe35 023e 6200 0a3d
000001d0: 8a2b 98bd 713b 70bc a378 1ebd ba59 963c
000001e0: 797e f5bd af9b 68bd 5aa8 ba3c 9df2 87bb
000001f0: bff6 be3d 945c 8dbc aa02 3d3d 29d2 8b3a
00000200: 3355 c2bc 9913 adbb 3a09 d83a c809 a3bd
00000210: 7ee0 5e3c c012 8fbc 00eb 563e a602 2fbb
00000220: 4f6a 5dbc 3c22 853b 4ec2 743d 792f 283d
00000230: d4c6 3fbc 77b6 f23c 56d5 2abe a710 e13c
00000240: 02ea c1bb d2db 32bc 0139 38ba 4dd1 e93b
00000250: f110 25bb 555e 1c3d 1409 1abe c799 bebc
00000260: 6d74 8ebc 2ba2 17bc 4a88 06bd b37c 6abc
00000270: 9aff 37bd 57a0 3d3d 6375 243e a49b 3b3d
00000280: 9af8 8fbb 58c3 52bd 6e3f f9bd d5fa 9cbd
00000290: 7159 5d3b 5280 1cbc 3a97 933d dc4a cc3d
000002a0: d1d3 37bb 9976 6a3d 36ec 033e 5bd0 0abe
000002b0: 8a03 6dbc 0179 1d3d 937c 463e e6d7 673d
000002c0: 77a2 a33c 6004 abbd 347f a4bd 2e2a 853d
000002d0: 87c8 273c 58be 8f3c 1323 a53c 4e4b 32bc
000002e0: 1ec7 aabc 2dcf ad3c 24d0 ea3c 2e32 e83d
000002f0: 2fe2 933a fa0c 153d 5292 2c3d da79 4c3a
00000300: c90e 8fbd 10b3 743c 7beb a8bb 13f3 d5bc
00000310: cd6c 3b3d 060b 2a3d 0726 5fbe 5229 c1bb
00000320: 2855 a6bd 806f 6cbd 3369 9a3d 7307 8c3d
00000330: f4f7 79bd 6630 1abd 37b9 2c3d b1db ad3b
00000340: 2909 973d 4c4d a3bd 8857 213d 7878 a73d
00000350: 2796 03bd aff2 d33c b054 b5bc 8702 e3bc
00000360: 9aa5 20bc 6ed7 5f3b 9f20 9c3c fcef babd
00000370: 8605 38bd 5d3e c2bc de69 c93d 47ce 3abd
00000380: ce54 6e3d 01ce eebc 35a7 1c3d 9df6 d6bd
00000390: 9e05 883d 28ed 37bc b106 8abd 4e10 e23c
000003a0: 2c99 bd3c 77a4 dbbd d5fd 903a 8715 2fbe
000003b0: 7995 093d 823f ff3c 7112 003e b5ee 9c3c
000003c0: 9e2d d4bd 68d6 cbbd efd3 0abd bb05 d83c
000003d0: 9e8d a43d d415 b9bb 7752 b63d ac2d fa3a
000003e0: 5e1a 06be 3273 f23c be92 133e 69b9 d53d
000003f0: d5b3 813c 8a6e 053b 71c8 1cbe a88d 45bd
-0.09180296 0.24874936 0.05040086 0.022312418 -0.055279214 0.0822976 -0.15680873 -0.112798296
-0.009715456 -0.09415547 0.017235741 -0.029954566 -0.024590226 0.04322427 0.08417942 0.009178158
-0.07248275 0.049998835 -0.13332804 0.07681101 0.018638166 0.031308252 0.064734764 0.00918547
-0.024055166 -0.009969697 -0.0048393924 -0.065673694 -0.020317543 0.017513761 0.04280611 0.013868765
-0.11478336 0.21598087 -0.008276329 0.03987222 0.042512834 -0.01598381 0.026448866 -0.016122948
-0.033961188 0.03559575 0.17162761 0.16446984 0.06452079 0.01281994 0.121292785 0.035810437
-0.01497687 0.20079608 0.016067082 0.045731813 0.06741148 0.016179927 -0.019347139 0.08384081
-0.033786524 -0.12519044 0.0895777 -0.06933274 -0.011005762 0.06562907 -0.10717897 -0.08584443
-0.12678362 0.008946247 0.08001248 0.07950346 -0.09270832 0.025753539 -0.058417715 0.038194995
0.06780486 0.045219295 0.09804621 0.10719782 -0.100368895 -0.034438223 -0.07541693 -0.028225284
0.091468565 -0.105208345 -0.10209974 -0.00070450833 0.14351462 -0.026758758 0.123087175 -0.0138831865
0.0961445 -0.090095155 -0.011640883 -0.03089315 0.07137653 0.0554313 0.020119525 0.08652612
-0.053632 -0.043177236 -0.096151985 -0.054225195 0.060722753 0.046070557 -0.067215905 0.064057946
0.07665 0.063726135 0.14585067 0.12942626 -0.13669392 -0.03315207 -0.03978788 0.02374956
0.11709956 -0.04237212 0.12715909 0.03369177 -0.074301794 -0.014662609 -0.038689267 0.018353332
-0.11987013 -0.056789096 0.022785354 -0.004148795 0.09324407 -0.017256059 0.04614512 0.0010667491
-0.023722267 -0.0052818772 0.0016482242 -0.0796085 0.013603328 -0.017464995 0.20988083 -0.002670446
-0.0135141155 0.004062919 0.059755616 0.0410609 -0.011705119 0.029628022 -0.16682944 0.02747376
-0.0059177885 -0.010916667 -0.0007027537 0.0071355463 -0.00251871 0.0381759 -0.15042526 -0.023266686
-0.0173895 -0.009254972 -0.03284482 -0.014311957 -0.044921495 0.04629549 0.16060404 0.045802727
-0.0043936493 -0.051455826 -0.121703014 -0.0766503 0.0033775235 -0.009552078 0.072065786 0.09975216
-0.0028049836 0.05724201 0.12883076 -0.13556044 -0.014466176 0.038445476 0.19383459 0.05660238
0.01997493 -0.08350444 -0.080320746 0.06502186 0.010240681 0.017546818 0.020158326 -0.010882212
-0.0208469 0.021216953 0.028663702 0.11337696 0.0011282618 0.03638933 0.04213173 0.000780014
-0.06985242 0.01493527 -0.0051550246 -0.026116883 0.045758057 0.04151442 -0.2179185 -0.0058948183
-0.08121711 -0.057723522 0.075395964 0.06837358 -0.061027482 -0.037643813 0.042168822 0.0053057303
0.07374794 -0.079737276 0.039390117 0.081772745 -0.03212562 0.025872556 -0.022135109 -0.027711166
-0.0098051075 0.0034155506 0.019058524 -0.09127805 -0.044927143 -0.023711378 0.09834646 -0.045606878
0.058186345 -0.029150965 0.0382454 -0.104962565 0.066416964 -0.011225976 -0.067395575 0.027595665
0.023144327 -0.107247286 0.0011061976 -0.17098056 0.033589814 0.031158213 0.12507035 0.019156793
-0.10360263 -0.09953004 -0.033893522 0.02636992 0.08034824 -0.005648354 0.08902448 0.0019087098
-0.13095996 0.029595945 0.14411446 0.10435755 0.01583282 0.0020360076 -0.15310837 -0.048230797

model.0.bias f4 [32]
00000000: a545 3cbd 96bb 5dbb dea4 b1bd 3910 203e
00000010: 699e ce3d 3b9f 5b3d 26e7 e6bd 6fb3 343d
00000020: 7077 0a3e 73bc 70bd 8bd2 1ebe e851 dcbb
00000030: 777d bcbd 207b 8cbd 233f 0d3e 7449 56bd
00000040: d4f9 c6bd 19b2 55bd 1341 49bd 4d68 d8bd
00000050: 8b11 e5bd ebc1 1ebc f679 00be 22a9 1f3d
00000060: d8a2 123e e3ae 03bc bd14 ce3b fd54 cd3d
00000070: 5f91 adbd 303d ea3d 6087 433e 5405 523c
-0.045964856 -0.0033833734 -0.08674024 0.15631188 0.10088808 0.05361865 -0.11274557 0.044116434
0.13522124 -0.05877347 -0.15510003 -0.006723631 -0.09203618 -0.06859422 0.13793616 -0.052316144
-0.0971562 -0.0521718 -0.049134325 -0.10566769 -0.11184987 -0.009689788 -0.12546524 0.038979657
0.14319932 -0.008037302 0.0062890933 0.10025976 -0.08474993 0.11437452 0.1909461 0.012818653

model.2.weight f4 [32]
00000000: beda 823f a6a2 633f 2ae2 873f 7981 7d3f
00000010: a819 6e3f 83e1 833f 8836 7f3f 1d48 823f
00000020: df31 823f 295c 853f ba92 863f 0eb9 803f
00000030: 5963 8a3f 2f9b 8b3f 2ee3 793f 9693 7f3f
00000040: 0777 683f 79a7 8a3f d1fe 6b3f 8ef1 863f
00000050: c17a 653f c046 8a3f f6b8 803f 8394 8a3f
00000060: 6b66 813f 6e68 833f ba37 813f c341 5d3f
00000070: ea04 773f 8398 733f 6326 803f 0b00 833f
1.0223005 0.88920057 1.0615895 0.99025685 0.930079 1.0303196 0.99692583 1.0178257
1.017147 1.041875 1.0513527 1.0056474 1.0811568 1.0906733 0.97612274 0.99834573
0.9080662 1.0832359 0.92185694 1.0542467 0.8964043 1.0802841 1.0056446 1.0826572
1.010938 1.0266244 1.0095131 0.8642847 0.96491873 0.9515459 1.0011715 1.0234388

model.2.bias f4 [32]
00000000: 4bc4 c5bc 0f07 1fbe 0726 093d d0e4 ccbc
00000010: 75af a6bc c1e1 ab3d c07b a73d 0aeb ca3d
00000020: d587 e5bb 409d e93d 3110 bcba d368 ecbd
00000030: 2f38 093d 910d a93d 6bf6 fd3c 6663 a63d
00000040: d679 b43d d9cd 283d b7d8 933c 03d0 58bd
00000050: 6b5f 1dbd 7c26 bf3d a8fe 8bbd fd30 323e
00000060: c12f 9439 eecb d03d 4452 5b3d d044 f43c
00000070: 4356 bf3d 3057 9b3d c4ea 653d d623 babd
-0.024141451 -0.15530036 0.03348353 -0.02501145 -0.020347336 0.083926685 0.081779 0.099081114
-0.007004718 0.11406946 -0.0014348087 -0.11543431 0.033500846 0.08254541 0.03100129 0.081244275
0.08812301 0.041211937 0.018047674 -0.05293275 -0.038421076 0.09333512 -0.06835681 0.174015
0.0002826434 0.101951465 0.05354525 0.029817969 0.09342625 0.07584989 0.056132093 -0.090888664

model.2.running_mean f4 [32]
00000000: 56cf 4440 440b 6640 2810 4340 2eab 7340
00000010: 23d3 9440 ba11 1f40 a630 ff3f 73fc 2440
00000020: 2752 6540 2d84 5340 10c5 1f40 d8f4 5e40
00000030: cb96 5040 c471 5d40 e3cb 3e40 ca72 8e40
00000040: d2b0 7f40 55dc 2d40 af49 2e40 6250 6140
00000050: a030 8a40 9ac4 7840 6d78 8e40 382b 6540
00000060: 943f 7d40 3216 7940 44de 8040 446b 6640
00000070: 4fb9 4340 b701 8040 210d 6940 1431 6540
3.0751548 3.5944376 3.047861 3.807323 4.6507735 2.485457 1.9936721 2.5779083
3.5831392 3.3049424 2.4964027 3.483694 3.2592037 3.4600687 2.9811943 4.4515123
3.9951673 2.716573 2.7232473 3.5205312 4.3184357 3.8869996 4.4522004 3.5807629
3.9570055 3.8919797 4.027132 3.600297 3.0581853 4.0002093 3.6414263 3.5811205

model.2.running_var f4 [32]
00000000: 8d1c 0842 5aab 0f42 9e3b 3242 e574 3042
00000010: b52e 5542 038f bf41 446f 9a41 94a4 9a41
00000020: db81 ee41 ac1d 5b42 2573 9e41 3e83 fc41
00000030: 9256 3242 bbb1 5942 6f2c d341 3167 7542
00000040: cce8 1c42 c91a cd41 fc51 9941 2b11 5b42
00000050: 1b9d 5342 dab7 9142 8b9f 4b42 808d 7542
00000060: 4d1c 3842 b4b1 8242 06f7 1642 10da f741
00000070: 54e3 4342 79c0 0a42 3ad4 0d42 9590 0342
34.02788 35.917336 44.55822 44.114155 53.295612 23.94483 19.304329 19.33036
29.813406 54.778976 19.806223 31.564083 44.58454 54.423565 26.396696 61.350773
39.22734 25.638079 19.165031 54.766766 52.903423 72.859085 50.905804 61.388184
46.027637 65.34708 37.741234 30.981476 48.972 34.68796 35.457253 32.891193

model.3.weight f4 [16, 32]
00000000: ff0b 733d a319 25be a4c0 0e3e 311e 3a3d
00000010: d9e8 c4bd 72be e83d 031d 4cbd 6848 2e3e
00000020: f700 82bd 2484 14be 18af 053e 2394 56be
00000030: 0e24 95bd 01b2 23be c7e6 15bd 3d11 a3bd
00000040: 2dff 8c3c c539 663d e89a cbbd dfa2 fcbc
00000050: 9a92 c6bd 1da7 ac3d d35b d93c 2cc4 e0bc
00000060: 29d8 71be abee 073d 144f 343e acba 253c
00000070: 25d3 063c f126 aa3b 5552 8b3d 5c62 393d
00000080: 0a96 ecbd fc06 0d3d 57c7 903d c736 c33d
00000090: d00a 8a3b b0a3 57be 17e7 a33d b784 2abd
000000a0: b47e 65be 812d 86bd 25c9 43be 1c48 6a3d
000000b0: dc07 91bd f025 d9bb ba2a cb3c 9f49 d4bd
000000c0: 253e a7bd 76ae 55be a755 00be 1f7a 053e
000000d0: 52cc 28be c299 173e 17d2 95bd 84ab 333e
000000e0: b73b c4bd f526 bfbd 2114 873c 6064 3cba
000000f0: 9f45 023b 6db1 debc 9590 173e 3c1c c9bd
00000100: eeaa 50bd e1ed e8bd 5bc8 573d 55ff 3c3d
00000110: c112 873c cd85 49be 4611 70be c91c 5dbd
00000120: 51ee b0bd bb4a 1d3e bb64 2cbe 76b5 00be
00000130: c6a3 50bd d8b4 973d ec24 1bbd ea00 233e
00000140: 7fa0 44bd 22be 56be 2f5c d9bd ac89 6cbb
00000150: bc45 7ebd 9fc8 f4bc cb33 8a3d 8d3d 143e
00000160: 8385 113e 9b6e ff3d a0dd 0b3e d9d9 3bbd
00000170: 6455 0b3e 784e 133e cb5e 1fbd 86d6 a3bc
00000180: 10b2 633c 047a d2bb e7b3 a63d df69 1f3e
00000190: bc48 ed3c 75d5 55bb 8127 34bd edb2 6dbd
000001a0: 4644 363c e5f8 9d3d 2a02 173d b120 a1bc
000001b0: 3c61 b83d 31f2 9e3d 8889 e73c 4427 df3c
000001c0: d9df bdbd 9248 8b3d dcf4 6fbd 6178 053e
000001d0: db4c f03d a249 3a3e 1fed 45be dc34 2b3e
000001e0: 24ca 723d 08cf e0bc 1b0a d3bd e0c6 a93c
000001f0: bda4 183e 4930 0a3d 630a 43be 8e7f a8bc
00000200: 73da cfbd 9a33 d7bc c89a 733d 723e 883d
00000210: 7b2d 85bd 48ab c53d f27b 513d 8bfd e03b
00000220: d3a2 95bd aa05 3b3e d3a6 97bd 72c3 c1bd
00000230: cd6f 33bd f2c2 003e 96d2 1abe de85 0ebe
00000240: f5f7 31be 0536 d7bc afa2 503d 42f5 583d
00000250: 8fae 14be 88c2 5c3b 852a 5bbe 1c29 0d3e
00000260: 1d5d d5bc c955 1a3e a872 59bd 7954 473d
00000270: 17d5 4d3d 11bf 91bc 170d bfbd 86aa 3cbe
00000280: ea43 c23d 83f2 9f3b bad8 7d3e 1721 973d
00000290: 3cb0 a7bd b29b f7bd d8da 9d3c a92d f3bd
000002a0: 63ff 11be 82f5 e13c f69a 31be c420 023e
000002b0: a8de 443d 223f 19bd 2cf6 97bd f037 7f3d
000002c0: 586b 53bd 20fd c53c d854 3a3e 90ae 2f3e
000002d0: 83c2 cbbc a3ab 97bd 471b ed3c 960a 3b3e
000002e0: 1735 f2bd 7428 36be a060 cebd 251e 5dbd
000002f0: 4ab0 4a3c 32f3 0abe 0972 a3bd ee35 a73c
00000300: 0b78 67be d64f babd 035a 46be cbac 8ebd
00000310: cf34 f33d cdee eebd 08d2 25bd 5dab 953d
00000320: dde1 81bd 079b 133d a5ce ccbc f5ff 2e3d
00000330: 4806 64bd 14f2 9b3d 8e3e c6bd d413 1d3e
00000340: 24e4 2cbd 0e6e 2e3d c525 193e 1941 8cbd
00000350: a550 75bd 4f95 99ba 15d3 01be 63ba 1ebd
00000360: 9afa c03d 66b3 85bd 779e 483e 8ebe e53d
00000370: 9cb3 59be 2cb6 113d 4bb3 65be c1dd 273e
00000380: cbdd 2e3e 0c79 30be fb91 debd 14cb ac3c
00000390: 8f05 e4bc a8bf 873d 99a6 e73d 14a6 ad3c
000003a0: c23c d83d bf8d fcbd a35b e13d 00b6 0dbc
000003b0: 046c d13b f39e 213e 41f5 3a3d 0f8a e43d
000003c0: 999d df3d 3773 0d3e fed9 c03c c3bc 86be
000003d0: 28f7 fdbd 5695 e4bc c597 ab3b 56fd 483e
000003e0: 7b3c d53c 1ef2 a6bd 9dee c23d be8a 1cbd
000003f0: b2eb 313e d1f7 b33d b3cb d3bd f41b bb3c
0.059337612 -0.16123061 0.13940674 0.04543895 -0.09614725 0.113644496 -0.049832355 0.17019808
-0.0634784 -0.14503533 0.13055074 -0.20954947 -0.072822675 -0.15985872 -0.03659704 -0.07962272
0.017211521 0.056207437 -0.099416554 -0.030839382 -0.09695931 0.08430312 0.026533043 -0.027437292
-0.23617615 0.033186596 0.17608291 0.010115307 0.008229052 0.0051926305 0.06802813 0.04525982
-0.11552055 0.03443049 0.07069271 0.09531932 0.0042127147 -0.21058536 0.08003061 -0.041630473
-0.22411615 -0.06551648 -0.191197 0.057197675 -0.07081577 -0.006626837 0.024800647 -0.103656046
-0.0816615 -0.20867333 -0.12532674 0.13034867 -0.16484192 0.14804748 -0.07315462 0.17545897
-0.09581702 -0.09333602 0.01648909 -0.0007186588 0.0019877923 -0.027184213 0.14801247 -0.098198384
-0.05094426 -0.11373497 0.05268131 0.04614194 0.016488435 -0.19679947 -0.2344409 -0.05398253
-0.08639205 0.15360539 -0.168353 -0.12569222 -0.050937437 0.0740754 -0.03787701 0.15918317
-0.048004624 -0.20970967 -0.10613286 -0.00360928 -0.062078223 -0.02988082 0.0674816 0.14476605
0.14211087 0.12472268 0.13658762 -0.045862053 0.13606793 0.14385402 -0.03890876 -0.019999754
0.013897434 -0.006423237 0.081397824 0.1556773 0.028965347 -0.003262845 -0.043982986 -0.058031965
0.011124676 0.077134885 0.0368673 -0.019668909 0.09002921 0.07761038 0.028263822 0.027240403
-0.09271211 0.06800951 -0.058583125 0.13034202 0.11733409 0.18192151 -0.19328736 0.16719383
0.059274808 -0.02744247 -0.10304662 0.020724714 0.14906593 0.033737455 -0.19046931 -0.020568635
-0.10149088 -0.026269723 0.059473783 0.066525355 -0.06502815 0.0965181 0.051143594 0.006866162
-0.07306447 0.1826388 -0.07404866 -0.09461106 -0.043807793 0.12574366 -0.15119395 -0.13918254
-0.17379744 -0.026270876 0.050936397 0.05296827 -0.14519714 0.0033685286 -0.21402939 0.13785213
-0.026045376 0.15071787 -0.05308786 0.048664544 0.050252046 -0.017791303 -0.093286686 -0.18424425
0.0948561 0.0048812046 0.24789706 0.07379358 -0.08187911 -0.120902434 0.019269392 -0.11873943
-0.14257579 0.027582888 -0.17344269 0.12707812 0.048063904 -0.037413724 -0.074200004 0.062309206
-0.051616043 0.024168551 0.18196428 0.17156434 -0.024873024 -0.07405784 0.02894367 0.18265757
-0.11826532 -0.17788869 -0.100770235 -0.053983826 0.012371132 -0.13569334 -0.07980735 0.020411458
-0.22604387 -0.09097259 -0.19370274 -0.069665514 0.11875307 -0.116666414 -0.040483505 0.073080756
-0.06341908 0.036036517 -0.02500088 0.04272457 -0.055670053 0.07614532 -0.096799 0.15339595
-0.04220976 0.042585425 0.14955814 -0.06848354 -0.05989136 -0.0011717471 -0.12678178 -0.03875197
0.094227985 -0.06528358 0.195917 0.11217986 -0.21259922 0.035574123 -0.22431676 0.16393186
0.17076795 -0.17233676 -0.10867687 0.021092929 -0.027834682 0.066283524 0.11311073 0.021197356
0.10558464 -0.123317234 0.110038064 -0.008649349 0.0063910503 0.1578329 0.04564405 0.11159145
0.10918731 0.13813482 0.023541447 -0.2631589 -0.12400657 -0.02790324 0.005236598 0.1962789
0.026029816 -0.08151649 0.09518168 -0.038218252 0.17375067 0.087875016 -0.10341587 0.022840478

model.3.bias f4 [16]
00000000: bb03 0bbe 3ce2 87ba a612 f23d 3f52 b23c
00000010: 7eb2 023e e0ad 383d 6597 cb3d 0979 d43a
00000020: b2ef 68bd 6daf c13d 292f 093e 1285 3abd
00000030: df9a e1bd 6d63 09be 2f09 debd 052b 6a3d
-0.13575642 -0.0010367106 0.11819963 0.021767734 0.12763402 0.045087695 0.099409856 0.0016210388
-0.056869216 0.09457288 0.13396896 -0.045537062 -0.110158674 -0.13416834 -0.108415954 0.057169933

model.5.weight f4 [16]
00000000: 9771 7a3f b607 6a3f b6e4 8b3f 3145 8a3f
00000010: 0488 823f a775 7e3f 55e2 553f e076 6b3f
00000020: d0aa 803f 801b 6c3f 5e9a 673f 008d 8b3f
00000030: ce99 643f 1b00 7e3f acc2 8f3f 6213 703f
0.97829574 0.91418016 1.0929172 1.0802366 1.0197759 0.99398273 0.8354848 0.91978264
1.0052128 0.9222946 0.9046992 1.0902405 0.8929719 0.9921891 1.1231284 0.93779576

model.5.bias f4 [16]
00000000: f181 41bd a2ce 893d 83f2 993d ac54 f7bc
00000010: 89e9 073e 7694 8a3c bae2 3abe 408f f93d
00000020: 3ba3 b93c 9daf 193e b57a 873d 705c fc3d
00000030: 96e2 50bd 2c94 7ebd 0c59 8ebe 5cd7 25be
-0.047243062 0.06728865 0.075169586 -0.030191742 0.1327268 0.016916495 -0.18250552 0.12185526
0.022660842 0.15008397 0.066152014 0.123223186 -0.05099734 -0.062153026 -0.27802312 -0.16195434

model.5.running_mean f4 [16]
00000000: 66b3 253e 34ed 6d3e 3dc5 a53e 0c23 813e
00000010: 7be1 a93e 4c9a 6d3e c903 8b3e dee1 a33e
00000020: 0c1f 6e3e 2069 933e 9893 9f3e 414b 5e3e
00000030: fab4 533e 91b8 853e b050 0e3e b264 a03e
0.16181716 0.23235017 0.32377043 0.2522205 0.3317984 0.23203391 0.27151325 0.3200826
0.23254031 0.28791142 0.31167293 0.21708395 0.20674506 0.26117375 0.13897967 0.31326824

model.5.running_var f4 [16]
00000000: 8573 b53d 9b73 e13d b98c 0d3e a43a 823e
00000010: 0f46 113e fe97 3b3e 51ae f83d 280e a43e
00000020: b24c 2b3e 068a 013e 3512 d83d 0ae8 3e3e
00000030: 1ce3 9e3e 331d a13e 6cd5 1d3d 9bbf 5a3e
0.08859924 0.11008378 0.13823213 0.25435364 0.14186881 0.18319699 0.12142623 0.3204205
0.16728476 0.12650308 0.10550348 0.18643203 0.31032646 0.3146759 0.038533613 0.21362154

model.6.weight f4 [8, 16]
00000000: 46ec 5cbc c49e 9a3d a9d8 6f3e 326c 69be
00000010: 09cd 77bd 05c0 743e 095d c03d 00d9 3abb
00000020: adc0 7bbe 19c9 5d3d b2fb 523e dc48 2dbe
00000030: c877 163e ca33 b7bd 8821 63bd 8d37 3d3e
00000040: 2c54 113e c04d d43a b6df d83d 8b8f 413e
00000050: d169 913e e15c 2e3e 1381 36be c9c0 cdbc
00000060: d357 04be 7fe6 9ebe 8aa9 24be ec66 233e
00000070: 5662 343e cfb3 163e 5afb 43be 0a58 01be
00000080: 606a 6f3e 7102 1db9 ebe4 63bc df5f e5bd
00000090: 2c3c 203e 5075 3a3e 3d02 a2bc fcb9 053e
000000a0: 3fc4 04be c201 81be 9980 1a3d f139 a33d
000000b0: 8dd8 f83d 42e1 d5bd 6ed3 6bbe e004 31be
000000c0: 9284 6cbd dc38 08be 065e cbbe 6933 40be
000000d0: a621 86bc 4734 51bd a8af bc3d d040 23bd
000000e0: 8a80 b73d 5395 1e3e 8472 9abb 5005 83be
000000f0: a71b dabc b60b 0dbe 17f7 f6bd f0f3 2cbe
00000100: e79e 11bd 4515 543d 4a10 af3d 2fb0 61be
00000110: 1067 71bd f38c 35bd 2c51 0c3d 0927 59bd
00000120: 347b a6bd 5779 0a3e f789 f73d 1125 84be
00000130: cb78 43be 3dc7 babc e0d0 adbe fe55 f93d
00000140: e489 45be 8be6 0a3e 4f49 56bd 0be8 b7bd
00000150: cae8 cbbd a922 08be 1b1b 0d3e 8cdd 78be
00000160: 8d2b 37be d95c c7bc 04e4 b43d c4fe 8fbe
00000170: e4ee c83d c63d 54be 5cf1 6b3e 3ab6 56bc
00000180: b0af 813b b3d1 893d 2c0c f33c 24c0 5f3e
00000190: 6d58 343d 6d8f 6d3d e927 473d f468 02be
000001a0: 24e1 c5bc bc60 e9bd 95ef 0bbc 8700 083e
000001b0: eae3 e8bd 1353 1d3e d347 a9be e010 a23c
000001c0: 8d3c 24be b6fa b53b 9688 ea3d 5292 9b3c
000001d0: 839d 003e 25d5 263d 2704 45be f227 c33d
000001e0: 692c 0f3e c471 a73d 33e6 b43c f8af 313e
000001f0: 80e5 503e cf2b 13be 17d8 82be cfa2 0ebe
-0.013484066 0.075498134 0.23422493 -0.2279518 -0.06049827 0.23901375 0.09392745 -0.002851069
-0.24585219 0.05414686 0.20603827 -0.16922325 0.1469413 -0.08945425 -0.0554519 0.18478222
0.14192265 0.0016197488 0.105895445 0.18902414 0.28401044 0.17027618 -0.17822675 -0.025116341
-0.12924127 -0.3103523 -0.16080299 0.1595723 0.17615637 0.14717029 -0.19138852 -0.1263124
0.23380423 -0.00014973596 -0.013909559 -0.111999266 0.15647954 0.18208814 -0.019776458 0.13059229
-0.12965487 -0.25196654 0.037720297 0.07970036 0.12150679 -0.10443355 -0.23029873 -0.17287016
-0.057743616 -0.1330294 -0.39720172 -0.18769611 -0.016373467 -0.051075246 0.09213191 -0.039856732
0.08960064 0.1548665 -0.0047133584 -0.2558999 -0.026624514 -0.13773999 -0.120588474 -0.1688993
-0.03555193 0.051778097 0.08548029 -0.22039865 -0.05893618 -0.044323873 0.0342571 -0.053015742
-0.08128968 0.1352285 0.120868616 -0.2580953 -0.19089048 -0.022800082 -0.3394842 0.12174605
-0.19290882 0.13564508 -0.052316006 -0.089798056 -0.0995651 -0.13294472 0.13779871 -0.24303263
-0.17887707 -0.024336265 0.08832553 -0.28124058 0.0981119 -0.2072669 0.2304129 -0.01310497
0.003957711 0.0672945 0.02966889 0.2185064 0.044029642 0.05799811 0.048622046 -0.12735349
-0.024155207 -0.11395404 -0.0085410075 0.13281451 -0.11371596 0.15363722 -0.3306261 0.019783437
-0.16038723 0.0055535687 0.11451833 0.01899067 0.12560086 0.040730614 -0.19239865 0.09529103
0.13981785 0.08175996 0.022082424 0.17352283 0.20400047 -0.1437218 -0.25555488 -0.13929294

model.6.bias f4 [8]
00000000: ed79 a43c 0c18 6f3d 09da 973d a1a2 15be
00000010: 309c 463d 7515 85bd f06e ca3e d96b c73e
0.02007767 0.058372542 0.07414634 -0.14612819 0.048488796 -0.06498233 0.39537764 0.3894947

model.8.weight f4 [8]
00000000: e186 c43f 69fe c33f e701 b93f 021b c93f
00000010: c5fc cc3f 56c4 d43f bf0c cc3f 264f bb3f
1.5353662 1.5312015 1.4453706 1.5711367 1.6014639 1.6622417 1.594139 1.4633529

model.8.bias f4 [8]
00000000: 7310 873e a652 72be 5615 b9bd ac4a 333c
00000010: 73b3 953e 8d01 babd 67a0 25be 4f53 adbd
0.26379737 -0.2366434 -0.09037273 0.010943096 0.2923847 -0.09082327 -0.1617447 -0.084631555

model.8.running_mean f4 [8]
00000000: 5584 463e ebb2 e43e bb16 a43e 35f4 683e
00000010: 7df8 9e3e 65db 8f3e e4cb 083f 03a3 233f
0.19386418 0.44667754 0.32048592 0.22749408 0.31048957 0.28097072 0.5343611 0.6392061

model.8.running_var f4 [8]
00000000: c96b 973d 38fe 303f fba8 323e e205 b53d
00000010: 532e e03d a2bb 0b3e b814 a13e 0d79 9c3e
0.07393605 0.6913791 0.17447273 0.08839013 0.10946336 0.13645795 0.3146112 0.30561104

model.9.weight f4 [4, 8]
00000000: e952 05bf 0147 4a3f 9d7e 2a3f 9067 3bbf
00000010: 5b6e 00bf efe2 98be e230 2a3f a64b 3b3f
00000020: b30f 19bf 334b 963c 0a58 a2be e410 29be
00000030: 3603 f7be 96af 483f be19 6ebe 91ea 1cbf
00000040: f803 d7be af53 07bf 7c49 153c 2633 153f
00000050: 8c43 cd3e 2e03 48bf 07da 93bd 0041 35be
00000060: 2bda 4f3f 68cd 9abe 199b 25bd 3c94 24bf
00000070: b9ae 2d3f 1952 163e 9702 9cbd 6c18 36be
-0.52079636 0.79014593 0.66599447 -0.732049 -0.5016839 -0.29860637 0.6648084 0.73162305
-0.5978958 0.018346405 -0.31707793 -0.1651035 -0.48244637 0.7839292 -0.23252007 -0.6129542
-0.41995215 -0.52862066 0.009111758 0.5828117 0.40090597 -0.7812985 -0.0721932 -0.17700577
0.8119227 -0.30234838 -0.040431116 -0.6428869 0.6784473 0.14679755 -0.076176815 -0.17782754

model.9.bias f4 [4]
00000000: b65e 0c3e 3e98 7bbd 0a3c 5b3d bf9a f4bc
0.13708004 -0.061424486 0.053524055 -0.029858945
